<?xml version="1.0" ?>
<net name="PVANet + R-FCN" version="10">
	<layers>
		<layer id="0" name="data" type="Parameter" version="opset1">
			<data element_type="f16" shape="1,3,544,992"/>
			<output>
				<port id="0" precision="FP16">
					<dim>1</dim>
					<dim>3</dim>
					<dim>544</dim>
					<dim>992</dim>
				</port>
			</output>
		</layer>
		<layer id="1" name="data_add_/copy_const544_const" type="Const" version="opset1">
			<data element_type="f16" offset="0" shape="1,3,1,1" size="6"/>
			<output>
				<port id="1" precision="FP16">
					<dim>1</dim>
					<dim>3</dim>
					<dim>1</dim>
					<dim>1</dim>
				</port>
			</output>
		</layer>
		<layer id="2" name="Add_" type="Add" version="opset1">
			<input>
				<port id="0">
					<dim>1</dim>
					<dim>3</dim>
					<dim>544</dim>
					<dim>992</dim>
				</port>
				<port id="1">
					<dim>1</dim>
					<dim>3</dim>
					<dim>1</dim>
					<dim>1</dim>
				</port>
			</input>
			<output>
				<port id="2" precision="FP16">
					<dim>1</dim>
					<dim>3</dim>
					<dim>544</dim>
					<dim>992</dim>
				</port>
			</output>
		</layer>
		<layer id="3" name="21122116_const" type="Const" version="opset1">
			<data element_type="f16" offset="6" shape="" size="2"/>
			<output>
				<port id="1" precision="FP16"/>
			</output>
		</layer>
		<layer id="4" name="21132117_const" type="Const" version="opset1">
			<data element_type="f16" offset="8" shape="" size="2"/>
			<output>
				<port id="1" precision="FP16"/>
			</output>
		</layer>
		<layer id="5" name="21142118_const" type="Const" version="opset1">
			<data element_type="f16" offset="6" shape="" size="2"/>
			<output>
				<port id="1" precision="FP16"/>
			</output>
		</layer>
		<layer id="6" name="21152119_const" type="Const" version="opset1">
			<data element_type="f16" offset="8" shape="" size="2"/>
			<output>
				<port id="1" precision="FP16"/>
			</output>
		</layer>
		<layer id="7" name="conv1_1/conv/WithoutBiases/fq_input_0" type="FakeQuantize" version="opset1">
			<data levels="256"/>
			<input>
				<port id="0">
					<dim>1</dim>
					<dim>3</dim>
					<dim>544</dim>
					<dim>992</dim>
				</port>
				<port id="1"/>
				<port id="2"/>
				<port id="3"/>
				<port id="4"/>
			</input>
			<output>
				<port id="5" precision="FP16">
					<dim>1</dim>
					<dim>3</dim>
					<dim>544</dim>
					<dim>992</dim>
				</port>
			</output>
		</layer>
		<layer id="8" name="conv1_1/conv/WithoutBiases/fq_weights_1/Convert_to_float/Cast_09956_const" type="Const" version="opset1">
			<data element_type="u8" offset="10" shape="16,3,7,7" size="2352"/>
			<output>
				<port id="1" precision="U8">
					<dim>16</dim>
					<dim>3</dim>
					<dim>7</dim>
					<dim>7</dim>
				</port>
			</output>
		</layer>
		<layer id="9" name="conv1_1/conv/WithoutBiases/fq_weights_1/Convert_to_float" type="Convert" version="opset1">
			<data destination_type="f16"/>
			<input>
				<port id="0">
					<dim>16</dim>
					<dim>3</dim>
					<dim>7</dim>
					<dim>7</dim>
				</port>
			</input>
			<output>
				<port id="1" precision="FP16">
					<dim>16</dim>
					<dim>3</dim>
					<dim>7</dim>
					<dim>7</dim>
				</port>
			</output>
		</layer>
		<layer id="10" name="conv1_1/conv/WithoutBiases/fq_weights_1/Copy/out_low8331_const" type="Const" version="opset1">
			<data element_type="f16" offset="2362" shape="1" size="2"/>
			<output>
				<port id="1" precision="FP16">
					<dim>1</dim>
				</port>
			</output>
		</layer>
		<layer id="11" name="conv1_1/conv/WithoutBiases/fq_weights_1/Copy/out_high8332_const" type="Const" version="opset1">
			<data element_type="f16" offset="2364" shape="1" size="2"/>
			<output>
				<port id="1" precision="FP16">
					<dim>1</dim>
				</port>
			</output>
		</layer>
		<layer id="12" name="21242128_const" type="Const" version="opset1">
			<data element_type="f16" offset="2366" shape="16,1,1,1" size="32"/>
			<output>
				<port id="1" precision="FP16">
					<dim>16</dim>
					<dim>1</dim>
					<dim>1</dim>
					<dim>1</dim>
				</port>
			</output>
		</layer>
		<layer id="13" name="21252129_const" type="Const" version="opset1">
			<data element_type="f16" offset="2398" shape="16,1,1,1" size="32"/>
			<output>
				<port id="1" precision="FP16">
					<dim>16</dim>
					<dim>1</dim>
					<dim>1</dim>
					<dim>1</dim>
				</port>
			</output>
		</layer>
		<layer id="14" name="conv1_1/conv/WithoutBiases/fq_weights_1" type="FakeQuantize" version="opset1">
			<data levels="255"/>
			<input>
				<port id="0">
					<dim>16</dim>
					<dim>3</dim>
					<dim>7</dim>
					<dim>7</dim>
				</port>
				<port id="1">
					<dim>1</dim>
				</port>
				<port id="2">
					<dim>1</dim>
				</port>
				<port id="3">
					<dim>16</dim>
					<dim>1</dim>
					<dim>1</dim>
					<dim>1</dim>
				</port>
				<port id="4">
					<dim>16</dim>
					<dim>1</dim>
					<dim>1</dim>
					<dim>1</dim>
				</port>
			</input>
			<output>
				<port id="5" precision="FP16">
					<dim>16</dim>
					<dim>3</dim>
					<dim>7</dim>
					<dim>7</dim>
				</port>
			</output>
		</layer>
		<layer id="15" name="conv1_1/conv/WithoutBiases" type="Convolution" version="opset1">
			<data dilations="1,1" output_padding="0,0" pads_begin="3,3" pads_end="3,3" strides="2,2"/>
			<input>
				<port id="0">
					<dim>1</dim>
					<dim>3</dim>
					<dim>544</dim>
					<dim>992</dim>
				</port>
				<port id="1">
					<dim>16</dim>
					<dim>3</dim>
					<dim>7</dim>
					<dim>7</dim>
				</port>
			</input>
			<output>
				<port id="2" precision="FP16">
					<dim>1</dim>
					<dim>16</dim>
					<dim>272</dim>
					<dim>496</dim>
				</port>
			</output>
		</layer>
		<layer id="16" name="conv1_1/conv/Dims4836/copy_const548_const" type="Const" version="opset1">
			<data element_type="f16" offset="2430" shape="1,16,1,1" size="32"/>
			<output>
				<port id="1" precision="FP16">
					<dim>1</dim>
					<dim>16</dim>
					<dim>1</dim>
					<dim>1</dim>
				</port>
			</output>
		</layer>
		<layer id="17" name="conv1_1/conv" type="Add" version="opset1">
			<input>
				<port id="0">
					<dim>1</dim>
					<dim>16</dim>
					<dim>272</dim>
					<dim>496</dim>
				</port>
				<port id="1">
					<dim>1</dim>
					<dim>16</dim>
					<dim>1</dim>
					<dim>1</dim>
				</port>
			</input>
			<output>
				<port id="2" precision="FP16">
					<dim>1</dim>
					<dim>16</dim>
					<dim>272</dim>
					<dim>496</dim>
				</port>
			</output>
		</layer>
		<layer id="18" name="50715075_const" type="Const" version="opset1">
			<data element_type="f16" offset="2462" shape="" size="2"/>
			<output>
				<port id="1" precision="FP16"/>
			</output>
		</layer>
		<layer id="19" name="50725076_const" type="Const" version="opset1">
			<data element_type="f16" offset="2464" shape="" size="2"/>
			<output>
				<port id="1" precision="FP16"/>
			</output>
		</layer>
		<layer id="20" name="50735077_const" type="Const" version="opset1">
			<data element_type="f16" offset="2462" shape="" size="2"/>
			<output>
				<port id="1" precision="FP16"/>
			</output>
		</layer>
		<layer id="21" name="50745078_const" type="Const" version="opset1">
			<data element_type="f16" offset="2464" shape="" size="2"/>
			<output>
				<port id="1" precision="FP16"/>
			</output>
		</layer>
		<layer id="22" name="conv1_1/concat/fq_input_0" type="FakeQuantize" version="opset1">
			<data levels="256"/>
			<input>
				<port id="0">
					<dim>1</dim>
					<dim>16</dim>
					<dim>272</dim>
					<dim>496</dim>
				</port>
				<port id="1"/>
				<port id="2"/>
				<port id="3"/>
				<port id="4"/>
			</input>
			<output>
				<port id="5" precision="FP16">
					<dim>1</dim>
					<dim>16</dim>
					<dim>272</dim>
					<dim>496</dim>
				</port>
			</output>
		</layer>
		<layer id="23" name="conv1_1/neg/mul_/Negate" type="Negative" version="opset1">
			<input>
				<port id="0">
					<dim>1</dim>
					<dim>16</dim>
					<dim>272</dim>
					<dim>496</dim>
				</port>
			</input>
			<output>
				<port id="1" precision="FP16">
					<dim>1</dim>
					<dim>16</dim>
					<dim>272</dim>
					<dim>496</dim>
				</port>
			</output>
		</layer>
		<layer id="24" name="50815085_const" type="Const" version="opset1">
			<data element_type="f16" offset="2462" shape="" size="2"/>
			<output>
				<port id="1" precision="FP16"/>
			</output>
		</layer>
		<layer id="25" name="50825086_const" type="Const" version="opset1">
			<data element_type="f16" offset="2464" shape="" size="2"/>
			<output>
				<port id="1" precision="FP16"/>
			</output>
		</layer>
		<layer id="26" name="50835087_const" type="Const" version="opset1">
			<data element_type="f16" offset="2462" shape="" size="2"/>
			<output>
				<port id="1" precision="FP16"/>
			</output>
		</layer>
		<layer id="27" name="50845088_const" type="Const" version="opset1">
			<data element_type="f16" offset="2464" shape="" size="2"/>
			<output>
				<port id="1" precision="FP16"/>
			</output>
		</layer>
		<layer id="28" name="conv1_1/concat/fq_input_1" type="FakeQuantize" version="opset1">
			<data levels="256"/>
			<input>
				<port id="0">
					<dim>1</dim>
					<dim>16</dim>
					<dim>272</dim>
					<dim>496</dim>
				</port>
				<port id="1"/>
				<port id="2"/>
				<port id="3"/>
				<port id="4"/>
			</input>
			<output>
				<port id="5" precision="FP16">
					<dim>1</dim>
					<dim>16</dim>
					<dim>272</dim>
					<dim>496</dim>
				</port>
			</output>
		</layer>
		<layer id="29" name="conv1_1/concat" type="Concat" version="opset1">
			<data axis="1"/>
			<input>
				<port id="0">
					<dim>1</dim>
					<dim>16</dim>
					<dim>272</dim>
					<dim>496</dim>
				</port>
				<port id="1">
					<dim>1</dim>
					<dim>16</dim>
					<dim>272</dim>
					<dim>496</dim>
				</port>
			</input>
			<output>
				<port id="2" precision="FP16">
					<dim>1</dim>
					<dim>32</dim>
					<dim>272</dim>
					<dim>496</dim>
				</port>
			</output>
		</layer>
		<layer id="30" name="381/Output_0/Data_/copy_const552_const" type="Const" version="opset1">
			<data element_type="f16" offset="2466" shape="1,32,1,1" size="64"/>
			<output>
				<port id="1" precision="FP16">
					<dim>1</dim>
					<dim>32</dim>
					<dim>1</dim>
					<dim>1</dim>
				</port>
			</output>
		</layer>
		<layer id="31" name="conv1_1/scale/Mul_" type="Multiply" version="opset1">
			<input>
				<port id="0">
					<dim>1</dim>
					<dim>32</dim>
					<dim>272</dim>
					<dim>496</dim>
				</port>
				<port id="1">
					<dim>1</dim>
					<dim>32</dim>
					<dim>1</dim>
					<dim>1</dim>
				</port>
			</input>
			<output>
				<port id="2" precision="FP16">
					<dim>1</dim>
					<dim>32</dim>
					<dim>272</dim>
					<dim>496</dim>
				</port>
			</output>
		</layer>
		<layer id="32" name="382/Output_0/Data_/copy_const554_const" type="Const" version="opset1">
			<data element_type="f16" offset="2530" shape="1,32,1,1" size="64"/>
			<output>
				<port id="1" precision="FP16">
					<dim>1</dim>
					<dim>32</dim>
					<dim>1</dim>
					<dim>1</dim>
				</port>
			</output>
		</layer>
		<layer id="33" name="conv1_1/scale/Add_" type="Add" version="opset1">
			<input>
				<port id="0">
					<dim>1</dim>
					<dim>32</dim>
					<dim>272</dim>
					<dim>496</dim>
				</port>
				<port id="1">
					<dim>1</dim>
					<dim>32</dim>
					<dim>1</dim>
					<dim>1</dim>
				</port>
			</input>
			<output>
				<port id="2" precision="FP16">
					<dim>1</dim>
					<dim>32</dim>
					<dim>272</dim>
					<dim>496</dim>
				</port>
			</output>
		</layer>
		<layer id="34" name="conv1_1/relu" type="ReLU" version="opset1">
			<input>
				<port id="0">
					<dim>1</dim>
					<dim>32</dim>
					<dim>272</dim>
					<dim>496</dim>
				</port>
			</input>
			<output>
				<port id="1" precision="FP16">
					<dim>1</dim>
					<dim>32</dim>
					<dim>272</dim>
					<dim>496</dim>
				</port>
			</output>
		</layer>
		<layer id="35" name="50915095_const" type="Const" version="opset1">
			<data element_type="f16" offset="2594" shape="" size="2"/>
			<output>
				<port id="1" precision="FP16"/>
			</output>
		</layer>
		<layer id="36" name="50925096_const" type="Const" version="opset1">
			<data element_type="f16" offset="2596" shape="" size="2"/>
			<output>
				<port id="1" precision="FP16"/>
			</output>
		</layer>
		<layer id="37" name="50935097_const" type="Const" version="opset1">
			<data element_type="f16" offset="2594" shape="" size="2"/>
			<output>
				<port id="1" precision="FP16"/>
			</output>
		</layer>
		<layer id="38" name="50945098_const" type="Const" version="opset1">
			<data element_type="f16" offset="2596" shape="" size="2"/>
			<output>
				<port id="1" precision="FP16"/>
			</output>
		</layer>
		<layer id="39" name="pool1/fq_input_0" type="FakeQuantize" version="opset1">
			<data levels="256"/>
			<input>
				<port id="0">
					<dim>1</dim>
					<dim>32</dim>
					<dim>272</dim>
					<dim>496</dim>
				</port>
				<port id="1"/>
				<port id="2"/>
				<port id="3"/>
				<port id="4"/>
			</input>
			<output>
				<port id="5" precision="FP16">
					<dim>1</dim>
					<dim>32</dim>
					<dim>272</dim>
					<dim>496</dim>
				</port>
			</output>
		</layer>
		<layer id="40" name="pool1" type="MaxPool" version="opset1">
			<data kernel="3,3" pads_begin="0,0" pads_end="0,0" rounding_type="ceil" strides="2,2"/>
			<input>
				<port id="0">
					<dim>1</dim>
					<dim>32</dim>
					<dim>272</dim>
					<dim>496</dim>
				</port>
			</input>
			<output>
				<port id="1" precision="FP16">
					<dim>1</dim>
					<dim>32</dim>
					<dim>136</dim>
					<dim>248</dim>
				</port>
			</output>
		</layer>
		<layer id="41" name="conv2_1/1/conv/WithoutBiases/fq_weights_1/Convert_to_float/Cast_09954_const" type="Const" version="opset1">
			<data element_type="u8" offset="2598" shape="24,32,1,1" size="768"/>
			<output>
				<port id="1" precision="U8">
					<dim>24</dim>
					<dim>32</dim>
					<dim>1</dim>
					<dim>1</dim>
				</port>
			</output>
		</layer>
		<layer id="42" name="conv2_1/1/conv/WithoutBiases/fq_weights_1/Convert_to_float" type="Convert" version="opset1">
			<data destination_type="f16"/>
			<input>
				<port id="0">
					<dim>24</dim>
					<dim>32</dim>
					<dim>1</dim>
					<dim>1</dim>
				</port>
			</input>
			<output>
				<port id="1" precision="FP16">
					<dim>24</dim>
					<dim>32</dim>
					<dim>1</dim>
					<dim>1</dim>
				</port>
			</output>
		</layer>
		<layer id="43" name="conv2_1/1/conv/WithoutBiases/fq_weights_1/Copy/out_low8187_const" type="Const" version="opset1">
			<data element_type="f16" offset="3366" shape="1" size="2"/>
			<output>
				<port id="1" precision="FP16">
					<dim>1</dim>
				</port>
			</output>
		</layer>
		<layer id="44" name="conv2_1/1/conv/WithoutBiases/fq_weights_1/Copy/out_high8188_const" type="Const" version="opset1">
			<data element_type="f16" offset="2364" shape="1" size="2"/>
			<output>
				<port id="1" precision="FP16">
					<dim>1</dim>
				</port>
			</output>
		</layer>
		<layer id="45" name="32143218_const" type="Const" version="opset1">
			<data element_type="f16" offset="3368" shape="24,1,1,1" size="48"/>
			<output>
				<port id="1" precision="FP16">
					<dim>24</dim>
					<dim>1</dim>
					<dim>1</dim>
					<dim>1</dim>
				</port>
			</output>
		</layer>
		<layer id="46" name="32153219_const" type="Const" version="opset1">
			<data element_type="f16" offset="3416" shape="24,1,1,1" size="48"/>
			<output>
				<port id="1" precision="FP16">
					<dim>24</dim>
					<dim>1</dim>
					<dim>1</dim>
					<dim>1</dim>
				</port>
			</output>
		</layer>
		<layer id="47" name="conv2_1/1/conv/WithoutBiases/fq_weights_1" type="FakeQuantize" version="opset1">
			<data levels="255"/>
			<input>
				<port id="0">
					<dim>24</dim>
					<dim>32</dim>
					<dim>1</dim>
					<dim>1</dim>
				</port>
				<port id="1">
					<dim>1</dim>
				</port>
				<port id="2">
					<dim>1</dim>
				</port>
				<port id="3">
					<dim>24</dim>
					<dim>1</dim>
					<dim>1</dim>
					<dim>1</dim>
				</port>
				<port id="4">
					<dim>24</dim>
					<dim>1</dim>
					<dim>1</dim>
					<dim>1</dim>
				</port>
			</input>
			<output>
				<port id="5" precision="FP16">
					<dim>24</dim>
					<dim>32</dim>
					<dim>1</dim>
					<dim>1</dim>
				</port>
			</output>
		</layer>
		<layer id="48" name="conv2_1/1/conv/WithoutBiases" type="Convolution" version="opset1">
			<data dilations="1,1" output_padding="0,0" pads_begin="0,0" pads_end="0,0" strides="1,1"/>
			<input>
				<port id="0">
					<dim>1</dim>
					<dim>32</dim>
					<dim>136</dim>
					<dim>248</dim>
				</port>
				<port id="1">
					<dim>24</dim>
					<dim>32</dim>
					<dim>1</dim>
					<dim>1</dim>
				</port>
			</input>
			<output>
				<port id="2" precision="FP16">
					<dim>1</dim>
					<dim>24</dim>
					<dim>136</dim>
					<dim>248</dim>
				</port>
			</output>
		</layer>
		<layer id="49" name="conv2_1/1/conv/Dims4542/copy_const560_const" type="Const" version="opset1">
			<data element_type="f16" offset="3464" shape="1,24,1,1" size="48"/>
			<output>
				<port id="1" precision="FP16">
					<dim>1</dim>
					<dim>24</dim>
					<dim>1</dim>
					<dim>1</dim>
				</port>
			</output>
		</layer>
		<layer id="50" name="conv2_1/1/conv" type="Add" version="opset1">
			<input>
				<port id="0">
					<dim>1</dim>
					<dim>24</dim>
					<dim>136</dim>
					<dim>248</dim>
				</port>
				<port id="1">
					<dim>1</dim>
					<dim>24</dim>
					<dim>1</dim>
					<dim>1</dim>
				</port>
			</input>
			<output>
				<port id="2" precision="FP16">
					<dim>1</dim>
					<dim>24</dim>
					<dim>136</dim>
					<dim>248</dim>
				</port>
			</output>
		</layer>
		<layer id="51" name="conv2_1/1/relu" type="ReLU" version="opset1">
			<input>
				<port id="0">
					<dim>1</dim>
					<dim>24</dim>
					<dim>136</dim>
					<dim>248</dim>
				</port>
			</input>
			<output>
				<port id="1" precision="FP16">
					<dim>1</dim>
					<dim>24</dim>
					<dim>136</dim>
					<dim>248</dim>
				</port>
			</output>
		</layer>
		<layer id="52" name="28922896_const" type="Const" version="opset1">
			<data element_type="f16" offset="3512" shape="" size="2"/>
			<output>
				<port id="1" precision="FP16"/>
			</output>
		</layer>
		<layer id="53" name="28932897_const" type="Const" version="opset1">
			<data element_type="f16" offset="3514" shape="" size="2"/>
			<output>
				<port id="1" precision="FP16"/>
			</output>
		</layer>
		<layer id="54" name="28942898_const" type="Const" version="opset1">
			<data element_type="f16" offset="3512" shape="" size="2"/>
			<output>
				<port id="1" precision="FP16"/>
			</output>
		</layer>
		<layer id="55" name="28952899_const" type="Const" version="opset1">
			<data element_type="f16" offset="3514" shape="" size="2"/>
			<output>
				<port id="1" precision="FP16"/>
			</output>
		</layer>
		<layer id="56" name="conv2_1/2/conv/WithoutBiases/fq_input_0" type="FakeQuantize" version="opset1">
			<data levels="256"/>
			<input>
				<port id="0">
					<dim>1</dim>
					<dim>24</dim>
					<dim>136</dim>
					<dim>248</dim>
				</port>
				<port id="1"/>
				<port id="2"/>
				<port id="3"/>
				<port id="4"/>
			</input>
			<output>
				<port id="5" precision="FP16">
					<dim>1</dim>
					<dim>24</dim>
					<dim>136</dim>
					<dim>248</dim>
				</port>
			</output>
		</layer>
		<layer id="57" name="conv2_1/2/conv/WithoutBiases/fq_weights_1/Convert_to_float/Cast_09794_const" type="Const" version="opset1">
			<data element_type="u8" offset="3516" shape="24,24,3,3" size="5184"/>
			<output>
				<port id="1" precision="U8">
					<dim>24</dim>
					<dim>24</dim>
					<dim>3</dim>
					<dim>3</dim>
				</port>
			</output>
		</layer>
		<layer id="58" name="conv2_1/2/conv/WithoutBiases/fq_weights_1/Convert_to_float" type="Convert" version="opset1">
			<data destination_type="f16"/>
			<input>
				<port id="0">
					<dim>24</dim>
					<dim>24</dim>
					<dim>3</dim>
					<dim>3</dim>
				</port>
			</input>
			<output>
				<port id="1" precision="FP16">
					<dim>24</dim>
					<dim>24</dim>
					<dim>3</dim>
					<dim>3</dim>
				</port>
			</output>
		</layer>
		<layer id="59" name="conv2_1/2/conv/WithoutBiases/fq_weights_1/Copy/out_low8259_const" type="Const" version="opset1">
			<data element_type="f16" offset="8700" shape="1" size="2"/>
			<output>
				<port id="1" precision="FP16">
					<dim>1</dim>
				</port>
			</output>
		</layer>
		<layer id="60" name="conv2_1/2/conv/WithoutBiases/fq_weights_1/Copy/out_high8260_const" type="Const" version="opset1">
			<data element_type="f16" offset="2364" shape="1" size="2"/>
			<output>
				<port id="1" precision="FP16">
					<dim>1</dim>
				</port>
			</output>
		</layer>
		<layer id="61" name="29042908_const" type="Const" version="opset1">
			<data element_type="f16" offset="8702" shape="24,1,1,1" size="48"/>
			<output>
				<port id="1" precision="FP16">
					<dim>24</dim>
					<dim>1</dim>
					<dim>1</dim>
					<dim>1</dim>
				</port>
			</output>
		</layer>
		<layer id="62" name="29052909_const" type="Const" version="opset1">
			<data element_type="f16" offset="8750" shape="24,1,1,1" size="48"/>
			<output>
				<port id="1" precision="FP16">
					<dim>24</dim>
					<dim>1</dim>
					<dim>1</dim>
					<dim>1</dim>
				</port>
			</output>
		</layer>
		<layer id="63" name="conv2_1/2/conv/WithoutBiases/fq_weights_1" type="FakeQuantize" version="opset1">
			<data levels="255"/>
			<input>
				<port id="0">
					<dim>24</dim>
					<dim>24</dim>
					<dim>3</dim>
					<dim>3</dim>
				</port>
				<port id="1">
					<dim>1</dim>
				</port>
				<port id="2">
					<dim>1</dim>
				</port>
				<port id="3">
					<dim>24</dim>
					<dim>1</dim>
					<dim>1</dim>
					<dim>1</dim>
				</port>
				<port id="4">
					<dim>24</dim>
					<dim>1</dim>
					<dim>1</dim>
					<dim>1</dim>
				</port>
			</input>
			<output>
				<port id="5" precision="FP16">
					<dim>24</dim>
					<dim>24</dim>
					<dim>3</dim>
					<dim>3</dim>
				</port>
			</output>
		</layer>
		<layer id="64" name="conv2_1/2/conv/WithoutBiases" type="Convolution" version="opset1">
			<data dilations="1,1" output_padding="0,0" pads_begin="1,1" pads_end="1,1" strides="1,1"/>
			<input>
				<port id="0">
					<dim>1</dim>
					<dim>24</dim>
					<dim>136</dim>
					<dim>248</dim>
				</port>
				<port id="1">
					<dim>24</dim>
					<dim>24</dim>
					<dim>3</dim>
					<dim>3</dim>
				</port>
			</input>
			<output>
				<port id="2" precision="FP16">
					<dim>1</dim>
					<dim>24</dim>
					<dim>136</dim>
					<dim>248</dim>
				</port>
			</output>
		</layer>
		<layer id="65" name="conv2_1/2/conv/Dims4302/copy_const565_const" type="Const" version="opset1">
			<data element_type="f16" offset="8798" shape="1,24,1,1" size="48"/>
			<output>
				<port id="1" precision="FP16">
					<dim>1</dim>
					<dim>24</dim>
					<dim>1</dim>
					<dim>1</dim>
				</port>
			</output>
		</layer>
		<layer id="66" name="conv2_1/2/conv" type="Add" version="opset1">
			<input>
				<port id="0">
					<dim>1</dim>
					<dim>24</dim>
					<dim>136</dim>
					<dim>248</dim>
				</port>
				<port id="1">
					<dim>1</dim>
					<dim>24</dim>
					<dim>1</dim>
					<dim>1</dim>
				</port>
			</input>
			<output>
				<port id="2" precision="FP16">
					<dim>1</dim>
					<dim>24</dim>
					<dim>136</dim>
					<dim>248</dim>
				</port>
			</output>
		</layer>
		<layer id="67" name="51015105_const" type="Const" version="opset1">
			<data element_type="f16" offset="8846" shape="" size="2"/>
			<output>
				<port id="1" precision="FP16"/>
			</output>
		</layer>
		<layer id="68" name="51025106_const" type="Const" version="opset1">
			<data element_type="f16" offset="8848" shape="" size="2"/>
			<output>
				<port id="1" precision="FP16"/>
			</output>
		</layer>
		<layer id="69" name="51035107_const" type="Const" version="opset1">
			<data element_type="f16" offset="8846" shape="" size="2"/>
			<output>
				<port id="1" precision="FP16"/>
			</output>
		</layer>
		<layer id="70" name="51045108_const" type="Const" version="opset1">
			<data element_type="f16" offset="8848" shape="" size="2"/>
			<output>
				<port id="1" precision="FP16"/>
			</output>
		</layer>
		<layer id="71" name="conv2_1/2/concat/fq_input_0" type="FakeQuantize" version="opset1">
			<data levels="256"/>
			<input>
				<port id="0">
					<dim>1</dim>
					<dim>24</dim>
					<dim>136</dim>
					<dim>248</dim>
				</port>
				<port id="1"/>
				<port id="2"/>
				<port id="3"/>
				<port id="4"/>
			</input>
			<output>
				<port id="5" precision="FP16">
					<dim>1</dim>
					<dim>24</dim>
					<dim>136</dim>
					<dim>248</dim>
				</port>
			</output>
		</layer>
		<layer id="72" name="conv2_1/2/neg/mul_/Negate" type="Negative" version="opset1">
			<input>
				<port id="0">
					<dim>1</dim>
					<dim>24</dim>
					<dim>136</dim>
					<dim>248</dim>
				</port>
			</input>
			<output>
				<port id="1" precision="FP16">
					<dim>1</dim>
					<dim>24</dim>
					<dim>136</dim>
					<dim>248</dim>
				</port>
			</output>
		</layer>
		<layer id="73" name="51115115_const" type="Const" version="opset1">
			<data element_type="f16" offset="8846" shape="" size="2"/>
			<output>
				<port id="1" precision="FP16"/>
			</output>
		</layer>
		<layer id="74" name="51125116_const" type="Const" version="opset1">
			<data element_type="f16" offset="8848" shape="" size="2"/>
			<output>
				<port id="1" precision="FP16"/>
			</output>
		</layer>
		<layer id="75" name="51135117_const" type="Const" version="opset1">
			<data element_type="f16" offset="8846" shape="" size="2"/>
			<output>
				<port id="1" precision="FP16"/>
			</output>
		</layer>
		<layer id="76" name="51145118_const" type="Const" version="opset1">
			<data element_type="f16" offset="8848" shape="" size="2"/>
			<output>
				<port id="1" precision="FP16"/>
			</output>
		</layer>
		<layer id="77" name="conv2_1/2/concat/fq_input_1" type="FakeQuantize" version="opset1">
			<data levels="256"/>
			<input>
				<port id="0">
					<dim>1</dim>
					<dim>24</dim>
					<dim>136</dim>
					<dim>248</dim>
				</port>
				<port id="1"/>
				<port id="2"/>
				<port id="3"/>
				<port id="4"/>
			</input>
			<output>
				<port id="5" precision="FP16">
					<dim>1</dim>
					<dim>24</dim>
					<dim>136</dim>
					<dim>248</dim>
				</port>
			</output>
		</layer>
		<layer id="78" name="conv2_1/2/concat" type="Concat" version="opset1">
			<data axis="1"/>
			<input>
				<port id="0">
					<dim>1</dim>
					<dim>24</dim>
					<dim>136</dim>
					<dim>248</dim>
				</port>
				<port id="1">
					<dim>1</dim>
					<dim>24</dim>
					<dim>136</dim>
					<dim>248</dim>
				</port>
			</input>
			<output>
				<port id="2" precision="FP16">
					<dim>1</dim>
					<dim>48</dim>
					<dim>136</dim>
					<dim>248</dim>
				</port>
			</output>
		</layer>
		<layer id="79" name="333/Output_0/Data_/copy_const569_const" type="Const" version="opset1">
			<data element_type="f16" offset="8850" shape="1,48,1,1" size="96"/>
			<output>
				<port id="1" precision="FP16">
					<dim>1</dim>
					<dim>48</dim>
					<dim>1</dim>
					<dim>1</dim>
				</port>
			</output>
		</layer>
		<layer id="80" name="conv2_1/2/scale/Mul_" type="Multiply" version="opset1">
			<input>
				<port id="0">
					<dim>1</dim>
					<dim>48</dim>
					<dim>136</dim>
					<dim>248</dim>
				</port>
				<port id="1">
					<dim>1</dim>
					<dim>48</dim>
					<dim>1</dim>
					<dim>1</dim>
				</port>
			</input>
			<output>
				<port id="2" precision="FP16">
					<dim>1</dim>
					<dim>48</dim>
					<dim>136</dim>
					<dim>248</dim>
				</port>
			</output>
		</layer>
		<layer id="81" name="334/Output_0/Data_/copy_const571_const" type="Const" version="opset1">
			<data element_type="f16" offset="8946" shape="1,48,1,1" size="96"/>
			<output>
				<port id="1" precision="FP16">
					<dim>1</dim>
					<dim>48</dim>
					<dim>1</dim>
					<dim>1</dim>
				</port>
			</output>
		</layer>
		<layer id="82" name="conv2_1/2/scale/Add_" type="Add" version="opset1">
			<input>
				<port id="0">
					<dim>1</dim>
					<dim>48</dim>
					<dim>136</dim>
					<dim>248</dim>
				</port>
				<port id="1">
					<dim>1</dim>
					<dim>48</dim>
					<dim>1</dim>
					<dim>1</dim>
				</port>
			</input>
			<output>
				<port id="2" precision="FP16">
					<dim>1</dim>
					<dim>48</dim>
					<dim>136</dim>
					<dim>248</dim>
				</port>
			</output>
		</layer>
		<layer id="83" name="conv2_1/2/relu" type="ReLU" version="opset1">
			<input>
				<port id="0">
					<dim>1</dim>
					<dim>48</dim>
					<dim>136</dim>
					<dim>248</dim>
				</port>
			</input>
			<output>
				<port id="1" precision="FP16">
					<dim>1</dim>
					<dim>48</dim>
					<dim>136</dim>
					<dim>248</dim>
				</port>
			</output>
		</layer>
		<layer id="84" name="28322836_const" type="Const" version="opset1">
			<data element_type="f16" offset="9042" shape="" size="2"/>
			<output>
				<port id="1" precision="FP16"/>
			</output>
		</layer>
		<layer id="85" name="28332837_const" type="Const" version="opset1">
			<data element_type="f16" offset="9044" shape="" size="2"/>
			<output>
				<port id="1" precision="FP16"/>
			</output>
		</layer>
		<layer id="86" name="28342838_const" type="Const" version="opset1">
			<data element_type="f16" offset="9042" shape="" size="2"/>
			<output>
				<port id="1" precision="FP16"/>
			</output>
		</layer>
		<layer id="87" name="28352839_const" type="Const" version="opset1">
			<data element_type="f16" offset="9044" shape="" size="2"/>
			<output>
				<port id="1" precision="FP16"/>
			</output>
		</layer>
		<layer id="88" name="conv2_1/3/conv/WithoutBiases/fq_input_0" type="FakeQuantize" version="opset1">
			<data levels="256"/>
			<input>
				<port id="0">
					<dim>1</dim>
					<dim>48</dim>
					<dim>136</dim>
					<dim>248</dim>
				</port>
				<port id="1"/>
				<port id="2"/>
				<port id="3"/>
				<port id="4"/>
			</input>
			<output>
				<port id="5" precision="FP16">
					<dim>1</dim>
					<dim>48</dim>
					<dim>136</dim>
					<dim>248</dim>
				</port>
			</output>
		</layer>
		<layer id="89" name="conv2_1/3/conv/WithoutBiases/fq_weights_1/Convert_to_float/Cast_09830_const" type="Const" version="opset1">
			<data element_type="u8" offset="9046" shape="64,48,1,1" size="3072"/>
			<output>
				<port id="1" precision="U8">
					<dim>64</dim>
					<dim>48</dim>
					<dim>1</dim>
					<dim>1</dim>
				</port>
			</output>
		</layer>
		<layer id="90" name="conv2_1/3/conv/WithoutBiases/fq_weights_1/Convert_to_float" type="Convert" version="opset1">
			<data destination_type="f16"/>
			<input>
				<port id="0">
					<dim>64</dim>
					<dim>48</dim>
					<dim>1</dim>
					<dim>1</dim>
				</port>
			</input>
			<output>
				<port id="1" precision="FP16">
					<dim>64</dim>
					<dim>48</dim>
					<dim>1</dim>
					<dim>1</dim>
				</port>
			</output>
		</layer>
		<layer id="91" name="conv2_1/3/conv/WithoutBiases/fq_weights_1/Copy/out_low8035_const" type="Const" version="opset1">
			<data element_type="f16" offset="12118" shape="1" size="2"/>
			<output>
				<port id="1" precision="FP16">
					<dim>1</dim>
				</port>
			</output>
		</layer>
		<layer id="92" name="conv2_1/3/conv/WithoutBiases/fq_weights_1/Copy/out_high8036_const" type="Const" version="opset1">
			<data element_type="f16" offset="2364" shape="1" size="2"/>
			<output>
				<port id="1" precision="FP16">
					<dim>1</dim>
				</port>
			</output>
		</layer>
		<layer id="93" name="28442848_const" type="Const" version="opset1">
			<data element_type="f16" offset="12120" shape="64,1,1,1" size="128"/>
			<output>
				<port id="1" precision="FP16">
					<dim>64</dim>
					<dim>1</dim>
					<dim>1</dim>
					<dim>1</dim>
				</port>
			</output>
		</layer>
		<layer id="94" name="28452849_const" type="Const" version="opset1">
			<data element_type="f16" offset="12248" shape="64,1,1,1" size="128"/>
			<output>
				<port id="1" precision="FP16">
					<dim>64</dim>
					<dim>1</dim>
					<dim>1</dim>
					<dim>1</dim>
				</port>
			</output>
		</layer>
		<layer id="95" name="conv2_1/3/conv/WithoutBiases/fq_weights_1" type="FakeQuantize" version="opset1">
			<data levels="255"/>
			<input>
				<port id="0">
					<dim>64</dim>
					<dim>48</dim>
					<dim>1</dim>
					<dim>1</dim>
				</port>
				<port id="1">
					<dim>1</dim>
				</port>
				<port id="2">
					<dim>1</dim>
				</port>
				<port id="3">
					<dim>64</dim>
					<dim>1</dim>
					<dim>1</dim>
					<dim>1</dim>
				</port>
				<port id="4">
					<dim>64</dim>
					<dim>1</dim>
					<dim>1</dim>
					<dim>1</dim>
				</port>
			</input>
			<output>
				<port id="5" precision="FP16">
					<dim>64</dim>
					<dim>48</dim>
					<dim>1</dim>
					<dim>1</dim>
				</port>
			</output>
		</layer>
		<layer id="96" name="conv2_1/3/conv/WithoutBiases" type="Convolution" version="opset1">
			<data dilations="1,1" output_padding="0,0" pads_begin="0,0" pads_end="0,0" strides="1,1"/>
			<input>
				<port id="0">
					<dim>1</dim>
					<dim>48</dim>
					<dim>136</dim>
					<dim>248</dim>
				</port>
				<port id="1">
					<dim>64</dim>
					<dim>48</dim>
					<dim>1</dim>
					<dim>1</dim>
				</port>
			</input>
			<output>
				<port id="2" precision="FP16">
					<dim>1</dim>
					<dim>64</dim>
					<dim>136</dim>
					<dim>248</dim>
				</port>
			</output>
		</layer>
		<layer id="97" name="conv2_1/3/conv/Dims4806/copy_const576_const" type="Const" version="opset1">
			<data element_type="f16" offset="12376" shape="1,64,1,1" size="128"/>
			<output>
				<port id="1" precision="FP16">
					<dim>1</dim>
					<dim>64</dim>
					<dim>1</dim>
					<dim>1</dim>
				</port>
			</output>
		</layer>
		<layer id="98" name="conv2_1/3/conv" type="Add" version="opset1">
			<input>
				<port id="0">
					<dim>1</dim>
					<dim>64</dim>
					<dim>136</dim>
					<dim>248</dim>
				</port>
				<port id="1">
					<dim>1</dim>
					<dim>64</dim>
					<dim>1</dim>
					<dim>1</dim>
				</port>
			</input>
			<output>
				<port id="2" precision="FP16">
					<dim>1</dim>
					<dim>64</dim>
					<dim>136</dim>
					<dim>248</dim>
				</port>
			</output>
		</layer>
		<layer id="99" name="31623166_const" type="Const" version="opset1">
			<data element_type="f16" offset="12504" shape="" size="2"/>
			<output>
				<port id="1" precision="FP16"/>
			</output>
		</layer>
		<layer id="100" name="31633167_const" type="Const" version="opset1">
			<data element_type="f16" offset="12506" shape="" size="2"/>
			<output>
				<port id="1" precision="FP16"/>
			</output>
		</layer>
		<layer id="101" name="31643168_const" type="Const" version="opset1">
			<data element_type="f16" offset="12504" shape="" size="2"/>
			<output>
				<port id="1" precision="FP16"/>
			</output>
		</layer>
		<layer id="102" name="31653169_const" type="Const" version="opset1">
			<data element_type="f16" offset="12506" shape="" size="2"/>
			<output>
				<port id="1" precision="FP16"/>
			</output>
		</layer>
		<layer id="103" name="conv2_1/fq_input_0" type="FakeQuantize" version="opset1">
			<data levels="256"/>
			<input>
				<port id="0">
					<dim>1</dim>
					<dim>64</dim>
					<dim>136</dim>
					<dim>248</dim>
				</port>
				<port id="1"/>
				<port id="2"/>
				<port id="3"/>
				<port id="4"/>
			</input>
			<output>
				<port id="5" precision="FP16">
					<dim>1</dim>
					<dim>64</dim>
					<dim>136</dim>
					<dim>248</dim>
				</port>
			</output>
		</layer>
		<layer id="104" name="conv2_1/proj/WithoutBiases/fq_weights_1/Convert_to_float/Cast_09890_const" type="Const" version="opset1">
			<data element_type="u8" offset="12508" shape="64,32,1,1" size="2048"/>
			<output>
				<port id="1" precision="U8">
					<dim>64</dim>
					<dim>32</dim>
					<dim>1</dim>
					<dim>1</dim>
				</port>
			</output>
		</layer>
		<layer id="105" name="conv2_1/proj/WithoutBiases/fq_weights_1/Convert_to_float" type="Convert" version="opset1">
			<data destination_type="f16"/>
			<input>
				<port id="0">
					<dim>64</dim>
					<dim>32</dim>
					<dim>1</dim>
					<dim>1</dim>
				</port>
			</input>
			<output>
				<port id="1" precision="FP16">
					<dim>64</dim>
					<dim>32</dim>
					<dim>1</dim>
					<dim>1</dim>
				</port>
			</output>
		</layer>
		<layer id="106" name="conv2_1/proj/WithoutBiases/fq_weights_1/Copy/out_low8691_const" type="Const" version="opset1">
			<data element_type="f16" offset="12118" shape="1" size="2"/>
			<output>
				<port id="1" precision="FP16">
					<dim>1</dim>
				</port>
			</output>
		</layer>
		<layer id="107" name="conv2_1/proj/WithoutBiases/fq_weights_1/Copy/out_high8692_const" type="Const" version="opset1">
			<data element_type="f16" offset="2364" shape="1" size="2"/>
			<output>
				<port id="1" precision="FP16">
					<dim>1</dim>
				</port>
			</output>
		</layer>
		<layer id="108" name="27442748_const" type="Const" version="opset1">
			<data element_type="f16" offset="14556" shape="64,1,1,1" size="128"/>
			<output>
				<port id="1" precision="FP16">
					<dim>64</dim>
					<dim>1</dim>
					<dim>1</dim>
					<dim>1</dim>
				</port>
			</output>
		</layer>
		<layer id="109" name="27452749_const" type="Const" version="opset1">
			<data element_type="f16" offset="14684" shape="64,1,1,1" size="128"/>
			<output>
				<port id="1" precision="FP16">
					<dim>64</dim>
					<dim>1</dim>
					<dim>1</dim>
					<dim>1</dim>
				</port>
			</output>
		</layer>
		<layer id="110" name="conv2_1/proj/WithoutBiases/fq_weights_1" type="FakeQuantize" version="opset1">
			<data levels="255"/>
			<input>
				<port id="0">
					<dim>64</dim>
					<dim>32</dim>
					<dim>1</dim>
					<dim>1</dim>
				</port>
				<port id="1">
					<dim>1</dim>
				</port>
				<port id="2">
					<dim>1</dim>
				</port>
				<port id="3">
					<dim>64</dim>
					<dim>1</dim>
					<dim>1</dim>
					<dim>1</dim>
				</port>
				<port id="4">
					<dim>64</dim>
					<dim>1</dim>
					<dim>1</dim>
					<dim>1</dim>
				</port>
			</input>
			<output>
				<port id="5" precision="FP16">
					<dim>64</dim>
					<dim>32</dim>
					<dim>1</dim>
					<dim>1</dim>
				</port>
			</output>
		</layer>
		<layer id="111" name="conv2_1/proj/WithoutBiases" type="Convolution" version="opset1">
			<data dilations="1,1" output_padding="0,0" pads_begin="0,0" pads_end="0,0" strides="1,1"/>
			<input>
				<port id="0">
					<dim>1</dim>
					<dim>32</dim>
					<dim>136</dim>
					<dim>248</dim>
				</port>
				<port id="1">
					<dim>64</dim>
					<dim>32</dim>
					<dim>1</dim>
					<dim>1</dim>
				</port>
			</input>
			<output>
				<port id="2" precision="FP16">
					<dim>1</dim>
					<dim>64</dim>
					<dim>136</dim>
					<dim>248</dim>
				</port>
			</output>
		</layer>
		<layer id="112" name="conv2_1/proj/Dims4350/copy_const580_const" type="Const" version="opset1">
			<data element_type="f16" offset="14812" shape="1,64,1,1" size="128"/>
			<output>
				<port id="1" precision="FP16">
					<dim>1</dim>
					<dim>64</dim>
					<dim>1</dim>
					<dim>1</dim>
				</port>
			</output>
		</layer>
		<layer id="113" name="conv2_1/proj" type="Add" version="opset1">
			<input>
				<port id="0">
					<dim>1</dim>
					<dim>64</dim>
					<dim>136</dim>
					<dim>248</dim>
				</port>
				<port id="1">
					<dim>1</dim>
					<dim>64</dim>
					<dim>1</dim>
					<dim>1</dim>
				</port>
			</input>
			<output>
				<port id="2" precision="FP16">
					<dim>1</dim>
					<dim>64</dim>
					<dim>136</dim>
					<dim>248</dim>
				</port>
			</output>
		</layer>
		<layer id="114" name="31723176_const" type="Const" version="opset1">
			<data element_type="f16" offset="14940" shape="" size="2"/>
			<output>
				<port id="1" precision="FP16"/>
			</output>
		</layer>
		<layer id="115" name="31733177_const" type="Const" version="opset1">
			<data element_type="f16" offset="14942" shape="" size="2"/>
			<output>
				<port id="1" precision="FP16"/>
			</output>
		</layer>
		<layer id="116" name="31743178_const" type="Const" version="opset1">
			<data element_type="f16" offset="14940" shape="" size="2"/>
			<output>
				<port id="1" precision="FP16"/>
			</output>
		</layer>
		<layer id="117" name="31753179_const" type="Const" version="opset1">
			<data element_type="f16" offset="14942" shape="" size="2"/>
			<output>
				<port id="1" precision="FP16"/>
			</output>
		</layer>
		<layer id="118" name="conv2_1/fq_input_1" type="FakeQuantize" version="opset1">
			<data levels="256"/>
			<input>
				<port id="0">
					<dim>1</dim>
					<dim>64</dim>
					<dim>136</dim>
					<dim>248</dim>
				</port>
				<port id="1"/>
				<port id="2"/>
				<port id="3"/>
				<port id="4"/>
			</input>
			<output>
				<port id="5" precision="FP16">
					<dim>1</dim>
					<dim>64</dim>
					<dim>136</dim>
					<dim>248</dim>
				</port>
			</output>
		</layer>
		<layer id="119" name="conv2_1" type="Add" version="opset1">
			<input>
				<port id="0">
					<dim>1</dim>
					<dim>64</dim>
					<dim>136</dim>
					<dim>248</dim>
				</port>
				<port id="1">
					<dim>1</dim>
					<dim>64</dim>
					<dim>136</dim>
					<dim>248</dim>
				</port>
			</input>
			<output>
				<port id="2" precision="FP16">
					<dim>1</dim>
					<dim>64</dim>
					<dim>136</dim>
					<dim>248</dim>
				</port>
			</output>
		</layer>
		<layer id="120" name="37023706_const" type="Const" version="opset1">
			<data element_type="f16" offset="14944" shape="" size="2"/>
			<output>
				<port id="1" precision="FP16"/>
			</output>
		</layer>
		<layer id="121" name="37033707_const" type="Const" version="opset1">
			<data element_type="f16" offset="14946" shape="" size="2"/>
			<output>
				<port id="1" precision="FP16"/>
			</output>
		</layer>
		<layer id="122" name="37043708_const" type="Const" version="opset1">
			<data element_type="f16" offset="14944" shape="" size="2"/>
			<output>
				<port id="1" precision="FP16"/>
			</output>
		</layer>
		<layer id="123" name="37053709_const" type="Const" version="opset1">
			<data element_type="f16" offset="14946" shape="" size="2"/>
			<output>
				<port id="1" precision="FP16"/>
			</output>
		</layer>
		<layer id="124" name="conv2_2/1/conv/WithoutBiases/fq_input_0" type="FakeQuantize" version="opset1">
			<data levels="256"/>
			<input>
				<port id="0">
					<dim>1</dim>
					<dim>64</dim>
					<dim>136</dim>
					<dim>248</dim>
				</port>
				<port id="1"/>
				<port id="2"/>
				<port id="3"/>
				<port id="4"/>
			</input>
			<output>
				<port id="5" precision="FP16">
					<dim>1</dim>
					<dim>64</dim>
					<dim>136</dim>
					<dim>248</dim>
				</port>
			</output>
		</layer>
		<layer id="125" name="conv2_2/1/conv/WithoutBiases/fq_weights_1/Convert_to_float/Cast_09820_const" type="Const" version="opset1">
			<data element_type="u8" offset="14948" shape="24,64,1,1" size="1536"/>
			<output>
				<port id="1" precision="U8">
					<dim>24</dim>
					<dim>64</dim>
					<dim>1</dim>
					<dim>1</dim>
				</port>
			</output>
		</layer>
		<layer id="126" name="conv2_2/1/conv/WithoutBiases/fq_weights_1/Convert_to_float" type="Convert" version="opset1">
			<data destination_type="f16"/>
			<input>
				<port id="0">
					<dim>24</dim>
					<dim>64</dim>
					<dim>1</dim>
					<dim>1</dim>
				</port>
			</input>
			<output>
				<port id="1" precision="FP16">
					<dim>24</dim>
					<dim>64</dim>
					<dim>1</dim>
					<dim>1</dim>
				</port>
			</output>
		</layer>
		<layer id="127" name="conv2_2/1/conv/WithoutBiases/fq_weights_1/Copy/out_low8139_const" type="Const" version="opset1">
			<data element_type="f16" offset="12118" shape="1" size="2"/>
			<output>
				<port id="1" precision="FP16">
					<dim>1</dim>
				</port>
			</output>
		</layer>
		<layer id="128" name="conv2_2/1/conv/WithoutBiases/fq_weights_1/Copy/out_high8140_const" type="Const" version="opset1">
			<data element_type="f16" offset="2364" shape="1" size="2"/>
			<output>
				<port id="1" precision="FP16">
					<dim>1</dim>
				</port>
			</output>
		</layer>
		<layer id="129" name="37143718_const" type="Const" version="opset1">
			<data element_type="f16" offset="16484" shape="24,1,1,1" size="48"/>
			<output>
				<port id="1" precision="FP16">
					<dim>24</dim>
					<dim>1</dim>
					<dim>1</dim>
					<dim>1</dim>
				</port>
			</output>
		</layer>
		<layer id="130" name="37153719_const" type="Const" version="opset1">
			<data element_type="f16" offset="16532" shape="24,1,1,1" size="48"/>
			<output>
				<port id="1" precision="FP16">
					<dim>24</dim>
					<dim>1</dim>
					<dim>1</dim>
					<dim>1</dim>
				</port>
			</output>
		</layer>
		<layer id="131" name="conv2_2/1/conv/WithoutBiases/fq_weights_1" type="FakeQuantize" version="opset1">
			<data levels="255"/>
			<input>
				<port id="0">
					<dim>24</dim>
					<dim>64</dim>
					<dim>1</dim>
					<dim>1</dim>
				</port>
				<port id="1">
					<dim>1</dim>
				</port>
				<port id="2">
					<dim>1</dim>
				</port>
				<port id="3">
					<dim>24</dim>
					<dim>1</dim>
					<dim>1</dim>
					<dim>1</dim>
				</port>
				<port id="4">
					<dim>24</dim>
					<dim>1</dim>
					<dim>1</dim>
					<dim>1</dim>
				</port>
			</input>
			<output>
				<port id="5" precision="FP16">
					<dim>24</dim>
					<dim>64</dim>
					<dim>1</dim>
					<dim>1</dim>
				</port>
			</output>
		</layer>
		<layer id="132" name="conv2_2/1/conv/WithoutBiases" type="Convolution" version="opset1">
			<data dilations="1,1" output_padding="0,0" pads_begin="0,0" pads_end="0,0" strides="1,1"/>
			<input>
				<port id="0">
					<dim>1</dim>
					<dim>64</dim>
					<dim>136</dim>
					<dim>248</dim>
				</port>
				<port id="1">
					<dim>24</dim>
					<dim>64</dim>
					<dim>1</dim>
					<dim>1</dim>
				</port>
			</input>
			<output>
				<port id="2" precision="FP16">
					<dim>1</dim>
					<dim>24</dim>
					<dim>136</dim>
					<dim>248</dim>
				</port>
			</output>
		</layer>
		<layer id="133" name="conv2_2/1/conv/Dims4626/copy_const585_const" type="Const" version="opset1">
			<data element_type="f16" offset="16580" shape="1,24,1,1" size="48"/>
			<output>
				<port id="1" precision="FP16">
					<dim>1</dim>
					<dim>24</dim>
					<dim>1</dim>
					<dim>1</dim>
				</port>
			</output>
		</layer>
		<layer id="134" name="conv2_2/1/conv" type="Add" version="opset1">
			<input>
				<port id="0">
					<dim>1</dim>
					<dim>24</dim>
					<dim>136</dim>
					<dim>248</dim>
				</port>
				<port id="1">
					<dim>1</dim>
					<dim>24</dim>
					<dim>1</dim>
					<dim>1</dim>
				</port>
			</input>
			<output>
				<port id="2" precision="FP16">
					<dim>1</dim>
					<dim>24</dim>
					<dim>136</dim>
					<dim>248</dim>
				</port>
			</output>
		</layer>
		<layer id="135" name="conv2_2/1/relu" type="ReLU" version="opset1">
			<input>
				<port id="0">
					<dim>1</dim>
					<dim>24</dim>
					<dim>136</dim>
					<dim>248</dim>
				</port>
			</input>
			<output>
				<port id="1" precision="FP16">
					<dim>1</dim>
					<dim>24</dim>
					<dim>136</dim>
					<dim>248</dim>
				</port>
			</output>
		</layer>
		<layer id="136" name="36023606_const" type="Const" version="opset1">
			<data element_type="f16" offset="16628" shape="" size="2"/>
			<output>
				<port id="1" precision="FP16"/>
			</output>
		</layer>
		<layer id="137" name="36033607_const" type="Const" version="opset1">
			<data element_type="f16" offset="16630" shape="" size="2"/>
			<output>
				<port id="1" precision="FP16"/>
			</output>
		</layer>
		<layer id="138" name="36043608_const" type="Const" version="opset1">
			<data element_type="f16" offset="16628" shape="" size="2"/>
			<output>
				<port id="1" precision="FP16"/>
			</output>
		</layer>
		<layer id="139" name="36053609_const" type="Const" version="opset1">
			<data element_type="f16" offset="16630" shape="" size="2"/>
			<output>
				<port id="1" precision="FP16"/>
			</output>
		</layer>
		<layer id="140" name="conv2_2/2/conv/WithoutBiases/fq_input_0" type="FakeQuantize" version="opset1">
			<data levels="256"/>
			<input>
				<port id="0">
					<dim>1</dim>
					<dim>24</dim>
					<dim>136</dim>
					<dim>248</dim>
				</port>
				<port id="1"/>
				<port id="2"/>
				<port id="3"/>
				<port id="4"/>
			</input>
			<output>
				<port id="5" precision="FP16">
					<dim>1</dim>
					<dim>24</dim>
					<dim>136</dim>
					<dim>248</dim>
				</port>
			</output>
		</layer>
		<layer id="141" name="conv2_2/2/conv/WithoutBiases/fq_weights_1/Convert_to_float/Cast_09784_const" type="Const" version="opset1">
			<data element_type="u8" offset="16632" shape="24,24,3,3" size="5184"/>
			<output>
				<port id="1" precision="U8">
					<dim>24</dim>
					<dim>24</dim>
					<dim>3</dim>
					<dim>3</dim>
				</port>
			</output>
		</layer>
		<layer id="142" name="conv2_2/2/conv/WithoutBiases/fq_weights_1/Convert_to_float" type="Convert" version="opset1">
			<data destination_type="f16"/>
			<input>
				<port id="0">
					<dim>24</dim>
					<dim>24</dim>
					<dim>3</dim>
					<dim>3</dim>
				</port>
			</input>
			<output>
				<port id="1" precision="FP16">
					<dim>24</dim>
					<dim>24</dim>
					<dim>3</dim>
					<dim>3</dim>
				</port>
			</output>
		</layer>
		<layer id="143" name="conv2_2/2/conv/WithoutBiases/fq_weights_1/Copy/out_low8131_const" type="Const" version="opset1">
			<data element_type="f16" offset="21816" shape="1" size="2"/>
			<output>
				<port id="1" precision="FP16">
					<dim>1</dim>
				</port>
			</output>
		</layer>
		<layer id="144" name="conv2_2/2/conv/WithoutBiases/fq_weights_1/Copy/out_high8132_const" type="Const" version="opset1">
			<data element_type="f16" offset="2364" shape="1" size="2"/>
			<output>
				<port id="1" precision="FP16">
					<dim>1</dim>
				</port>
			</output>
		</layer>
		<layer id="145" name="36143618_const" type="Const" version="opset1">
			<data element_type="f16" offset="21818" shape="24,1,1,1" size="48"/>
			<output>
				<port id="1" precision="FP16">
					<dim>24</dim>
					<dim>1</dim>
					<dim>1</dim>
					<dim>1</dim>
				</port>
			</output>
		</layer>
		<layer id="146" name="36153619_const" type="Const" version="opset1">
			<data element_type="f16" offset="21866" shape="24,1,1,1" size="48"/>
			<output>
				<port id="1" precision="FP16">
					<dim>24</dim>
					<dim>1</dim>
					<dim>1</dim>
					<dim>1</dim>
				</port>
			</output>
		</layer>
		<layer id="147" name="conv2_2/2/conv/WithoutBiases/fq_weights_1" type="FakeQuantize" version="opset1">
			<data levels="255"/>
			<input>
				<port id="0">
					<dim>24</dim>
					<dim>24</dim>
					<dim>3</dim>
					<dim>3</dim>
				</port>
				<port id="1">
					<dim>1</dim>
				</port>
				<port id="2">
					<dim>1</dim>
				</port>
				<port id="3">
					<dim>24</dim>
					<dim>1</dim>
					<dim>1</dim>
					<dim>1</dim>
				</port>
				<port id="4">
					<dim>24</dim>
					<dim>1</dim>
					<dim>1</dim>
					<dim>1</dim>
				</port>
			</input>
			<output>
				<port id="5" precision="FP16">
					<dim>24</dim>
					<dim>24</dim>
					<dim>3</dim>
					<dim>3</dim>
				</port>
			</output>
		</layer>
		<layer id="148" name="conv2_2/2/conv/WithoutBiases" type="Convolution" version="opset1">
			<data dilations="1,1" output_padding="0,0" pads_begin="1,1" pads_end="1,1" strides="1,1"/>
			<input>
				<port id="0">
					<dim>1</dim>
					<dim>24</dim>
					<dim>136</dim>
					<dim>248</dim>
				</port>
				<port id="1">
					<dim>24</dim>
					<dim>24</dim>
					<dim>3</dim>
					<dim>3</dim>
				</port>
			</input>
			<output>
				<port id="2" precision="FP16">
					<dim>1</dim>
					<dim>24</dim>
					<dim>136</dim>
					<dim>248</dim>
				</port>
			</output>
		</layer>
		<layer id="149" name="conv2_2/2/conv/Dims4374/copy_const590_const" type="Const" version="opset1">
			<data element_type="f16" offset="21914" shape="1,24,1,1" size="48"/>
			<output>
				<port id="1" precision="FP16">
					<dim>1</dim>
					<dim>24</dim>
					<dim>1</dim>
					<dim>1</dim>
				</port>
			</output>
		</layer>
		<layer id="150" name="conv2_2/2/conv" type="Add" version="opset1">
			<input>
				<port id="0">
					<dim>1</dim>
					<dim>24</dim>
					<dim>136</dim>
					<dim>248</dim>
				</port>
				<port id="1">
					<dim>1</dim>
					<dim>24</dim>
					<dim>1</dim>
					<dim>1</dim>
				</port>
			</input>
			<output>
				<port id="2" precision="FP16">
					<dim>1</dim>
					<dim>24</dim>
					<dim>136</dim>
					<dim>248</dim>
				</port>
			</output>
		</layer>
		<layer id="151" name="51315135_const" type="Const" version="opset1">
			<data element_type="f16" offset="21962" shape="" size="2"/>
			<output>
				<port id="1" precision="FP16"/>
			</output>
		</layer>
		<layer id="152" name="51325136_const" type="Const" version="opset1">
			<data element_type="f16" offset="21964" shape="" size="2"/>
			<output>
				<port id="1" precision="FP16"/>
			</output>
		</layer>
		<layer id="153" name="51335137_const" type="Const" version="opset1">
			<data element_type="f16" offset="21962" shape="" size="2"/>
			<output>
				<port id="1" precision="FP16"/>
			</output>
		</layer>
		<layer id="154" name="51345138_const" type="Const" version="opset1">
			<data element_type="f16" offset="21964" shape="" size="2"/>
			<output>
				<port id="1" precision="FP16"/>
			</output>
		</layer>
		<layer id="155" name="conv2_2/2/concat/fq_input_0" type="FakeQuantize" version="opset1">
			<data levels="256"/>
			<input>
				<port id="0">
					<dim>1</dim>
					<dim>24</dim>
					<dim>136</dim>
					<dim>248</dim>
				</port>
				<port id="1"/>
				<port id="2"/>
				<port id="3"/>
				<port id="4"/>
			</input>
			<output>
				<port id="5" precision="FP16">
					<dim>1</dim>
					<dim>24</dim>
					<dim>136</dim>
					<dim>248</dim>
				</port>
			</output>
		</layer>
		<layer id="156" name="conv2_2/2/neg/mul_/Negate" type="Negative" version="opset1">
			<input>
				<port id="0">
					<dim>1</dim>
					<dim>24</dim>
					<dim>136</dim>
					<dim>248</dim>
				</port>
			</input>
			<output>
				<port id="1" precision="FP16">
					<dim>1</dim>
					<dim>24</dim>
					<dim>136</dim>
					<dim>248</dim>
				</port>
			</output>
		</layer>
		<layer id="157" name="51415145_const" type="Const" version="opset1">
			<data element_type="f16" offset="21962" shape="" size="2"/>
			<output>
				<port id="1" precision="FP16"/>
			</output>
		</layer>
		<layer id="158" name="51425146_const" type="Const" version="opset1">
			<data element_type="f16" offset="21964" shape="" size="2"/>
			<output>
				<port id="1" precision="FP16"/>
			</output>
		</layer>
		<layer id="159" name="51435147_const" type="Const" version="opset1">
			<data element_type="f16" offset="21962" shape="" size="2"/>
			<output>
				<port id="1" precision="FP16"/>
			</output>
		</layer>
		<layer id="160" name="51445148_const" type="Const" version="opset1">
			<data element_type="f16" offset="21964" shape="" size="2"/>
			<output>
				<port id="1" precision="FP16"/>
			</output>
		</layer>
		<layer id="161" name="conv2_2/2/concat/fq_input_1" type="FakeQuantize" version="opset1">
			<data levels="256"/>
			<input>
				<port id="0">
					<dim>1</dim>
					<dim>24</dim>
					<dim>136</dim>
					<dim>248</dim>
				</port>
				<port id="1"/>
				<port id="2"/>
				<port id="3"/>
				<port id="4"/>
			</input>
			<output>
				<port id="5" precision="FP16">
					<dim>1</dim>
					<dim>24</dim>
					<dim>136</dim>
					<dim>248</dim>
				</port>
			</output>
		</layer>
		<layer id="162" name="conv2_2/2/concat" type="Concat" version="opset1">
			<data axis="1"/>
			<input>
				<port id="0">
					<dim>1</dim>
					<dim>24</dim>
					<dim>136</dim>
					<dim>248</dim>
				</port>
				<port id="1">
					<dim>1</dim>
					<dim>24</dim>
					<dim>136</dim>
					<dim>248</dim>
				</port>
			</input>
			<output>
				<port id="2" precision="FP16">
					<dim>1</dim>
					<dim>48</dim>
					<dim>136</dim>
					<dim>248</dim>
				</port>
			</output>
		</layer>
		<layer id="163" name="427/Output_0/Data_/copy_const594_const" type="Const" version="opset1">
			<data element_type="f16" offset="21966" shape="1,48,1,1" size="96"/>
			<output>
				<port id="1" precision="FP16">
					<dim>1</dim>
					<dim>48</dim>
					<dim>1</dim>
					<dim>1</dim>
				</port>
			</output>
		</layer>
		<layer id="164" name="conv2_2/2/scale/Mul_" type="Multiply" version="opset1">
			<input>
				<port id="0">
					<dim>1</dim>
					<dim>48</dim>
					<dim>136</dim>
					<dim>248</dim>
				</port>
				<port id="1">
					<dim>1</dim>
					<dim>48</dim>
					<dim>1</dim>
					<dim>1</dim>
				</port>
			</input>
			<output>
				<port id="2" precision="FP16">
					<dim>1</dim>
					<dim>48</dim>
					<dim>136</dim>
					<dim>248</dim>
				</port>
			</output>
		</layer>
		<layer id="165" name="428/Output_0/Data_/copy_const596_const" type="Const" version="opset1">
			<data element_type="f16" offset="22062" shape="1,48,1,1" size="96"/>
			<output>
				<port id="1" precision="FP16">
					<dim>1</dim>
					<dim>48</dim>
					<dim>1</dim>
					<dim>1</dim>
				</port>
			</output>
		</layer>
		<layer id="166" name="conv2_2/2/scale/Add_" type="Add" version="opset1">
			<input>
				<port id="0">
					<dim>1</dim>
					<dim>48</dim>
					<dim>136</dim>
					<dim>248</dim>
				</port>
				<port id="1">
					<dim>1</dim>
					<dim>48</dim>
					<dim>1</dim>
					<dim>1</dim>
				</port>
			</input>
			<output>
				<port id="2" precision="FP16">
					<dim>1</dim>
					<dim>48</dim>
					<dim>136</dim>
					<dim>248</dim>
				</port>
			</output>
		</layer>
		<layer id="167" name="conv2_2/2/relu" type="ReLU" version="opset1">
			<input>
				<port id="0">
					<dim>1</dim>
					<dim>48</dim>
					<dim>136</dim>
					<dim>248</dim>
				</port>
			</input>
			<output>
				<port id="1" precision="FP16">
					<dim>1</dim>
					<dim>48</dim>
					<dim>136</dim>
					<dim>248</dim>
				</port>
			</output>
		</layer>
		<layer id="168" name="33223326_const" type="Const" version="opset1">
			<data element_type="f16" offset="22158" shape="" size="2"/>
			<output>
				<port id="1" precision="FP16"/>
			</output>
		</layer>
		<layer id="169" name="33233327_const" type="Const" version="opset1">
			<data element_type="f16" offset="22160" shape="" size="2"/>
			<output>
				<port id="1" precision="FP16"/>
			</output>
		</layer>
		<layer id="170" name="33243328_const" type="Const" version="opset1">
			<data element_type="f16" offset="22158" shape="" size="2"/>
			<output>
				<port id="1" precision="FP16"/>
			</output>
		</layer>
		<layer id="171" name="33253329_const" type="Const" version="opset1">
			<data element_type="f16" offset="22160" shape="" size="2"/>
			<output>
				<port id="1" precision="FP16"/>
			</output>
		</layer>
		<layer id="172" name="conv2_2/3/conv/WithoutBiases/fq_input_0" type="FakeQuantize" version="opset1">
			<data levels="256"/>
			<input>
				<port id="0">
					<dim>1</dim>
					<dim>48</dim>
					<dim>136</dim>
					<dim>248</dim>
				</port>
				<port id="1"/>
				<port id="2"/>
				<port id="3"/>
				<port id="4"/>
			</input>
			<output>
				<port id="5" precision="FP16">
					<dim>1</dim>
					<dim>48</dim>
					<dim>136</dim>
					<dim>248</dim>
				</port>
			</output>
		</layer>
		<layer id="173" name="conv2_2/3/conv/WithoutBiases/fq_weights_1/Convert_to_float/Cast_09874_const" type="Const" version="opset1">
			<data element_type="u8" offset="22162" shape="64,48,1,1" size="3072"/>
			<output>
				<port id="1" precision="U8">
					<dim>64</dim>
					<dim>48</dim>
					<dim>1</dim>
					<dim>1</dim>
				</port>
			</output>
		</layer>
		<layer id="174" name="conv2_2/3/conv/WithoutBiases/fq_weights_1/Convert_to_float" type="Convert" version="opset1">
			<data destination_type="f16"/>
			<input>
				<port id="0">
					<dim>64</dim>
					<dim>48</dim>
					<dim>1</dim>
					<dim>1</dim>
				</port>
			</input>
			<output>
				<port id="1" precision="FP16">
					<dim>64</dim>
					<dim>48</dim>
					<dim>1</dim>
					<dim>1</dim>
				</port>
			</output>
		</layer>
		<layer id="175" name="conv2_2/3/conv/WithoutBiases/fq_weights_1/Copy/out_low8107_const" type="Const" version="opset1">
			<data element_type="f16" offset="25234" shape="1" size="2"/>
			<output>
				<port id="1" precision="FP16">
					<dim>1</dim>
				</port>
			</output>
		</layer>
		<layer id="176" name="conv2_2/3/conv/WithoutBiases/fq_weights_1/Copy/out_high8108_const" type="Const" version="opset1">
			<data element_type="f16" offset="2364" shape="1" size="2"/>
			<output>
				<port id="1" precision="FP16">
					<dim>1</dim>
				</port>
			</output>
		</layer>
		<layer id="177" name="33343338_const" type="Const" version="opset1">
			<data element_type="f16" offset="25236" shape="64,1,1,1" size="128"/>
			<output>
				<port id="1" precision="FP16">
					<dim>64</dim>
					<dim>1</dim>
					<dim>1</dim>
					<dim>1</dim>
				</port>
			</output>
		</layer>
		<layer id="178" name="33353339_const" type="Const" version="opset1">
			<data element_type="f16" offset="25364" shape="64,1,1,1" size="128"/>
			<output>
				<port id="1" precision="FP16">
					<dim>64</dim>
					<dim>1</dim>
					<dim>1</dim>
					<dim>1</dim>
				</port>
			</output>
		</layer>
		<layer id="179" name="conv2_2/3/conv/WithoutBiases/fq_weights_1" type="FakeQuantize" version="opset1">
			<data levels="255"/>
			<input>
				<port id="0">
					<dim>64</dim>
					<dim>48</dim>
					<dim>1</dim>
					<dim>1</dim>
				</port>
				<port id="1">
					<dim>1</dim>
				</port>
				<port id="2">
					<dim>1</dim>
				</port>
				<port id="3">
					<dim>64</dim>
					<dim>1</dim>
					<dim>1</dim>
					<dim>1</dim>
				</port>
				<port id="4">
					<dim>64</dim>
					<dim>1</dim>
					<dim>1</dim>
					<dim>1</dim>
				</port>
			</input>
			<output>
				<port id="5" precision="FP16">
					<dim>64</dim>
					<dim>48</dim>
					<dim>1</dim>
					<dim>1</dim>
				</port>
			</output>
		</layer>
		<layer id="180" name="conv2_2/3/conv/WithoutBiases" type="Convolution" version="opset1">
			<data dilations="1,1" output_padding="0,0" pads_begin="0,0" pads_end="0,0" strides="1,1"/>
			<input>
				<port id="0">
					<dim>1</dim>
					<dim>48</dim>
					<dim>136</dim>
					<dim>248</dim>
				</port>
				<port id="1">
					<dim>64</dim>
					<dim>48</dim>
					<dim>1</dim>
					<dim>1</dim>
				</port>
			</input>
			<output>
				<port id="2" precision="FP16">
					<dim>1</dim>
					<dim>64</dim>
					<dim>136</dim>
					<dim>248</dim>
				</port>
			</output>
		</layer>
		<layer id="181" name="conv2_2/3/conv/Dims4686/copy_const601_const" type="Const" version="opset1">
			<data element_type="f16" offset="25492" shape="1,64,1,1" size="128"/>
			<output>
				<port id="1" precision="FP16">
					<dim>1</dim>
					<dim>64</dim>
					<dim>1</dim>
					<dim>1</dim>
				</port>
			</output>
		</layer>
		<layer id="182" name="conv2_2/3/conv" type="Add" version="opset1">
			<input>
				<port id="0">
					<dim>1</dim>
					<dim>64</dim>
					<dim>136</dim>
					<dim>248</dim>
				</port>
				<port id="1">
					<dim>1</dim>
					<dim>64</dim>
					<dim>1</dim>
					<dim>1</dim>
				</port>
			</input>
			<output>
				<port id="2" precision="FP16">
					<dim>1</dim>
					<dim>64</dim>
					<dim>136</dim>
					<dim>248</dim>
				</port>
			</output>
		</layer>
		<layer id="183" name="27522756_const" type="Const" version="opset1">
			<data element_type="f16" offset="25620" shape="" size="2"/>
			<output>
				<port id="1" precision="FP16"/>
			</output>
		</layer>
		<layer id="184" name="27532757_const" type="Const" version="opset1">
			<data element_type="f16" offset="25622" shape="" size="2"/>
			<output>
				<port id="1" precision="FP16"/>
			</output>
		</layer>
		<layer id="185" name="27542758_const" type="Const" version="opset1">
			<data element_type="f16" offset="25620" shape="" size="2"/>
			<output>
				<port id="1" precision="FP16"/>
			</output>
		</layer>
		<layer id="186" name="27552759_const" type="Const" version="opset1">
			<data element_type="f16" offset="25622" shape="" size="2"/>
			<output>
				<port id="1" precision="FP16"/>
			</output>
		</layer>
		<layer id="187" name="conv2_2/fq_input_0" type="FakeQuantize" version="opset1">
			<data levels="256"/>
			<input>
				<port id="0">
					<dim>1</dim>
					<dim>64</dim>
					<dim>136</dim>
					<dim>248</dim>
				</port>
				<port id="1"/>
				<port id="2"/>
				<port id="3"/>
				<port id="4"/>
			</input>
			<output>
				<port id="5" precision="FP16">
					<dim>1</dim>
					<dim>64</dim>
					<dim>136</dim>
					<dim>248</dim>
				</port>
			</output>
		</layer>
		<layer id="188" name="conv2_2" type="Add" version="opset1">
			<input>
				<port id="0">
					<dim>1</dim>
					<dim>64</dim>
					<dim>136</dim>
					<dim>248</dim>
				</port>
				<port id="1">
					<dim>1</dim>
					<dim>64</dim>
					<dim>136</dim>
					<dim>248</dim>
				</port>
			</input>
			<output>
				<port id="2" precision="FP16">
					<dim>1</dim>
					<dim>64</dim>
					<dim>136</dim>
					<dim>248</dim>
				</port>
			</output>
		</layer>
		<layer id="189" name="51815185_const" type="Const" version="opset1">
			<data element_type="f16" offset="25624" shape="" size="2"/>
			<output>
				<port id="1" precision="FP16"/>
			</output>
		</layer>
		<layer id="190" name="51825186_const" type="Const" version="opset1">
			<data element_type="f16" offset="25626" shape="" size="2"/>
			<output>
				<port id="1" precision="FP16"/>
			</output>
		</layer>
		<layer id="191" name="51835187_const" type="Const" version="opset1">
			<data element_type="f16" offset="25624" shape="" size="2"/>
			<output>
				<port id="1" precision="FP16"/>
			</output>
		</layer>
		<layer id="192" name="51845188_const" type="Const" version="opset1">
			<data element_type="f16" offset="25626" shape="" size="2"/>
			<output>
				<port id="1" precision="FP16"/>
			</output>
		</layer>
		<layer id="193" name="Pooling_9040/fq_input_0" type="FakeQuantize" version="opset1">
			<data levels="256"/>
			<input>
				<port id="0">
					<dim>1</dim>
					<dim>64</dim>
					<dim>136</dim>
					<dim>248</dim>
				</port>
				<port id="1"/>
				<port id="2"/>
				<port id="3"/>
				<port id="4"/>
			</input>
			<output>
				<port id="5" precision="FP16">
					<dim>1</dim>
					<dim>64</dim>
					<dim>136</dim>
					<dim>248</dim>
				</port>
			</output>
		</layer>
		<layer id="194" name="conv2_3/1/conv/WithoutBiases/fq_weights_1/Convert_to_float/Cast_09868_const" type="Const" version="opset1">
			<data element_type="u8" offset="25628" shape="24,64,1,1" size="1536"/>
			<output>
				<port id="1" precision="U8">
					<dim>24</dim>
					<dim>64</dim>
					<dim>1</dim>
					<dim>1</dim>
				</port>
			</output>
		</layer>
		<layer id="195" name="conv2_3/1/conv/WithoutBiases/fq_weights_1/Convert_to_float" type="Convert" version="opset1">
			<data destination_type="f16"/>
			<input>
				<port id="0">
					<dim>24</dim>
					<dim>64</dim>
					<dim>1</dim>
					<dim>1</dim>
				</port>
			</input>
			<output>
				<port id="1" precision="FP16">
					<dim>24</dim>
					<dim>64</dim>
					<dim>1</dim>
					<dim>1</dim>
				</port>
			</output>
		</layer>
		<layer id="196" name="conv2_3/1/conv/WithoutBiases/fq_weights_1/Copy/out_low8099_const" type="Const" version="opset1">
			<data element_type="f16" offset="25234" shape="1" size="2"/>
			<output>
				<port id="1" precision="FP16">
					<dim>1</dim>
				</port>
			</output>
		</layer>
		<layer id="197" name="conv2_3/1/conv/WithoutBiases/fq_weights_1/Copy/out_high8100_const" type="Const" version="opset1">
			<data element_type="f16" offset="2364" shape="1" size="2"/>
			<output>
				<port id="1" precision="FP16">
					<dim>1</dim>
				</port>
			</output>
		</layer>
		<layer id="198" name="31343138_const" type="Const" version="opset1">
			<data element_type="f16" offset="27164" shape="24,1,1,1" size="48"/>
			<output>
				<port id="1" precision="FP16">
					<dim>24</dim>
					<dim>1</dim>
					<dim>1</dim>
					<dim>1</dim>
				</port>
			</output>
		</layer>
		<layer id="199" name="31353139_const" type="Const" version="opset1">
			<data element_type="f16" offset="27212" shape="24,1,1,1" size="48"/>
			<output>
				<port id="1" precision="FP16">
					<dim>24</dim>
					<dim>1</dim>
					<dim>1</dim>
					<dim>1</dim>
				</port>
			</output>
		</layer>
		<layer id="200" name="conv2_3/1/conv/WithoutBiases/fq_weights_1" type="FakeQuantize" version="opset1">
			<data levels="255"/>
			<input>
				<port id="0">
					<dim>24</dim>
					<dim>64</dim>
					<dim>1</dim>
					<dim>1</dim>
				</port>
				<port id="1">
					<dim>1</dim>
				</port>
				<port id="2">
					<dim>1</dim>
				</port>
				<port id="3">
					<dim>24</dim>
					<dim>1</dim>
					<dim>1</dim>
					<dim>1</dim>
				</port>
				<port id="4">
					<dim>24</dim>
					<dim>1</dim>
					<dim>1</dim>
					<dim>1</dim>
				</port>
			</input>
			<output>
				<port id="5" precision="FP16">
					<dim>24</dim>
					<dim>64</dim>
					<dim>1</dim>
					<dim>1</dim>
				</port>
			</output>
		</layer>
		<layer id="201" name="conv2_3/1/conv/WithoutBiases" type="Convolution" version="opset1">
			<data dilations="1,1" output_padding="0,0" pads_begin="0,0" pads_end="0,0" strides="1,1"/>
			<input>
				<port id="0">
					<dim>1</dim>
					<dim>64</dim>
					<dim>136</dim>
					<dim>248</dim>
				</port>
				<port id="1">
					<dim>24</dim>
					<dim>64</dim>
					<dim>1</dim>
					<dim>1</dim>
				</port>
			</input>
			<output>
				<port id="2" precision="FP16">
					<dim>1</dim>
					<dim>24</dim>
					<dim>136</dim>
					<dim>248</dim>
				</port>
			</output>
		</layer>
		<layer id="202" name="conv2_3/1/conv/Dims4710/copy_const606_const" type="Const" version="opset1">
			<data element_type="f16" offset="27260" shape="1,24,1,1" size="48"/>
			<output>
				<port id="1" precision="FP16">
					<dim>1</dim>
					<dim>24</dim>
					<dim>1</dim>
					<dim>1</dim>
				</port>
			</output>
		</layer>
		<layer id="203" name="conv2_3/1/conv" type="Add" version="opset1">
			<input>
				<port id="0">
					<dim>1</dim>
					<dim>24</dim>
					<dim>136</dim>
					<dim>248</dim>
				</port>
				<port id="1">
					<dim>1</dim>
					<dim>24</dim>
					<dim>1</dim>
					<dim>1</dim>
				</port>
			</input>
			<output>
				<port id="2" precision="FP16">
					<dim>1</dim>
					<dim>24</dim>
					<dim>136</dim>
					<dim>248</dim>
				</port>
			</output>
		</layer>
		<layer id="204" name="conv2_3/1/relu" type="ReLU" version="opset1">
			<input>
				<port id="0">
					<dim>1</dim>
					<dim>24</dim>
					<dim>136</dim>
					<dim>248</dim>
				</port>
			</input>
			<output>
				<port id="1" precision="FP16">
					<dim>1</dim>
					<dim>24</dim>
					<dim>136</dim>
					<dim>248</dim>
				</port>
			</output>
		</layer>
		<layer id="205" name="23022306_const" type="Const" version="opset1">
			<data element_type="f16" offset="27308" shape="" size="2"/>
			<output>
				<port id="1" precision="FP16"/>
			</output>
		</layer>
		<layer id="206" name="23032307_const" type="Const" version="opset1">
			<data element_type="f16" offset="27310" shape="" size="2"/>
			<output>
				<port id="1" precision="FP16"/>
			</output>
		</layer>
		<layer id="207" name="23042308_const" type="Const" version="opset1">
			<data element_type="f16" offset="27308" shape="" size="2"/>
			<output>
				<port id="1" precision="FP16"/>
			</output>
		</layer>
		<layer id="208" name="23052309_const" type="Const" version="opset1">
			<data element_type="f16" offset="27310" shape="" size="2"/>
			<output>
				<port id="1" precision="FP16"/>
			</output>
		</layer>
		<layer id="209" name="conv2_3/2/conv/WithoutBiases/fq_input_0" type="FakeQuantize" version="opset1">
			<data levels="256"/>
			<input>
				<port id="0">
					<dim>1</dim>
					<dim>24</dim>
					<dim>136</dim>
					<dim>248</dim>
				</port>
				<port id="1"/>
				<port id="2"/>
				<port id="3"/>
				<port id="4"/>
			</input>
			<output>
				<port id="5" precision="FP16">
					<dim>1</dim>
					<dim>24</dim>
					<dim>136</dim>
					<dim>248</dim>
				</port>
			</output>
		</layer>
		<layer id="210" name="conv2_3/2/conv/WithoutBiases/fq_weights_1/Convert_to_float/Cast_09858_const" type="Const" version="opset1">
			<data element_type="u8" offset="27312" shape="24,24,3,3" size="5184"/>
			<output>
				<port id="1" precision="U8">
					<dim>24</dim>
					<dim>24</dim>
					<dim>3</dim>
					<dim>3</dim>
				</port>
			</output>
		</layer>
		<layer id="211" name="conv2_3/2/conv/WithoutBiases/fq_weights_1/Convert_to_float" type="Convert" version="opset1">
			<data destination_type="f16"/>
			<input>
				<port id="0">
					<dim>24</dim>
					<dim>24</dim>
					<dim>3</dim>
					<dim>3</dim>
				</port>
			</input>
			<output>
				<port id="1" precision="FP16">
					<dim>24</dim>
					<dim>24</dim>
					<dim>3</dim>
					<dim>3</dim>
				</port>
			</output>
		</layer>
		<layer id="212" name="conv2_3/2/conv/WithoutBiases/fq_weights_1/Copy/out_low8443_const" type="Const" version="opset1">
			<data element_type="f16" offset="32496" shape="1" size="2"/>
			<output>
				<port id="1" precision="FP16">
					<dim>1</dim>
				</port>
			</output>
		</layer>
		<layer id="213" name="conv2_3/2/conv/WithoutBiases/fq_weights_1/Copy/out_high8444_const" type="Const" version="opset1">
			<data element_type="f16" offset="2364" shape="1" size="2"/>
			<output>
				<port id="1" precision="FP16">
					<dim>1</dim>
				</port>
			</output>
		</layer>
		<layer id="214" name="23142318_const" type="Const" version="opset1">
			<data element_type="f16" offset="32498" shape="24,1,1,1" size="48"/>
			<output>
				<port id="1" precision="FP16">
					<dim>24</dim>
					<dim>1</dim>
					<dim>1</dim>
					<dim>1</dim>
				</port>
			</output>
		</layer>
		<layer id="215" name="23152319_const" type="Const" version="opset1">
			<data element_type="f16" offset="32546" shape="24,1,1,1" size="48"/>
			<output>
				<port id="1" precision="FP16">
					<dim>24</dim>
					<dim>1</dim>
					<dim>1</dim>
					<dim>1</dim>
				</port>
			</output>
		</layer>
		<layer id="216" name="conv2_3/2/conv/WithoutBiases/fq_weights_1" type="FakeQuantize" version="opset1">
			<data levels="255"/>
			<input>
				<port id="0">
					<dim>24</dim>
					<dim>24</dim>
					<dim>3</dim>
					<dim>3</dim>
				</port>
				<port id="1">
					<dim>1</dim>
				</port>
				<port id="2">
					<dim>1</dim>
				</port>
				<port id="3">
					<dim>24</dim>
					<dim>1</dim>
					<dim>1</dim>
					<dim>1</dim>
				</port>
				<port id="4">
					<dim>24</dim>
					<dim>1</dim>
					<dim>1</dim>
					<dim>1</dim>
				</port>
			</input>
			<output>
				<port id="5" precision="FP16">
					<dim>24</dim>
					<dim>24</dim>
					<dim>3</dim>
					<dim>3</dim>
				</port>
			</output>
		</layer>
		<layer id="217" name="conv2_3/2/conv/WithoutBiases" type="Convolution" version="opset1">
			<data dilations="1,1" output_padding="0,0" pads_begin="1,1" pads_end="1,1" strides="1,1"/>
			<input>
				<port id="0">
					<dim>1</dim>
					<dim>24</dim>
					<dim>136</dim>
					<dim>248</dim>
				</port>
				<port id="1">
					<dim>24</dim>
					<dim>24</dim>
					<dim>3</dim>
					<dim>3</dim>
				</port>
			</input>
			<output>
				<port id="2" precision="FP16">
					<dim>1</dim>
					<dim>24</dim>
					<dim>136</dim>
					<dim>248</dim>
				</port>
			</output>
		</layer>
		<layer id="218" name="conv2_3/2/conv/Dims4530/copy_const611_const" type="Const" version="opset1">
			<data element_type="f16" offset="32594" shape="1,24,1,1" size="48"/>
			<output>
				<port id="1" precision="FP16">
					<dim>1</dim>
					<dim>24</dim>
					<dim>1</dim>
					<dim>1</dim>
				</port>
			</output>
		</layer>
		<layer id="219" name="conv2_3/2/conv" type="Add" version="opset1">
			<input>
				<port id="0">
					<dim>1</dim>
					<dim>24</dim>
					<dim>136</dim>
					<dim>248</dim>
				</port>
				<port id="1">
					<dim>1</dim>
					<dim>24</dim>
					<dim>1</dim>
					<dim>1</dim>
				</port>
			</input>
			<output>
				<port id="2" precision="FP16">
					<dim>1</dim>
					<dim>24</dim>
					<dim>136</dim>
					<dim>248</dim>
				</port>
			</output>
		</layer>
		<layer id="220" name="51615165_const" type="Const" version="opset1">
			<data element_type="f16" offset="32642" shape="" size="2"/>
			<output>
				<port id="1" precision="FP16"/>
			</output>
		</layer>
		<layer id="221" name="51625166_const" type="Const" version="opset1">
			<data element_type="f16" offset="32644" shape="" size="2"/>
			<output>
				<port id="1" precision="FP16"/>
			</output>
		</layer>
		<layer id="222" name="51635167_const" type="Const" version="opset1">
			<data element_type="f16" offset="32642" shape="" size="2"/>
			<output>
				<port id="1" precision="FP16"/>
			</output>
		</layer>
		<layer id="223" name="51645168_const" type="Const" version="opset1">
			<data element_type="f16" offset="32644" shape="" size="2"/>
			<output>
				<port id="1" precision="FP16"/>
			</output>
		</layer>
		<layer id="224" name="conv2_3/2/concat/fq_input_0" type="FakeQuantize" version="opset1">
			<data levels="256"/>
			<input>
				<port id="0">
					<dim>1</dim>
					<dim>24</dim>
					<dim>136</dim>
					<dim>248</dim>
				</port>
				<port id="1"/>
				<port id="2"/>
				<port id="3"/>
				<port id="4"/>
			</input>
			<output>
				<port id="5" precision="FP16">
					<dim>1</dim>
					<dim>24</dim>
					<dim>136</dim>
					<dim>248</dim>
				</port>
			</output>
		</layer>
		<layer id="225" name="conv2_3/2/neg/mul_/Negate" type="Negative" version="opset1">
			<input>
				<port id="0">
					<dim>1</dim>
					<dim>24</dim>
					<dim>136</dim>
					<dim>248</dim>
				</port>
			</input>
			<output>
				<port id="1" precision="FP16">
					<dim>1</dim>
					<dim>24</dim>
					<dim>136</dim>
					<dim>248</dim>
				</port>
			</output>
		</layer>
		<layer id="226" name="51715175_const" type="Const" version="opset1">
			<data element_type="f16" offset="32642" shape="" size="2"/>
			<output>
				<port id="1" precision="FP16"/>
			</output>
		</layer>
		<layer id="227" name="51725176_const" type="Const" version="opset1">
			<data element_type="f16" offset="32644" shape="" size="2"/>
			<output>
				<port id="1" precision="FP16"/>
			</output>
		</layer>
		<layer id="228" name="51735177_const" type="Const" version="opset1">
			<data element_type="f16" offset="32642" shape="" size="2"/>
			<output>
				<port id="1" precision="FP16"/>
			</output>
		</layer>
		<layer id="229" name="51745178_const" type="Const" version="opset1">
			<data element_type="f16" offset="32644" shape="" size="2"/>
			<output>
				<port id="1" precision="FP16"/>
			</output>
		</layer>
		<layer id="230" name="conv2_3/2/concat/fq_input_1" type="FakeQuantize" version="opset1">
			<data levels="256"/>
			<input>
				<port id="0">
					<dim>1</dim>
					<dim>24</dim>
					<dim>136</dim>
					<dim>248</dim>
				</port>
				<port id="1"/>
				<port id="2"/>
				<port id="3"/>
				<port id="4"/>
			</input>
			<output>
				<port id="5" precision="FP16">
					<dim>1</dim>
					<dim>24</dim>
					<dim>136</dim>
					<dim>248</dim>
				</port>
			</output>
		</layer>
		<layer id="231" name="conv2_3/2/concat" type="Concat" version="opset1">
			<data axis="1"/>
			<input>
				<port id="0">
					<dim>1</dim>
					<dim>24</dim>
					<dim>136</dim>
					<dim>248</dim>
				</port>
				<port id="1">
					<dim>1</dim>
					<dim>24</dim>
					<dim>136</dim>
					<dim>248</dim>
				</port>
			</input>
			<output>
				<port id="2" precision="FP16">
					<dim>1</dim>
					<dim>48</dim>
					<dim>136</dim>
					<dim>248</dim>
				</port>
			</output>
		</layer>
		<layer id="232" name="conv2_3/2/scale/Mul_/fq_input_1/Convert_to_float/Cast_09948_const" type="Const" version="opset1">
			<data element_type="u8" offset="32646" shape="1,48,1,1" size="48"/>
			<output>
				<port id="1" precision="U8">
					<dim>1</dim>
					<dim>48</dim>
					<dim>1</dim>
					<dim>1</dim>
				</port>
			</output>
		</layer>
		<layer id="233" name="conv2_3/2/scale/Mul_/fq_input_1/Convert_to_float" type="Convert" version="opset1">
			<data destination_type="f16"/>
			<input>
				<port id="0">
					<dim>1</dim>
					<dim>48</dim>
					<dim>1</dim>
					<dim>1</dim>
				</port>
			</input>
			<output>
				<port id="1" precision="FP16">
					<dim>1</dim>
					<dim>48</dim>
					<dim>1</dim>
					<dim>1</dim>
				</port>
			</output>
		</layer>
		<layer id="234" name="conv2_3/2/scale/Mul_/fq_input_1/Copy/out_low8083_const" type="Const" version="opset1">
			<data element_type="f16" offset="32496" shape="1" size="2"/>
			<output>
				<port id="1" precision="FP16">
					<dim>1</dim>
				</port>
			</output>
		</layer>
		<layer id="235" name="conv2_3/2/scale/Mul_/fq_input_1/Copy/out_high8084_const" type="Const" version="opset1">
			<data element_type="f16" offset="2364" shape="1" size="2"/>
			<output>
				<port id="1" precision="FP16">
					<dim>1</dim>
				</port>
			</output>
		</layer>
		<layer id="236" name="38343838_const" type="Const" version="opset1">
			<data element_type="f16" offset="32694" shape="1,1,1,1" size="2"/>
			<output>
				<port id="1" precision="FP16">
					<dim>1</dim>
					<dim>1</dim>
					<dim>1</dim>
					<dim>1</dim>
				</port>
			</output>
		</layer>
		<layer id="237" name="38353839_const" type="Const" version="opset1">
			<data element_type="f16" offset="32696" shape="1,1,1,1" size="2"/>
			<output>
				<port id="1" precision="FP16">
					<dim>1</dim>
					<dim>1</dim>
					<dim>1</dim>
					<dim>1</dim>
				</port>
			</output>
		</layer>
		<layer id="238" name="conv2_3/2/scale/Mul_/fq_input_1" type="FakeQuantize" version="opset1">
			<data levels="255"/>
			<input>
				<port id="0">
					<dim>1</dim>
					<dim>48</dim>
					<dim>1</dim>
					<dim>1</dim>
				</port>
				<port id="1">
					<dim>1</dim>
				</port>
				<port id="2">
					<dim>1</dim>
				</port>
				<port id="3">
					<dim>1</dim>
					<dim>1</dim>
					<dim>1</dim>
					<dim>1</dim>
				</port>
				<port id="4">
					<dim>1</dim>
					<dim>1</dim>
					<dim>1</dim>
					<dim>1</dim>
				</port>
			</input>
			<output>
				<port id="5" precision="FP16">
					<dim>1</dim>
					<dim>48</dim>
					<dim>1</dim>
					<dim>1</dim>
				</port>
			</output>
		</layer>
		<layer id="239" name="conv2_3/2/scale/Mul_" type="Multiply" version="opset1">
			<input>
				<port id="0">
					<dim>1</dim>
					<dim>48</dim>
					<dim>136</dim>
					<dim>248</dim>
				</port>
				<port id="1">
					<dim>1</dim>
					<dim>48</dim>
					<dim>1</dim>
					<dim>1</dim>
				</port>
			</input>
			<output>
				<port id="2" precision="FP16">
					<dim>1</dim>
					<dim>48</dim>
					<dim>136</dim>
					<dim>248</dim>
				</port>
			</output>
		</layer>
		<layer id="240" name="51515155_const" type="Const" version="opset1">
			<data element_type="f16" offset="32698" shape="" size="2"/>
			<output>
				<port id="1" precision="FP16"/>
			</output>
		</layer>
		<layer id="241" name="51525156_const" type="Const" version="opset1">
			<data element_type="f16" offset="32700" shape="" size="2"/>
			<output>
				<port id="1" precision="FP16"/>
			</output>
		</layer>
		<layer id="242" name="51535157_const" type="Const" version="opset1">
			<data element_type="f16" offset="32698" shape="" size="2"/>
			<output>
				<port id="1" precision="FP16"/>
			</output>
		</layer>
		<layer id="243" name="51545158_const" type="Const" version="opset1">
			<data element_type="f16" offset="32700" shape="" size="2"/>
			<output>
				<port id="1" precision="FP16"/>
			</output>
		</layer>
		<layer id="244" name="Pooling_/fq_input_0" type="FakeQuantize" version="opset1">
			<data levels="256"/>
			<input>
				<port id="0">
					<dim>1</dim>
					<dim>48</dim>
					<dim>136</dim>
					<dim>248</dim>
				</port>
				<port id="1"/>
				<port id="2"/>
				<port id="3"/>
				<port id="4"/>
			</input>
			<output>
				<port id="5" precision="FP16">
					<dim>1</dim>
					<dim>48</dim>
					<dim>136</dim>
					<dim>248</dim>
				</port>
			</output>
		</layer>
		<layer id="245" name="Pooling_" type="MaxPool" version="opset1">
			<data kernel="1,1" pads_begin="0,0" pads_end="0,0" strides="2,2"/>
			<input>
				<port id="0">
					<dim>1</dim>
					<dim>48</dim>
					<dim>136</dim>
					<dim>248</dim>
				</port>
			</input>
			<output>
				<port id="1" precision="FP16">
					<dim>1</dim>
					<dim>48</dim>
					<dim>68</dim>
					<dim>124</dim>
				</port>
			</output>
		</layer>
		<layer id="246" name="conv2_3/2/scale/Add_/fq_input_1/Convert_to_float/Cast_09872_const" type="Const" version="opset1">
			<data element_type="u8" offset="32702" shape="1,48,1,1" size="48"/>
			<output>
				<port id="1" precision="U8">
					<dim>1</dim>
					<dim>48</dim>
					<dim>1</dim>
					<dim>1</dim>
				</port>
			</output>
		</layer>
		<layer id="247" name="conv2_3/2/scale/Add_/fq_input_1/Convert_to_float" type="Convert" version="opset1">
			<data destination_type="f16"/>
			<input>
				<port id="0">
					<dim>1</dim>
					<dim>48</dim>
					<dim>1</dim>
					<dim>1</dim>
				</port>
			</input>
			<output>
				<port id="1" precision="FP16">
					<dim>1</dim>
					<dim>48</dim>
					<dim>1</dim>
					<dim>1</dim>
				</port>
			</output>
		</layer>
		<layer id="248" name="conv2_3/2/scale/Add_/fq_input_1/Copy/out_low8619_const" type="Const" version="opset1">
			<data element_type="f16" offset="32496" shape="1" size="2"/>
			<output>
				<port id="1" precision="FP16">
					<dim>1</dim>
				</port>
			</output>
		</layer>
		<layer id="249" name="conv2_3/2/scale/Add_/fq_input_1/Copy/out_high8620_const" type="Const" version="opset1">
			<data element_type="f16" offset="2364" shape="1" size="2"/>
			<output>
				<port id="1" precision="FP16">
					<dim>1</dim>
				</port>
			</output>
		</layer>
		<layer id="250" name="22542258_const" type="Const" version="opset1">
			<data element_type="f16" offset="32750" shape="1,1,1,1" size="2"/>
			<output>
				<port id="1" precision="FP16">
					<dim>1</dim>
					<dim>1</dim>
					<dim>1</dim>
					<dim>1</dim>
				</port>
			</output>
		</layer>
		<layer id="251" name="22552259_const" type="Const" version="opset1">
			<data element_type="f16" offset="32752" shape="1,1,1,1" size="2"/>
			<output>
				<port id="1" precision="FP16">
					<dim>1</dim>
					<dim>1</dim>
					<dim>1</dim>
					<dim>1</dim>
				</port>
			</output>
		</layer>
		<layer id="252" name="conv2_3/2/scale/Add_/fq_input_1" type="FakeQuantize" version="opset1">
			<data levels="255"/>
			<input>
				<port id="0">
					<dim>1</dim>
					<dim>48</dim>
					<dim>1</dim>
					<dim>1</dim>
				</port>
				<port id="1">
					<dim>1</dim>
				</port>
				<port id="2">
					<dim>1</dim>
				</port>
				<port id="3">
					<dim>1</dim>
					<dim>1</dim>
					<dim>1</dim>
					<dim>1</dim>
				</port>
				<port id="4">
					<dim>1</dim>
					<dim>1</dim>
					<dim>1</dim>
					<dim>1</dim>
				</port>
			</input>
			<output>
				<port id="5" precision="FP16">
					<dim>1</dim>
					<dim>48</dim>
					<dim>1</dim>
					<dim>1</dim>
				</port>
			</output>
		</layer>
		<layer id="253" name="conv2_3/2/scale/Add_" type="Add" version="opset1">
			<input>
				<port id="0">
					<dim>1</dim>
					<dim>48</dim>
					<dim>68</dim>
					<dim>124</dim>
				</port>
				<port id="1">
					<dim>1</dim>
					<dim>48</dim>
					<dim>1</dim>
					<dim>1</dim>
				</port>
			</input>
			<output>
				<port id="2" precision="FP16">
					<dim>1</dim>
					<dim>48</dim>
					<dim>68</dim>
					<dim>124</dim>
				</port>
			</output>
		</layer>
		<layer id="254" name="conv2_3/2/relu" type="ReLU" version="opset1">
			<input>
				<port id="0">
					<dim>1</dim>
					<dim>48</dim>
					<dim>68</dim>
					<dim>124</dim>
				</port>
			</input>
			<output>
				<port id="1" precision="FP16">
					<dim>1</dim>
					<dim>48</dim>
					<dim>68</dim>
					<dim>124</dim>
				</port>
			</output>
		</layer>
		<layer id="255" name="32623266_const" type="Const" version="opset1">
			<data element_type="f16" offset="32754" shape="" size="2"/>
			<output>
				<port id="1" precision="FP16"/>
			</output>
		</layer>
		<layer id="256" name="32633267_const" type="Const" version="opset1">
			<data element_type="f16" offset="32756" shape="" size="2"/>
			<output>
				<port id="1" precision="FP16"/>
			</output>
		</layer>
		<layer id="257" name="32643268_const" type="Const" version="opset1">
			<data element_type="f16" offset="32754" shape="" size="2"/>
			<output>
				<port id="1" precision="FP16"/>
			</output>
		</layer>
		<layer id="258" name="32653269_const" type="Const" version="opset1">
			<data element_type="f16" offset="32756" shape="" size="2"/>
			<output>
				<port id="1" precision="FP16"/>
			</output>
		</layer>
		<layer id="259" name="conv2_3/3/conv/WithoutBiases/fq_input_0" type="FakeQuantize" version="opset1">
			<data levels="256"/>
			<input>
				<port id="0">
					<dim>1</dim>
					<dim>48</dim>
					<dim>68</dim>
					<dim>124</dim>
				</port>
				<port id="1"/>
				<port id="2"/>
				<port id="3"/>
				<port id="4"/>
			</input>
			<output>
				<port id="5" precision="FP16">
					<dim>1</dim>
					<dim>48</dim>
					<dim>68</dim>
					<dim>124</dim>
				</port>
			</output>
		</layer>
		<layer id="260" name="conv2_3/3/conv/WithoutBiases/fq_weights_1/Convert_to_float/Cast_09834_const" type="Const" version="opset1">
			<data element_type="u8" offset="32758" shape="64,48,1,1" size="3072"/>
			<output>
				<port id="1" precision="U8">
					<dim>64</dim>
					<dim>48</dim>
					<dim>1</dim>
					<dim>1</dim>
				</port>
			</output>
		</layer>
		<layer id="261" name="conv2_3/3/conv/WithoutBiases/fq_weights_1/Convert_to_float" type="Convert" version="opset1">
			<data destination_type="f16"/>
			<input>
				<port id="0">
					<dim>64</dim>
					<dim>48</dim>
					<dim>1</dim>
					<dim>1</dim>
				</port>
			</input>
			<output>
				<port id="1" precision="FP16">
					<dim>64</dim>
					<dim>48</dim>
					<dim>1</dim>
					<dim>1</dim>
				</port>
			</output>
		</layer>
		<layer id="262" name="conv2_3/3/conv/WithoutBiases/fq_weights_1/Copy/out_low8539_const" type="Const" version="opset1">
			<data element_type="f16" offset="35830" shape="1" size="2"/>
			<output>
				<port id="1" precision="FP16">
					<dim>1</dim>
				</port>
			</output>
		</layer>
		<layer id="263" name="conv2_3/3/conv/WithoutBiases/fq_weights_1/Copy/out_high8540_const" type="Const" version="opset1">
			<data element_type="f16" offset="2364" shape="1" size="2"/>
			<output>
				<port id="1" precision="FP16">
					<dim>1</dim>
				</port>
			</output>
		</layer>
		<layer id="264" name="32743278_const" type="Const" version="opset1">
			<data element_type="f16" offset="35832" shape="64,1,1,1" size="128"/>
			<output>
				<port id="1" precision="FP16">
					<dim>64</dim>
					<dim>1</dim>
					<dim>1</dim>
					<dim>1</dim>
				</port>
			</output>
		</layer>
		<layer id="265" name="32753279_const" type="Const" version="opset1">
			<data element_type="f16" offset="35960" shape="64,1,1,1" size="128"/>
			<output>
				<port id="1" precision="FP16">
					<dim>64</dim>
					<dim>1</dim>
					<dim>1</dim>
					<dim>1</dim>
				</port>
			</output>
		</layer>
		<layer id="266" name="conv2_3/3/conv/WithoutBiases/fq_weights_1" type="FakeQuantize" version="opset1">
			<data levels="255"/>
			<input>
				<port id="0">
					<dim>64</dim>
					<dim>48</dim>
					<dim>1</dim>
					<dim>1</dim>
				</port>
				<port id="1">
					<dim>1</dim>
				</port>
				<port id="2">
					<dim>1</dim>
				</port>
				<port id="3">
					<dim>64</dim>
					<dim>1</dim>
					<dim>1</dim>
					<dim>1</dim>
				</port>
				<port id="4">
					<dim>64</dim>
					<dim>1</dim>
					<dim>1</dim>
					<dim>1</dim>
				</port>
			</input>
			<output>
				<port id="5" precision="FP16">
					<dim>64</dim>
					<dim>48</dim>
					<dim>1</dim>
					<dim>1</dim>
				</port>
			</output>
		</layer>
		<layer id="267" name="conv2_3/3/conv/WithoutBiases" type="Convolution" version="opset1">
			<data dilations="1,1" output_padding="0,0" pads_begin="0,0" pads_end="0,0" strides="1,1"/>
			<input>
				<port id="0">
					<dim>1</dim>
					<dim>48</dim>
					<dim>68</dim>
					<dim>124</dim>
				</port>
				<port id="1">
					<dim>64</dim>
					<dim>48</dim>
					<dim>1</dim>
					<dim>1</dim>
				</port>
			</input>
			<output>
				<port id="2" precision="FP16">
					<dim>1</dim>
					<dim>64</dim>
					<dim>68</dim>
					<dim>124</dim>
				</port>
			</output>
		</layer>
		<layer id="268" name="conv2_3/3/conv/Dims4770/copy_const623_const" type="Const" version="opset1">
			<data element_type="f16" offset="36088" shape="1,64,1,1" size="128"/>
			<output>
				<port id="1" precision="FP16">
					<dim>1</dim>
					<dim>64</dim>
					<dim>1</dim>
					<dim>1</dim>
				</port>
			</output>
		</layer>
		<layer id="269" name="conv2_3/3/conv" type="Add" version="opset1">
			<input>
				<port id="0">
					<dim>1</dim>
					<dim>64</dim>
					<dim>68</dim>
					<dim>124</dim>
				</port>
				<port id="1">
					<dim>1</dim>
					<dim>64</dim>
					<dim>1</dim>
					<dim>1</dim>
				</port>
			</input>
			<output>
				<port id="2" precision="FP16">
					<dim>1</dim>
					<dim>64</dim>
					<dim>68</dim>
					<dim>124</dim>
				</port>
			</output>
		</layer>
		<layer id="270" name="19921996_const" type="Const" version="opset1">
			<data element_type="f16" offset="36216" shape="" size="2"/>
			<output>
				<port id="1" precision="FP16"/>
			</output>
		</layer>
		<layer id="271" name="19931997_const" type="Const" version="opset1">
			<data element_type="f16" offset="36218" shape="" size="2"/>
			<output>
				<port id="1" precision="FP16"/>
			</output>
		</layer>
		<layer id="272" name="19941998_const" type="Const" version="opset1">
			<data element_type="f16" offset="36216" shape="" size="2"/>
			<output>
				<port id="1" precision="FP16"/>
			</output>
		</layer>
		<layer id="273" name="19951999_const" type="Const" version="opset1">
			<data element_type="f16" offset="36218" shape="" size="2"/>
			<output>
				<port id="1" precision="FP16"/>
			</output>
		</layer>
		<layer id="274" name="conv2_3/fq_input_0" type="FakeQuantize" version="opset1">
			<data levels="256"/>
			<input>
				<port id="0">
					<dim>1</dim>
					<dim>64</dim>
					<dim>68</dim>
					<dim>124</dim>
				</port>
				<port id="1"/>
				<port id="2"/>
				<port id="3"/>
				<port id="4"/>
			</input>
			<output>
				<port id="5" precision="FP16">
					<dim>1</dim>
					<dim>64</dim>
					<dim>68</dim>
					<dim>124</dim>
				</port>
			</output>
		</layer>
		<layer id="275" name="Pooling_9040" type="MaxPool" version="opset1">
			<data kernel="1,1" pads_begin="0,0" pads_end="0,0" strides="2,2"/>
			<input>
				<port id="0">
					<dim>1</dim>
					<dim>64</dim>
					<dim>136</dim>
					<dim>248</dim>
				</port>
			</input>
			<output>
				<port id="1" precision="FP16">
					<dim>1</dim>
					<dim>64</dim>
					<dim>68</dim>
					<dim>124</dim>
				</port>
			</output>
		</layer>
		<layer id="276" name="conv2_3" type="Add" version="opset1">
			<input>
				<port id="0">
					<dim>1</dim>
					<dim>64</dim>
					<dim>68</dim>
					<dim>124</dim>
				</port>
				<port id="1">
					<dim>1</dim>
					<dim>64</dim>
					<dim>68</dim>
					<dim>124</dim>
				</port>
			</input>
			<output>
				<port id="2" precision="FP16">
					<dim>1</dim>
					<dim>64</dim>
					<dim>68</dim>
					<dim>124</dim>
				</port>
			</output>
		</layer>
		<layer id="277" name="19021906_const" type="Const" version="opset1">
			<data element_type="f16" offset="36220" shape="" size="2"/>
			<output>
				<port id="1" precision="FP16"/>
			</output>
		</layer>
		<layer id="278" name="19031907_const" type="Const" version="opset1">
			<data element_type="f16" offset="36222" shape="" size="2"/>
			<output>
				<port id="1" precision="FP16"/>
			</output>
		</layer>
		<layer id="279" name="19041908_const" type="Const" version="opset1">
			<data element_type="f16" offset="36220" shape="" size="2"/>
			<output>
				<port id="1" precision="FP16"/>
			</output>
		</layer>
		<layer id="280" name="19051909_const" type="Const" version="opset1">
			<data element_type="f16" offset="36222" shape="" size="2"/>
			<output>
				<port id="1" precision="FP16"/>
			</output>
		</layer>
		<layer id="281" name="conv3_1/1/conv/WithoutBiases/fq_input_0" type="FakeQuantize" version="opset1">
			<data levels="256"/>
			<input>
				<port id="0">
					<dim>1</dim>
					<dim>64</dim>
					<dim>68</dim>
					<dim>124</dim>
				</port>
				<port id="1"/>
				<port id="2"/>
				<port id="3"/>
				<port id="4"/>
			</input>
			<output>
				<port id="5" precision="FP16">
					<dim>1</dim>
					<dim>64</dim>
					<dim>68</dim>
					<dim>124</dim>
				</port>
			</output>
		</layer>
		<layer id="282" name="conv3_1/1/conv/WithoutBiases/fq_weights_1/Convert_to_float/Cast_09814_const" type="Const" version="opset1">
			<data element_type="u8" offset="36224" shape="48,64,1,1" size="3072"/>
			<output>
				<port id="1" precision="U8">
					<dim>48</dim>
					<dim>64</dim>
					<dim>1</dim>
					<dim>1</dim>
				</port>
			</output>
		</layer>
		<layer id="283" name="conv3_1/1/conv/WithoutBiases/fq_weights_1/Convert_to_float" type="Convert" version="opset1">
			<data destination_type="f16"/>
			<input>
				<port id="0">
					<dim>48</dim>
					<dim>64</dim>
					<dim>1</dim>
					<dim>1</dim>
				</port>
			</input>
			<output>
				<port id="1" precision="FP16">
					<dim>48</dim>
					<dim>64</dim>
					<dim>1</dim>
					<dim>1</dim>
				</port>
			</output>
		</layer>
		<layer id="284" name="conv3_1/1/conv/WithoutBiases/fq_weights_1/Copy/out_low8291_const" type="Const" version="opset1">
			<data element_type="f16" offset="35830" shape="1" size="2"/>
			<output>
				<port id="1" precision="FP16">
					<dim>1</dim>
				</port>
			</output>
		</layer>
		<layer id="285" name="conv3_1/1/conv/WithoutBiases/fq_weights_1/Copy/out_high8292_const" type="Const" version="opset1">
			<data element_type="f16" offset="2364" shape="1" size="2"/>
			<output>
				<port id="1" precision="FP16">
					<dim>1</dim>
				</port>
			</output>
		</layer>
		<layer id="286" name="19141918_const" type="Const" version="opset1">
			<data element_type="f16" offset="39296" shape="48,1,1,1" size="96"/>
			<output>
				<port id="1" precision="FP16">
					<dim>48</dim>
					<dim>1</dim>
					<dim>1</dim>
					<dim>1</dim>
				</port>
			</output>
		</layer>
		<layer id="287" name="19151919_const" type="Const" version="opset1">
			<data element_type="f16" offset="39392" shape="48,1,1,1" size="96"/>
			<output>
				<port id="1" precision="FP16">
					<dim>48</dim>
					<dim>1</dim>
					<dim>1</dim>
					<dim>1</dim>
				</port>
			</output>
		</layer>
		<layer id="288" name="conv3_1/1/conv/WithoutBiases/fq_weights_1" type="FakeQuantize" version="opset1">
			<data levels="255"/>
			<input>
				<port id="0">
					<dim>48</dim>
					<dim>64</dim>
					<dim>1</dim>
					<dim>1</dim>
				</port>
				<port id="1">
					<dim>1</dim>
				</port>
				<port id="2">
					<dim>1</dim>
				</port>
				<port id="3">
					<dim>48</dim>
					<dim>1</dim>
					<dim>1</dim>
					<dim>1</dim>
				</port>
				<port id="4">
					<dim>48</dim>
					<dim>1</dim>
					<dim>1</dim>
					<dim>1</dim>
				</port>
			</input>
			<output>
				<port id="5" precision="FP16">
					<dim>48</dim>
					<dim>64</dim>
					<dim>1</dim>
					<dim>1</dim>
				</port>
			</output>
		</layer>
		<layer id="289" name="conv3_1/1/conv/WithoutBiases" type="Convolution" version="opset1">
			<data dilations="1,1" output_padding="0,0" pads_begin="0,0" pads_end="0,0" strides="1,1"/>
			<input>
				<port id="0">
					<dim>1</dim>
					<dim>64</dim>
					<dim>68</dim>
					<dim>124</dim>
				</port>
				<port id="1">
					<dim>48</dim>
					<dim>64</dim>
					<dim>1</dim>
					<dim>1</dim>
				</port>
			</input>
			<output>
				<port id="2" precision="FP16">
					<dim>1</dim>
					<dim>48</dim>
					<dim>68</dim>
					<dim>124</dim>
				</port>
			</output>
		</layer>
		<layer id="290" name="conv3_1/1/conv/Dims4464/copy_const629_const" type="Const" version="opset1">
			<data element_type="f16" offset="39488" shape="1,48,1,1" size="96"/>
			<output>
				<port id="1" precision="FP16">
					<dim>1</dim>
					<dim>48</dim>
					<dim>1</dim>
					<dim>1</dim>
				</port>
			</output>
		</layer>
		<layer id="291" name="conv3_1/1/conv" type="Add" version="opset1">
			<input>
				<port id="0">
					<dim>1</dim>
					<dim>48</dim>
					<dim>68</dim>
					<dim>124</dim>
				</port>
				<port id="1">
					<dim>1</dim>
					<dim>48</dim>
					<dim>1</dim>
					<dim>1</dim>
				</port>
			</input>
			<output>
				<port id="2" precision="FP16">
					<dim>1</dim>
					<dim>48</dim>
					<dim>68</dim>
					<dim>124</dim>
				</port>
			</output>
		</layer>
		<layer id="292" name="conv3_1/1/relu" type="ReLU" version="opset1">
			<input>
				<port id="0">
					<dim>1</dim>
					<dim>48</dim>
					<dim>68</dim>
					<dim>124</dim>
				</port>
			</input>
			<output>
				<port id="1" precision="FP16">
					<dim>1</dim>
					<dim>48</dim>
					<dim>68</dim>
					<dim>124</dim>
				</port>
			</output>
		</layer>
		<layer id="293" name="20722076_const" type="Const" version="opset1">
			<data element_type="f16" offset="39584" shape="" size="2"/>
			<output>
				<port id="1" precision="FP16"/>
			</output>
		</layer>
		<layer id="294" name="20732077_const" type="Const" version="opset1">
			<data element_type="f16" offset="39586" shape="" size="2"/>
			<output>
				<port id="1" precision="FP16"/>
			</output>
		</layer>
		<layer id="295" name="20742078_const" type="Const" version="opset1">
			<data element_type="f16" offset="39584" shape="" size="2"/>
			<output>
				<port id="1" precision="FP16"/>
			</output>
		</layer>
		<layer id="296" name="20752079_const" type="Const" version="opset1">
			<data element_type="f16" offset="39586" shape="" size="2"/>
			<output>
				<port id="1" precision="FP16"/>
			</output>
		</layer>
		<layer id="297" name="conv3_1/2/conv/WithoutBiases/fq_input_0" type="FakeQuantize" version="opset1">
			<data levels="256"/>
			<input>
				<port id="0">
					<dim>1</dim>
					<dim>48</dim>
					<dim>68</dim>
					<dim>124</dim>
				</port>
				<port id="1"/>
				<port id="2"/>
				<port id="3"/>
				<port id="4"/>
			</input>
			<output>
				<port id="5" precision="FP16">
					<dim>1</dim>
					<dim>48</dim>
					<dim>68</dim>
					<dim>124</dim>
				</port>
			</output>
		</layer>
		<layer id="298" name="conv3_1/2/conv/WithoutBiases/fq_weights_1/Convert_to_float/Cast_09930_const" type="Const" version="opset1">
			<data element_type="u8" offset="39588" shape="48,48,3,3" size="20736"/>
			<output>
				<port id="1" precision="U8">
					<dim>48</dim>
					<dim>48</dim>
					<dim>3</dim>
					<dim>3</dim>
				</port>
			</output>
		</layer>
		<layer id="299" name="conv3_1/2/conv/WithoutBiases/fq_weights_1/Convert_to_float" type="Convert" version="opset1">
			<data destination_type="f16"/>
			<input>
				<port id="0">
					<dim>48</dim>
					<dim>48</dim>
					<dim>3</dim>
					<dim>3</dim>
				</port>
			</input>
			<output>
				<port id="1" precision="FP16">
					<dim>48</dim>
					<dim>48</dim>
					<dim>3</dim>
					<dim>3</dim>
				</port>
			</output>
		</layer>
		<layer id="300" name="conv3_1/2/conv/WithoutBiases/fq_weights_1/Copy/out_low8627_const" type="Const" version="opset1">
			<data element_type="f16" offset="60324" shape="1" size="2"/>
			<output>
				<port id="1" precision="FP16">
					<dim>1</dim>
				</port>
			</output>
		</layer>
		<layer id="301" name="conv3_1/2/conv/WithoutBiases/fq_weights_1/Copy/out_high8628_const" type="Const" version="opset1">
			<data element_type="f16" offset="2364" shape="1" size="2"/>
			<output>
				<port id="1" precision="FP16">
					<dim>1</dim>
				</port>
			</output>
		</layer>
		<layer id="302" name="20842088_const" type="Const" version="opset1">
			<data element_type="f16" offset="60326" shape="48,1,1,1" size="96"/>
			<output>
				<port id="1" precision="FP16">
					<dim>48</dim>
					<dim>1</dim>
					<dim>1</dim>
					<dim>1</dim>
				</port>
			</output>
		</layer>
		<layer id="303" name="20852089_const" type="Const" version="opset1">
			<data element_type="f16" offset="60422" shape="48,1,1,1" size="96"/>
			<output>
				<port id="1" precision="FP16">
					<dim>48</dim>
					<dim>1</dim>
					<dim>1</dim>
					<dim>1</dim>
				</port>
			</output>
		</layer>
		<layer id="304" name="conv3_1/2/conv/WithoutBiases/fq_weights_1" type="FakeQuantize" version="opset1">
			<data levels="255"/>
			<input>
				<port id="0">
					<dim>48</dim>
					<dim>48</dim>
					<dim>3</dim>
					<dim>3</dim>
				</port>
				<port id="1">
					<dim>1</dim>
				</port>
				<port id="2">
					<dim>1</dim>
				</port>
				<port id="3">
					<dim>48</dim>
					<dim>1</dim>
					<dim>1</dim>
					<dim>1</dim>
				</port>
				<port id="4">
					<dim>48</dim>
					<dim>1</dim>
					<dim>1</dim>
					<dim>1</dim>
				</port>
			</input>
			<output>
				<port id="5" precision="FP16">
					<dim>48</dim>
					<dim>48</dim>
					<dim>3</dim>
					<dim>3</dim>
				</port>
			</output>
		</layer>
		<layer id="305" name="conv3_1/2/conv/WithoutBiases" type="Convolution" version="opset1">
			<data dilations="1,1" output_padding="0,0" pads_begin="1,1" pads_end="1,1" strides="1,1"/>
			<input>
				<port id="0">
					<dim>1</dim>
					<dim>48</dim>
					<dim>68</dim>
					<dim>124</dim>
				</port>
				<port id="1">
					<dim>48</dim>
					<dim>48</dim>
					<dim>3</dim>
					<dim>3</dim>
				</port>
			</input>
			<output>
				<port id="2" precision="FP16">
					<dim>1</dim>
					<dim>48</dim>
					<dim>68</dim>
					<dim>124</dim>
				</port>
			</output>
		</layer>
		<layer id="306" name="conv3_1/2/conv/Dims4560/copy_const634_const" type="Const" version="opset1">
			<data element_type="f16" offset="60518" shape="1,48,1,1" size="96"/>
			<output>
				<port id="1" precision="FP16">
					<dim>1</dim>
					<dim>48</dim>
					<dim>1</dim>
					<dim>1</dim>
				</port>
			</output>
		</layer>
		<layer id="307" name="conv3_1/2/conv" type="Add" version="opset1">
			<input>
				<port id="0">
					<dim>1</dim>
					<dim>48</dim>
					<dim>68</dim>
					<dim>124</dim>
				</port>
				<port id="1">
					<dim>1</dim>
					<dim>48</dim>
					<dim>1</dim>
					<dim>1</dim>
				</port>
			</input>
			<output>
				<port id="2" precision="FP16">
					<dim>1</dim>
					<dim>48</dim>
					<dim>68</dim>
					<dim>124</dim>
				</port>
			</output>
		</layer>
		<layer id="308" name="51915195_const" type="Const" version="opset1">
			<data element_type="f16" offset="60614" shape="" size="2"/>
			<output>
				<port id="1" precision="FP16"/>
			</output>
		</layer>
		<layer id="309" name="51925196_const" type="Const" version="opset1">
			<data element_type="f16" offset="60616" shape="" size="2"/>
			<output>
				<port id="1" precision="FP16"/>
			</output>
		</layer>
		<layer id="310" name="51935197_const" type="Const" version="opset1">
			<data element_type="f16" offset="60614" shape="" size="2"/>
			<output>
				<port id="1" precision="FP16"/>
			</output>
		</layer>
		<layer id="311" name="51945198_const" type="Const" version="opset1">
			<data element_type="f16" offset="60616" shape="" size="2"/>
			<output>
				<port id="1" precision="FP16"/>
			</output>
		</layer>
		<layer id="312" name="conv3_1/2/concat/fq_input_0" type="FakeQuantize" version="opset1">
			<data levels="256"/>
			<input>
				<port id="0">
					<dim>1</dim>
					<dim>48</dim>
					<dim>68</dim>
					<dim>124</dim>
				</port>
				<port id="1"/>
				<port id="2"/>
				<port id="3"/>
				<port id="4"/>
			</input>
			<output>
				<port id="5" precision="FP16">
					<dim>1</dim>
					<dim>48</dim>
					<dim>68</dim>
					<dim>124</dim>
				</port>
			</output>
		</layer>
		<layer id="313" name="conv3_1/2/neg/mul_/Negate" type="Negative" version="opset1">
			<input>
				<port id="0">
					<dim>1</dim>
					<dim>48</dim>
					<dim>68</dim>
					<dim>124</dim>
				</port>
			</input>
			<output>
				<port id="1" precision="FP16">
					<dim>1</dim>
					<dim>48</dim>
					<dim>68</dim>
					<dim>124</dim>
				</port>
			</output>
		</layer>
		<layer id="314" name="52015205_const" type="Const" version="opset1">
			<data element_type="f16" offset="60614" shape="" size="2"/>
			<output>
				<port id="1" precision="FP16"/>
			</output>
		</layer>
		<layer id="315" name="52025206_const" type="Const" version="opset1">
			<data element_type="f16" offset="60616" shape="" size="2"/>
			<output>
				<port id="1" precision="FP16"/>
			</output>
		</layer>
		<layer id="316" name="52035207_const" type="Const" version="opset1">
			<data element_type="f16" offset="60614" shape="" size="2"/>
			<output>
				<port id="1" precision="FP16"/>
			</output>
		</layer>
		<layer id="317" name="52045208_const" type="Const" version="opset1">
			<data element_type="f16" offset="60616" shape="" size="2"/>
			<output>
				<port id="1" precision="FP16"/>
			</output>
		</layer>
		<layer id="318" name="conv3_1/2/concat/fq_input_1" type="FakeQuantize" version="opset1">
			<data levels="256"/>
			<input>
				<port id="0">
					<dim>1</dim>
					<dim>48</dim>
					<dim>68</dim>
					<dim>124</dim>
				</port>
				<port id="1"/>
				<port id="2"/>
				<port id="3"/>
				<port id="4"/>
			</input>
			<output>
				<port id="5" precision="FP16">
					<dim>1</dim>
					<dim>48</dim>
					<dim>68</dim>
					<dim>124</dim>
				</port>
			</output>
		</layer>
		<layer id="319" name="conv3_1/2/concat" type="Concat" version="opset1">
			<data axis="1"/>
			<input>
				<port id="0">
					<dim>1</dim>
					<dim>48</dim>
					<dim>68</dim>
					<dim>124</dim>
				</port>
				<port id="1">
					<dim>1</dim>
					<dim>48</dim>
					<dim>68</dim>
					<dim>124</dim>
				</port>
			</input>
			<output>
				<port id="2" precision="FP16">
					<dim>1</dim>
					<dim>96</dim>
					<dim>68</dim>
					<dim>124</dim>
				</port>
			</output>
		</layer>
		<layer id="320" name="258/Output_0/Data_/copy_const638_const" type="Const" version="opset1">
			<data element_type="f16" offset="60618" shape="1,96,1,1" size="192"/>
			<output>
				<port id="1" precision="FP16">
					<dim>1</dim>
					<dim>96</dim>
					<dim>1</dim>
					<dim>1</dim>
				</port>
			</output>
		</layer>
		<layer id="321" name="conv3_1/2/scale/Mul_" type="Multiply" version="opset1">
			<input>
				<port id="0">
					<dim>1</dim>
					<dim>96</dim>
					<dim>68</dim>
					<dim>124</dim>
				</port>
				<port id="1">
					<dim>1</dim>
					<dim>96</dim>
					<dim>1</dim>
					<dim>1</dim>
				</port>
			</input>
			<output>
				<port id="2" precision="FP16">
					<dim>1</dim>
					<dim>96</dim>
					<dim>68</dim>
					<dim>124</dim>
				</port>
			</output>
		</layer>
		<layer id="322" name="259/Output_0/Data_/copy_const640_const" type="Const" version="opset1">
			<data element_type="f16" offset="60810" shape="1,96,1,1" size="192"/>
			<output>
				<port id="1" precision="FP16">
					<dim>1</dim>
					<dim>96</dim>
					<dim>1</dim>
					<dim>1</dim>
				</port>
			</output>
		</layer>
		<layer id="323" name="conv3_1/2/scale/Add_" type="Add" version="opset1">
			<input>
				<port id="0">
					<dim>1</dim>
					<dim>96</dim>
					<dim>68</dim>
					<dim>124</dim>
				</port>
				<port id="1">
					<dim>1</dim>
					<dim>96</dim>
					<dim>1</dim>
					<dim>1</dim>
				</port>
			</input>
			<output>
				<port id="2" precision="FP16">
					<dim>1</dim>
					<dim>96</dim>
					<dim>68</dim>
					<dim>124</dim>
				</port>
			</output>
		</layer>
		<layer id="324" name="conv3_1/2/relu" type="ReLU" version="opset1">
			<input>
				<port id="0">
					<dim>1</dim>
					<dim>96</dim>
					<dim>68</dim>
					<dim>124</dim>
				</port>
			</input>
			<output>
				<port id="1" precision="FP16">
					<dim>1</dim>
					<dim>96</dim>
					<dim>68</dim>
					<dim>124</dim>
				</port>
			</output>
		</layer>
		<layer id="325" name="26522656_const" type="Const" version="opset1">
			<data element_type="f16" offset="61002" shape="" size="2"/>
			<output>
				<port id="1" precision="FP16"/>
			</output>
		</layer>
		<layer id="326" name="26532657_const" type="Const" version="opset1">
			<data element_type="f16" offset="61004" shape="" size="2"/>
			<output>
				<port id="1" precision="FP16"/>
			</output>
		</layer>
		<layer id="327" name="26542658_const" type="Const" version="opset1">
			<data element_type="f16" offset="61002" shape="" size="2"/>
			<output>
				<port id="1" precision="FP16"/>
			</output>
		</layer>
		<layer id="328" name="26552659_const" type="Const" version="opset1">
			<data element_type="f16" offset="61004" shape="" size="2"/>
			<output>
				<port id="1" precision="FP16"/>
			</output>
		</layer>
		<layer id="329" name="conv3_1/3/conv/WithoutBiases/fq_input_0" type="FakeQuantize" version="opset1">
			<data levels="256"/>
			<input>
				<port id="0">
					<dim>1</dim>
					<dim>96</dim>
					<dim>68</dim>
					<dim>124</dim>
				</port>
				<port id="1"/>
				<port id="2"/>
				<port id="3"/>
				<port id="4"/>
			</input>
			<output>
				<port id="5" precision="FP16">
					<dim>1</dim>
					<dim>96</dim>
					<dim>68</dim>
					<dim>124</dim>
				</port>
			</output>
		</layer>
		<layer id="330" name="conv3_1/3/conv/WithoutBiases/fq_weights_1/Convert_to_float/Cast_09902_const" type="Const" version="opset1">
			<data element_type="u8" offset="61006" shape="128,96,1,1" size="12288"/>
			<output>
				<port id="1" precision="U8">
					<dim>128</dim>
					<dim>96</dim>
					<dim>1</dim>
					<dim>1</dim>
				</port>
			</output>
		</layer>
		<layer id="331" name="conv3_1/3/conv/WithoutBiases/fq_weights_1/Convert_to_float" type="Convert" version="opset1">
			<data destination_type="f16"/>
			<input>
				<port id="0">
					<dim>128</dim>
					<dim>96</dim>
					<dim>1</dim>
					<dim>1</dim>
				</port>
			</input>
			<output>
				<port id="1" precision="FP16">
					<dim>128</dim>
					<dim>96</dim>
					<dim>1</dim>
					<dim>1</dim>
				</port>
			</output>
		</layer>
		<layer id="332" name="conv3_1/3/conv/WithoutBiases/fq_weights_1/Copy/out_low8483_const" type="Const" version="opset1">
			<data element_type="f16" offset="73294" shape="1" size="2"/>
			<output>
				<port id="1" precision="FP16">
					<dim>1</dim>
				</port>
			</output>
		</layer>
		<layer id="333" name="conv3_1/3/conv/WithoutBiases/fq_weights_1/Copy/out_high8484_const" type="Const" version="opset1">
			<data element_type="f16" offset="2364" shape="1" size="2"/>
			<output>
				<port id="1" precision="FP16">
					<dim>1</dim>
				</port>
			</output>
		</layer>
		<layer id="334" name="26642668_const" type="Const" version="opset1">
			<data element_type="f16" offset="73296" shape="128,1,1,1" size="256"/>
			<output>
				<port id="1" precision="FP16">
					<dim>128</dim>
					<dim>1</dim>
					<dim>1</dim>
					<dim>1</dim>
				</port>
			</output>
		</layer>
		<layer id="335" name="26652669_const" type="Const" version="opset1">
			<data element_type="f16" offset="73552" shape="128,1,1,1" size="256"/>
			<output>
				<port id="1" precision="FP16">
					<dim>128</dim>
					<dim>1</dim>
					<dim>1</dim>
					<dim>1</dim>
				</port>
			</output>
		</layer>
		<layer id="336" name="conv3_1/3/conv/WithoutBiases/fq_weights_1" type="FakeQuantize" version="opset1">
			<data levels="255"/>
			<input>
				<port id="0">
					<dim>128</dim>
					<dim>96</dim>
					<dim>1</dim>
					<dim>1</dim>
				</port>
				<port id="1">
					<dim>1</dim>
				</port>
				<port id="2">
					<dim>1</dim>
				</port>
				<port id="3">
					<dim>128</dim>
					<dim>1</dim>
					<dim>1</dim>
					<dim>1</dim>
				</port>
				<port id="4">
					<dim>128</dim>
					<dim>1</dim>
					<dim>1</dim>
					<dim>1</dim>
				</port>
			</input>
			<output>
				<port id="5" precision="FP16">
					<dim>128</dim>
					<dim>96</dim>
					<dim>1</dim>
					<dim>1</dim>
				</port>
			</output>
		</layer>
		<layer id="337" name="conv3_1/3/conv/WithoutBiases" type="Convolution" version="opset1">
			<data dilations="1,1" output_padding="0,0" pads_begin="0,0" pads_end="0,0" strides="1,1"/>
			<input>
				<port id="0">
					<dim>1</dim>
					<dim>96</dim>
					<dim>68</dim>
					<dim>124</dim>
				</port>
				<port id="1">
					<dim>128</dim>
					<dim>96</dim>
					<dim>1</dim>
					<dim>1</dim>
				</port>
			</input>
			<output>
				<port id="2" precision="FP16">
					<dim>1</dim>
					<dim>128</dim>
					<dim>68</dim>
					<dim>124</dim>
				</port>
			</output>
		</layer>
		<layer id="338" name="conv3_1/3/conv/Dims4326/copy_const645_const" type="Const" version="opset1">
			<data element_type="f16" offset="73808" shape="1,128,1,1" size="256"/>
			<output>
				<port id="1" precision="FP16">
					<dim>1</dim>
					<dim>128</dim>
					<dim>1</dim>
					<dim>1</dim>
				</port>
			</output>
		</layer>
		<layer id="339" name="conv3_1/3/conv" type="Add" version="opset1">
			<input>
				<port id="0">
					<dim>1</dim>
					<dim>128</dim>
					<dim>68</dim>
					<dim>124</dim>
				</port>
				<port id="1">
					<dim>1</dim>
					<dim>128</dim>
					<dim>1</dim>
					<dim>1</dim>
				</port>
			</input>
			<output>
				<port id="2" precision="FP16">
					<dim>1</dim>
					<dim>128</dim>
					<dim>68</dim>
					<dim>124</dim>
				</port>
			</output>
		</layer>
		<layer id="340" name="21622166_const" type="Const" version="opset1">
			<data element_type="f16" offset="74064" shape="" size="2"/>
			<output>
				<port id="1" precision="FP16"/>
			</output>
		</layer>
		<layer id="341" name="21632167_const" type="Const" version="opset1">
			<data element_type="f16" offset="74066" shape="" size="2"/>
			<output>
				<port id="1" precision="FP16"/>
			</output>
		</layer>
		<layer id="342" name="21642168_const" type="Const" version="opset1">
			<data element_type="f16" offset="74064" shape="" size="2"/>
			<output>
				<port id="1" precision="FP16"/>
			</output>
		</layer>
		<layer id="343" name="21652169_const" type="Const" version="opset1">
			<data element_type="f16" offset="74066" shape="" size="2"/>
			<output>
				<port id="1" precision="FP16"/>
			</output>
		</layer>
		<layer id="344" name="conv3_1/fq_input_0" type="FakeQuantize" version="opset1">
			<data levels="256"/>
			<input>
				<port id="0">
					<dim>1</dim>
					<dim>128</dim>
					<dim>68</dim>
					<dim>124</dim>
				</port>
				<port id="1"/>
				<port id="2"/>
				<port id="3"/>
				<port id="4"/>
			</input>
			<output>
				<port id="5" precision="FP16">
					<dim>1</dim>
					<dim>128</dim>
					<dim>68</dim>
					<dim>124</dim>
				</port>
			</output>
		</layer>
		<layer id="345" name="conv3_1/proj/WithoutBiases/fq_weights_1/Convert_to_float/Cast_09936_const" type="Const" version="opset1">
			<data element_type="u8" offset="74068" shape="128,64,1,1" size="8192"/>
			<output>
				<port id="1" precision="U8">
					<dim>128</dim>
					<dim>64</dim>
					<dim>1</dim>
					<dim>1</dim>
				</port>
			</output>
		</layer>
		<layer id="346" name="conv3_1/proj/WithoutBiases/fq_weights_1/Convert_to_float" type="Convert" version="opset1">
			<data destination_type="f16"/>
			<input>
				<port id="0">
					<dim>128</dim>
					<dim>64</dim>
					<dim>1</dim>
					<dim>1</dim>
				</port>
			</input>
			<output>
				<port id="1" precision="FP16">
					<dim>128</dim>
					<dim>64</dim>
					<dim>1</dim>
					<dim>1</dim>
				</port>
			</output>
		</layer>
		<layer id="347" name="conv3_1/proj/WithoutBiases/fq_weights_1/Copy/out_low8643_const" type="Const" version="opset1">
			<data element_type="f16" offset="73294" shape="1" size="2"/>
			<output>
				<port id="1" precision="FP16">
					<dim>1</dim>
				</port>
			</output>
		</layer>
		<layer id="348" name="conv3_1/proj/WithoutBiases/fq_weights_1/Copy/out_high8644_const" type="Const" version="opset1">
			<data element_type="f16" offset="2364" shape="1" size="2"/>
			<output>
				<port id="1" precision="FP16">
					<dim>1</dim>
				</port>
			</output>
		</layer>
		<layer id="349" name="18341838_const" type="Const" version="opset1">
			<data element_type="f16" offset="82260" shape="128,1,1,1" size="256"/>
			<output>
				<port id="1" precision="FP16">
					<dim>128</dim>
					<dim>1</dim>
					<dim>1</dim>
					<dim>1</dim>
				</port>
			</output>
		</layer>
		<layer id="350" name="18351839_const" type="Const" version="opset1">
			<data element_type="f16" offset="82516" shape="128,1,1,1" size="256"/>
			<output>
				<port id="1" precision="FP16">
					<dim>128</dim>
					<dim>1</dim>
					<dim>1</dim>
					<dim>1</dim>
				</port>
			</output>
		</layer>
		<layer id="351" name="conv3_1/proj/WithoutBiases/fq_weights_1" type="FakeQuantize" version="opset1">
			<data levels="255"/>
			<input>
				<port id="0">
					<dim>128</dim>
					<dim>64</dim>
					<dim>1</dim>
					<dim>1</dim>
				</port>
				<port id="1">
					<dim>1</dim>
				</port>
				<port id="2">
					<dim>1</dim>
				</port>
				<port id="3">
					<dim>128</dim>
					<dim>1</dim>
					<dim>1</dim>
					<dim>1</dim>
				</port>
				<port id="4">
					<dim>128</dim>
					<dim>1</dim>
					<dim>1</dim>
					<dim>1</dim>
				</port>
			</input>
			<output>
				<port id="5" precision="FP16">
					<dim>128</dim>
					<dim>64</dim>
					<dim>1</dim>
					<dim>1</dim>
				</port>
			</output>
		</layer>
		<layer id="352" name="conv3_1/proj/WithoutBiases" type="Convolution" version="opset1">
			<data dilations="1,1" output_padding="0,0" pads_begin="0,0" pads_end="0,0" strides="1,1"/>
			<input>
				<port id="0">
					<dim>1</dim>
					<dim>64</dim>
					<dim>68</dim>
					<dim>124</dim>
				</port>
				<port id="1">
					<dim>128</dim>
					<dim>64</dim>
					<dim>1</dim>
					<dim>1</dim>
				</port>
			</input>
			<output>
				<port id="2" precision="FP16">
					<dim>1</dim>
					<dim>128</dim>
					<dim>68</dim>
					<dim>124</dim>
				</port>
			</output>
		</layer>
		<layer id="353" name="conv3_1/proj/Dims4602/copy_const649_const" type="Const" version="opset1">
			<data element_type="f16" offset="82772" shape="1,128,1,1" size="256"/>
			<output>
				<port id="1" precision="FP16">
					<dim>1</dim>
					<dim>128</dim>
					<dim>1</dim>
					<dim>1</dim>
				</port>
			</output>
		</layer>
		<layer id="354" name="conv3_1/proj" type="Add" version="opset1">
			<input>
				<port id="0">
					<dim>1</dim>
					<dim>128</dim>
					<dim>68</dim>
					<dim>124</dim>
				</port>
				<port id="1">
					<dim>1</dim>
					<dim>128</dim>
					<dim>1</dim>
					<dim>1</dim>
				</port>
			</input>
			<output>
				<port id="2" precision="FP16">
					<dim>1</dim>
					<dim>128</dim>
					<dim>68</dim>
					<dim>124</dim>
				</port>
			</output>
		</layer>
		<layer id="355" name="21722176_const" type="Const" version="opset1">
			<data element_type="f16" offset="83028" shape="" size="2"/>
			<output>
				<port id="1" precision="FP16"/>
			</output>
		</layer>
		<layer id="356" name="21732177_const" type="Const" version="opset1">
			<data element_type="f16" offset="83030" shape="" size="2"/>
			<output>
				<port id="1" precision="FP16"/>
			</output>
		</layer>
		<layer id="357" name="21742178_const" type="Const" version="opset1">
			<data element_type="f16" offset="83028" shape="" size="2"/>
			<output>
				<port id="1" precision="FP16"/>
			</output>
		</layer>
		<layer id="358" name="21752179_const" type="Const" version="opset1">
			<data element_type="f16" offset="83030" shape="" size="2"/>
			<output>
				<port id="1" precision="FP16"/>
			</output>
		</layer>
		<layer id="359" name="conv3_1/fq_input_1" type="FakeQuantize" version="opset1">
			<data levels="256"/>
			<input>
				<port id="0">
					<dim>1</dim>
					<dim>128</dim>
					<dim>68</dim>
					<dim>124</dim>
				</port>
				<port id="1"/>
				<port id="2"/>
				<port id="3"/>
				<port id="4"/>
			</input>
			<output>
				<port id="5" precision="FP16">
					<dim>1</dim>
					<dim>128</dim>
					<dim>68</dim>
					<dim>124</dim>
				</port>
			</output>
		</layer>
		<layer id="360" name="conv3_1" type="Add" version="opset1">
			<input>
				<port id="0">
					<dim>1</dim>
					<dim>128</dim>
					<dim>68</dim>
					<dim>124</dim>
				</port>
				<port id="1">
					<dim>1</dim>
					<dim>128</dim>
					<dim>68</dim>
					<dim>124</dim>
				</port>
			</input>
			<output>
				<port id="2" precision="FP16">
					<dim>1</dim>
					<dim>128</dim>
					<dim>68</dim>
					<dim>124</dim>
				</port>
			</output>
		</layer>
		<layer id="361" name="34023406_const" type="Const" version="opset1">
			<data element_type="f16" offset="83032" shape="" size="2"/>
			<output>
				<port id="1" precision="FP16"/>
			</output>
		</layer>
		<layer id="362" name="34033407_const" type="Const" version="opset1">
			<data element_type="f16" offset="83034" shape="" size="2"/>
			<output>
				<port id="1" precision="FP16"/>
			</output>
		</layer>
		<layer id="363" name="34043408_const" type="Const" version="opset1">
			<data element_type="f16" offset="83032" shape="" size="2"/>
			<output>
				<port id="1" precision="FP16"/>
			</output>
		</layer>
		<layer id="364" name="34053409_const" type="Const" version="opset1">
			<data element_type="f16" offset="83034" shape="" size="2"/>
			<output>
				<port id="1" precision="FP16"/>
			</output>
		</layer>
		<layer id="365" name="conv3_2/1/conv/WithoutBiases/fq_input_0" type="FakeQuantize" version="opset1">
			<data levels="256"/>
			<input>
				<port id="0">
					<dim>1</dim>
					<dim>128</dim>
					<dim>68</dim>
					<dim>124</dim>
				</port>
				<port id="1"/>
				<port id="2"/>
				<port id="3"/>
				<port id="4"/>
			</input>
			<output>
				<port id="5" precision="FP16">
					<dim>1</dim>
					<dim>128</dim>
					<dim>68</dim>
					<dim>124</dim>
				</port>
			</output>
		</layer>
		<layer id="366" name="conv3_2/1/conv/WithoutBiases/fq_weights_1/Convert_to_float/Cast_09888_const" type="Const" version="opset1">
			<data element_type="u8" offset="83036" shape="48,128,1,1" size="6144"/>
			<output>
				<port id="1" precision="U8">
					<dim>48</dim>
					<dim>128</dim>
					<dim>1</dim>
					<dim>1</dim>
				</port>
			</output>
		</layer>
		<layer id="367" name="conv3_2/1/conv/WithoutBiases/fq_weights_1/Convert_to_float" type="Convert" version="opset1">
			<data destination_type="f16"/>
			<input>
				<port id="0">
					<dim>48</dim>
					<dim>128</dim>
					<dim>1</dim>
					<dim>1</dim>
				</port>
			</input>
			<output>
				<port id="1" precision="FP16">
					<dim>48</dim>
					<dim>128</dim>
					<dim>1</dim>
					<dim>1</dim>
				</port>
			</output>
		</layer>
		<layer id="368" name="conv3_2/1/conv/WithoutBiases/fq_weights_1/Copy/out_low8123_const" type="Const" version="opset1">
			<data element_type="f16" offset="73294" shape="1" size="2"/>
			<output>
				<port id="1" precision="FP16">
					<dim>1</dim>
				</port>
			</output>
		</layer>
		<layer id="369" name="conv3_2/1/conv/WithoutBiases/fq_weights_1/Copy/out_high8124_const" type="Const" version="opset1">
			<data element_type="f16" offset="2364" shape="1" size="2"/>
			<output>
				<port id="1" precision="FP16">
					<dim>1</dim>
				</port>
			</output>
		</layer>
		<layer id="370" name="34143418_const" type="Const" version="opset1">
			<data element_type="f16" offset="89180" shape="48,1,1,1" size="96"/>
			<output>
				<port id="1" precision="FP16">
					<dim>48</dim>
					<dim>1</dim>
					<dim>1</dim>
					<dim>1</dim>
				</port>
			</output>
		</layer>
		<layer id="371" name="34153419_const" type="Const" version="opset1">
			<data element_type="f16" offset="89276" shape="48,1,1,1" size="96"/>
			<output>
				<port id="1" precision="FP16">
					<dim>48</dim>
					<dim>1</dim>
					<dim>1</dim>
					<dim>1</dim>
				</port>
			</output>
		</layer>
		<layer id="372" name="conv3_2/1/conv/WithoutBiases/fq_weights_1" type="FakeQuantize" version="opset1">
			<data levels="255"/>
			<input>
				<port id="0">
					<dim>48</dim>
					<dim>128</dim>
					<dim>1</dim>
					<dim>1</dim>
				</port>
				<port id="1">
					<dim>1</dim>
				</port>
				<port id="2">
					<dim>1</dim>
				</port>
				<port id="3">
					<dim>48</dim>
					<dim>1</dim>
					<dim>1</dim>
					<dim>1</dim>
				</port>
				<port id="4">
					<dim>48</dim>
					<dim>1</dim>
					<dim>1</dim>
					<dim>1</dim>
				</port>
			</input>
			<output>
				<port id="5" precision="FP16">
					<dim>48</dim>
					<dim>128</dim>
					<dim>1</dim>
					<dim>1</dim>
				</port>
			</output>
		</layer>
		<layer id="373" name="conv3_2/1/conv/WithoutBiases" type="Convolution" version="opset1">
			<data dilations="1,1" output_padding="0,0" pads_begin="0,0" pads_end="0,0" strides="1,1"/>
			<input>
				<port id="0">
					<dim>1</dim>
					<dim>128</dim>
					<dim>68</dim>
					<dim>124</dim>
				</port>
				<port id="1">
					<dim>48</dim>
					<dim>128</dim>
					<dim>1</dim>
					<dim>1</dim>
				</port>
			</input>
			<output>
				<port id="2" precision="FP16">
					<dim>1</dim>
					<dim>48</dim>
					<dim>68</dim>
					<dim>124</dim>
				</port>
			</output>
		</layer>
		<layer id="374" name="conv3_2/1/conv/Dims4488/copy_const654_const" type="Const" version="opset1">
			<data element_type="f16" offset="89372" shape="1,48,1,1" size="96"/>
			<output>
				<port id="1" precision="FP16">
					<dim>1</dim>
					<dim>48</dim>
					<dim>1</dim>
					<dim>1</dim>
				</port>
			</output>
		</layer>
		<layer id="375" name="conv3_2/1/conv" type="Add" version="opset1">
			<input>
				<port id="0">
					<dim>1</dim>
					<dim>48</dim>
					<dim>68</dim>
					<dim>124</dim>
				</port>
				<port id="1">
					<dim>1</dim>
					<dim>48</dim>
					<dim>1</dim>
					<dim>1</dim>
				</port>
			</input>
			<output>
				<port id="2" precision="FP16">
					<dim>1</dim>
					<dim>48</dim>
					<dim>68</dim>
					<dim>124</dim>
				</port>
			</output>
		</layer>
		<layer id="376" name="conv3_2/1/relu" type="ReLU" version="opset1">
			<input>
				<port id="0">
					<dim>1</dim>
					<dim>48</dim>
					<dim>68</dim>
					<dim>124</dim>
				</port>
			</input>
			<output>
				<port id="1" precision="FP16">
					<dim>1</dim>
					<dim>48</dim>
					<dim>68</dim>
					<dim>124</dim>
				</port>
			</output>
		</layer>
		<layer id="377" name="33823386_const" type="Const" version="opset1">
			<data element_type="f16" offset="89468" shape="" size="2"/>
			<output>
				<port id="1" precision="FP16"/>
			</output>
		</layer>
		<layer id="378" name="33833387_const" type="Const" version="opset1">
			<data element_type="f16" offset="89470" shape="" size="2"/>
			<output>
				<port id="1" precision="FP16"/>
			</output>
		</layer>
		<layer id="379" name="33843388_const" type="Const" version="opset1">
			<data element_type="f16" offset="89468" shape="" size="2"/>
			<output>
				<port id="1" precision="FP16"/>
			</output>
		</layer>
		<layer id="380" name="33853389_const" type="Const" version="opset1">
			<data element_type="f16" offset="89470" shape="" size="2"/>
			<output>
				<port id="1" precision="FP16"/>
			</output>
		</layer>
		<layer id="381" name="conv3_2/2/conv/WithoutBiases/fq_input_0" type="FakeQuantize" version="opset1">
			<data levels="256"/>
			<input>
				<port id="0">
					<dim>1</dim>
					<dim>48</dim>
					<dim>68</dim>
					<dim>124</dim>
				</port>
				<port id="1"/>
				<port id="2"/>
				<port id="3"/>
				<port id="4"/>
			</input>
			<output>
				<port id="5" precision="FP16">
					<dim>1</dim>
					<dim>48</dim>
					<dim>68</dim>
					<dim>124</dim>
				</port>
			</output>
		</layer>
		<layer id="382" name="conv3_2/2/conv/WithoutBiases/fq_weights_1/Convert_to_float/Cast_09796_const" type="Const" version="opset1">
			<data element_type="u8" offset="89472" shape="48,48,3,3" size="20736"/>
			<output>
				<port id="1" precision="U8">
					<dim>48</dim>
					<dim>48</dim>
					<dim>3</dim>
					<dim>3</dim>
				</port>
			</output>
		</layer>
		<layer id="383" name="conv3_2/2/conv/WithoutBiases/fq_weights_1/Convert_to_float" type="Convert" version="opset1">
			<data destination_type="f16"/>
			<input>
				<port id="0">
					<dim>48</dim>
					<dim>48</dim>
					<dim>3</dim>
					<dim>3</dim>
				</port>
			</input>
			<output>
				<port id="1" precision="FP16">
					<dim>48</dim>
					<dim>48</dim>
					<dim>3</dim>
					<dim>3</dim>
				</port>
			</output>
		</layer>
		<layer id="384" name="conv3_2/2/conv/WithoutBiases/fq_weights_1/Copy/out_low8683_const" type="Const" version="opset1">
			<data element_type="f16" offset="110208" shape="1" size="2"/>
			<output>
				<port id="1" precision="FP16">
					<dim>1</dim>
				</port>
			</output>
		</layer>
		<layer id="385" name="conv3_2/2/conv/WithoutBiases/fq_weights_1/Copy/out_high8684_const" type="Const" version="opset1">
			<data element_type="f16" offset="2364" shape="1" size="2"/>
			<output>
				<port id="1" precision="FP16">
					<dim>1</dim>
				</port>
			</output>
		</layer>
		<layer id="386" name="33943398_const" type="Const" version="opset1">
			<data element_type="f16" offset="110210" shape="48,1,1,1" size="96"/>
			<output>
				<port id="1" precision="FP16">
					<dim>48</dim>
					<dim>1</dim>
					<dim>1</dim>
					<dim>1</dim>
				</port>
			</output>
		</layer>
		<layer id="387" name="33953399_const" type="Const" version="opset1">
			<data element_type="f16" offset="110306" shape="48,1,1,1" size="96"/>
			<output>
				<port id="1" precision="FP16">
					<dim>48</dim>
					<dim>1</dim>
					<dim>1</dim>
					<dim>1</dim>
				</port>
			</output>
		</layer>
		<layer id="388" name="conv3_2/2/conv/WithoutBiases/fq_weights_1" type="FakeQuantize" version="opset1">
			<data levels="255"/>
			<input>
				<port id="0">
					<dim>48</dim>
					<dim>48</dim>
					<dim>3</dim>
					<dim>3</dim>
				</port>
				<port id="1">
					<dim>1</dim>
				</port>
				<port id="2">
					<dim>1</dim>
				</port>
				<port id="3">
					<dim>48</dim>
					<dim>1</dim>
					<dim>1</dim>
					<dim>1</dim>
				</port>
				<port id="4">
					<dim>48</dim>
					<dim>1</dim>
					<dim>1</dim>
					<dim>1</dim>
				</port>
			</input>
			<output>
				<port id="5" precision="FP16">
					<dim>48</dim>
					<dim>48</dim>
					<dim>3</dim>
					<dim>3</dim>
				</port>
			</output>
		</layer>
		<layer id="389" name="conv3_2/2/conv/WithoutBiases" type="Convolution" version="opset1">
			<data dilations="1,1" output_padding="0,0" pads_begin="1,1" pads_end="1,1" strides="1,1"/>
			<input>
				<port id="0">
					<dim>1</dim>
					<dim>48</dim>
					<dim>68</dim>
					<dim>124</dim>
				</port>
				<port id="1">
					<dim>48</dim>
					<dim>48</dim>
					<dim>3</dim>
					<dim>3</dim>
				</port>
			</input>
			<output>
				<port id="2" precision="FP16">
					<dim>1</dim>
					<dim>48</dim>
					<dim>68</dim>
					<dim>124</dim>
				</port>
			</output>
		</layer>
		<layer id="390" name="conv3_2/2/conv/Dims4734/copy_const659_const" type="Const" version="opset1">
			<data element_type="f16" offset="110402" shape="1,48,1,1" size="96"/>
			<output>
				<port id="1" precision="FP16">
					<dim>1</dim>
					<dim>48</dim>
					<dim>1</dim>
					<dim>1</dim>
				</port>
			</output>
		</layer>
		<layer id="391" name="conv3_2/2/conv" type="Add" version="opset1">
			<input>
				<port id="0">
					<dim>1</dim>
					<dim>48</dim>
					<dim>68</dim>
					<dim>124</dim>
				</port>
				<port id="1">
					<dim>1</dim>
					<dim>48</dim>
					<dim>1</dim>
					<dim>1</dim>
				</port>
			</input>
			<output>
				<port id="2" precision="FP16">
					<dim>1</dim>
					<dim>48</dim>
					<dim>68</dim>
					<dim>124</dim>
				</port>
			</output>
		</layer>
		<layer id="392" name="52115215_const" type="Const" version="opset1">
			<data element_type="f16" offset="110498" shape="" size="2"/>
			<output>
				<port id="1" precision="FP16"/>
			</output>
		</layer>
		<layer id="393" name="52125216_const" type="Const" version="opset1">
			<data element_type="f16" offset="110500" shape="" size="2"/>
			<output>
				<port id="1" precision="FP16"/>
			</output>
		</layer>
		<layer id="394" name="52135217_const" type="Const" version="opset1">
			<data element_type="f16" offset="110498" shape="" size="2"/>
			<output>
				<port id="1" precision="FP16"/>
			</output>
		</layer>
		<layer id="395" name="52145218_const" type="Const" version="opset1">
			<data element_type="f16" offset="110500" shape="" size="2"/>
			<output>
				<port id="1" precision="FP16"/>
			</output>
		</layer>
		<layer id="396" name="conv3_2/2/concat/fq_input_0" type="FakeQuantize" version="opset1">
			<data levels="256"/>
			<input>
				<port id="0">
					<dim>1</dim>
					<dim>48</dim>
					<dim>68</dim>
					<dim>124</dim>
				</port>
				<port id="1"/>
				<port id="2"/>
				<port id="3"/>
				<port id="4"/>
			</input>
			<output>
				<port id="5" precision="FP16">
					<dim>1</dim>
					<dim>48</dim>
					<dim>68</dim>
					<dim>124</dim>
				</port>
			</output>
		</layer>
		<layer id="397" name="conv3_2/2/neg/mul_/Negate" type="Negative" version="opset1">
			<input>
				<port id="0">
					<dim>1</dim>
					<dim>48</dim>
					<dim>68</dim>
					<dim>124</dim>
				</port>
			</input>
			<output>
				<port id="1" precision="FP16">
					<dim>1</dim>
					<dim>48</dim>
					<dim>68</dim>
					<dim>124</dim>
				</port>
			</output>
		</layer>
		<layer id="398" name="52215225_const" type="Const" version="opset1">
			<data element_type="f16" offset="110498" shape="" size="2"/>
			<output>
				<port id="1" precision="FP16"/>
			</output>
		</layer>
		<layer id="399" name="52225226_const" type="Const" version="opset1">
			<data element_type="f16" offset="110500" shape="" size="2"/>
			<output>
				<port id="1" precision="FP16"/>
			</output>
		</layer>
		<layer id="400" name="52235227_const" type="Const" version="opset1">
			<data element_type="f16" offset="110498" shape="" size="2"/>
			<output>
				<port id="1" precision="FP16"/>
			</output>
		</layer>
		<layer id="401" name="52245228_const" type="Const" version="opset1">
			<data element_type="f16" offset="110500" shape="" size="2"/>
			<output>
				<port id="1" precision="FP16"/>
			</output>
		</layer>
		<layer id="402" name="conv3_2/2/concat/fq_input_1" type="FakeQuantize" version="opset1">
			<data levels="256"/>
			<input>
				<port id="0">
					<dim>1</dim>
					<dim>48</dim>
					<dim>68</dim>
					<dim>124</dim>
				</port>
				<port id="1"/>
				<port id="2"/>
				<port id="3"/>
				<port id="4"/>
			</input>
			<output>
				<port id="5" precision="FP16">
					<dim>1</dim>
					<dim>48</dim>
					<dim>68</dim>
					<dim>124</dim>
				</port>
			</output>
		</layer>
		<layer id="403" name="conv3_2/2/concat" type="Concat" version="opset1">
			<data axis="1"/>
			<input>
				<port id="0">
					<dim>1</dim>
					<dim>48</dim>
					<dim>68</dim>
					<dim>124</dim>
				</port>
				<port id="1">
					<dim>1</dim>
					<dim>48</dim>
					<dim>68</dim>
					<dim>124</dim>
				</port>
			</input>
			<output>
				<port id="2" precision="FP16">
					<dim>1</dim>
					<dim>96</dim>
					<dim>68</dim>
					<dim>124</dim>
				</port>
			</output>
		</layer>
		<layer id="404" name="323/Output_0/Data_/copy_const663_const" type="Const" version="opset1">
			<data element_type="f16" offset="110502" shape="1,96,1,1" size="192"/>
			<output>
				<port id="1" precision="FP16">
					<dim>1</dim>
					<dim>96</dim>
					<dim>1</dim>
					<dim>1</dim>
				</port>
			</output>
		</layer>
		<layer id="405" name="conv3_2/2/scale/Mul_" type="Multiply" version="opset1">
			<input>
				<port id="0">
					<dim>1</dim>
					<dim>96</dim>
					<dim>68</dim>
					<dim>124</dim>
				</port>
				<port id="1">
					<dim>1</dim>
					<dim>96</dim>
					<dim>1</dim>
					<dim>1</dim>
				</port>
			</input>
			<output>
				<port id="2" precision="FP16">
					<dim>1</dim>
					<dim>96</dim>
					<dim>68</dim>
					<dim>124</dim>
				</port>
			</output>
		</layer>
		<layer id="406" name="324/Output_0/Data_/copy_const665_const" type="Const" version="opset1">
			<data element_type="f16" offset="110694" shape="1,96,1,1" size="192"/>
			<output>
				<port id="1" precision="FP16">
					<dim>1</dim>
					<dim>96</dim>
					<dim>1</dim>
					<dim>1</dim>
				</port>
			</output>
		</layer>
		<layer id="407" name="conv3_2/2/scale/Add_" type="Add" version="opset1">
			<input>
				<port id="0">
					<dim>1</dim>
					<dim>96</dim>
					<dim>68</dim>
					<dim>124</dim>
				</port>
				<port id="1">
					<dim>1</dim>
					<dim>96</dim>
					<dim>1</dim>
					<dim>1</dim>
				</port>
			</input>
			<output>
				<port id="2" precision="FP16">
					<dim>1</dim>
					<dim>96</dim>
					<dim>68</dim>
					<dim>124</dim>
				</port>
			</output>
		</layer>
		<layer id="408" name="conv3_2/2/relu" type="ReLU" version="opset1">
			<input>
				<port id="0">
					<dim>1</dim>
					<dim>96</dim>
					<dim>68</dim>
					<dim>124</dim>
				</port>
			</input>
			<output>
				<port id="1" precision="FP16">
					<dim>1</dim>
					<dim>96</dim>
					<dim>68</dim>
					<dim>124</dim>
				</port>
			</output>
		</layer>
		<layer id="409" name="39423946_const" type="Const" version="opset1">
			<data element_type="f16" offset="110886" shape="" size="2"/>
			<output>
				<port id="1" precision="FP16"/>
			</output>
		</layer>
		<layer id="410" name="39433947_const" type="Const" version="opset1">
			<data element_type="f16" offset="110888" shape="" size="2"/>
			<output>
				<port id="1" precision="FP16"/>
			</output>
		</layer>
		<layer id="411" name="39443948_const" type="Const" version="opset1">
			<data element_type="f16" offset="110886" shape="" size="2"/>
			<output>
				<port id="1" precision="FP16"/>
			</output>
		</layer>
		<layer id="412" name="39453949_const" type="Const" version="opset1">
			<data element_type="f16" offset="110888" shape="" size="2"/>
			<output>
				<port id="1" precision="FP16"/>
			</output>
		</layer>
		<layer id="413" name="conv3_2/3/conv/WithoutBiases/fq_input_0" type="FakeQuantize" version="opset1">
			<data levels="256"/>
			<input>
				<port id="0">
					<dim>1</dim>
					<dim>96</dim>
					<dim>68</dim>
					<dim>124</dim>
				</port>
				<port id="1"/>
				<port id="2"/>
				<port id="3"/>
				<port id="4"/>
			</input>
			<output>
				<port id="5" precision="FP16">
					<dim>1</dim>
					<dim>96</dim>
					<dim>68</dim>
					<dim>124</dim>
				</port>
			</output>
		</layer>
		<layer id="414" name="conv3_2/3/conv/WithoutBiases/fq_weights_1/Convert_to_float/Cast_09896_const" type="Const" version="opset1">
			<data element_type="u8" offset="110890" shape="128,96,1,1" size="12288"/>
			<output>
				<port id="1" precision="U8">
					<dim>128</dim>
					<dim>96</dim>
					<dim>1</dim>
					<dim>1</dim>
				</port>
			</output>
		</layer>
		<layer id="415" name="conv3_2/3/conv/WithoutBiases/fq_weights_1/Convert_to_float" type="Convert" version="opset1">
			<data destination_type="f16"/>
			<input>
				<port id="0">
					<dim>128</dim>
					<dim>96</dim>
					<dim>1</dim>
					<dim>1</dim>
				</port>
			</input>
			<output>
				<port id="1" precision="FP16">
					<dim>128</dim>
					<dim>96</dim>
					<dim>1</dim>
					<dim>1</dim>
				</port>
			</output>
		</layer>
		<layer id="416" name="conv3_2/3/conv/WithoutBiases/fq_weights_1/Copy/out_low8115_const" type="Const" version="opset1">
			<data element_type="f16" offset="123178" shape="1" size="2"/>
			<output>
				<port id="1" precision="FP16">
					<dim>1</dim>
				</port>
			</output>
		</layer>
		<layer id="417" name="conv3_2/3/conv/WithoutBiases/fq_weights_1/Copy/out_high8116_const" type="Const" version="opset1">
			<data element_type="f16" offset="2364" shape="1" size="2"/>
			<output>
				<port id="1" precision="FP16">
					<dim>1</dim>
				</port>
			</output>
		</layer>
		<layer id="418" name="39543958_const" type="Const" version="opset1">
			<data element_type="f16" offset="123180" shape="128,1,1,1" size="256"/>
			<output>
				<port id="1" precision="FP16">
					<dim>128</dim>
					<dim>1</dim>
					<dim>1</dim>
					<dim>1</dim>
				</port>
			</output>
		</layer>
		<layer id="419" name="39553959_const" type="Const" version="opset1">
			<data element_type="f16" offset="123436" shape="128,1,1,1" size="256"/>
			<output>
				<port id="1" precision="FP16">
					<dim>128</dim>
					<dim>1</dim>
					<dim>1</dim>
					<dim>1</dim>
				</port>
			</output>
		</layer>
		<layer id="420" name="conv3_2/3/conv/WithoutBiases/fq_weights_1" type="FakeQuantize" version="opset1">
			<data levels="255"/>
			<input>
				<port id="0">
					<dim>128</dim>
					<dim>96</dim>
					<dim>1</dim>
					<dim>1</dim>
				</port>
				<port id="1">
					<dim>1</dim>
				</port>
				<port id="2">
					<dim>1</dim>
				</port>
				<port id="3">
					<dim>128</dim>
					<dim>1</dim>
					<dim>1</dim>
					<dim>1</dim>
				</port>
				<port id="4">
					<dim>128</dim>
					<dim>1</dim>
					<dim>1</dim>
					<dim>1</dim>
				</port>
			</input>
			<output>
				<port id="5" precision="FP16">
					<dim>128</dim>
					<dim>96</dim>
					<dim>1</dim>
					<dim>1</dim>
				</port>
			</output>
		</layer>
		<layer id="421" name="conv3_2/3/conv/WithoutBiases" type="Convolution" version="opset1">
			<data dilations="1,1" output_padding="0,0" pads_begin="0,0" pads_end="0,0" strides="1,1"/>
			<input>
				<port id="0">
					<dim>1</dim>
					<dim>96</dim>
					<dim>68</dim>
					<dim>124</dim>
				</port>
				<port id="1">
					<dim>128</dim>
					<dim>96</dim>
					<dim>1</dim>
					<dim>1</dim>
				</port>
			</input>
			<output>
				<port id="2" precision="FP16">
					<dim>1</dim>
					<dim>128</dim>
					<dim>68</dim>
					<dim>124</dim>
				</port>
			</output>
		</layer>
		<layer id="422" name="conv3_2/3/conv/Dims4638/copy_const670_const" type="Const" version="opset1">
			<data element_type="f16" offset="123692" shape="1,128,1,1" size="256"/>
			<output>
				<port id="1" precision="FP16">
					<dim>1</dim>
					<dim>128</dim>
					<dim>1</dim>
					<dim>1</dim>
				</port>
			</output>
		</layer>
		<layer id="423" name="conv3_2/3/conv" type="Add" version="opset1">
			<input>
				<port id="0">
					<dim>1</dim>
					<dim>128</dim>
					<dim>68</dim>
					<dim>124</dim>
				</port>
				<port id="1">
					<dim>1</dim>
					<dim>128</dim>
					<dim>1</dim>
					<dim>1</dim>
				</port>
			</input>
			<output>
				<port id="2" precision="FP16">
					<dim>1</dim>
					<dim>128</dim>
					<dim>68</dim>
					<dim>124</dim>
				</port>
			</output>
		</layer>
		<layer id="424" name="27122716_const" type="Const" version="opset1">
			<data element_type="f16" offset="123948" shape="" size="2"/>
			<output>
				<port id="1" precision="FP16"/>
			</output>
		</layer>
		<layer id="425" name="27132717_const" type="Const" version="opset1">
			<data element_type="f16" offset="123950" shape="" size="2"/>
			<output>
				<port id="1" precision="FP16"/>
			</output>
		</layer>
		<layer id="426" name="27142718_const" type="Const" version="opset1">
			<data element_type="f16" offset="123948" shape="" size="2"/>
			<output>
				<port id="1" precision="FP16"/>
			</output>
		</layer>
		<layer id="427" name="27152719_const" type="Const" version="opset1">
			<data element_type="f16" offset="123950" shape="" size="2"/>
			<output>
				<port id="1" precision="FP16"/>
			</output>
		</layer>
		<layer id="428" name="conv3_2/fq_input_0" type="FakeQuantize" version="opset1">
			<data levels="256"/>
			<input>
				<port id="0">
					<dim>1</dim>
					<dim>128</dim>
					<dim>68</dim>
					<dim>124</dim>
				</port>
				<port id="1"/>
				<port id="2"/>
				<port id="3"/>
				<port id="4"/>
			</input>
			<output>
				<port id="5" precision="FP16">
					<dim>1</dim>
					<dim>128</dim>
					<dim>68</dim>
					<dim>124</dim>
				</port>
			</output>
		</layer>
		<layer id="429" name="conv3_2" type="Add" version="opset1">
			<input>
				<port id="0">
					<dim>1</dim>
					<dim>128</dim>
					<dim>68</dim>
					<dim>124</dim>
				</port>
				<port id="1">
					<dim>1</dim>
					<dim>128</dim>
					<dim>68</dim>
					<dim>124</dim>
				</port>
			</input>
			<output>
				<port id="2" precision="FP16">
					<dim>1</dim>
					<dim>128</dim>
					<dim>68</dim>
					<dim>124</dim>
				</port>
			</output>
		</layer>
		<layer id="430" name="35823586_const" type="Const" version="opset1">
			<data element_type="f16" offset="123952" shape="" size="2"/>
			<output>
				<port id="1" precision="FP16"/>
			</output>
		</layer>
		<layer id="431" name="35833587_const" type="Const" version="opset1">
			<data element_type="f16" offset="123954" shape="" size="2"/>
			<output>
				<port id="1" precision="FP16"/>
			</output>
		</layer>
		<layer id="432" name="35843588_const" type="Const" version="opset1">
			<data element_type="f16" offset="123952" shape="" size="2"/>
			<output>
				<port id="1" precision="FP16"/>
			</output>
		</layer>
		<layer id="433" name="35853589_const" type="Const" version="opset1">
			<data element_type="f16" offset="123954" shape="" size="2"/>
			<output>
				<port id="1" precision="FP16"/>
			</output>
		</layer>
		<layer id="434" name="conv3_3/1/conv/WithoutBiases/fq_input_0" type="FakeQuantize" version="opset1">
			<data levels="256"/>
			<input>
				<port id="0">
					<dim>1</dim>
					<dim>128</dim>
					<dim>68</dim>
					<dim>124</dim>
				</port>
				<port id="1"/>
				<port id="2"/>
				<port id="3"/>
				<port id="4"/>
			</input>
			<output>
				<port id="5" precision="FP16">
					<dim>1</dim>
					<dim>128</dim>
					<dim>68</dim>
					<dim>124</dim>
				</port>
			</output>
		</layer>
		<layer id="435" name="conv3_3/1/conv/WithoutBiases/fq_weights_1/Convert_to_float/Cast_09862_const" type="Const" version="opset1">
			<data element_type="u8" offset="123956" shape="48,128,1,1" size="6144"/>
			<output>
				<port id="1" precision="U8">
					<dim>48</dim>
					<dim>128</dim>
					<dim>1</dim>
					<dim>1</dim>
				</port>
			</output>
		</layer>
		<layer id="436" name="conv3_3/1/conv/WithoutBiases/fq_weights_1/Convert_to_float" type="Convert" version="opset1">
			<data destination_type="f16"/>
			<input>
				<port id="0">
					<dim>48</dim>
					<dim>128</dim>
					<dim>1</dim>
					<dim>1</dim>
				</port>
			</input>
			<output>
				<port id="1" precision="FP16">
					<dim>48</dim>
					<dim>128</dim>
					<dim>1</dim>
					<dim>1</dim>
				</port>
			</output>
		</layer>
		<layer id="437" name="conv3_3/1/conv/WithoutBiases/fq_weights_1/Copy/out_low8227_const" type="Const" version="opset1">
…
		<edge from-layer="1154" from-port="1" to-layer="1157" to-port="2"/>
		<edge from-layer="1155" from-port="1" to-layer="1157" to-port="3"/>
		<edge from-layer="1156" from-port="1" to-layer="1157" to-port="4"/>
		<edge from-layer="1158" from-port="1" to-layer="1159" to-port="0"/>
		<edge from-layer="1159" from-port="1" to-layer="1164" to-port="0"/>
		<edge from-layer="1160" from-port="1" to-layer="1164" to-port="1"/>
		<edge from-layer="1161" from-port="1" to-layer="1164" to-port="2"/>
		<edge from-layer="1162" from-port="1" to-layer="1164" to-port="3"/>
		<edge from-layer="1163" from-port="1" to-layer="1164" to-port="4"/>
		<edge from-layer="1157" from-port="5" to-layer="1165" to-port="0"/>
		<edge from-layer="1164" from-port="5" to-layer="1165" to-port="1"/>
		<edge from-layer="1165" from-port="2" to-layer="1167" to-port="0"/>
		<edge from-layer="1166" from-port="1" to-layer="1167" to-port="1"/>
		<edge from-layer="1167" from-port="2" to-layer="1168" to-port="0"/>
		<edge from-layer="1168" from-port="1" to-layer="1173" to-port="0"/>
		<edge from-layer="1169" from-port="1" to-layer="1173" to-port="1"/>
		<edge from-layer="1170" from-port="1" to-layer="1173" to-port="2"/>
		<edge from-layer="1171" from-port="1" to-layer="1173" to-port="3"/>
		<edge from-layer="1172" from-port="1" to-layer="1173" to-port="4"/>
		<edge from-layer="1077" from-port="5" to-layer="1174" to-port="0"/>
		<edge from-layer="1175" from-port="1" to-layer="1176" to-port="0"/>
		<edge from-layer="1176" from-port="1" to-layer="1181" to-port="0"/>
		<edge from-layer="1177" from-port="1" to-layer="1181" to-port="1"/>
		<edge from-layer="1178" from-port="1" to-layer="1181" to-port="2"/>
		<edge from-layer="1179" from-port="1" to-layer="1181" to-port="3"/>
		<edge from-layer="1180" from-port="1" to-layer="1181" to-port="4"/>
		<edge from-layer="1174" from-port="1" to-layer="1182" to-port="0"/>
		<edge from-layer="1181" from-port="5" to-layer="1182" to-port="1"/>
		<edge from-layer="1182" from-port="2" to-layer="1184" to-port="0"/>
		<edge from-layer="1183" from-port="1" to-layer="1184" to-port="1"/>
		<edge from-layer="1184" from-port="2" to-layer="1185" to-port="0"/>
		<edge from-layer="1185" from-port="1" to-layer="1190" to-port="0"/>
		<edge from-layer="1186" from-port="1" to-layer="1190" to-port="1"/>
		<edge from-layer="1187" from-port="1" to-layer="1190" to-port="2"/>
		<edge from-layer="1188" from-port="1" to-layer="1190" to-port="3"/>
		<edge from-layer="1189" from-port="1" to-layer="1190" to-port="4"/>
		<edge from-layer="1093" from-port="5" to-layer="1191" to-port="0"/>
		<edge from-layer="1125" from-port="5" to-layer="1191" to-port="1"/>
		<edge from-layer="1173" from-port="5" to-layer="1191" to-port="2"/>
		<edge from-layer="1190" from-port="5" to-layer="1191" to-port="3"/>
		<edge from-layer="1192" from-port="1" to-layer="1193" to-port="0"/>
		<edge from-layer="1193" from-port="1" to-layer="1198" to-port="0"/>
		<edge from-layer="1194" from-port="1" to-layer="1198" to-port="1"/>
		<edge from-layer="1195" from-port="1" to-layer="1198" to-port="2"/>
		<edge from-layer="1196" from-port="1" to-layer="1198" to-port="3"/>
		<edge from-layer="1197" from-port="1" to-layer="1198" to-port="4"/>
		<edge from-layer="1191" from-port="4" to-layer="1199" to-port="0"/>
		<edge from-layer="1198" from-port="5" to-layer="1199" to-port="1"/>
		<edge from-layer="1199" from-port="2" to-layer="1201" to-port="0"/>
		<edge from-layer="1200" from-port="1" to-layer="1201" to-port="1"/>
		<edge from-layer="1201" from-port="2" to-layer="1206" to-port="0"/>
		<edge from-layer="1202" from-port="1" to-layer="1206" to-port="1"/>
		<edge from-layer="1203" from-port="1" to-layer="1206" to-port="2"/>
		<edge from-layer="1204" from-port="1" to-layer="1206" to-port="3"/>
		<edge from-layer="1205" from-port="1" to-layer="1206" to-port="4"/>
		<edge from-layer="1207" from-port="1" to-layer="1208" to-port="0"/>
		<edge from-layer="1208" from-port="1" to-layer="1213" to-port="0"/>
		<edge from-layer="1209" from-port="1" to-layer="1213" to-port="1"/>
		<edge from-layer="1210" from-port="1" to-layer="1213" to-port="2"/>
		<edge from-layer="1211" from-port="1" to-layer="1213" to-port="3"/>
		<edge from-layer="1212" from-port="1" to-layer="1213" to-port="4"/>
		<edge from-layer="1077" from-port="5" to-layer="1214" to-port="0"/>
		<edge from-layer="1213" from-port="5" to-layer="1214" to-port="1"/>
		<edge from-layer="1214" from-port="2" to-layer="1216" to-port="0"/>
		<edge from-layer="1215" from-port="1" to-layer="1216" to-port="1"/>
		<edge from-layer="1216" from-port="2" to-layer="1221" to-port="0"/>
		<edge from-layer="1217" from-port="1" to-layer="1221" to-port="1"/>
		<edge from-layer="1218" from-port="1" to-layer="1221" to-port="2"/>
		<edge from-layer="1219" from-port="1" to-layer="1221" to-port="3"/>
		<edge from-layer="1220" from-port="1" to-layer="1221" to-port="4"/>
		<edge from-layer="1206" from-port="5" to-layer="1222" to-port="0"/>
		<edge from-layer="1221" from-port="5" to-layer="1222" to-port="1"/>
		<edge from-layer="1222" from-port="2" to-layer="1227" to-port="0"/>
		<edge from-layer="1223" from-port="1" to-layer="1227" to-port="1"/>
		<edge from-layer="1224" from-port="1" to-layer="1227" to-port="2"/>
		<edge from-layer="1225" from-port="1" to-layer="1227" to-port="3"/>
		<edge from-layer="1226" from-port="1" to-layer="1227" to-port="4"/>
		<edge from-layer="1228" from-port="1" to-layer="1229" to-port="0"/>
		<edge from-layer="1229" from-port="1" to-layer="1234" to-port="0"/>
		<edge from-layer="1230" from-port="1" to-layer="1234" to-port="1"/>
		<edge from-layer="1231" from-port="1" to-layer="1234" to-port="2"/>
		<edge from-layer="1232" from-port="1" to-layer="1234" to-port="3"/>
		<edge from-layer="1233" from-port="1" to-layer="1234" to-port="4"/>
		<edge from-layer="1227" from-port="5" to-layer="1235" to-port="0"/>
		<edge from-layer="1234" from-port="5" to-layer="1235" to-port="1"/>
		<edge from-layer="1235" from-port="2" to-layer="1237" to-port="0"/>
		<edge from-layer="1236" from-port="1" to-layer="1237" to-port="1"/>
		<edge from-layer="1237" from-port="2" to-layer="1238" to-port="0"/>
		<edge from-layer="1238" from-port="1" to-layer="1243" to-port="0"/>
		<edge from-layer="1239" from-port="1" to-layer="1243" to-port="1"/>
		<edge from-layer="1240" from-port="1" to-layer="1243" to-port="2"/>
		<edge from-layer="1241" from-port="1" to-layer="1243" to-port="3"/>
		<edge from-layer="1242" from-port="1" to-layer="1243" to-port="4"/>
		<edge from-layer="1244" from-port="1" to-layer="1245" to-port="0"/>
		<edge from-layer="1245" from-port="1" to-layer="1250" to-port="0"/>
		<edge from-layer="1246" from-port="1" to-layer="1250" to-port="1"/>
		<edge from-layer="1247" from-port="1" to-layer="1250" to-port="2"/>
		<edge from-layer="1248" from-port="1" to-layer="1250" to-port="3"/>
		<edge from-layer="1249" from-port="1" to-layer="1250" to-port="4"/>
		<edge from-layer="1227" from-port="5" to-layer="1251" to-port="0"/>
		<edge from-layer="1250" from-port="5" to-layer="1251" to-port="1"/>
		<edge from-layer="1251" from-port="2" to-layer="1253" to-port="0"/>
		<edge from-layer="1252" from-port="1" to-layer="1253" to-port="1"/>
		<edge from-layer="1253" from-port="2" to-layer="1254" to-port="0"/>
		<edge from-layer="1254" from-port="1" to-layer="1259" to-port="0"/>
		<edge from-layer="1255" from-port="1" to-layer="1259" to-port="1"/>
		<edge from-layer="1256" from-port="1" to-layer="1259" to-port="2"/>
		<edge from-layer="1257" from-port="1" to-layer="1259" to-port="3"/>
		<edge from-layer="1258" from-port="1" to-layer="1259" to-port="4"/>
		<edge from-layer="1260" from-port="1" to-layer="1261" to-port="0"/>
		<edge from-layer="1261" from-port="1" to-layer="1266" to-port="0"/>
		<edge from-layer="1262" from-port="1" to-layer="1266" to-port="1"/>
		<edge from-layer="1263" from-port="1" to-layer="1266" to-port="2"/>
		<edge from-layer="1264" from-port="1" to-layer="1266" to-port="3"/>
		<edge from-layer="1265" from-port="1" to-layer="1266" to-port="4"/>
		<edge from-layer="1259" from-port="5" to-layer="1267" to-port="0"/>
		<edge from-layer="1266" from-port="5" to-layer="1267" to-port="1"/>
		<edge from-layer="1267" from-port="2" to-layer="1269" to-port="0"/>
		<edge from-layer="1268" from-port="1" to-layer="1269" to-port="1"/>
		<edge from-layer="1269" from-port="2" to-layer="1270" to-port="0"/>
		<edge from-layer="1270" from-port="1" to-layer="1275" to-port="0"/>
		<edge from-layer="1271" from-port="1" to-layer="1275" to-port="1"/>
		<edge from-layer="1272" from-port="1" to-layer="1275" to-port="2"/>
		<edge from-layer="1273" from-port="1" to-layer="1275" to-port="3"/>
		<edge from-layer="1274" from-port="1" to-layer="1275" to-port="4"/>
		<edge from-layer="1276" from-port="1" to-layer="1277" to-port="0"/>
		<edge from-layer="1277" from-port="1" to-layer="1282" to-port="0"/>
		<edge from-layer="1278" from-port="1" to-layer="1282" to-port="1"/>
		<edge from-layer="1279" from-port="1" to-layer="1282" to-port="2"/>
		<edge from-layer="1280" from-port="1" to-layer="1282" to-port="3"/>
		<edge from-layer="1281" from-port="1" to-layer="1282" to-port="4"/>
		<edge from-layer="1227" from-port="5" to-layer="1283" to-port="0"/>
		<edge from-layer="1282" from-port="5" to-layer="1283" to-port="1"/>
		<edge from-layer="1283" from-port="2" to-layer="1285" to-port="0"/>
		<edge from-layer="1284" from-port="1" to-layer="1285" to-port="1"/>
		<edge from-layer="1285" from-port="2" to-layer="1286" to-port="0"/>
		<edge from-layer="1286" from-port="1" to-layer="1291" to-port="0"/>
		<edge from-layer="1287" from-port="1" to-layer="1291" to-port="1"/>
		<edge from-layer="1288" from-port="1" to-layer="1291" to-port="2"/>
		<edge from-layer="1289" from-port="1" to-layer="1291" to-port="3"/>
		<edge from-layer="1290" from-port="1" to-layer="1291" to-port="4"/>
		<edge from-layer="1292" from-port="1" to-layer="1293" to-port="0"/>
		<edge from-layer="1293" from-port="1" to-layer="1298" to-port="0"/>
		<edge from-layer="1294" from-port="1" to-layer="1298" to-port="1"/>
		<edge from-layer="1295" from-port="1" to-layer="1298" to-port="2"/>
		<edge from-layer="1296" from-port="1" to-layer="1298" to-port="3"/>
		<edge from-layer="1297" from-port="1" to-layer="1298" to-port="4"/>
		<edge from-layer="1291" from-port="5" to-layer="1299" to-port="0"/>
		<edge from-layer="1298" from-port="5" to-layer="1299" to-port="1"/>
		<edge from-layer="1299" from-port="2" to-layer="1301" to-port="0"/>
		<edge from-layer="1300" from-port="1" to-layer="1301" to-port="1"/>
		<edge from-layer="1301" from-port="2" to-layer="1302" to-port="0"/>
		<edge from-layer="1302" from-port="1" to-layer="1307" to-port="0"/>
		<edge from-layer="1303" from-port="1" to-layer="1307" to-port="1"/>
		<edge from-layer="1304" from-port="1" to-layer="1307" to-port="2"/>
		<edge from-layer="1305" from-port="1" to-layer="1307" to-port="3"/>
		<edge from-layer="1306" from-port="1" to-layer="1307" to-port="4"/>
		<edge from-layer="1308" from-port="1" to-layer="1309" to-port="0"/>
		<edge from-layer="1309" from-port="1" to-layer="1314" to-port="0"/>
		<edge from-layer="1310" from-port="1" to-layer="1314" to-port="1"/>
		<edge from-layer="1311" from-port="1" to-layer="1314" to-port="2"/>
		<edge from-layer="1312" from-port="1" to-layer="1314" to-port="3"/>
		<edge from-layer="1313" from-port="1" to-layer="1314" to-port="4"/>
		<edge from-layer="1307" from-port="5" to-layer="1315" to-port="0"/>
		<edge from-layer="1314" from-port="5" to-layer="1315" to-port="1"/>
		<edge from-layer="1315" from-port="2" to-layer="1317" to-port="0"/>
		<edge from-layer="1316" from-port="1" to-layer="1317" to-port="1"/>
		<edge from-layer="1317" from-port="2" to-layer="1318" to-port="0"/>
		<edge from-layer="1318" from-port="1" to-layer="1323" to-port="0"/>
		<edge from-layer="1319" from-port="1" to-layer="1323" to-port="1"/>
		<edge from-layer="1320" from-port="1" to-layer="1323" to-port="2"/>
		<edge from-layer="1321" from-port="1" to-layer="1323" to-port="3"/>
		<edge from-layer="1322" from-port="1" to-layer="1323" to-port="4"/>
		<edge from-layer="1243" from-port="5" to-layer="1324" to-port="0"/>
		<edge from-layer="1275" from-port="5" to-layer="1324" to-port="1"/>
		<edge from-layer="1323" from-port="5" to-layer="1324" to-port="2"/>
		<edge from-layer="1325" from-port="1" to-layer="1326" to-port="0"/>
		<edge from-layer="1326" from-port="1" to-layer="1331" to-port="0"/>
		<edge from-layer="1327" from-port="1" to-layer="1331" to-port="1"/>
		<edge from-layer="1328" from-port="1" to-layer="1331" to-port="2"/>
		<edge from-layer="1329" from-port="1" to-layer="1331" to-port="3"/>
		<edge from-layer="1330" from-port="1" to-layer="1331" to-port="4"/>
		<edge from-layer="1324" from-port="3" to-layer="1332" to-port="0"/>
		<edge from-layer="1331" from-port="5" to-layer="1332" to-port="1"/>
		<edge from-layer="1332" from-port="2" to-layer="1334" to-port="0"/>
		<edge from-layer="1333" from-port="1" to-layer="1334" to-port="1"/>
		<edge from-layer="1334" from-port="2" to-layer="1339" to-port="0"/>
		<edge from-layer="1335" from-port="1" to-layer="1339" to-port="1"/>
		<edge from-layer="1336" from-port="1" to-layer="1339" to-port="2"/>
		<edge from-layer="1337" from-port="1" to-layer="1339" to-port="3"/>
		<edge from-layer="1338" from-port="1" to-layer="1339" to-port="4"/>
		<edge from-layer="1339" from-port="5" to-layer="1340" to-port="0"/>
		<edge from-layer="1227" from-port="5" to-layer="1340" to-port="1"/>
		<edge from-layer="1340" from-port="2" to-layer="1345" to-port="0"/>
		<edge from-layer="1341" from-port="1" to-layer="1345" to-port="1"/>
		<edge from-layer="1342" from-port="1" to-layer="1345" to-port="2"/>
		<edge from-layer="1343" from-port="1" to-layer="1345" to-port="3"/>
		<edge from-layer="1344" from-port="1" to-layer="1345" to-port="4"/>
		<edge from-layer="1346" from-port="1" to-layer="1347" to-port="0"/>
		<edge from-layer="1347" from-port="1" to-layer="1352" to-port="0"/>
		<edge from-layer="1348" from-port="1" to-layer="1352" to-port="1"/>
		<edge from-layer="1349" from-port="1" to-layer="1352" to-port="2"/>
		<edge from-layer="1350" from-port="1" to-layer="1352" to-port="3"/>
		<edge from-layer="1351" from-port="1" to-layer="1352" to-port="4"/>
		<edge from-layer="1345" from-port="5" to-layer="1353" to-port="0"/>
		<edge from-layer="1352" from-port="5" to-layer="1353" to-port="1"/>
		<edge from-layer="1353" from-port="2" to-layer="1355" to-port="0"/>
		<edge from-layer="1354" from-port="1" to-layer="1355" to-port="1"/>
		<edge from-layer="1355" from-port="2" to-layer="1356" to-port="0"/>
		<edge from-layer="1356" from-port="1" to-layer="1361" to-port="0"/>
		<edge from-layer="1357" from-port="1" to-layer="1361" to-port="1"/>
		<edge from-layer="1358" from-port="1" to-layer="1361" to-port="2"/>
		<edge from-layer="1359" from-port="1" to-layer="1361" to-port="3"/>
		<edge from-layer="1360" from-port="1" to-layer="1361" to-port="4"/>
		<edge from-layer="1362" from-port="1" to-layer="1363" to-port="0"/>
		<edge from-layer="1363" from-port="1" to-layer="1368" to-port="0"/>
		<edge from-layer="1364" from-port="1" to-layer="1368" to-port="1"/>
		<edge from-layer="1365" from-port="1" to-layer="1368" to-port="2"/>
		<edge from-layer="1366" from-port="1" to-layer="1368" to-port="3"/>
		<edge from-layer="1367" from-port="1" to-layer="1368" to-port="4"/>
		<edge from-layer="1345" from-port="5" to-layer="1369" to-port="0"/>
		<edge from-layer="1368" from-port="5" to-layer="1369" to-port="1"/>
		<edge from-layer="1369" from-port="2" to-layer="1371" to-port="0"/>
		<edge from-layer="1370" from-port="1" to-layer="1371" to-port="1"/>
		<edge from-layer="1371" from-port="2" to-layer="1372" to-port="0"/>
		<edge from-layer="1372" from-port="1" to-layer="1377" to-port="0"/>
		<edge from-layer="1373" from-port="1" to-layer="1377" to-port="1"/>
		<edge from-layer="1374" from-port="1" to-layer="1377" to-port="2"/>
		<edge from-layer="1375" from-port="1" to-layer="1377" to-port="3"/>
		<edge from-layer="1376" from-port="1" to-layer="1377" to-port="4"/>
		<edge from-layer="1378" from-port="1" to-layer="1379" to-port="0"/>
		<edge from-layer="1379" from-port="1" to-layer="1384" to-port="0"/>
		<edge from-layer="1380" from-port="1" to-layer="1384" to-port="1"/>
		<edge from-layer="1381" from-port="1" to-layer="1384" to-port="2"/>
		<edge from-layer="1382" from-port="1" to-layer="1384" to-port="3"/>
		<edge from-layer="1383" from-port="1" to-layer="1384" to-port="4"/>
		<edge from-layer="1377" from-port="5" to-layer="1385" to-port="0"/>
		<edge from-layer="1384" from-port="5" to-layer="1385" to-port="1"/>
		<edge from-layer="1385" from-port="2" to-layer="1387" to-port="0"/>
		<edge from-layer="1386" from-port="1" to-layer="1387" to-port="1"/>
		<edge from-layer="1387" from-port="2" to-layer="1388" to-port="0"/>
		<edge from-layer="1388" from-port="1" to-layer="1393" to-port="0"/>
		<edge from-layer="1389" from-port="1" to-layer="1393" to-port="1"/>
		<edge from-layer="1390" from-port="1" to-layer="1393" to-port="2"/>
		<edge from-layer="1391" from-port="1" to-layer="1393" to-port="3"/>
		<edge from-layer="1392" from-port="1" to-layer="1393" to-port="4"/>
		<edge from-layer="1394" from-port="1" to-layer="1395" to-port="0"/>
		<edge from-layer="1395" from-port="1" to-layer="1400" to-port="0"/>
		<edge from-layer="1396" from-port="1" to-layer="1400" to-port="1"/>
		<edge from-layer="1397" from-port="1" to-layer="1400" to-port="2"/>
		<edge from-layer="1398" from-port="1" to-layer="1400" to-port="3"/>
		<edge from-layer="1399" from-port="1" to-layer="1400" to-port="4"/>
		<edge from-layer="1345" from-port="5" to-layer="1401" to-port="0"/>
		<edge from-layer="1400" from-port="5" to-layer="1401" to-port="1"/>
		<edge from-layer="1401" from-port="2" to-layer="1403" to-port="0"/>
		<edge from-layer="1402" from-port="1" to-layer="1403" to-port="1"/>
		<edge from-layer="1403" from-port="2" to-layer="1404" to-port="0"/>
		<edge from-layer="1404" from-port="1" to-layer="1409" to-port="0"/>
		<edge from-layer="1405" from-port="1" to-layer="1409" to-port="1"/>
		<edge from-layer="1406" from-port="1" to-layer="1409" to-port="2"/>
		<edge from-layer="1407" from-port="1" to-layer="1409" to-port="3"/>
		<edge from-layer="1408" from-port="1" to-layer="1409" to-port="4"/>
		<edge from-layer="1410" from-port="1" to-layer="1411" to-port="0"/>
		<edge from-layer="1411" from-port="1" to-layer="1416" to-port="0"/>
		<edge from-layer="1412" from-port="1" to-layer="1416" to-port="1"/>
		<edge from-layer="1413" from-port="1" to-layer="1416" to-port="2"/>
		<edge from-layer="1414" from-port="1" to-layer="1416" to-port="3"/>
		<edge from-layer="1415" from-port="1" to-layer="1416" to-port="4"/>
		<edge from-layer="1409" from-port="5" to-layer="1417" to-port="0"/>
		<edge from-layer="1416" from-port="5" to-layer="1417" to-port="1"/>
		<edge from-layer="1417" from-port="2" to-layer="1419" to-port="0"/>
		<edge from-layer="1418" from-port="1" to-layer="1419" to-port="1"/>
		<edge from-layer="1419" from-port="2" to-layer="1420" to-port="0"/>
		<edge from-layer="1420" from-port="1" to-layer="1425" to-port="0"/>
		<edge from-layer="1421" from-port="1" to-layer="1425" to-port="1"/>
		<edge from-layer="1422" from-port="1" to-layer="1425" to-port="2"/>
		<edge from-layer="1423" from-port="1" to-layer="1425" to-port="3"/>
		<edge from-layer="1424" from-port="1" to-layer="1425" to-port="4"/>
		<edge from-layer="1426" from-port="1" to-layer="1427" to-port="0"/>
		<edge from-layer="1427" from-port="1" to-layer="1432" to-port="0"/>
		<edge from-layer="1428" from-port="1" to-layer="1432" to-port="1"/>
		<edge from-layer="1429" from-port="1" to-layer="1432" to-port="2"/>
		<edge from-layer="1430" from-port="1" to-layer="1432" to-port="3"/>
		<edge from-layer="1431" from-port="1" to-layer="1432" to-port="4"/>
		<edge from-layer="1425" from-port="5" to-layer="1433" to-port="0"/>
		<edge from-layer="1432" from-port="5" to-layer="1433" to-port="1"/>
		<edge from-layer="1433" from-port="2" to-layer="1435" to-port="0"/>
		<edge from-layer="1434" from-port="1" to-layer="1435" to-port="1"/>
		<edge from-layer="1435" from-port="2" to-layer="1436" to-port="0"/>
		<edge from-layer="1436" from-port="1" to-layer="1441" to-port="0"/>
		<edge from-layer="1437" from-port="1" to-layer="1441" to-port="1"/>
		<edge from-layer="1438" from-port="1" to-layer="1441" to-port="2"/>
		<edge from-layer="1439" from-port="1" to-layer="1441" to-port="3"/>
		<edge from-layer="1440" from-port="1" to-layer="1441" to-port="4"/>
		<edge from-layer="1361" from-port="5" to-layer="1442" to-port="0"/>
		<edge from-layer="1393" from-port="5" to-layer="1442" to-port="1"/>
		<edge from-layer="1441" from-port="5" to-layer="1442" to-port="2"/>
		<edge from-layer="1443" from-port="1" to-layer="1444" to-port="0"/>
		<edge from-layer="1444" from-port="1" to-layer="1449" to-port="0"/>
		<edge from-layer="1445" from-port="1" to-layer="1449" to-port="1"/>
		<edge from-layer="1446" from-port="1" to-layer="1449" to-port="2"/>
		<edge from-layer="1447" from-port="1" to-layer="1449" to-port="3"/>
		<edge from-layer="1448" from-port="1" to-layer="1449" to-port="4"/>
		<edge from-layer="1442" from-port="3" to-layer="1450" to-port="0"/>
		<edge from-layer="1449" from-port="5" to-layer="1450" to-port="1"/>
		<edge from-layer="1450" from-port="2" to-layer="1452" to-port="0"/>
		<edge from-layer="1451" from-port="1" to-layer="1452" to-port="1"/>
		<edge from-layer="1452" from-port="2" to-layer="1457" to-port="0"/>
		<edge from-layer="1453" from-port="1" to-layer="1457" to-port="1"/>
		<edge from-layer="1454" from-port="1" to-layer="1457" to-port="2"/>
		<edge from-layer="1455" from-port="1" to-layer="1457" to-port="3"/>
		<edge from-layer="1456" from-port="1" to-layer="1457" to-port="4"/>
		<edge from-layer="1457" from-port="5" to-layer="1458" to-port="0"/>
		<edge from-layer="1345" from-port="5" to-layer="1458" to-port="1"/>
		<edge from-layer="1458" from-port="2" to-layer="1463" to-port="0"/>
		<edge from-layer="1459" from-port="1" to-layer="1463" to-port="1"/>
		<edge from-layer="1460" from-port="1" to-layer="1463" to-port="2"/>
		<edge from-layer="1461" from-port="1" to-layer="1463" to-port="3"/>
		<edge from-layer="1462" from-port="1" to-layer="1463" to-port="4"/>
		<edge from-layer="1464" from-port="1" to-layer="1465" to-port="0"/>
		<edge from-layer="1465" from-port="1" to-layer="1470" to-port="0"/>
		<edge from-layer="1466" from-port="1" to-layer="1470" to-port="1"/>
		<edge from-layer="1467" from-port="1" to-layer="1470" to-port="2"/>
		<edge from-layer="1468" from-port="1" to-layer="1470" to-port="3"/>
		<edge from-layer="1469" from-port="1" to-layer="1470" to-port="4"/>
		<edge from-layer="1463" from-port="5" to-layer="1471" to-port="0"/>
		<edge from-layer="1470" from-port="5" to-layer="1471" to-port="1"/>
		<edge from-layer="1471" from-port="2" to-layer="1473" to-port="0"/>
		<edge from-layer="1472" from-port="1" to-layer="1473" to-port="1"/>
		<edge from-layer="1473" from-port="2" to-layer="1474" to-port="0"/>
		<edge from-layer="1474" from-port="1" to-layer="1479" to-port="0"/>
		<edge from-layer="1475" from-port="1" to-layer="1479" to-port="1"/>
		<edge from-layer="1476" from-port="1" to-layer="1479" to-port="2"/>
		<edge from-layer="1477" from-port="1" to-layer="1479" to-port="3"/>
		<edge from-layer="1478" from-port="1" to-layer="1479" to-port="4"/>
		<edge from-layer="1480" from-port="1" to-layer="1481" to-port="0"/>
		<edge from-layer="1481" from-port="1" to-layer="1486" to-port="0"/>
		<edge from-layer="1482" from-port="1" to-layer="1486" to-port="1"/>
		<edge from-layer="1483" from-port="1" to-layer="1486" to-port="2"/>
		<edge from-layer="1484" from-port="1" to-layer="1486" to-port="3"/>
		<edge from-layer="1485" from-port="1" to-layer="1486" to-port="4"/>
		<edge from-layer="1463" from-port="5" to-layer="1487" to-port="0"/>
		<edge from-layer="1486" from-port="5" to-layer="1487" to-port="1"/>
		<edge from-layer="1487" from-port="2" to-layer="1489" to-port="0"/>
		<edge from-layer="1488" from-port="1" to-layer="1489" to-port="1"/>
		<edge from-layer="1489" from-port="2" to-layer="1490" to-port="0"/>
		<edge from-layer="1490" from-port="1" to-layer="1495" to-port="0"/>
		<edge from-layer="1491" from-port="1" to-layer="1495" to-port="1"/>
		<edge from-layer="1492" from-port="1" to-layer="1495" to-port="2"/>
		<edge from-layer="1493" from-port="1" to-layer="1495" to-port="3"/>
		<edge from-layer="1494" from-port="1" to-layer="1495" to-port="4"/>
		<edge from-layer="1496" from-port="1" to-layer="1497" to-port="0"/>
		<edge from-layer="1497" from-port="1" to-layer="1502" to-port="0"/>
		<edge from-layer="1498" from-port="1" to-layer="1502" to-port="1"/>
		<edge from-layer="1499" from-port="1" to-layer="1502" to-port="2"/>
		<edge from-layer="1500" from-port="1" to-layer="1502" to-port="3"/>
		<edge from-layer="1501" from-port="1" to-layer="1502" to-port="4"/>
		<edge from-layer="1495" from-port="5" to-layer="1503" to-port="0"/>
		<edge from-layer="1502" from-port="5" to-layer="1503" to-port="1"/>
		<edge from-layer="1503" from-port="2" to-layer="1505" to-port="0"/>
		<edge from-layer="1504" from-port="1" to-layer="1505" to-port="1"/>
		<edge from-layer="1505" from-port="2" to-layer="1506" to-port="0"/>
		<edge from-layer="1506" from-port="1" to-layer="1511" to-port="0"/>
		<edge from-layer="1507" from-port="1" to-layer="1511" to-port="1"/>
		<edge from-layer="1508" from-port="1" to-layer="1511" to-port="2"/>
		<edge from-layer="1509" from-port="1" to-layer="1511" to-port="3"/>
		<edge from-layer="1510" from-port="1" to-layer="1511" to-port="4"/>
		<edge from-layer="1512" from-port="1" to-layer="1513" to-port="0"/>
		<edge from-layer="1513" from-port="1" to-layer="1518" to-port="0"/>
		<edge from-layer="1514" from-port="1" to-layer="1518" to-port="1"/>
		<edge from-layer="1515" from-port="1" to-layer="1518" to-port="2"/>
		<edge from-layer="1516" from-port="1" to-layer="1518" to-port="3"/>
		<edge from-layer="1517" from-port="1" to-layer="1518" to-port="4"/>
		<edge from-layer="1463" from-port="5" to-layer="1519" to-port="0"/>
		<edge from-layer="1518" from-port="5" to-layer="1519" to-port="1"/>
		<edge from-layer="1519" from-port="2" to-layer="1521" to-port="0"/>
		<edge from-layer="1520" from-port="1" to-layer="1521" to-port="1"/>
		<edge from-layer="1521" from-port="2" to-layer="1522" to-port="0"/>
		<edge from-layer="1522" from-port="1" to-layer="1527" to-port="0"/>
		<edge from-layer="1523" from-port="1" to-layer="1527" to-port="1"/>
		<edge from-layer="1524" from-port="1" to-layer="1527" to-port="2"/>
		<edge from-layer="1525" from-port="1" to-layer="1527" to-port="3"/>
		<edge from-layer="1526" from-port="1" to-layer="1527" to-port="4"/>
		<edge from-layer="1528" from-port="1" to-layer="1529" to-port="0"/>
		<edge from-layer="1529" from-port="1" to-layer="1534" to-port="0"/>
		<edge from-layer="1530" from-port="1" to-layer="1534" to-port="1"/>
		<edge from-layer="1531" from-port="1" to-layer="1534" to-port="2"/>
		<edge from-layer="1532" from-port="1" to-layer="1534" to-port="3"/>
		<edge from-layer="1533" from-port="1" to-layer="1534" to-port="4"/>
		<edge from-layer="1527" from-port="5" to-layer="1535" to-port="0"/>
		<edge from-layer="1534" from-port="5" to-layer="1535" to-port="1"/>
		<edge from-layer="1535" from-port="2" to-layer="1537" to-port="0"/>
		<edge from-layer="1536" from-port="1" to-layer="1537" to-port="1"/>
		<edge from-layer="1537" from-port="2" to-layer="1538" to-port="0"/>
		<edge from-layer="1538" from-port="1" to-layer="1543" to-port="0"/>
		<edge from-layer="1539" from-port="1" to-layer="1543" to-port="1"/>
		<edge from-layer="1540" from-port="1" to-layer="1543" to-port="2"/>
		<edge from-layer="1541" from-port="1" to-layer="1543" to-port="3"/>
		<edge from-layer="1542" from-port="1" to-layer="1543" to-port="4"/>
		<edge from-layer="1544" from-port="1" to-layer="1545" to-port="0"/>
		<edge from-layer="1545" from-port="1" to-layer="1550" to-port="0"/>
		<edge from-layer="1546" from-port="1" to-layer="1550" to-port="1"/>
		<edge from-layer="1547" from-port="1" to-layer="1550" to-port="2"/>
		<edge from-layer="1548" from-port="1" to-layer="1550" to-port="3"/>
		<edge from-layer="1549" from-port="1" to-layer="1550" to-port="4"/>
		<edge from-layer="1543" from-port="5" to-layer="1551" to-port="0"/>
		<edge from-layer="1550" from-port="5" to-layer="1551" to-port="1"/>
		<edge from-layer="1551" from-port="2" to-layer="1553" to-port="0"/>
		<edge from-layer="1552" from-port="1" to-layer="1553" to-port="1"/>
		<edge from-layer="1553" from-port="2" to-layer="1554" to-port="0"/>
		<edge from-layer="1554" from-port="1" to-layer="1559" to-port="0"/>
		<edge from-layer="1555" from-port="1" to-layer="1559" to-port="1"/>
		<edge from-layer="1556" from-port="1" to-layer="1559" to-port="2"/>
		<edge from-layer="1557" from-port="1" to-layer="1559" to-port="3"/>
		<edge from-layer="1558" from-port="1" to-layer="1559" to-port="4"/>
		<edge from-layer="1479" from-port="5" to-layer="1560" to-port="0"/>
		<edge from-layer="1511" from-port="5" to-layer="1560" to-port="1"/>
		<edge from-layer="1559" from-port="5" to-layer="1560" to-port="2"/>
		<edge from-layer="1561" from-port="1" to-layer="1562" to-port="0"/>
		<edge from-layer="1562" from-port="1" to-layer="1567" to-port="0"/>
		<edge from-layer="1563" from-port="1" to-layer="1567" to-port="1"/>
		<edge from-layer="1564" from-port="1" to-layer="1567" to-port="2"/>
		<edge from-layer="1565" from-port="1" to-layer="1567" to-port="3"/>
		<edge from-layer="1566" from-port="1" to-layer="1567" to-port="4"/>
		<edge from-layer="1560" from-port="3" to-layer="1568" to-port="0"/>
		<edge from-layer="1567" from-port="5" to-layer="1568" to-port="1"/>
		<edge from-layer="1568" from-port="2" to-layer="1570" to-port="0"/>
		<edge from-layer="1569" from-port="1" to-layer="1570" to-port="1"/>
		<edge from-layer="1570" from-port="2" to-layer="1575" to-port="0"/>
		<edge from-layer="1571" from-port="1" to-layer="1575" to-port="1"/>
		<edge from-layer="1572" from-port="1" to-layer="1575" to-port="2"/>
		<edge from-layer="1573" from-port="1" to-layer="1575" to-port="3"/>
		<edge from-layer="1574" from-port="1" to-layer="1575" to-port="4"/>
		<edge from-layer="1575" from-port="5" to-layer="1576" to-port="0"/>
		<edge from-layer="1463" from-port="5" to-layer="1576" to-port="1"/>
		<edge from-layer="1576" from-port="2" to-layer="1578" to-port="0"/>
		<edge from-layer="1577" from-port="1" to-layer="1578" to-port="1"/>
		<edge from-layer="1578" from-port="2" to-layer="1583" to-port="0"/>
		<edge from-layer="1579" from-port="1" to-layer="1583" to-port="1"/>
		<edge from-layer="1580" from-port="1" to-layer="1583" to-port="2"/>
		<edge from-layer="1581" from-port="1" to-layer="1583" to-port="3"/>
		<edge from-layer="1582" from-port="1" to-layer="1583" to-port="4"/>
		<edge from-layer="573" from-port="1" to-layer="1584" to-port="0"/>
		<edge from-layer="1077" from-port="5" to-layer="1584" to-port="1"/>
		<edge from-layer="1583" from-port="5" to-layer="1584" to-port="2"/>
		<edge from-layer="1585" from-port="1" to-layer="1586" to-port="0"/>
		<edge from-layer="1586" from-port="1" to-layer="1591" to-port="0"/>
		<edge from-layer="1587" from-port="1" to-layer="1591" to-port="1"/>
		<edge from-layer="1588" from-port="1" to-layer="1591" to-port="2"/>
		<edge from-layer="1589" from-port="1" to-layer="1591" to-port="3"/>
		<edge from-layer="1590" from-port="1" to-layer="1591" to-port="4"/>
		<edge from-layer="1584" from-port="3" to-layer="1592" to-port="0"/>
		<edge from-layer="1591" from-port="5" to-layer="1592" to-port="1"/>
		<edge from-layer="1592" from-port="2" to-layer="1594" to-port="0"/>
		<edge from-layer="1593" from-port="1" to-layer="1594" to-port="1"/>
		<edge from-layer="1594" from-port="2" to-layer="1595" to-port="0"/>
		<edge from-layer="1595" from-port="1" to-layer="1600" to-port="0"/>
		<edge from-layer="1596" from-port="1" to-layer="1600" to-port="1"/>
		<edge from-layer="1597" from-port="1" to-layer="1600" to-port="2"/>
		<edge from-layer="1598" from-port="1" to-layer="1600" to-port="3"/>
		<edge from-layer="1599" from-port="1" to-layer="1600" to-port="4"/>
		<edge from-layer="1601" from-port="1" to-layer="1602" to-port="0"/>
		<edge from-layer="1602" from-port="1" to-layer="1607" to-port="0"/>
		<edge from-layer="1603" from-port="1" to-layer="1607" to-port="1"/>
		<edge from-layer="1604" from-port="1" to-layer="1607" to-port="2"/>
		<edge from-layer="1605" from-port="1" to-layer="1607" to-port="3"/>
		<edge from-layer="1606" from-port="1" to-layer="1607" to-port="4"/>
		<edge from-layer="1584" from-port="3" to-layer="1608" to-port="0"/>
		<edge from-layer="1607" from-port="5" to-layer="1608" to-port="1"/>
		<edge from-layer="1608" from-port="2" to-layer="1610" to-port="0"/>
		<edge from-layer="1609" from-port="1" to-layer="1610" to-port="1"/>
		<edge from-layer="1610" from-port="2" to-layer="1611" to-port="0"/>
		<edge from-layer="1611" from-port="1" to-layer="1616" to-port="0"/>
		<edge from-layer="1612" from-port="1" to-layer="1616" to-port="1"/>
		<edge from-layer="1613" from-port="1" to-layer="1616" to-port="2"/>
		<edge from-layer="1614" from-port="1" to-layer="1616" to-port="3"/>
		<edge from-layer="1615" from-port="1" to-layer="1616" to-port="4"/>
		<edge from-layer="1600" from-port="5" to-layer="1617" to-port="0"/>
		<edge from-layer="1616" from-port="5" to-layer="1617" to-port="1"/>
		<edge from-layer="1618" from-port="1" to-layer="1619" to-port="0"/>
		<edge from-layer="1619" from-port="1" to-layer="1624" to-port="0"/>
		<edge from-layer="1620" from-port="1" to-layer="1624" to-port="1"/>
		<edge from-layer="1621" from-port="1" to-layer="1624" to-port="2"/>
		<edge from-layer="1622" from-port="1" to-layer="1624" to-port="3"/>
		<edge from-layer="1623" from-port="1" to-layer="1624" to-port="4"/>
		<edge from-layer="1617" from-port="2" to-layer="1625" to-port="0"/>
		<edge from-layer="1624" from-port="5" to-layer="1625" to-port="1"/>
		<edge from-layer="1625" from-port="2" to-layer="1627" to-port="0"/>
		<edge from-layer="1626" from-port="1" to-layer="1627" to-port="1"/>
		<edge from-layer="1628" from-port="1" to-layer="1629" to-port="0"/>
		<edge from-layer="1629" from-port="1" to-layer="1634" to-port="0"/>
		<edge from-layer="1630" from-port="1" to-layer="1634" to-port="1"/>
		<edge from-layer="1631" from-port="1" to-layer="1634" to-port="2"/>
		<edge from-layer="1632" from-port="1" to-layer="1634" to-port="3"/>
		<edge from-layer="1633" from-port="1" to-layer="1634" to-port="4"/>
		<edge from-layer="1600" from-port="5" to-layer="1635" to-port="0"/>
		<edge from-layer="1634" from-port="5" to-layer="1635" to-port="1"/>
		<edge from-layer="1635" from-port="2" to-layer="1637" to-port="0"/>
		<edge from-layer="1636" from-port="1" to-layer="1637" to-port="1"/>
		<edge from-layer="1637" from-port="2" to-layer="1638" to-port="0"/>
		<edge from-layer="1638" from-port="1" to-layer="1643" to-port="0"/>
		<edge from-layer="1639" from-port="1" to-layer="1643" to-port="1"/>
		<edge from-layer="1640" from-port="1" to-layer="1643" to-port="2"/>
		<edge from-layer="1641" from-port="1" to-layer="1643" to-port="3"/>
		<edge from-layer="1642" from-port="1" to-layer="1643" to-port="4"/>
		<edge from-layer="1644" from-port="1" to-layer="1645" to-port="0"/>
		<edge from-layer="1645" from-port="1" to-layer="1650" to-port="0"/>
		<edge from-layer="1646" from-port="1" to-layer="1650" to-port="1"/>
		<edge from-layer="1647" from-port="1" to-layer="1650" to-port="2"/>
		<edge from-layer="1648" from-port="1" to-layer="1650" to-port="3"/>
		<edge from-layer="1649" from-port="1" to-layer="1650" to-port="4"/>
		<edge from-layer="1643" from-port="5" to-layer="1651" to-port="0"/>
		<edge from-layer="1650" from-port="5" to-layer="1651" to-port="1"/>
		<edge from-layer="1651" from-port="2" to-layer="1653" to-port="0"/>
		<edge from-layer="1652" from-port="1" to-layer="1653" to-port="1"/>
		<edge from-layer="1653" from-port="2" to-layer="1655" to-port="0"/>
		<edge from-layer="1654" from-port="1" to-layer="1655" to-port="1"/>
		<edge from-layer="1655" from-port="2" to-layer="1656" to-port="0"/>
		<edge from-layer="1656" from-port="1" to-layer="1658" to-port="0"/>
		<edge from-layer="1657" from-port="1" to-layer="1658" to-port="1"/>
		<edge from-layer="1659" from-port="1" to-layer="1660" to-port="0"/>
		<edge from-layer="1660" from-port="1" to-layer="1665" to-port="0"/>
		<edge from-layer="1661" from-port="1" to-layer="1665" to-port="1"/>
		<edge from-layer="1662" from-port="1" to-layer="1665" to-port="2"/>
		<edge from-layer="1663" from-port="1" to-layer="1665" to-port="3"/>
		<edge from-layer="1664" from-port="1" to-layer="1665" to-port="4"/>
		<edge from-layer="1643" from-port="5" to-layer="1666" to-port="0"/>
		<edge from-layer="1665" from-port="5" to-layer="1666" to-port="1"/>
		<edge from-layer="1666" from-port="2" to-layer="1668" to-port="0"/>
		<edge from-layer="1667" from-port="1" to-layer="1668" to-port="1"/>
		<edge from-layer="1669" from-port="0" to-layer="1673" to-port="0"/>
		<edge from-layer="1670" from-port="1" to-layer="1673" to-port="1"/>
		<edge from-layer="1671" from-port="1" to-layer="1673" to-port="2"/>
		<edge from-layer="1672" from-port="1" to-layer="1673" to-port="3"/>
		<edge from-layer="1673" from-port="4" to-layer="1675" to-port="0"/>
		<edge from-layer="1674" from-port="1" to-layer="1675" to-port="1"/>
		<edge from-layer="1658" from-port="2" to-layer="1676" to-port="0"/>
		<edge from-layer="1668" from-port="2" to-layer="1676" to-port="1"/>
		<edge from-layer="1675" from-port="2" to-layer="1676" to-port="2"/>
		<edge from-layer="1627" from-port="2" to-layer="1677" to-port="0"/>
		<edge from-layer="1676" from-port="3" to-layer="1677" to-port="1"/>
		<edge from-layer="1677" from-port="2" to-layer="1682" to-port="0"/>
		<edge from-layer="1678" from-port="1" to-layer="1682" to-port="1"/>
		<edge from-layer="1679" from-port="1" to-layer="1682" to-port="2"/>
		<edge from-layer="1680" from-port="1" to-layer="1682" to-port="3"/>
		<edge from-layer="1681" from-port="1" to-layer="1682" to-port="4"/>
		<edge from-layer="1682" from-port="5" to-layer="1683" to-port="0"/>
		<edge from-layer="1683" from-port="1" to-layer="1685" to-port="0"/>
		<edge from-layer="1684" from-port="1" to-layer="1685" to-port="1"/>
		<edge from-layer="1686" from-port="1" to-layer="1687" to-port="0"/>
		<edge from-layer="1687" from-port="1" to-layer="1692" to-port="0"/>
		<edge from-layer="1688" from-port="1" to-layer="1692" to-port="1"/>
		<edge from-layer="1689" from-port="1" to-layer="1692" to-port="2"/>
		<edge from-layer="1690" from-port="1" to-layer="1692" to-port="3"/>
		<edge from-layer="1691" from-port="1" to-layer="1692" to-port="4"/>
		<edge from-layer="1617" from-port="2" to-layer="1693" to-port="0"/>
		<edge from-layer="1692" from-port="5" to-layer="1693" to-port="1"/>
		<edge from-layer="1693" from-port="2" to-layer="1695" to-port="0"/>
		<edge from-layer="1694" from-port="1" to-layer="1695" to-port="1"/>
		<edge from-layer="1695" from-port="2" to-layer="1696" to-port="0"/>
		<edge from-layer="1676" from-port="3" to-layer="1696" to-port="1"/>
		<edge from-layer="1696" from-port="2" to-layer="1701" to-port="0"/>
		<edge from-layer="1697" from-port="1" to-layer="1701" to-port="1"/>
		<edge from-layer="1698" from-port="1" to-layer="1701" to-port="2"/>
		<edge from-layer="1699" from-port="1" to-layer="1701" to-port="3"/>
		<edge from-layer="1700" from-port="1" to-layer="1701" to-port="4"/>
		<edge from-layer="1701" from-port="5" to-layer="1702" to-port="0"/>
		<edge from-layer="1702" from-port="1" to-layer="1703" to-port="0"/>
		<edge from-layer="1703" from-port="1" to-layer="1705" to-port="0"/>
		<edge from-layer="1704" from-port="1" to-layer="1705" to-port="1"/>
		<edge from-layer="1676" from-port="3" to-layer="1707" to-port="0"/>
		<edge from-layer="1706" from-port="1" to-layer="1707" to-port="1"/>
		<edge from-layer="1685" from-port="2" to-layer="1708" to-port="0"/>
		<edge from-layer="1705" from-port="2" to-layer="1708" to-port="1"/>
		<edge from-layer="1707" from-port="2" to-layer="1708" to-port="2"/>
		<edge from-layer="1708" from-port="3" to-layer="1709" to-port="0"/>
	</edges>
	<meta_data>
		<MO_version value="unknown version"/>
		<cli_parameters>
			<blobs_as_inputs value="True"/>
			<caffe_parser_path value="DIR"/>
			<data_type value="FP16"/>
			<disable_nhwc_to_nchw value="False"/>
			<disable_omitting_optional value="False"/>
			<disable_resnet_optimization value="False"/>
			<disable_weights_compression value="False"/>
			<enable_concat_optimization value="False"/>
			<enable_flattening_nested_params value="False"/>
			<enable_ssd_gluoncv value="False"/>
			<extensions value="DIR"/>
			<framework value="caffe"/>
			<freeze_placeholder_with_value value="{}"/>
			<generate_deprecated_IR_V2 value="False"/>
			<generate_deprecated_IR_V7 value="False"/>
			<generate_experimental_IR_V10 value="True"/>
			<input value="data,im_info"/>
			<input_model value="DIR/cnn.caffemodel"/>
			<input_model_is_text value="False"/>
			<input_proto value="DIR/cnn.prototxt"/>
			<input_shape value="[1,3,544,992],[1,6]"/>
			<k value="DIR/CustomLayersMapping.xml"/>
			<keep_quantize_ops_in_IR value="True"/>
			<keep_shape_ops value="False"/>
			<legacy_mxnet_model value="False"/>
			<log_level value="ERROR"/>
			<mean_scale_values value="{'data': {'mean': array([102.9801, 115.9465, 122.7717]), 'scale': None}}"/>
			<mean_values value="data[102.9801,115.9465,122.7717]"/>
			<model_name value="person-detection-retail-0002"/>
			<move_to_preprocess value="False"/>
			<output value="['detection_out']"/>
			<output_dir value="DIR"/>
			<placeholder_data_types value="{}"/>
			<placeholder_shapes value="{'data': array([  1,   3, 544, 992]), 'im_info': array([1, 6])}"/>
			<progress value="False"/>
			<remove_memory value="False"/>
			<remove_output_softmax value="False"/>
			<reverse_input_channels value="False"/>
			<save_params_from_nd value="False"/>
			<scale_values value="()"/>
			<silent value="False"/>
			<stream_output value="False"/>
			<unset unset_cli_parameters="batch, counts, disable_fusing, disable_gfusing, finegrain_fusing, input_checkpoint, input_meta_graph, input_symbol, mean_file, mean_file_offsets, nd_prefix_name, pretrained_model_name, saved_model_dir, saved_model_tags, scale, tensorboard_logdir, tensorflow_custom_layer_libraries, tensorflow_custom_operations_config_update, tensorflow_object_detection_api_pipeline_config, tensorflow_use_custom_operations_config, transformations_config"/>
		</cli_parameters>
	</meta_data>
	<quantization_parameters>
		<config>{
		'compression': {
			'algorithms': [
				{
					'name': 'DefaultQuantization',
					'params': {
						'preset': 'performance',
						'stat_subset_size': 300
					}
				}
			],
			'target_device': 'CPU'
		},
		'engine': {
			'models': [
				{
					'name': 'person-detection-retail-0002',
					'launchers': [
						{
							'framework': 'dlsdk',
							'tags': [
								'FP32'
							],
							'model': 'PATH',
							'weights': 'PATH',
							'adapter': 'ssd',
							'inputs': [
								{
									'name': 'im_info',
									'type': 'CONST_INPUT',
									'value': [
										[
											544,
											992,
											0,
											0,
											0,
											0
										]
									]
								}
							],
							'device': 'CPU'
						}
					],
					'datasets': [
						{
							'name': 'person_detection',
							'data_source': 'PATH',
							'annotation_conversion': {
								'converter': 'datatang_street_subway',
								'annotation_file': 'PATH'
							},
							'annotation': 'datatang_street_subway.pickle',
							'dataset_meta': 'datatang_street_subway.json',
							'preprocessing': [
								{
									'type': 'resize',
									'dst_width': 992,
									'dst_height': 544
								}
							],
							'postprocessing': [
								{
									'type': 'resize_prediction_boxes'
								},
								{
									'type': 'filter',
									'apply_to': 'prediction',
									'min_confidence': 0.0,
									'width_range': 5,
									'height_range': 5
								},
								{
									'type': 'cast_to_int'
								},
								{
									'type': 'clip_boxes',
									'apply_to': 'annotation',
									'dst_width': 1920,
									'dst_height': 1080
								},
								{
									'type': 'filter',
									'apply_to': 'annotation',
									'height_range': '100, 10000',
									'is_empty': true,
									'min_visibility': 'partially occluded'
								},
								{
									'type': 'clip_boxes',
									'apply_to': 'prediction',
									'dst_width': 1920,
									'dst_height': 1080
								},
								{
									'type': 'filter',
									'apply_to': 'prediction',
									'height_range': 100,
									'is_empty': true,
									'aspect_ratio': '0.666, 5'
								}
							],
							'metrics': [
								{
									'type': 'map',
									'ignore_difficult': true,
									'include_boundaries': false,
									'allow_multiple_matches_per_ignored': false,
									'distinct_conf': false
								}
							]
						}
					]
				},
				{
					'name': 'person-detection-retail-0002',
					'launchers': [
						{
							'framework': 'dlsdk',
							'tags': [
								'FP16'
							],
							'model': 'PATH',
							'weights': 'PATH',
							'adapter': 'ssd',
							'inputs': [
								{
									'name': 'im_info',
									'type': 'CONST_INPUT',
									'value': [
										[
											544,
											992,
											0,
											0,
											0,
											0
										]
									]
								}
							],
							'device': 'CPU'
						}
					],
					'datasets': [
						{
							'name': 'person_detection',
							'data_source': 'PATH',
							'annotation_conversion': {
								'converter': 'datatang_street_subway',
								'annotation_file': 'PATH'
							},
							'annotation': 'datatang_street_subway.pickle',
							'dataset_meta': 'datatang_street_subway.json',
							'preprocessing': [
								{
									'type': 'resize',
									'dst_width': 992,
									'dst_height': 544
								}
							],
							'postprocessing': [
								{
									'type': 'resize_prediction_boxes'
								},
								{
									'type': 'filter',
									'apply_to': 'prediction',
									'min_confidence': 0.0,
									'width_range': 5,
									'height_range': 5
								},
								{
									'type': 'cast_to_int'
								},
								{
									'type': 'clip_boxes',
									'apply_to': 'annotation',
									'dst_width': 1920,
									'dst_height': 1080
								},
								{
									'type': 'filter',
									'apply_to': 'annotation',
									'height_range': '100, 10000',
									'is_empty': true,
									'min_visibility': 'partially occluded'
								},
								{
									'type': 'clip_boxes',
									'apply_to': 'prediction',
									'dst_width': 1920,
									'dst_height': 1080
								},
								{
									'type': 'filter',
									'apply_to': 'prediction',
									'height_range': 100,
									'is_empty': true,
									'aspect_ratio': '0.666, 5'
								}
							],
							'metrics': [
								{
									'type': 'map',
									'ignore_difficult': true,
									'include_boundaries': false,
									'allow_multiple_matches_per_ignored': false,
									'distinct_conf': false
								}
							]
						}
					]
				},
				{
					'name': 'person-detection-retail-0002',
					'launchers': [
						{
							'framework': 'dlsdk',
							'tags': [
								'FP16-INT8'
							],
							'model': 'PATH',
							'weights': 'PATH',
							'adapter': 'ssd',
							'inputs': [
								{
									'name': 'im_info',
									'type': 'CONST_INPUT',
									'value': [
										[
											544,
											992,
											0,
											0,
											0,
											0
										]
									]
								}
							],
							'device': 'CPU'
						}
					],
					'datasets': [
						{
							'name': 'person_detection',
							'data_source': 'PATH',
							'annotation_conversion': {
								'converter': 'datatang_street_subway',
								'annotation_file': 'PATH'
							},
							'annotation': 'datatang_street_subway.pickle',
							'dataset_meta': 'datatang_street_subway.json',
							'preprocessing': [
								{
									'type': 'resize',
									'dst_width': 992,
									'dst_height': 544
								}
							],
							'postprocessing': [
								{
									'type': 'resize_prediction_boxes'
								},
								{
									'type': 'filter',
									'apply_to': 'prediction',
									'min_confidence': 0.0,
									'width_range': 5,
									'height_range': 5
								},
								{
									'type': 'cast_to_int'
								},
								{
									'type': 'clip_boxes',
									'apply_to': 'annotation',
									'dst_width': 1920,
									'dst_height': 1080
								},
								{
									'type': 'filter',
									'apply_to': 'annotation',
									'height_range': '100, 10000',
									'is_empty': true,
									'min_visibility': 'partially occluded'
								},
								{
									'type': 'clip_boxes',
									'apply_to': 'prediction',
									'dst_width': 1920,
									'dst_height': 1080
								},
								{
									'type': 'filter',
									'apply_to': 'prediction',
									'height_range': 100,
									'is_empty': true,
									'aspect_ratio': '0.666, 5'
								}
							],
							'metrics': [
								{
									'type': 'map',
									'ignore_difficult': true,
									'include_boundaries': false,
									'allow_multiple_matches_per_ignored': false,
									'distinct_conf': false
								}
							]
						}
					]
				}
			],
			'global_definitions': '../dataset_definitions.yml',
			'stat_requests_number': null,
			'eval_requests_number': null,
			'type': 'accuracy_checker'
		}
	}</config>
		<version value="1.0"/>
		<cli_params value="{'evaluate': False, 'output_dir': 'PATH', 'direct_dump': True, 'log_level': 'INFO', 'pbar': False, 'keep_uncompressed_weights': False}"/>
	</quantization_parameters>
</net>
