<?xml version="1.0" ?>
<net name="person-reidentification-retail-0300" version="10">
	<layers>
		<layer id="0" name="data" type="Parameter" version="opset1">
			<data element_type="f16" shape="1,3,256,128"/>
			<output>
				<port id="0" precision="FP16">
					<dim>1</dim>
					<dim>3</dim>
					<dim>256</dim>
					<dim>128</dim>
				</port>
			</output>
		</layer>
		<layer id="1" name="data/reverse_input_channels34062/Concat34081_const926_const" type="Const" version="opset1">
			<data element_type="f16" offset="0" shape="1,3,1,1" size="6"/>
			<output>
				<port id="1" precision="FP16">
					<dim>1</dim>
					<dim>3</dim>
					<dim>1</dim>
					<dim>1</dim>
				</port>
			</output>
		</layer>
		<layer id="2" name="Mul_/Fused_Mul_" type="Multiply" version="opset1">
			<input>
				<port id="0">
					<dim>1</dim>
					<dim>3</dim>
					<dim>256</dim>
					<dim>128</dim>
				</port>
				<port id="1">
					<dim>1</dim>
					<dim>3</dim>
					<dim>1</dim>
					<dim>1</dim>
				</port>
			</input>
			<output>
				<port id="2" precision="FP16">
					<dim>1</dim>
					<dim>3</dim>
					<dim>256</dim>
					<dim>128</dim>
				</port>
			</output>
		</layer>
		<layer id="3" name="data/reverse_input_channels34064/Concat34089_const928_const" type="Const" version="opset1">
			<data element_type="f16" offset="6" shape="1,3,1,1" size="6"/>
			<output>
				<port id="1" precision="FP16">
					<dim>1</dim>
					<dim>3</dim>
					<dim>1</dim>
					<dim>1</dim>
				</port>
			</output>
		</layer>
		<layer id="4" name="Add_/Fused_Add_" type="Add" version="opset1">
			<input>
				<port id="0">
					<dim>1</dim>
					<dim>3</dim>
					<dim>256</dim>
					<dim>128</dim>
				</port>
				<port id="1">
					<dim>1</dim>
					<dim>3</dim>
					<dim>1</dim>
					<dim>1</dim>
				</port>
			</input>
			<output>
				<port id="2" precision="FP16">
					<dim>1</dim>
					<dim>3</dim>
					<dim>256</dim>
					<dim>128</dim>
				</port>
			</output>
		</layer>
		<layer id="5" name="72837287_const" type="Const" version="opset1">
			<data element_type="f16" offset="12" shape="" size="2"/>
			<output>
				<port id="1" precision="FP16"/>
			</output>
		</layer>
		<layer id="6" name="72847288_const" type="Const" version="opset1">
			<data element_type="f16" offset="14" shape="" size="2"/>
			<output>
				<port id="1" precision="FP16"/>
			</output>
		</layer>
		<layer id="7" name="72857289_const" type="Const" version="opset1">
			<data element_type="f16" offset="12" shape="" size="2"/>
			<output>
				<port id="1" precision="FP16"/>
			</output>
		</layer>
		<layer id="8" name="72867290_const" type="Const" version="opset1">
			<data element_type="f16" offset="14" shape="" size="2"/>
			<output>
				<port id="1" precision="FP16"/>
			</output>
		</layer>
		<layer id="9" name="590/fq_input_0" type="FakeQuantize" version="opset1">
			<data levels="256"/>
			<input>
				<port id="0">
					<dim>1</dim>
					<dim>3</dim>
					<dim>256</dim>
					<dim>128</dim>
				</port>
				<port id="1"/>
				<port id="2"/>
				<port id="3"/>
				<port id="4"/>
			</input>
			<output>
				<port id="5" precision="FP16">
					<dim>1</dim>
					<dim>3</dim>
					<dim>256</dim>
					<dim>128</dim>
				</port>
			</output>
		</layer>
		<layer id="10" name="590/fq_weights_1/Convert_to_float/Cast_019173_const" type="Const" version="opset1">
			<data element_type="u8" offset="16" shape="64,3,7,7" size="9408"/>
			<output>
				<port id="1" precision="U8">
					<dim>64</dim>
					<dim>3</dim>
					<dim>7</dim>
					<dim>7</dim>
				</port>
			</output>
		</layer>
		<layer id="11" name="590/fq_weights_1/Convert_to_float" type="Convert" version="opset1">
			<data destination_type="f16"/>
			<input>
				<port id="0">
					<dim>64</dim>
					<dim>3</dim>
					<dim>7</dim>
					<dim>7</dim>
				</port>
			</input>
			<output>
				<port id="1" precision="FP16">
					<dim>64</dim>
					<dim>3</dim>
					<dim>7</dim>
					<dim>7</dim>
				</port>
			</output>
		</layer>
		<layer id="12" name="590/fq_weights_1/Copy/out_low16131_const" type="Const" version="opset1">
			<data element_type="f16" offset="9424" shape="1" size="2"/>
			<output>
				<port id="1" precision="FP16">
					<dim>1</dim>
				</port>
			</output>
		</layer>
		<layer id="13" name="590/fq_weights_1/Copy/out_high16132_const" type="Const" version="opset1">
			<data element_type="f16" offset="9426" shape="1" size="2"/>
			<output>
				<port id="1" precision="FP16">
					<dim>1</dim>
				</port>
			</output>
		</layer>
		<layer id="14" name="72957299_const" type="Const" version="opset1">
			<data element_type="f16" offset="9428" shape="64,1,1,1" size="128"/>
			<output>
				<port id="1" precision="FP16">
					<dim>64</dim>
					<dim>1</dim>
					<dim>1</dim>
					<dim>1</dim>
				</port>
			</output>
		</layer>
		<layer id="15" name="72967300_const" type="Const" version="opset1">
			<data element_type="f16" offset="9556" shape="64,1,1,1" size="128"/>
			<output>
				<port id="1" precision="FP16">
					<dim>64</dim>
					<dim>1</dim>
					<dim>1</dim>
					<dim>1</dim>
				</port>
			</output>
		</layer>
		<layer id="16" name="590/fq_weights_1" type="FakeQuantize" version="opset1">
			<data levels="255"/>
			<input>
				<port id="0">
					<dim>64</dim>
					<dim>3</dim>
					<dim>7</dim>
					<dim>7</dim>
				</port>
				<port id="1">
					<dim>1</dim>
				</port>
				<port id="2">
					<dim>1</dim>
				</port>
				<port id="3">
					<dim>64</dim>
					<dim>1</dim>
					<dim>1</dim>
					<dim>1</dim>
				</port>
				<port id="4">
					<dim>64</dim>
					<dim>1</dim>
					<dim>1</dim>
					<dim>1</dim>
				</port>
			</input>
			<output>
				<port id="5" precision="FP16">
					<dim>64</dim>
					<dim>3</dim>
					<dim>7</dim>
					<dim>7</dim>
				</port>
			</output>
		</layer>
		<layer id="17" name="590" type="Convolution" version="opset1">
			<data dilations="1,1" output_padding="0,0" pads_begin="3,3" pads_end="3,3" strides="2,2"/>
			<input>
				<port id="0">
					<dim>1</dim>
					<dim>3</dim>
					<dim>256</dim>
					<dim>128</dim>
				</port>
				<port id="1">
					<dim>64</dim>
					<dim>3</dim>
					<dim>7</dim>
					<dim>7</dim>
				</port>
			</input>
			<output>
				<port id="2" precision="FP16">
					<dim>1</dim>
					<dim>64</dim>
					<dim>128</dim>
					<dim>64</dim>
				</port>
			</output>
		</layer>
		<layer id="18" name="data_add_2056820573/copy_const932_const" type="Const" version="opset1">
			<data element_type="f16" offset="9684" shape="1,64,1,1" size="128"/>
			<output>
				<port id="1" precision="FP16">
					<dim>1</dim>
					<dim>64</dim>
					<dim>1</dim>
					<dim>1</dim>
				</port>
			</output>
		</layer>
		<layer id="19" name="591/variance/Fused_Add_" type="Add" version="opset1">
			<input>
				<port id="0">
					<dim>1</dim>
					<dim>64</dim>
					<dim>128</dim>
					<dim>64</dim>
				</port>
				<port id="1">
					<dim>1</dim>
					<dim>64</dim>
					<dim>1</dim>
					<dim>1</dim>
				</port>
			</input>
			<output>
				<port id="2" precision="FP16">
					<dim>1</dim>
					<dim>64</dim>
					<dim>128</dim>
					<dim>64</dim>
				</port>
			</output>
		</layer>
		<layer id="20" name="592" type="ReLU" version="opset1">
			<input>
				<port id="0">
					<dim>1</dim>
					<dim>64</dim>
					<dim>128</dim>
					<dim>64</dim>
				</port>
			</input>
			<output>
				<port id="1" precision="FP16">
					<dim>1</dim>
					<dim>64</dim>
					<dim>128</dim>
					<dim>64</dim>
				</port>
			</output>
		</layer>
		<layer id="21" name="97439747_const" type="Const" version="opset1">
			<data element_type="f16" offset="9812" shape="" size="2"/>
			<output>
				<port id="1" precision="FP16"/>
			</output>
		</layer>
		<layer id="22" name="97449748_const" type="Const" version="opset1">
			<data element_type="f16" offset="9814" shape="" size="2"/>
			<output>
				<port id="1" precision="FP16"/>
			</output>
		</layer>
		<layer id="23" name="97459749_const" type="Const" version="opset1">
			<data element_type="f16" offset="9812" shape="" size="2"/>
			<output>
				<port id="1" precision="FP16"/>
			</output>
		</layer>
		<layer id="24" name="97469750_const" type="Const" version="opset1">
			<data element_type="f16" offset="9814" shape="" size="2"/>
			<output>
				<port id="1" precision="FP16"/>
			</output>
		</layer>
		<layer id="25" name="593/fq_input_0" type="FakeQuantize" version="opset1">
			<data levels="256"/>
			<input>
				<port id="0">
					<dim>1</dim>
					<dim>64</dim>
					<dim>128</dim>
					<dim>64</dim>
				</port>
				<port id="1"/>
				<port id="2"/>
				<port id="3"/>
				<port id="4"/>
			</input>
			<output>
				<port id="5" precision="FP16">
					<dim>1</dim>
					<dim>64</dim>
					<dim>128</dim>
					<dim>64</dim>
				</port>
			</output>
		</layer>
		<layer id="26" name="593" type="MaxPool" version="opset1">
			<data kernel="3,3" pads_begin="1,1" pads_end="1,1" rounding_type="floor" strides="2,2"/>
			<input>
				<port id="0">
					<dim>1</dim>
					<dim>64</dim>
					<dim>128</dim>
					<dim>64</dim>
				</port>
			</input>
			<output>
				<port id="1" precision="FP16">
					<dim>1</dim>
					<dim>64</dim>
					<dim>64</dim>
					<dim>32</dim>
				</port>
			</output>
		</layer>
		<layer id="27" name="594/fq_weights_1/Convert_to_float/Cast_019167_const" type="Const" version="opset1">
			<data element_type="u8" offset="9816" shape="64,64,1,1" size="4096"/>
			<output>
				<port id="1" precision="U8">
					<dim>64</dim>
					<dim>64</dim>
					<dim>1</dim>
					<dim>1</dim>
				</port>
			</output>
		</layer>
		<layer id="28" name="594/fq_weights_1/Convert_to_float" type="Convert" version="opset1">
			<data destination_type="f16"/>
			<input>
				<port id="0">
					<dim>64</dim>
					<dim>64</dim>
					<dim>1</dim>
					<dim>1</dim>
				</port>
			</input>
			<output>
				<port id="1" precision="FP16">
					<dim>64</dim>
					<dim>64</dim>
					<dim>1</dim>
					<dim>1</dim>
				</port>
			</output>
		</layer>
		<layer id="29" name="594/fq_weights_1/Copy/out_low16051_const" type="Const" version="opset1">
			<data element_type="f16" offset="13912" shape="1" size="2"/>
			<output>
				<port id="1" precision="FP16">
					<dim>1</dim>
				</port>
			</output>
		</layer>
		<layer id="30" name="594/fq_weights_1/Copy/out_high16052_const" type="Const" version="opset1">
			<data element_type="f16" offset="9426" shape="1" size="2"/>
			<output>
				<port id="1" precision="FP16">
					<dim>1</dim>
				</port>
			</output>
		</layer>
		<layer id="31" name="39453949_const" type="Const" version="opset1">
			<data element_type="f16" offset="13914" shape="64,1,1,1" size="128"/>
			<output>
				<port id="1" precision="FP16">
					<dim>64</dim>
					<dim>1</dim>
					<dim>1</dim>
					<dim>1</dim>
				</port>
			</output>
		</layer>
		<layer id="32" name="39463950_const" type="Const" version="opset1">
			<data element_type="f16" offset="14042" shape="64,1,1,1" size="128"/>
			<output>
				<port id="1" precision="FP16">
					<dim>64</dim>
					<dim>1</dim>
					<dim>1</dim>
					<dim>1</dim>
				</port>
			</output>
		</layer>
		<layer id="33" name="594/fq_weights_1" type="FakeQuantize" version="opset1">
			<data levels="255"/>
			<input>
				<port id="0">
					<dim>64</dim>
					<dim>64</dim>
					<dim>1</dim>
					<dim>1</dim>
				</port>
				<port id="1">
					<dim>1</dim>
				</port>
				<port id="2">
					<dim>1</dim>
				</port>
				<port id="3">
					<dim>64</dim>
					<dim>1</dim>
					<dim>1</dim>
					<dim>1</dim>
				</port>
				<port id="4">
					<dim>64</dim>
					<dim>1</dim>
					<dim>1</dim>
					<dim>1</dim>
				</port>
			</input>
			<output>
				<port id="5" precision="FP16">
					<dim>64</dim>
					<dim>64</dim>
					<dim>1</dim>
					<dim>1</dim>
				</port>
			</output>
		</layer>
		<layer id="34" name="594" type="Convolution" version="opset1">
			<data dilations="1,1" output_padding="0,0" pads_begin="0,0" pads_end="0,0" strides="1,1"/>
			<input>
				<port id="0">
					<dim>1</dim>
					<dim>64</dim>
					<dim>64</dim>
					<dim>32</dim>
				</port>
				<port id="1">
					<dim>64</dim>
					<dim>64</dim>
					<dim>1</dim>
					<dim>1</dim>
				</port>
			</input>
			<output>
				<port id="2" precision="FP16">
					<dim>1</dim>
					<dim>64</dim>
					<dim>64</dim>
					<dim>32</dim>
				</port>
			</output>
		</layer>
		<layer id="35" name="data_add_2058420589/copy_const938_const" type="Const" version="opset1">
			<data element_type="f16" offset="14170" shape="1,64,1,1" size="128"/>
			<output>
				<port id="1" precision="FP16">
					<dim>1</dim>
					<dim>64</dim>
					<dim>1</dim>
					<dim>1</dim>
				</port>
			</output>
		</layer>
		<layer id="36" name="595/variance/Fused_Add_" type="Add" version="opset1">
			<input>
				<port id="0">
					<dim>1</dim>
					<dim>64</dim>
					<dim>64</dim>
					<dim>32</dim>
				</port>
				<port id="1">
					<dim>1</dim>
					<dim>64</dim>
					<dim>1</dim>
					<dim>1</dim>
				</port>
			</input>
			<output>
				<port id="2" precision="FP16">
					<dim>1</dim>
					<dim>64</dim>
					<dim>64</dim>
					<dim>32</dim>
				</port>
			</output>
		</layer>
		<layer id="37" name="596" type="ReLU" version="opset1">
			<input>
				<port id="0">
					<dim>1</dim>
					<dim>64</dim>
					<dim>64</dim>
					<dim>32</dim>
				</port>
			</input>
			<output>
				<port id="1" precision="FP16">
					<dim>1</dim>
					<dim>64</dim>
					<dim>64</dim>
					<dim>32</dim>
				</port>
			</output>
		</layer>
		<layer id="38" name="45234527_const" type="Const" version="opset1">
			<data element_type="f16" offset="14298" shape="" size="2"/>
			<output>
				<port id="1" precision="FP16"/>
			</output>
		</layer>
		<layer id="39" name="45244528_const" type="Const" version="opset1">
			<data element_type="f16" offset="14300" shape="" size="2"/>
			<output>
				<port id="1" precision="FP16"/>
			</output>
		</layer>
		<layer id="40" name="45254529_const" type="Const" version="opset1">
			<data element_type="f16" offset="14298" shape="" size="2"/>
			<output>
				<port id="1" precision="FP16"/>
			</output>
		</layer>
		<layer id="41" name="45264530_const" type="Const" version="opset1">
			<data element_type="f16" offset="14300" shape="" size="2"/>
			<output>
				<port id="1" precision="FP16"/>
			</output>
		</layer>
		<layer id="42" name="597/fq_input_0" type="FakeQuantize" version="opset1">
			<data levels="256"/>
			<input>
				<port id="0">
					<dim>1</dim>
					<dim>64</dim>
					<dim>64</dim>
					<dim>32</dim>
				</port>
				<port id="1"/>
				<port id="2"/>
				<port id="3"/>
				<port id="4"/>
			</input>
			<output>
				<port id="5" precision="FP16">
					<dim>1</dim>
					<dim>64</dim>
					<dim>64</dim>
					<dim>32</dim>
				</port>
			</output>
		</layer>
		<layer id="43" name="597/fq_weights_1/Convert_to_float/Cast_019257_const" type="Const" version="opset1">
			<data element_type="u8" offset="14302" shape="64,64,1,1" size="4096"/>
			<output>
				<port id="1" precision="U8">
					<dim>64</dim>
					<dim>64</dim>
					<dim>1</dim>
					<dim>1</dim>
				</port>
			</output>
		</layer>
		<layer id="44" name="597/fq_weights_1/Convert_to_float" type="Convert" version="opset1">
			<data destination_type="f16"/>
			<input>
				<port id="0">
					<dim>64</dim>
					<dim>64</dim>
					<dim>1</dim>
					<dim>1</dim>
				</port>
			</input>
			<output>
				<port id="1" precision="FP16">
					<dim>64</dim>
					<dim>64</dim>
					<dim>1</dim>
					<dim>1</dim>
				</port>
			</output>
		</layer>
		<layer id="45" name="597/fq_weights_1/Copy/out_low15963_const" type="Const" version="opset1">
			<data element_type="f16" offset="18398" shape="1" size="2"/>
			<output>
				<port id="1" precision="FP16">
					<dim>1</dim>
				</port>
			</output>
		</layer>
		<layer id="46" name="597/fq_weights_1/Copy/out_high15964_const" type="Const" version="opset1">
			<data element_type="f16" offset="9426" shape="1" size="2"/>
			<output>
				<port id="1" precision="FP16">
					<dim>1</dim>
				</port>
			</output>
		</layer>
		<layer id="47" name="45354539_const" type="Const" version="opset1">
			<data element_type="f16" offset="18400" shape="64,1,1,1" size="128"/>
			<output>
				<port id="1" precision="FP16">
					<dim>64</dim>
					<dim>1</dim>
					<dim>1</dim>
					<dim>1</dim>
				</port>
			</output>
		</layer>
		<layer id="48" name="45364540_const" type="Const" version="opset1">
			<data element_type="f16" offset="18528" shape="64,1,1,1" size="128"/>
			<output>
				<port id="1" precision="FP16">
					<dim>64</dim>
					<dim>1</dim>
					<dim>1</dim>
					<dim>1</dim>
				</port>
			</output>
		</layer>
		<layer id="49" name="597/fq_weights_1" type="FakeQuantize" version="opset1">
			<data levels="255"/>
			<input>
				<port id="0">
					<dim>64</dim>
					<dim>64</dim>
					<dim>1</dim>
					<dim>1</dim>
				</port>
				<port id="1">
					<dim>1</dim>
				</port>
				<port id="2">
					<dim>1</dim>
				</port>
				<port id="3">
					<dim>64</dim>
					<dim>1</dim>
					<dim>1</dim>
					<dim>1</dim>
				</port>
				<port id="4">
					<dim>64</dim>
					<dim>1</dim>
					<dim>1</dim>
					<dim>1</dim>
				</port>
			</input>
			<output>
				<port id="5" precision="FP16">
					<dim>64</dim>
					<dim>64</dim>
					<dim>1</dim>
					<dim>1</dim>
				</port>
			</output>
		</layer>
		<layer id="50" name="597" type="Convolution" version="opset1">
			<data dilations="1,1" output_padding="0,0" pads_begin="0,0" pads_end="0,0" strides="1,1"/>
			<input>
				<port id="0">
					<dim>1</dim>
					<dim>64</dim>
					<dim>64</dim>
					<dim>32</dim>
				</port>
				<port id="1">
					<dim>64</dim>
					<dim>64</dim>
					<dim>1</dim>
					<dim>1</dim>
				</port>
			</input>
			<output>
				<port id="2" precision="FP16">
					<dim>1</dim>
					<dim>64</dim>
					<dim>64</dim>
					<dim>32</dim>
				</port>
			</output>
		</layer>
		<layer id="51" name="22162218_const" type="Const" version="opset1">
			<data element_type="f16" offset="18656" shape="1,64,1,1" size="128"/>
			<output>
				<port id="1" precision="FP16">
					<dim>1</dim>
					<dim>64</dim>
					<dim>1</dim>
					<dim>1</dim>
				</port>
			</output>
		</layer>
		<layer id="52" name="597/add_" type="Add" version="opset1">
			<input>
				<port id="0">
					<dim>1</dim>
					<dim>64</dim>
					<dim>64</dim>
					<dim>32</dim>
				</port>
				<port id="1">
					<dim>1</dim>
					<dim>64</dim>
					<dim>1</dim>
					<dim>1</dim>
				</port>
			</input>
			<output>
				<port id="2" precision="FP16">
					<dim>1</dim>
					<dim>64</dim>
					<dim>64</dim>
					<dim>32</dim>
				</port>
			</output>
		</layer>
		<layer id="53" name="57335737_const" type="Const" version="opset1">
			<data element_type="f16" offset="18784" shape="1,64,1,1" size="128"/>
			<output>
				<port id="1" precision="FP16">
					<dim>1</dim>
					<dim>64</dim>
					<dim>1</dim>
					<dim>1</dim>
				</port>
			</output>
		</layer>
		<layer id="54" name="57345738_const" type="Const" version="opset1">
			<data element_type="f16" offset="18912" shape="1,64,1,1" size="128"/>
			<output>
				<port id="1" precision="FP16">
					<dim>1</dim>
					<dim>64</dim>
					<dim>1</dim>
					<dim>1</dim>
				</port>
			</output>
		</layer>
		<layer id="55" name="57355739_const" type="Const" version="opset1">
			<data element_type="f16" offset="18784" shape="1,64,1,1" size="128"/>
			<output>
				<port id="1" precision="FP16">
					<dim>1</dim>
					<dim>64</dim>
					<dim>1</dim>
					<dim>1</dim>
				</port>
			</output>
		</layer>
		<layer id="56" name="57365740_const" type="Const" version="opset1">
			<data element_type="f16" offset="18912" shape="1,64,1,1" size="128"/>
			<output>
				<port id="1" precision="FP16">
					<dim>1</dim>
					<dim>64</dim>
					<dim>1</dim>
					<dim>1</dim>
				</port>
			</output>
		</layer>
		<layer id="57" name="598/fq_input_0" type="FakeQuantize" version="opset1">
			<data levels="256"/>
			<input>
				<port id="0">
					<dim>1</dim>
					<dim>64</dim>
					<dim>64</dim>
					<dim>32</dim>
				</port>
				<port id="1">
					<dim>1</dim>
					<dim>64</dim>
					<dim>1</dim>
					<dim>1</dim>
				</port>
				<port id="2">
					<dim>1</dim>
					<dim>64</dim>
					<dim>1</dim>
					<dim>1</dim>
				</port>
				<port id="3">
					<dim>1</dim>
					<dim>64</dim>
					<dim>1</dim>
					<dim>1</dim>
				</port>
				<port id="4">
					<dim>1</dim>
					<dim>64</dim>
					<dim>1</dim>
					<dim>1</dim>
				</port>
			</input>
			<output>
				<port id="5" precision="FP16">
					<dim>1</dim>
					<dim>64</dim>
					<dim>64</dim>
					<dim>32</dim>
				</port>
			</output>
		</layer>
		<layer id="58" name="598/fq_weights_1/Convert_to_float/Cast_019027_const" type="Const" version="opset1">
			<data element_type="u8" offset="19040" shape="64,1,3,3" size="576"/>
			<output>
				<port id="1" precision="U8">
					<dim>64</dim>
					<dim>1</dim>
					<dim>3</dim>
					<dim>3</dim>
				</port>
			</output>
		</layer>
		<layer id="59" name="598/fq_weights_1/Convert_to_float" type="Convert" version="opset1">
			<data destination_type="f16"/>
			<input>
				<port id="0">
					<dim>64</dim>
					<dim>1</dim>
					<dim>3</dim>
					<dim>3</dim>
				</port>
			</input>
			<output>
				<port id="1" precision="FP16">
					<dim>64</dim>
					<dim>1</dim>
					<dim>3</dim>
					<dim>3</dim>
				</port>
			</output>
		</layer>
		<layer id="60" name="598/fq_weights_1/Copy/out_low16203_const" type="Const" version="opset1">
			<data element_type="f16" offset="18398" shape="1" size="2"/>
			<output>
				<port id="1" precision="FP16">
					<dim>1</dim>
				</port>
			</output>
		</layer>
		<layer id="61" name="598/fq_weights_1/Copy/out_high16204_const" type="Const" version="opset1">
			<data element_type="f16" offset="9426" shape="1" size="2"/>
			<output>
				<port id="1" precision="FP16">
					<dim>1</dim>
				</port>
			</output>
		</layer>
		<layer id="62" name="57455749_const" type="Const" version="opset1">
			<data element_type="f16" offset="19616" shape="64,1,1,1" size="128"/>
			<output>
				<port id="1" precision="FP16">
					<dim>64</dim>
					<dim>1</dim>
					<dim>1</dim>
					<dim>1</dim>
				</port>
			</output>
		</layer>
		<layer id="63" name="57465750_const" type="Const" version="opset1">
			<data element_type="f16" offset="19744" shape="64,1,1,1" size="128"/>
			<output>
				<port id="1" precision="FP16">
					<dim>64</dim>
					<dim>1</dim>
					<dim>1</dim>
					<dim>1</dim>
				</port>
			</output>
		</layer>
		<layer id="64" name="598/fq_weights_1" type="FakeQuantize" version="opset1">
			<data levels="255"/>
			<input>
				<port id="0">
					<dim>64</dim>
					<dim>1</dim>
					<dim>3</dim>
					<dim>3</dim>
				</port>
				<port id="1">
					<dim>1</dim>
				</port>
				<port id="2">
					<dim>1</dim>
				</port>
				<port id="3">
					<dim>64</dim>
					<dim>1</dim>
					<dim>1</dim>
					<dim>1</dim>
				</port>
				<port id="4">
					<dim>64</dim>
					<dim>1</dim>
					<dim>1</dim>
					<dim>1</dim>
				</port>
			</input>
			<output>
				<port id="5" precision="FP16">
					<dim>64</dim>
					<dim>1</dim>
					<dim>3</dim>
					<dim>3</dim>
				</port>
			</output>
		</layer>
		<layer id="65" name="21470/value21472_const" type="Const" version="opset1">
			<data element_type="i64" offset="19872" shape="5" size="40"/>
			<output>
				<port id="1" precision="I64">
					<dim>5</dim>
				</port>
			</output>
		</layer>
		<layer id="66" name="21470" type="Reshape" version="opset1">
			<data special_zero="True"/>
			<input>
				<port id="0">
					<dim>64</dim>
					<dim>1</dim>
					<dim>3</dim>
					<dim>3</dim>
				</port>
				<port id="1">
					<dim>5</dim>
				</port>
			</input>
			<output>
				<port id="2" precision="FP16">
					<dim>64</dim>
					<dim>1</dim>
					<dim>1</dim>
					<dim>3</dim>
					<dim>3</dim>
				</port>
			</output>
		</layer>
		<layer id="67" name="598" type="GroupConvolution" version="opset1">
			<data dilations="1,1" output_padding="0,0" pads_begin="1,1" pads_end="1,1" strides="1,1"/>
			<input>
				<port id="0">
					<dim>1</dim>
					<dim>64</dim>
					<dim>64</dim>
					<dim>32</dim>
				</port>
				<port id="1">
					<dim>64</dim>
					<dim>1</dim>
					<dim>1</dim>
					<dim>3</dim>
					<dim>3</dim>
				</port>
			</input>
			<output>
				<port id="2" precision="FP16">
					<dim>1</dim>
					<dim>64</dim>
					<dim>64</dim>
					<dim>32</dim>
				</port>
			</output>
		</layer>
		<layer id="68" name="data_add_2066420669/copy_const945_const" type="Const" version="opset1">
			<data element_type="f16" offset="19912" shape="1,64,1,1" size="128"/>
			<output>
				<port id="1" precision="FP16">
					<dim>1</dim>
					<dim>64</dim>
					<dim>1</dim>
					<dim>1</dim>
				</port>
			</output>
		</layer>
		<layer id="69" name="599/variance/Fused_Add_" type="Add" version="opset1">
			<input>
				<port id="0">
					<dim>1</dim>
					<dim>64</dim>
					<dim>64</dim>
					<dim>32</dim>
				</port>
				<port id="1">
					<dim>1</dim>
					<dim>64</dim>
					<dim>1</dim>
					<dim>1</dim>
				</port>
			</input>
			<output>
				<port id="2" precision="FP16">
					<dim>1</dim>
					<dim>64</dim>
					<dim>64</dim>
					<dim>32</dim>
				</port>
			</output>
		</layer>
		<layer id="70" name="600" type="ReLU" version="opset1">
			<input>
				<port id="0">
					<dim>1</dim>
					<dim>64</dim>
					<dim>64</dim>
					<dim>32</dim>
				</port>
			</input>
			<output>
				<port id="1" precision="FP16">
					<dim>1</dim>
					<dim>64</dim>
					<dim>64</dim>
					<dim>32</dim>
				</port>
			</output>
		</layer>
		<layer id="71" name="36933697_const" type="Const" version="opset1">
			<data element_type="f16" offset="20040" shape="" size="2"/>
			<output>
				<port id="1" precision="FP16"/>
			</output>
		</layer>
		<layer id="72" name="36943698_const" type="Const" version="opset1">
			<data element_type="f16" offset="20042" shape="" size="2"/>
			<output>
				<port id="1" precision="FP16"/>
			</output>
		</layer>
		<layer id="73" name="36953699_const" type="Const" version="opset1">
			<data element_type="f16" offset="20040" shape="" size="2"/>
			<output>
				<port id="1" precision="FP16"/>
			</output>
		</layer>
		<layer id="74" name="36963700_const" type="Const" version="opset1">
			<data element_type="f16" offset="20042" shape="" size="2"/>
			<output>
				<port id="1" precision="FP16"/>
			</output>
		</layer>
		<layer id="75" name="637/reduce/fq_input_0" type="FakeQuantize" version="opset1">
			<data levels="256"/>
			<input>
				<port id="0">
					<dim>1</dim>
					<dim>64</dim>
					<dim>64</dim>
					<dim>32</dim>
				</port>
				<port id="1"/>
				<port id="2"/>
				<port id="3"/>
				<port id="4"/>
			</input>
			<output>
				<port id="5" precision="FP16">
					<dim>1</dim>
					<dim>64</dim>
					<dim>64</dim>
					<dim>32</dim>
				</port>
			</output>
		</layer>
		<layer id="76" name="637/reduce/Cast_119073_const" type="Const" version="opset1">
			<data element_type="i64" offset="20044" shape="2" size="16"/>
			<output>
				<port id="1" precision="I64">
					<dim>2</dim>
				</port>
			</output>
		</layer>
		<layer id="77" name="637/reduce" type="ReduceMean" version="opset1">
			<data keep_dims="True"/>
			<input>
				<port id="0">
					<dim>1</dim>
					<dim>64</dim>
					<dim>64</dim>
					<dim>32</dim>
				</port>
				<port id="1">
					<dim>2</dim>
				</port>
			</input>
			<output>
				<port id="2" precision="FP16">
					<dim>1</dim>
					<dim>64</dim>
					<dim>1</dim>
					<dim>1</dim>
				</port>
			</output>
		</layer>
		<layer id="78" name="Copy_onnx_initializer_node_conv2.0.gate.fc1.weight/Output_0/Data__const950_const" type="Const" version="opset1">
			<data element_type="f16" offset="20060" shape="4,64,1,1" size="512"/>
			<output>
				<port id="1" precision="FP16">
					<dim>4</dim>
					<dim>64</dim>
					<dim>1</dim>
					<dim>1</dim>
				</port>
			</output>
		</layer>
		<layer id="79" name="638/WithoutBiases" type="Convolution" version="opset1">
			<data dilations="1,1" output_padding="0,0" pads_begin="0,0" pads_end="0,0" strides="1,1"/>
			<input>
				<port id="0">
					<dim>1</dim>
					<dim>64</dim>
					<dim>1</dim>
					<dim>1</dim>
				</port>
				<port id="1">
					<dim>4</dim>
					<dim>64</dim>
					<dim>1</dim>
					<dim>1</dim>
				</port>
			</input>
			<output>
				<port id="2" precision="FP16">
					<dim>1</dim>
					<dim>4</dim>
					<dim>1</dim>
					<dim>1</dim>
				</port>
			</output>
		</layer>
		<layer id="80" name="638/Dims12654/copy_const952_const" type="Const" version="opset1">
			<data element_type="f16" offset="20572" shape="1,4,1,1" size="8"/>
			<output>
				<port id="1" precision="FP16">
					<dim>1</dim>
					<dim>4</dim>
					<dim>1</dim>
					<dim>1</dim>
				</port>
			</output>
		</layer>
		<layer id="81" name="638" type="Add" version="opset1">
			<input>
				<port id="0">
					<dim>1</dim>
					<dim>4</dim>
					<dim>1</dim>
					<dim>1</dim>
				</port>
				<port id="1">
					<dim>1</dim>
					<dim>4</dim>
					<dim>1</dim>
					<dim>1</dim>
				</port>
			</input>
			<output>
				<port id="2" precision="FP16">
					<dim>1</dim>
					<dim>4</dim>
					<dim>1</dim>
					<dim>1</dim>
				</port>
			</output>
		</layer>
		<layer id="82" name="639" type="ReLU" version="opset1">
			<input>
				<port id="0">
					<dim>1</dim>
					<dim>4</dim>
					<dim>1</dim>
					<dim>1</dim>
				</port>
			</input>
			<output>
				<port id="1" precision="FP16">
					<dim>1</dim>
					<dim>4</dim>
					<dim>1</dim>
					<dim>1</dim>
				</port>
			</output>
		</layer>
		<layer id="83" name="Copy_onnx_initializer_node_conv2.0.gate.fc2.weight/Output_0/Data__const955_const" type="Const" version="opset1">
			<data element_type="f16" offset="20580" shape="64,4,1,1" size="512"/>
			<output>
				<port id="1" precision="FP16">
					<dim>64</dim>
					<dim>4</dim>
					<dim>1</dim>
					<dim>1</dim>
				</port>
			</output>
		</layer>
		<layer id="84" name="640/WithoutBiases" type="Convolution" version="opset1">
			<data dilations="1,1" output_padding="0,0" pads_begin="0,0" pads_end="0,0" strides="1,1"/>
			<input>
				<port id="0">
					<dim>1</dim>
					<dim>4</dim>
					<dim>1</dim>
					<dim>1</dim>
				</port>
				<port id="1">
					<dim>64</dim>
					<dim>4</dim>
					<dim>1</dim>
					<dim>1</dim>
				</port>
			</input>
			<output>
				<port id="2" precision="FP16">
					<dim>1</dim>
					<dim>64</dim>
					<dim>1</dim>
					<dim>1</dim>
				</port>
			</output>
		</layer>
		<layer id="85" name="640/Dims12612/copy_const957_const" type="Const" version="opset1">
			<data element_type="f16" offset="21092" shape="1,64,1,1" size="128"/>
			<output>
				<port id="1" precision="FP16">
					<dim>1</dim>
					<dim>64</dim>
					<dim>1</dim>
					<dim>1</dim>
				</port>
			</output>
		</layer>
		<layer id="86" name="640" type="Add" version="opset1">
			<input>
				<port id="0">
					<dim>1</dim>
					<dim>64</dim>
					<dim>1</dim>
					<dim>1</dim>
				</port>
				<port id="1">
					<dim>1</dim>
					<dim>64</dim>
					<dim>1</dim>
					<dim>1</dim>
				</port>
			</input>
			<output>
				<port id="2" precision="FP16">
					<dim>1</dim>
					<dim>64</dim>
					<dim>1</dim>
					<dim>1</dim>
				</port>
			</output>
		</layer>
		<layer id="87" name="641" type="Sigmoid" version="opset1">
			<input>
				<port id="0">
					<dim>1</dim>
					<dim>64</dim>
					<dim>1</dim>
					<dim>1</dim>
				</port>
			</input>
			<output>
				<port id="1" precision="FP16">
					<dim>1</dim>
					<dim>64</dim>
					<dim>1</dim>
					<dim>1</dim>
				</port>
			</output>
		</layer>
		<layer id="88" name="69036907_const" type="Const" version="opset1">
			<data element_type="f16" offset="20040" shape="" size="2"/>
			<output>
				<port id="1" precision="FP16"/>
			</output>
		</layer>
		<layer id="89" name="69046908_const" type="Const" version="opset1">
			<data element_type="f16" offset="21220" shape="" size="2"/>
			<output>
				<port id="1" precision="FP16"/>
			</output>
		</layer>
		<layer id="90" name="69056909_const" type="Const" version="opset1">
			<data element_type="f16" offset="20040" shape="" size="2"/>
			<output>
				<port id="1" precision="FP16"/>
			</output>
		</layer>
		<layer id="91" name="69066910_const" type="Const" version="opset1">
			<data element_type="f16" offset="21220" shape="" size="2"/>
			<output>
				<port id="1" precision="FP16"/>
			</output>
		</layer>
		<layer id="92" name="642/fq_input_1" type="FakeQuantize" version="opset1">
			<data levels="256"/>
			<input>
				<port id="0">
					<dim>1</dim>
					<dim>64</dim>
					<dim>1</dim>
					<dim>1</dim>
				</port>
				<port id="1"/>
				<port id="2"/>
				<port id="3"/>
				<port id="4"/>
			</input>
			<output>
				<port id="5" precision="FP16">
					<dim>1</dim>
					<dim>64</dim>
					<dim>1</dim>
					<dim>1</dim>
				</port>
			</output>
		</layer>
		<layer id="93" name="642" type="Multiply" version="opset1">
			<input>
				<port id="0">
					<dim>1</dim>
					<dim>64</dim>
					<dim>64</dim>
					<dim>32</dim>
				</port>
				<port id="1">
					<dim>1</dim>
					<dim>64</dim>
					<dim>1</dim>
					<dim>1</dim>
				</port>
			</input>
			<output>
				<port id="2" precision="FP16">
					<dim>1</dim>
					<dim>64</dim>
					<dim>64</dim>
					<dim>32</dim>
				</port>
			</output>
		</layer>
		<layer id="94" name="72637267_const" type="Const" version="opset1">
			<data element_type="f16" offset="20040" shape="" size="2"/>
			<output>
				<port id="1" precision="FP16"/>
			</output>
		</layer>
		<layer id="95" name="72647268_const" type="Const" version="opset1">
			<data element_type="f16" offset="21222" shape="" size="2"/>
			<output>
				<port id="1" precision="FP16"/>
			</output>
		</layer>
		<layer id="96" name="72657269_const" type="Const" version="opset1">
			<data element_type="f16" offset="20040" shape="" size="2"/>
			<output>
				<port id="1" precision="FP16"/>
			</output>
		</layer>
		<layer id="97" name="72667270_const" type="Const" version="opset1">
			<data element_type="f16" offset="21222" shape="" size="2"/>
			<output>
				<port id="1" precision="FP16"/>
			</output>
		</layer>
		<layer id="98" name="649/fq_input_0" type="FakeQuantize" version="opset1">
			<data levels="256"/>
			<input>
				<port id="0">
					<dim>1</dim>
					<dim>64</dim>
					<dim>64</dim>
					<dim>32</dim>
				</port>
				<port id="1"/>
				<port id="2"/>
				<port id="3"/>
				<port id="4"/>
			</input>
			<output>
				<port id="5" precision="FP16">
					<dim>1</dim>
					<dim>64</dim>
					<dim>64</dim>
					<dim>32</dim>
				</port>
			</output>
		</layer>
		<layer id="99" name="601/fq_weights_1/Convert_to_float/Cast_019123_const" type="Const" version="opset1">
			<data element_type="u8" offset="21224" shape="64,64,1,1" size="4096"/>
			<output>
				<port id="1" precision="U8">
					<dim>64</dim>
					<dim>64</dim>
					<dim>1</dim>
					<dim>1</dim>
				</port>
			</output>
		</layer>
		<layer id="100" name="601/fq_weights_1/Convert_to_float" type="Convert" version="opset1">
			<data destination_type="f16"/>
			<input>
				<port id="0">
					<dim>64</dim>
					<dim>64</dim>
					<dim>1</dim>
					<dim>1</dim>
				</port>
			</input>
			<output>
				<port id="1" precision="FP16">
					<dim>64</dim>
					<dim>64</dim>
					<dim>1</dim>
					<dim>1</dim>
				</port>
			</output>
		</layer>
		<layer id="101" name="601/fq_weights_1/Copy/out_low16339_const" type="Const" version="opset1">
			<data element_type="f16" offset="25320" shape="1" size="2"/>
			<output>
				<port id="1" precision="FP16">
					<dim>1</dim>
				</port>
			</output>
		</layer>
		<layer id="102" name="601/fq_weights_1/Copy/out_high16340_const" type="Const" version="opset1">
			<data element_type="f16" offset="9426" shape="1" size="2"/>
			<output>
				<port id="1" precision="FP16">
					<dim>1</dim>
				</port>
			</output>
		</layer>
		<layer id="103" name="43554359_const" type="Const" version="opset1">
			<data element_type="f16" offset="25322" shape="64,1,1,1" size="128"/>
			<output>
				<port id="1" precision="FP16">
					<dim>64</dim>
					<dim>1</dim>
					<dim>1</dim>
					<dim>1</dim>
				</port>
			</output>
		</layer>
		<layer id="104" name="43564360_const" type="Const" version="opset1">
			<data element_type="f16" offset="25450" shape="64,1,1,1" size="128"/>
			<output>
				<port id="1" precision="FP16">
					<dim>64</dim>
					<dim>1</dim>
					<dim>1</dim>
					<dim>1</dim>
				</port>
			</output>
		</layer>
		<layer id="105" name="601/fq_weights_1" type="FakeQuantize" version="opset1">
			<data levels="255"/>
			<input>
				<port id="0">
					<dim>64</dim>
					<dim>64</dim>
					<dim>1</dim>
					<dim>1</dim>
				</port>
				<port id="1">
					<dim>1</dim>
				</port>
				<port id="2">
					<dim>1</dim>
				</port>
				<port id="3">
					<dim>64</dim>
					<dim>1</dim>
					<dim>1</dim>
					<dim>1</dim>
				</port>
				<port id="4">
					<dim>64</dim>
					<dim>1</dim>
					<dim>1</dim>
					<dim>1</dim>
				</port>
			</input>
			<output>
				<port id="5" precision="FP16">
					<dim>64</dim>
					<dim>64</dim>
					<dim>1</dim>
					<dim>1</dim>
				</port>
			</output>
		</layer>
		<layer id="106" name="601" type="Convolution" version="opset1">
			<data dilations="1,1" output_padding="0,0" pads_begin="0,0" pads_end="0,0" strides="1,1"/>
			<input>
				<port id="0">
					<dim>1</dim>
					<dim>64</dim>
					<dim>64</dim>
					<dim>32</dim>
				</port>
				<port id="1">
					<dim>64</dim>
					<dim>64</dim>
					<dim>1</dim>
					<dim>1</dim>
				</port>
			</input>
			<output>
				<port id="2" precision="FP16">
					<dim>1</dim>
					<dim>64</dim>
					<dim>64</dim>
					<dim>32</dim>
				</port>
			</output>
		</layer>
		<layer id="107" name="22202222_const" type="Const" version="opset1">
			<data element_type="f16" offset="18656" shape="1,64,1,1" size="128"/>
			<output>
				<port id="1" precision="FP16">
					<dim>1</dim>
					<dim>64</dim>
					<dim>1</dim>
					<dim>1</dim>
				</port>
			</output>
		</layer>
		<layer id="108" name="601/add_" type="Add" version="opset1">
			<input>
				<port id="0">
					<dim>1</dim>
					<dim>64</dim>
					<dim>64</dim>
					<dim>32</dim>
				</port>
				<port id="1">
					<dim>1</dim>
					<dim>64</dim>
					<dim>1</dim>
					<dim>1</dim>
				</port>
			</input>
			<output>
				<port id="2" precision="FP16">
					<dim>1</dim>
					<dim>64</dim>
					<dim>64</dim>
					<dim>32</dim>
				</port>
			</output>
		</layer>
		<layer id="109" name="48834887_const" type="Const" version="opset1">
			<data element_type="f16" offset="25578" shape="1,64,1,1" size="128"/>
			<output>
				<port id="1" precision="FP16">
					<dim>1</dim>
					<dim>64</dim>
					<dim>1</dim>
					<dim>1</dim>
				</port>
			</output>
		</layer>
		<layer id="110" name="48844888_const" type="Const" version="opset1">
			<data element_type="f16" offset="25706" shape="1,64,1,1" size="128"/>
			<output>
				<port id="1" precision="FP16">
					<dim>1</dim>
					<dim>64</dim>
					<dim>1</dim>
					<dim>1</dim>
				</port>
			</output>
		</layer>
		<layer id="111" name="48854889_const" type="Const" version="opset1">
			<data element_type="f16" offset="25578" shape="1,64,1,1" size="128"/>
			<output>
				<port id="1" precision="FP16">
					<dim>1</dim>
					<dim>64</dim>
					<dim>1</dim>
					<dim>1</dim>
				</port>
			</output>
		</layer>
		<layer id="112" name="48864890_const" type="Const" version="opset1">
			<data element_type="f16" offset="25706" shape="1,64,1,1" size="128"/>
			<output>
				<port id="1" precision="FP16">
					<dim>1</dim>
					<dim>64</dim>
					<dim>1</dim>
					<dim>1</dim>
				</port>
			</output>
		</layer>
		<layer id="113" name="602/fq_input_0" type="FakeQuantize" version="opset1">
			<data levels="256"/>
			<input>
				<port id="0">
					<dim>1</dim>
					<dim>64</dim>
					<dim>64</dim>
					<dim>32</dim>
				</port>
				<port id="1">
					<dim>1</dim>
					<dim>64</dim>
					<dim>1</dim>
					<dim>1</dim>
				</port>
				<port id="2">
					<dim>1</dim>
					<dim>64</dim>
					<dim>1</dim>
					<dim>1</dim>
				</port>
				<port id="3">
					<dim>1</dim>
					<dim>64</dim>
					<dim>1</dim>
					<dim>1</dim>
				</port>
				<port id="4">
					<dim>1</dim>
					<dim>64</dim>
					<dim>1</dim>
					<dim>1</dim>
				</port>
			</input>
			<output>
				<port id="5" precision="FP16">
					<dim>1</dim>
					<dim>64</dim>
					<dim>64</dim>
					<dim>32</dim>
				</port>
			</output>
		</layer>
		<layer id="114" name="602/fq_weights_1/Convert_to_float/Cast_019307_const" type="Const" version="opset1">
			<data element_type="u8" offset="25834" shape="64,1,3,3" size="576"/>
			<output>
				<port id="1" precision="U8">
					<dim>64</dim>
					<dim>1</dim>
					<dim>3</dim>
					<dim>3</dim>
				</port>
			</output>
		</layer>
		<layer id="115" name="602/fq_weights_1/Convert_to_float" type="Convert" version="opset1">
			<data destination_type="f16"/>
			<input>
				<port id="0">
					<dim>64</dim>
					<dim>1</dim>
					<dim>3</dim>
					<dim>3</dim>
				</port>
			</input>
			<output>
				<port id="1" precision="FP16">
					<dim>64</dim>
					<dim>1</dim>
					<dim>3</dim>
					<dim>3</dim>
				</port>
			</output>
		</layer>
		<layer id="116" name="602/fq_weights_1/Copy/out_low16699_const" type="Const" version="opset1">
			<data element_type="f16" offset="25320" shape="1" size="2"/>
			<output>
				<port id="1" precision="FP16">
					<dim>1</dim>
				</port>
			</output>
		</layer>
		<layer id="117" name="602/fq_weights_1/Copy/out_high16700_const" type="Const" version="opset1">
			<data element_type="f16" offset="9426" shape="1" size="2"/>
			<output>
				<port id="1" precision="FP16">
					<dim>1</dim>
				</port>
			</output>
		</layer>
		<layer id="118" name="48954899_const" type="Const" version="opset1">
			<data element_type="f16" offset="26410" shape="64,1,1,1" size="128"/>
			<output>
				<port id="1" precision="FP16">
					<dim>64</dim>
					<dim>1</dim>
					<dim>1</dim>
					<dim>1</dim>
				</port>
			</output>
		</layer>
		<layer id="119" name="48964900_const" type="Const" version="opset1">
			<data element_type="f16" offset="26538" shape="64,1,1,1" size="128"/>
			<output>
				<port id="1" precision="FP16">
					<dim>64</dim>
					<dim>1</dim>
					<dim>1</dim>
					<dim>1</dim>
				</port>
			</output>
		</layer>
		<layer id="120" name="602/fq_weights_1" type="FakeQuantize" version="opset1">
			<data levels="255"/>
			<input>
				<port id="0">
					<dim>64</dim>
					<dim>1</dim>
					<dim>3</dim>
					<dim>3</dim>
				</port>
				<port id="1">
					<dim>1</dim>
				</port>
				<port id="2">
					<dim>1</dim>
				</port>
				<port id="3">
					<dim>64</dim>
					<dim>1</dim>
					<dim>1</dim>
					<dim>1</dim>
				</port>
				<port id="4">
					<dim>64</dim>
					<dim>1</dim>
					<dim>1</dim>
					<dim>1</dim>
				</port>
			</input>
			<output>
				<port id="5" precision="FP16">
					<dim>64</dim>
					<dim>1</dim>
					<dim>3</dim>
					<dim>3</dim>
				</port>
			</output>
		</layer>
		<layer id="121" name="21334/value21336_const" type="Const" version="opset1">
			<data element_type="i64" offset="19872" shape="5" size="40"/>
			<output>
				<port id="1" precision="I64">
					<dim>5</dim>
				</port>
			</output>
		</layer>
		<layer id="122" name="21334" type="Reshape" version="opset1">
			<data special_zero="True"/>
			<input>
				<port id="0">
					<dim>64</dim>
					<dim>1</dim>
					<dim>3</dim>
					<dim>3</dim>
				</port>
				<port id="1">
					<dim>5</dim>
				</port>
			</input>
			<output>
				<port id="2" precision="FP16">
					<dim>64</dim>
					<dim>1</dim>
					<dim>1</dim>
					<dim>3</dim>
					<dim>3</dim>
				</port>
			</output>
		</layer>
		<layer id="123" name="602" type="GroupConvolution" version="opset1">
			<data dilations="1,1" output_padding="0,0" pads_begin="1,1" pads_end="1,1" strides="1,1"/>
			<input>
				<port id="0">
					<dim>1</dim>
					<dim>64</dim>
					<dim>64</dim>
					<dim>32</dim>
				</port>
				<port id="1">
					<dim>64</dim>
					<dim>1</dim>
					<dim>1</dim>
					<dim>3</dim>
					<dim>3</dim>
				</port>
			</input>
			<output>
				<port id="2" precision="FP16">
					<dim>1</dim>
					<dim>64</dim>
					<dim>64</dim>
					<dim>32</dim>
				</port>
			</output>
		</layer>
		<layer id="124" name="data_add_2064820653/copy_const965_const" type="Const" version="opset1">
			<data element_type="f16" offset="26666" shape="1,64,1,1" size="128"/>
			<output>
				<port id="1" precision="FP16">
					<dim>1</dim>
					<dim>64</dim>
					<dim>1</dim>
					<dim>1</dim>
				</port>
			</output>
		</layer>
		<layer id="125" name="603/variance/Fused_Add_" type="Add" version="opset1">
			<input>
				<port id="0">
					<dim>1</dim>
					<dim>64</dim>
					<dim>64</dim>
					<dim>32</dim>
				</port>
				<port id="1">
					<dim>1</dim>
					<dim>64</dim>
					<dim>1</dim>
					<dim>1</dim>
				</port>
			</input>
			<output>
				<port id="2" precision="FP16">
					<dim>1</dim>
					<dim>64</dim>
					<dim>64</dim>
					<dim>32</dim>
				</port>
			</output>
		</layer>
		<layer id="126" name="604" type="ReLU" version="opset1">
			<input>
				<port id="0">
					<dim>1</dim>
					<dim>64</dim>
					<dim>64</dim>
					<dim>32</dim>
				</port>
			</input>
			<output>
				<port id="1" precision="FP16">
					<dim>1</dim>
					<dim>64</dim>
					<dim>64</dim>
					<dim>32</dim>
				</port>
			</output>
		</layer>
		<layer id="127" name="60836087_const" type="Const" version="opset1">
			<data element_type="f16" offset="26794" shape="" size="2"/>
			<output>
				<port id="1" precision="FP16"/>
			</output>
		</layer>
		<layer id="128" name="60846088_const" type="Const" version="opset1">
			<data element_type="f16" offset="26796" shape="" size="2"/>
			<output>
				<port id="1" precision="FP16"/>
			</output>
		</layer>
		<layer id="129" name="60856089_const" type="Const" version="opset1">
			<data element_type="f16" offset="26794" shape="" size="2"/>
			<output>
				<port id="1" precision="FP16"/>
			</output>
		</layer>
		<layer id="130" name="60866090_const" type="Const" version="opset1">
			<data element_type="f16" offset="26796" shape="" size="2"/>
			<output>
				<port id="1" precision="FP16"/>
			</output>
		</layer>
		<layer id="131" name="605/fq_input_0" type="FakeQuantize" version="opset1">
			<data levels="256"/>
			<input>
				<port id="0">
					<dim>1</dim>
					<dim>64</dim>
					<dim>64</dim>
					<dim>32</dim>
				</port>
				<port id="1"/>
				<port id="2"/>
				<port id="3"/>
				<port id="4"/>
			</input>
			<output>
				<port id="5" precision="FP16">
					<dim>1</dim>
					<dim>64</dim>
					<dim>64</dim>
					<dim>32</dim>
				</port>
			</output>
		</layer>
		<layer id="132" name="605/fq_weights_1/Convert_to_float/Cast_019241_const" type="Const" version="opset1">
			<data element_type="u8" offset="26798" shape="64,64,1,1" size="4096"/>
			<output>
				<port id="1" precision="U8">
					<dim>64</dim>
					<dim>64</dim>
					<dim>1</dim>
					<dim>1</dim>
				</port>
			</output>
		</layer>
		<layer id="133" name="605/fq_weights_1/Convert_to_float" type="Convert" version="opset1">
			<data destination_type="f16"/>
			<input>
				<port id="0">
					<dim>64</dim>
					<dim>64</dim>
					<dim>1</dim>
					<dim>1</dim>
				</port>
			</input>
			<output>
				<port id="1" precision="FP16">
					<dim>64</dim>
					<dim>64</dim>
					<dim>1</dim>
					<dim>1</dim>
				</port>
			</output>
		</layer>
		<layer id="134" name="605/fq_weights_1/Copy/out_low16683_const" type="Const" version="opset1">
			<data element_type="f16" offset="30894" shape="1" size="2"/>
			<output>
				<port id="1" precision="FP16">
					<dim>1</dim>
				</port>
			</output>
		</layer>
		<layer id="135" name="605/fq_weights_1/Copy/out_high16684_const" type="Const" version="opset1">
			<data element_type="f16" offset="9426" shape="1" size="2"/>
			<output>
				<port id="1" precision="FP16">
					<dim>1</dim>
				</port>
			</output>
		</layer>
		<layer id="136" name="60956099_const" type="Const" version="opset1">
			<data element_type="f16" offset="30896" shape="64,1,1,1" size="128"/>
			<output>
				<port id="1" precision="FP16">
					<dim>64</dim>
					<dim>1</dim>
					<dim>1</dim>
					<dim>1</dim>
				</port>
			</output>
		</layer>
		<layer id="137" name="60966100_const" type="Const" version="opset1">
			<data element_type="f16" offset="31024" shape="64,1,1,1" size="128"/>
			<output>
				<port id="1" precision="FP16">
					<dim>64</dim>
					<dim>1</dim>
					<dim>1</dim>
					<dim>1</dim>
				</port>
			</output>
		</layer>
		<layer id="138" name="605/fq_weights_1" type="FakeQuantize" version="opset1">
			<data levels="255"/>
			<input>
				<port id="0">
					<dim>64</dim>
					<dim>64</dim>
					<dim>1</dim>
					<dim>1</dim>
				</port>
				<port id="1">
					<dim>1</dim>
				</port>
				<port id="2">
					<dim>1</dim>
				</port>
				<port id="3">
					<dim>64</dim>
					<dim>1</dim>
					<dim>1</dim>
					<dim>1</dim>
				</port>
				<port id="4">
					<dim>64</dim>
					<dim>1</dim>
					<dim>1</dim>
					<dim>1</dim>
				</port>
			</input>
			<output>
				<port id="5" precision="FP16">
					<dim>64</dim>
					<dim>64</dim>
					<dim>1</dim>
					<dim>1</dim>
				</port>
			</output>
		</layer>
		<layer id="139" name="605" type="Convolution" version="opset1">
			<data dilations="1,1" output_padding="0,0" pads_begin="0,0" pads_end="0,0" strides="1,1"/>
			<input>
				<port id="0">
					<dim>1</dim>
					<dim>64</dim>
					<dim>64</dim>
					<dim>32</dim>
				</port>
				<port id="1">
					<dim>64</dim>
					<dim>64</dim>
					<dim>1</dim>
					<dim>1</dim>
				</port>
			</input>
			<output>
				<port id="2" precision="FP16">
					<dim>1</dim>
					<dim>64</dim>
					<dim>64</dim>
					<dim>32</dim>
				</port>
			</output>
		</layer>
		<layer id="140" name="22242226_const" type="Const" version="opset1">
			<data element_type="f16" offset="18656" shape="1,64,1,1" size="128"/>
			<output>
				<port id="1" precision="FP16">
					<dim>1</dim>
					<dim>64</dim>
					<dim>1</dim>
					<dim>1</dim>
				</port>
			</output>
		</layer>
		<layer id="141" name="605/add_" type="Add" version="opset1">
			<input>
				<port id="0">
					<dim>1</dim>
					<dim>64</dim>
					<dim>64</dim>
					<dim>32</dim>
				</port>
				<port id="1">
					<dim>1</dim>
					<dim>64</dim>
					<dim>1</dim>
					<dim>1</dim>
				</port>
			</input>
			<output>
				<port id="2" precision="FP16">
					<dim>1</dim>
					<dim>64</dim>
					<dim>64</dim>
					<dim>32</dim>
				</port>
			</output>
		</layer>
		<layer id="142" name="62436247_const" type="Const" version="opset1">
			<data element_type="f16" offset="31152" shape="1,64,1,1" size="128"/>
			<output>
				<port id="1" precision="FP16">
					<dim>1</dim>
					<dim>64</dim>
					<dim>1</dim>
					<dim>1</dim>
				</port>
			</output>
		</layer>
		<layer id="143" name="62446248_const" type="Const" version="opset1">
			<data element_type="f16" offset="31280" shape="1,64,1,1" size="128"/>
			<output>
				<port id="1" precision="FP16">
					<dim>1</dim>
					<dim>64</dim>
					<dim>1</dim>
					<dim>1</dim>
				</port>
			</output>
		</layer>
		<layer id="144" name="62456249_const" type="Const" version="opset1">
			<data element_type="f16" offset="31152" shape="1,64,1,1" size="128"/>
			<output>
				<port id="1" precision="FP16">
					<dim>1</dim>
					<dim>64</dim>
					<dim>1</dim>
					<dim>1</dim>
				</port>
			</output>
		</layer>
		<layer id="145" name="62466250_const" type="Const" version="opset1">
			<data element_type="f16" offset="31280" shape="1,64,1,1" size="128"/>
			<output>
				<port id="1" precision="FP16">
					<dim>1</dim>
					<dim>64</dim>
					<dim>1</dim>
					<dim>1</dim>
				</port>
			</output>
		</layer>
		<layer id="146" name="606/fq_input_0" type="FakeQuantize" version="opset1">
			<data levels="256"/>
			<input>
				<port id="0">
					<dim>1</dim>
					<dim>64</dim>
					<dim>64</dim>
					<dim>32</dim>
				</port>
				<port id="1">
					<dim>1</dim>
					<dim>64</dim>
					<dim>1</dim>
					<dim>1</dim>
				</port>
				<port id="2">
					<dim>1</dim>
					<dim>64</dim>
					<dim>1</dim>
					<dim>1</dim>
				</port>
				<port id="3">
					<dim>1</dim>
					<dim>64</dim>
					<dim>1</dim>
					<dim>1</dim>
				</port>
				<port id="4">
					<dim>1</dim>
					<dim>64</dim>
					<dim>1</dim>
					<dim>1</dim>
				</port>
			</input>
			<output>
				<port id="5" precision="FP16">
					<dim>1</dim>
					<dim>64</dim>
					<dim>64</dim>
					<dim>32</dim>
				</port>
			</output>
		</layer>
		<layer id="147" name="606/fq_weights_1/Convert_to_float/Cast_019327_const" type="Const" version="opset1">
			<data element_type="u8" offset="31408" shape="64,1,3,3" size="576"/>
			<output>
				<port id="1" precision="U8">
					<dim>64</dim>
					<dim>1</dim>
					<dim>3</dim>
					<dim>3</dim>
				</port>
			</output>
		</layer>
		<layer id="148" name="606/fq_weights_1/Convert_to_float" type="Convert" version="opset1">
			<data destination_type="f16"/>
			<input>
				<port id="0">
					<dim>64</dim>
					<dim>1</dim>
					<dim>3</dim>
					<dim>3</dim>
				</port>
			</input>
			<output>
				<port id="1" precision="FP16">
					<dim>64</dim>
					<dim>1</dim>
					<dim>3</dim>
					<dim>3</dim>
				</port>
			</output>
		</layer>
		<layer id="149" name="606/fq_weights_1/Copy/out_low15923_const" type="Const" version="opset1">
			<data element_type="f16" offset="30894" shape="1" size="2"/>
			<output>
				<port id="1" precision="FP16">
					<dim>1</dim>
				</port>
			</output>
		</layer>
		<layer id="150" name="606/fq_weights_1/Copy/out_high15924_const" type="Const" version="opset1">
			<data element_type="f16" offset="9426" shape="1" size="2"/>
			<output>
				<port id="1" precision="FP16">
					<dim>1</dim>
				</port>
			</output>
		</layer>
		<layer id="151" name="62556259_const" type="Const" version="opset1">
			<data element_type="f16" offset="31984" shape="64,1,1,1" size="128"/>
			<output>
				<port id="1" precision="FP16">
					<dim>64</dim>
					<dim>1</dim>
					<dim>1</dim>
					<dim>1</dim>
				</port>
			</output>
		</layer>
		<layer id="152" name="62566260_const" type="Const" version="opset1">
			<data element_type="f16" offset="32112" shape="64,1,1,1" size="128"/>
			<output>
				<port id="1" precision="FP16">
					<dim>64</dim>
					<dim>1</dim>
					<dim>1</dim>
					<dim>1</dim>
				</port>
			</output>
		</layer>
		<layer id="153" name="606/fq_weights_1" type="FakeQuantize" version="opset1">
			<data levels="255"/>
			<input>
				<port id="0">
					<dim>64</dim>
					<dim>1</dim>
					<dim>3</dim>
					<dim>3</dim>
				</port>
				<port id="1">
					<dim>1</dim>
				</port>
				<port id="2">
					<dim>1</dim>
				</port>
				<port id="3">
					<dim>64</dim>
					<dim>1</dim>
					<dim>1</dim>
					<dim>1</dim>
				</port>
				<port id="4">
					<dim>64</dim>
					<dim>1</dim>
					<dim>1</dim>
					<dim>1</dim>
				</port>
			</input>
			<output>
				<port id="5" precision="FP16">
					<dim>64</dim>
					<dim>1</dim>
					<dim>3</dim>
					<dim>3</dim>
				</port>
			</output>
		</layer>
		<layer id="154" name="21294/value21296_const" type="Const" version="opset1">
			<data element_type="i64" offset="19872" shape="5" size="40"/>
			<output>
				<port id="1" precision="I64">
					<dim>5</dim>
				</port>
			</output>
		</layer>
		<layer id="155" name="21294" type="Reshape" version="opset1">
			<data special_zero="True"/>
			<input>
				<port id="0">
					<dim>64</dim>
					<dim>1</dim>
					<dim>3</dim>
					<dim>3</dim>
				</port>
				<port id="1">
					<dim>5</dim>
				</port>
			</input>
			<output>
				<port id="2" precision="FP16">
					<dim>64</dim>
					<dim>1</dim>
					<dim>1</dim>
					<dim>3</dim>
					<dim>3</dim>
				</port>
			</output>
		</layer>
		<layer id="156" name="606" type="GroupConvolution" version="opset1">
			<data dilations="1,1" output_padding="0,0" pads_begin="1,1" pads_end="1,1" strides="1,1"/>
			<input>
				<port id="0">
					<dim>1</dim>
					<dim>64</dim>
					<dim>64</dim>
					<dim>32</dim>
				</port>
				<port id="1">
					<dim>64</dim>
					<dim>1</dim>
					<dim>1</dim>
					<dim>3</dim>
					<dim>3</dim>
				</port>
			</input>
			<output>
				<port id="2" precision="FP16">
					<dim>1</dim>
					<dim>64</dim>
					<dim>64</dim>
					<dim>32</dim>
				</port>
			</output>
		</layer>
		<layer id="157" name="data_add_2065620661/copy_const972_const" type="Const" version="opset1">
			<data element_type="f16" offset="32240" shape="1,64,1,1" size="128"/>
			<output>
				<port id="1" precision="FP16">
					<dim>1</dim>
					<dim>64</dim>
					<dim>1</dim>
					<dim>1</dim>
				</port>
			</output>
		</layer>
		<layer id="158" name="607/variance/Fused_Add_" type="Add" version="opset1">
			<input>
				<port id="0">
					<dim>1</dim>
					<dim>64</dim>
					<dim>64</dim>
					<dim>32</dim>
				</port>
				<port id="1">
					<dim>1</dim>
					<dim>64</dim>
					<dim>1</dim>
					<dim>1</dim>
				</port>
			</input>
			<output>
				<port id="2" precision="FP16">
					<dim>1</dim>
					<dim>64</dim>
					<dim>64</dim>
					<dim>32</dim>
				</port>
			</output>
		</layer>
		<layer id="159" name="608" type="ReLU" version="opset1">
			<input>
				<port id="0">
					<dim>1</dim>
					<dim>64</dim>
					<dim>64</dim>
					<dim>32</dim>
				</port>
			</input>
			<output>
				<port id="1" precision="FP16">
					<dim>1</dim>
					<dim>64</dim>
					<dim>64</dim>
					<dim>32</dim>
				</port>
			</output>
		</layer>
		<layer id="160" name="72137217_const" type="Const" version="opset1">
			<data element_type="f16" offset="32368" shape="" size="2"/>
			<output>
				<port id="1" precision="FP16"/>
			</output>
		</layer>
		<layer id="161" name="72147218_const" type="Const" version="opset1">
			<data element_type="f16" offset="32370" shape="" size="2"/>
			<output>
				<port id="1" precision="FP16"/>
			</output>
		</layer>
		<layer id="162" name="72157219_const" type="Const" version="opset1">
			<data element_type="f16" offset="32368" shape="" size="2"/>
			<output>
				<port id="1" precision="FP16"/>
			</output>
		</layer>
		<layer id="163" name="72167220_const" type="Const" version="opset1">
			<data element_type="f16" offset="32370" shape="" size="2"/>
			<output>
				<port id="1" precision="FP16"/>
			</output>
		</layer>
		<layer id="164" name="643/reduce/fq_input_0" type="FakeQuantize" version="opset1">
			<data levels="256"/>
			<input>
				<port id="0">
					<dim>1</dim>
					<dim>64</dim>
					<dim>64</dim>
					<dim>32</dim>
				</port>
				<port id="1"/>
				<port id="2"/>
				<port id="3"/>
				<port id="4"/>
			</input>
			<output>
				<port id="5" precision="FP16">
					<dim>1</dim>
					<dim>64</dim>
					<dim>64</dim>
					<dim>32</dim>
				</port>
			</output>
		</layer>
		<layer id="165" name="643/reduce/Cast_119235_const" type="Const" version="opset1">
			<data element_type="i64" offset="20044" shape="2" size="16"/>
			<output>
				<port id="1" precision="I64">
					<dim>2</dim>
				</port>
			</output>
		</layer>
		<layer id="166" name="643/reduce" type="ReduceMean" version="opset1">
			<data keep_dims="True"/>
			<input>
				<port id="0">
					<dim>1</dim>
					<dim>64</dim>
					<dim>64</dim>
					<dim>32</dim>
				</port>
				<port id="1">
					<dim>2</dim>
				</port>
			</input>
			<output>
				<port id="2" precision="FP16">
					<dim>1</dim>
					<dim>64</dim>
					<dim>1</dim>
					<dim>1</dim>
				</port>
			</output>
		</layer>
		<layer id="167" name="Copy_onnx_initializer_node_conv2.0.gate.fc1.weight/Output_0/Data_3805_const977_const" type="Const" version="opset1">
			<data element_type="f16" offset="20060" shape="4,64,1,1" size="512"/>
			<output>
				<port id="1" precision="FP16">
					<dim>4</dim>
					<dim>64</dim>
					<dim>1</dim>
					<dim>1</dim>
				</port>
			</output>
		</layer>
		<layer id="168" name="644/WithoutBiases" type="Convolution" version="opset1">
			<data dilations="1,1" output_padding="0,0" pads_begin="0,0" pads_end="0,0" strides="1,1"/>
			<input>
				<port id="0">
					<dim>1</dim>
					<dim>64</dim>
					<dim>1</dim>
					<dim>1</dim>
				</port>
				<port id="1">
					<dim>4</dim>
					<dim>64</dim>
					<dim>1</dim>
					<dim>1</dim>
				</port>
			</input>
			<output>
				<port id="2" precision="FP16">
					<dim>1</dim>
					<dim>4</dim>
					<dim>1</dim>
					<dim>1</dim>
				</port>
			</output>
		</layer>
		<layer id="169" name="644/Dims12828/copy_const979_const" type="Const" version="opset1">
			<data element_type="f16" offset="20572" shape="1,4,1,1" size="8"/>
			<output>
				<port id="1" precision="FP16">
					<dim>1</dim>
					<dim>4</dim>
					<dim>1</dim>
					<dim>1</dim>
				</port>
			</output>
		</layer>
		<layer id="170" name="644" type="Add" version="opset1">
			<input>
				<port id="0">
					<dim>1</dim>
					<dim>4</dim>
					<dim>1</dim>
					<dim>1</dim>
				</port>
				<port id="1">
					<dim>1</dim>
					<dim>4</dim>
					<dim>1</dim>
					<dim>1</dim>
				</port>
			</input>
			<output>
				<port id="2" precision="FP16">
					<dim>1</dim>
					<dim>4</dim>
					<dim>1</dim>
					<dim>1</dim>
				</port>
			</output>
		</layer>
		<layer id="171" name="645" type="ReLU" version="opset1">
			<input>
				<port id="0">
					<dim>1</dim>
					<dim>4</dim>
					<dim>1</dim>
					<dim>1</dim>
				</port>
			</input>
			<output>
				<port id="1" precision="FP16">
					<dim>1</dim>
					<dim>4</dim>
					<dim>1</dim>
					<dim>1</dim>
				</port>
			</output>
		</layer>
		<layer id="172" name="Copy_onnx_initializer_node_conv2.0.gate.fc2.weight/Output_0/Data_3813_const982_const" type="Const" version="opset1">
			<data element_type="f16" offset="20580" shape="64,4,1,1" size="512"/>
			<output>
				<port id="1" precision="FP16">
					<dim>64</dim>
					<dim>4</dim>
					<dim>1</dim>
					<dim>1</dim>
				</port>
			</output>
		</layer>
		<layer id="173" name="646/WithoutBiases" type="Convolution" version="opset1">
			<data dilations="1,1" output_padding="0,0" pads_begin="0,0" pads_end="0,0" strides="1,1"/>
			<input>
				<port id="0">
					<dim>1</dim>
					<dim>4</dim>
					<dim>1</dim>
					<dim>1</dim>
				</port>
				<port id="1">
					<dim>64</dim>
					<dim>4</dim>
					<dim>1</dim>
					<dim>1</dim>
				</port>
			</input>
			<output>
				<port id="2" precision="FP16">
					<dim>1</dim>
					<dim>64</dim>
					<dim>1</dim>
					<dim>1</dim>
				</port>
			</output>
		</layer>
		<layer id="174" name="646/Dims12738/copy_const984_const" type="Const" version="opset1">
			<data element_type="f16" offset="21092" shape="1,64,1,1" size="128"/>
			<output>
				<port id="1" precision="FP16">
					<dim>1</dim>
					<dim>64</dim>
					<dim>1</dim>
					<dim>1</dim>
				</port>
			</output>
		</layer>
		<layer id="175" name="646" type="Add" version="opset1">
			<input>
				<port id="0">
					<dim>1</dim>
					<dim>64</dim>
					<dim>1</dim>
					<dim>1</dim>
				</port>
				<port id="1">
					<dim>1</dim>
					<dim>64</dim>
					<dim>1</dim>
					<dim>1</dim>
				</port>
			</input>
			<output>
				<port id="2" precision="FP16">
					<dim>1</dim>
					<dim>64</dim>
					<dim>1</dim>
					<dim>1</dim>
				</port>
			</output>
		</layer>
		<layer id="176" name="647" type="Sigmoid" version="opset1">
			<input>
				<port id="0">
					<dim>1</dim>
					<dim>64</dim>
					<dim>1</dim>
					<dim>1</dim>
				</port>
			</input>
			<output>
				<port id="1" precision="FP16">
					<dim>1</dim>
					<dim>64</dim>
					<dim>1</dim>
					<dim>1</dim>
				</port>
			</output>
		</layer>
		<layer id="177" name="50435047_const" type="Const" version="opset1">
			<data element_type="f16" offset="32368" shape="" size="2"/>
			<output>
				<port id="1" precision="FP16"/>
			</output>
		</layer>
		<layer id="178" name="50445048_const" type="Const" version="opset1">
			<data element_type="f16" offset="32372" shape="" size="2"/>
			<output>
				<port id="1" precision="FP16"/>
			</output>
		</layer>
		<layer id="179" name="50455049_const" type="Const" version="opset1">
			<data element_type="f16" offset="32368" shape="" size="2"/>
			<output>
				<port id="1" precision="FP16"/>
			</output>
		</layer>
		<layer id="180" name="50465050_const" type="Const" version="opset1">
			<data element_type="f16" offset="32372" shape="" size="2"/>
			<output>
				<port id="1" precision="FP16"/>
			</output>
		</layer>
		<layer id="181" name="648/fq_input_1" type="FakeQuantize" version="opset1">
			<data levels="256"/>
			<input>
				<port id="0">
					<dim>1</dim>
					<dim>64</dim>
					<dim>1</dim>
					<dim>1</dim>
				</port>
				<port id="1"/>
				<port id="2"/>
				<port id="3"/>
				<port id="4"/>
			</input>
			<output>
				<port id="5" precision="FP16">
					<dim>1</dim>
					<dim>64</dim>
					<dim>1</dim>
					<dim>1</dim>
				</port>
			</output>
		</layer>
		<layer id="182" name="648" type="Multiply" version="opset1">
			<input>
				<port id="0">
					<dim>1</dim>
					<dim>64</dim>
					<dim>64</dim>
					<dim>32</dim>
				</port>
				<port id="1">
					<dim>1</dim>
					<dim>64</dim>
					<dim>1</dim>
					<dim>1</dim>
				</port>
			</input>
			<output>
				<port id="2" precision="FP16">
					<dim>1</dim>
					<dim>64</dim>
					<dim>64</dim>
					<dim>32</dim>
				</port>
			</output>
		</layer>
		<layer id="183" name="72737277_const" type="Const" version="opset1">
			<data element_type="f16" offset="32368" shape="" size="2"/>
			<output>
				<port id="1" precision="FP16"/>
			</output>
		</layer>
		<layer id="184" name="72747278_const" type="Const" version="opset1">
			<data element_type="f16" offset="32374" shape="" size="2"/>
			<output>
				<port id="1" precision="FP16"/>
			</output>
		</layer>
		<layer id="185" name="72757279_const" type="Const" version="opset1">
			<data element_type="f16" offset="32368" shape="" size="2"/>
			<output>
				<port id="1" precision="FP16"/>
			</output>
		</layer>
		<layer id="186" name="72767280_const" type="Const" version="opset1">
			<data element_type="f16" offset="32374" shape="" size="2"/>
			<output>
				<port id="1" precision="FP16"/>
			</output>
		</layer>
		<layer id="187" name="649/fq_input_1" type="FakeQuantize" version="opset1">
			<data levels="256"/>
			<input>
				<port id="0">
					<dim>1</dim>
					<dim>64</dim>
					<dim>64</dim>
					<dim>32</dim>
				</port>
				<port id="1"/>
				<port id="2"/>
				<port id="3"/>
				<port id="4"/>
			</input>
			<output>
				<port id="5" precision="FP16">
					<dim>1</dim>
					<dim>64</dim>
					<dim>64</dim>
					<dim>32</dim>
				</port>
			</output>
		</layer>
		<layer id="188" name="649" type="Add" version="opset1">
			<input>
				<port id="0">
					<dim>1</dim>
					<dim>64</dim>
					<dim>64</dim>
					<dim>32</dim>
				</port>
				<port id="1">
					<dim>1</dim>
					<dim>64</dim>
					<dim>64</dim>
					<dim>32</dim>
				</port>
			</input>
			<output>
				<port id="2" precision="FP16">
					<dim>1</dim>
					<dim>64</dim>
					<dim>64</dim>
					<dim>32</dim>
				</port>
			</output>
		</layer>
		<layer id="189" name="51835187_const" type="Const" version="opset1">
			<data element_type="f16" offset="32368" shape="" size="2"/>
			<output>
				<port id="1" precision="FP16"/>
			</output>
		</layer>
		<layer id="190" name="51845188_const" type="Const" version="opset1">
			<data element_type="f16" offset="32376" shape="" size="2"/>
			<output>
				<port id="1" precision="FP16"/>
			</output>
		</layer>
		<layer id="191" name="51855189_const" type="Const" version="opset1">
			<data element_type="f16" offset="32368" shape="" size="2"/>
			<output>
				<port id="1" precision="FP16"/>
			</output>
		</layer>
		<layer id="192" name="51865190_const" type="Const" version="opset1">
			<data element_type="f16" offset="32376" shape="" size="2"/>
			<output>
				<port id="1" precision="FP16"/>
			</output>
		</layer>
		<layer id="193" name="656/fq_input_0" type="FakeQuantize" version="opset1">
			<data levels="256"/>
			<input>
				<port id="0">
					<dim>1</dim>
					<dim>64</dim>
					<dim>64</dim>
					<dim>32</dim>
				</port>
				<port id="1"/>
				<port id="2"/>
				<port id="3"/>
				<port id="4"/>
			</input>
			<output>
				<port id="5" precision="FP16">
					<dim>1</dim>
					<dim>64</dim>
					<dim>64</dim>
					<dim>32</dim>
				</port>
			</output>
		</layer>
		<layer id="194" name="609/fq_weights_1/Convert_to_float/Cast_019143_const" type="Const" version="opset1">
			<data element_type="u8" offset="32378" shape="64,64,1,1" size="4096"/>
			<output>
				<port id="1" precision="U8">
					<dim>64</dim>
					<dim>64</dim>
					<dim>1</dim>
					<dim>1</dim>
				</port>
			</output>
		</layer>
		<layer id="195" name="609/fq_weights_1/Convert_to_float" type="Convert" version="opset1">
			<data destination_type="f16"/>
			<input>
				<port id="0">
					<dim>64</dim>
					<dim>64</dim>
					<dim>1</dim>
					<dim>1</dim>
				</port>
			</input>
			<output>
				<port id="1" precision="FP16">
					<dim>64</dim>
					<dim>64</dim>
					<dim>1</dim>
					<dim>1</dim>
				</port>
			</output>
		</layer>
		<layer id="196" name="609/fq_weights_1/Copy/out_low16227_const" type="Const" version="opset1">
			<data element_type="f16" offset="36474" shape="1" size="2"/>
			<output>
				<port id="1" precision="FP16">
					<dim>1</dim>
				</port>
			</output>
		</layer>
		<layer id="197" name="609/fq_weights_1/Copy/out_high16228_const" type="Const" version="opset1">
			<data element_type="f16" offset="9426" shape="1" size="2"/>
			<output>
				<port id="1" precision="FP16">
					<dim>1</dim>
				</port>
			</output>
		</layer>
		<layer id="198" name="53555359_const" type="Const" version="opset1">
			<data element_type="f16" offset="36476" shape="64,1,1,1" size="128"/>
			<output>
				<port id="1" precision="FP16">
					<dim>64</dim>
					<dim>1</dim>
					<dim>1</dim>
					<dim>1</dim>
				</port>
			</output>
		</layer>
		<layer id="199" name="53565360_const" type="Const" version="opset1">
			<data element_type="f16" offset="36604" shape="64,1,1,1" size="128"/>
			<output>
				<port id="1" precision="FP16">
					<dim>64</dim>
					<dim>1</dim>
					<dim>1</dim>
					<dim>1</dim>
				</port>
			</output>
		</layer>
		<layer id="200" name="609/fq_weights_1" type="FakeQuantize" version="opset1">
			<data levels="255"/>
			<input>
				<port id="0">
					<dim>64</dim>
					<dim>64</dim>
					<dim>1</dim>
					<dim>1</dim>
				</port>
				<port id="1">
					<dim>1</dim>
				</port>
				<port id="2">
					<dim>1</dim>
				</port>
				<port id="3">
					<dim>64</dim>
					<dim>1</dim>
					<dim>1</dim>
					<dim>1</dim>
				</port>
				<port id="4">
					<dim>64</dim>
					<dim>1</dim>
					<dim>1</dim>
					<dim>1</dim>
				</port>
			</input>
			<output>
				<port id="5" precision="FP16">
					<dim>64</dim>
					<dim>64</dim>
					<dim>1</dim>
					<dim>1</dim>
				</port>
			</output>
		</layer>
		<layer id="201" name="609" type="Convolution" version="opset1">
			<data dilations="1,1" output_padding="0,0" pads_begin="0,0" pads_end="0,0" strides="1,1"/>
			<input>
				<port id="0">
					<dim>1</dim>
					<dim>64</dim>
					<dim>64</dim>
					<dim>32</dim>
				</port>
				<port id="1">
					<dim>64</dim>
					<dim>64</dim>
					<dim>1</dim>
					<dim>1</dim>
				</port>
			</input>
			<output>
				<port id="2" precision="FP16">
					<dim>1</dim>
					<dim>64</dim>
					<dim>64</dim>
					<dim>32</dim>
				</port>
			</output>
		</layer>
		<layer id="202" name="22282230_const" type="Const" version="opset1">
			<data element_type="f16" offset="18656" shape="1,64,1,1" size="128"/>
			<output>
				<port id="1" precision="FP16">
					<dim>1</dim>
					<dim>64</dim>
					<dim>1</dim>
					<dim>1</dim>
				</port>
			</output>
		</layer>
		<layer id="203" name="609/add_" type="Add" version="opset1">
			<input>
				<port id="0">
					<dim>1</dim>
					<dim>64</dim>
					<dim>64</dim>
					<dim>32</dim>
				</port>
				<port id="1">
					<dim>1</dim>
					<dim>64</dim>
					<dim>1</dim>
					<dim>1</dim>
				</port>
			</input>
			<output>
				<port id="2" precision="FP16">
					<dim>1</dim>
					<dim>64</dim>
					<dim>64</dim>
					<dim>32</dim>
				</port>
			</output>
		</layer>
		<layer id="204" name="60436047_const" type="Const" version="opset1">
			<data element_type="f16" offset="36732" shape="1,64,1,1" size="128"/>
			<output>
				<port id="1" precision="FP16">
					<dim>1</dim>
					<dim>64</dim>
					<dim>1</dim>
					<dim>1</dim>
				</port>
			</output>
		</layer>
		<layer id="205" name="60446048_const" type="Const" version="opset1">
			<data element_type="f16" offset="36860" shape="1,64,1,1" size="128"/>
			<output>
				<port id="1" precision="FP16">
					<dim>1</dim>
					<dim>64</dim>
					<dim>1</dim>
					<dim>1</dim>
				</port>
			</output>
		</layer>
		<layer id="206" name="60456049_const" type="Const" version="opset1">
			<data element_type="f16" offset="36732" shape="1,64,1,1" size="128"/>
			<output>
				<port id="1" precision="FP16">
					<dim>1</dim>
					<dim>64</dim>
					<dim>1</dim>
					<dim>1</dim>
				</port>
			</output>
		</layer>
		<layer id="207" name="60466050_const" type="Const" version="opset1">
			<data element_type="f16" offset="36860" shape="1,64,1,1" size="128"/>
			<output>
				<port id="1" precision="FP16">
					<dim>1</dim>
					<dim>64</dim>
					<dim>1</dim>
					<dim>1</dim>
				</port>
			</output>
		</layer>
		<layer id="208" name="610/fq_input_0" type="FakeQuantize" version="opset1">
			<data levels="256"/>
			<input>
				<port id="0">
					<dim>1</dim>
					<dim>64</dim>
					<dim>64</dim>
					<dim>32</dim>
				</port>
				<port id="1">
					<dim>1</dim>
					<dim>64</dim>
					<dim>1</dim>
					<dim>1</dim>
				</port>
				<port id="2">
					<dim>1</dim>
					<dim>64</dim>
					<dim>1</dim>
					<dim>1</dim>
				</port>
				<port id="3">
					<dim>1</dim>
					<dim>64</dim>
					<dim>1</dim>
					<dim>1</dim>
				</port>
				<port id="4">
					<dim>1</dim>
					<dim>64</dim>
					<dim>1</dim>
					<dim>1</dim>
				</port>
			</input>
			<output>
				<port id="5" precision="FP16">
					<dim>1</dim>
					<dim>64</dim>
					<dim>64</dim>
					<dim>32</dim>
				</port>
			</output>
		</layer>
		<layer id="209" name="610/fq_weights_1/Convert_to_float/Cast_019201_const" type="Const" version="opset1">
			<data element_type="u8" offset="36988" shape="64,1,3,3" size="576"/>
			<output>
				<port id="1" precision="U8">
					<dim>64</dim>
					<dim>1</dim>
					<dim>3</dim>
					<dim>3</dim>
				</port>
			</output>
		</layer>
		<layer id="210" name="610/fq_weights_1/Convert_to_float" type="Convert" version="opset1">
			<data destination_type="f16"/>
			<input>
				<port id="0">
					<dim>64</dim>
					<dim>1</dim>
					<dim>3</dim>
					<dim>3</dim>
				</port>
			</input>
			<output>
				<port id="1" precision="FP16">
					<dim>64</dim>
					<dim>1</dim>
					<dim>3</dim>
					<dim>3</dim>
				</port>
			</output>
		</layer>
		<layer id="211" name="610/fq_weights_1/Copy/out_low17019_const" type="Const" version="opset1">
			<data element_type="f16" offset="36474" shape="1" size="2"/>
			<output>
				<port id="1" precision="FP16">
					<dim>1</dim>
				</port>
			</output>
		</layer>
		<layer id="212" name="610/fq_weights_1/Copy/out_high17020_const" type="Const" version="opset1">
			<data element_type="f16" offset="9426" shape="1" size="2"/>
			<output>
				<port id="1" precision="FP16">
					<dim>1</dim>
				</port>
			</output>
		</layer>
		<layer id="213" name="60556059_const" type="Const" version="opset1">
			<data element_type="f16" offset="37564" shape="64,1,1,1" size="128"/>
			<output>
				<port id="1" precision="FP16">
					<dim>64</dim>
					<dim>1</dim>
					<dim>1</dim>
					<dim>1</dim>
				</port>
			</output>
		</layer>
		<layer id="214" name="60566060_const" type="Const" version="opset1">
			<data element_type="f16" offset="37692" shape="64,1,1,1" size="128"/>
			<output>
				<port id="1" precision="FP16">
					<dim>64</dim>
					<dim>1</dim>
					<dim>1</dim>
					<dim>1</dim>
				</port>
			</output>
		</layer>
		<layer id="215" name="610/fq_weights_1" type="FakeQuantize" version="opset1">
			<data levels="255"/>
			<input>
				<port id="0">
					<dim>64</dim>
					<dim>1</dim>
					<dim>3</dim>
					<dim>3</dim>
				</port>
				<port id="1">
					<dim>1</dim>
				</port>
				<port id="2">
					<dim>1</dim>
				</port>
				<port id="3">
					<dim>64</dim>
					<dim>1</dim>
					<dim>1</dim>
					<dim>1</dim>
				</port>
				<port id="4">
					<dim>64</dim>
					<dim>1</dim>
					<dim>1</dim>
					<dim>1</dim>
				</port>
			</input>
			<output>
				<port id="5" precision="FP16">
					<dim>64</dim>
					<dim>1</dim>
					<dim>3</dim>
					<dim>3</dim>
				</port>
			</output>
		</layer>
		<layer id="216" name="21414/value21416_const" type="Const" version="opset1">
			<data element_type="i64" offset="19872" shape="5" size="40"/>
			<output>
				<port id="1" precision="I64">
					<dim>5</dim>
				</port>
			</output>
		</layer>
		<layer id="217" name="21414" type="Reshape" version="opset1">
			<data special_zero="True"/>
			<input>
				<port id="0">
					<dim>64</dim>
					<dim>1</dim>
					<dim>3</dim>
					<dim>3</dim>
				</port>
				<port id="1">
					<dim>5</dim>
				</port>
			</input>
			<output>
				<port id="2" precision="FP16">
					<dim>64</dim>
					<dim>1</dim>
					<dim>1</dim>
					<dim>3</dim>
					<dim>3</dim>
				</port>
			</output>
		</layer>
		<layer id="218" name="610" type="GroupConvolution" version="opset1">
			<data dilations="1,1" output_padding="0,0" pads_begin="1,1" pads_end="1,1" strides="1,1"/>
			<input>
				<port id="0">
					<dim>1</dim>
					<dim>64</dim>
					<dim>64</dim>
					<dim>32</dim>
				</port>
				<port id="1">
					<dim>64</dim>
					<dim>1</dim>
					<dim>1</dim>
					<dim>3</dim>
					<dim>3</dim>
				</port>
			</input>
			<output>
				<port id="2" precision="FP16">
					<dim>1</dim>
					<dim>64</dim>
					<dim>64</dim>
					<dim>32</dim>
				</port>
			</output>
		</layer>
		<layer id="219" name="data_add_2062420629/copy_const993_const" type="Const" version="opset1">
			<data element_type="f16" offset="37820" shape="1,64,1,1" size="128"/>
			<output>
				<port id="1" precision="FP16">
					<dim>1</dim>
					<dim>64</dim>
					<dim>1</dim>
					<dim>1</dim>
				</port>
			</output>
		</layer>
		<layer id="220" name="611/variance/Fused_Add_" type="Add" version="opset1">
			<input>
				<port id="0">
					<dim>1</dim>
					<dim>64</dim>
					<dim>64</dim>
					<dim>32</dim>
				</port>
				<port id="1">
					<dim>1</dim>
					<dim>64</dim>
					<dim>1</dim>
					<dim>1</dim>
				</port>
			</input>
			<output>
				<port id="2" precision="FP16">
					<dim>1</dim>
					<dim>64</dim>
					<dim>64</dim>
					<dim>32</dim>
				</port>
			</output>
		</layer>
		<layer id="221" name="612" type="ReLU" version="opset1">
			<input>
				<port id="0">
					<dim>1</dim>
					<dim>64</dim>
					<dim>64</dim>
					<dim>32</dim>
				</port>
			</input>
			<output>
				<port id="1" precision="FP16">
					<dim>1</dim>
					<dim>64</dim>
					<dim>64</dim>
					<dim>32</dim>
				</port>
			</output>
		</layer>
		<layer id="222" name="45834587_const" type="Const" version="opset1">
			<data element_type="f16" offset="37948" shape="" size="2"/>
			<output>
				<port id="1" precision="FP16"/>
			</output>
		</layer>
		<layer id="223" name="45844588_const" type="Const" version="opset1">
			<data element_type="f16" offset="37950" shape="" size="2"/>
			<output>
				<port id="1" precision="FP16"/>
			</output>
		</layer>
		<layer id="224" name="45854589_const" type="Const" version="opset1">
			<data element_type="f16" offset="37948" shape="" size="2"/>
			<output>
				<port id="1" precision="FP16"/>
			</output>
		</layer>
		<layer id="225" name="45864590_const" type="Const" version="opset1">
			<data element_type="f16" offset="37950" shape="" size="2"/>
			<output>
				<port id="1" precision="FP16"/>
			</output>
		</layer>
		<layer id="226" name="613/fq_input_0" type="FakeQuantize" version="opset1">
			<data levels="256"/>
			<input>
				<port id="0">
					<dim>1</dim>
					<dim>64</dim>
					<dim>64</dim>
					<dim>32</dim>
				</port>
				<port id="1"/>
				<port id="2"/>
				<port id="3"/>
				<port id="4"/>
			</input>
			<output>
				<port id="5" precision="FP16">
					<dim>1</dim>
					<dim>64</dim>
					<dim>64</dim>
					<dim>32</dim>
				</port>
			</output>
		</layer>
		<layer id="227" name="613/fq_weights_1/Convert_to_float/Cast_019007_const" type="Const" version="opset1">
			<data element_type="u8" offset="37952" shape="64,64,1,1" size="4096"/>
			<output>
				<port id="1" precision="U8">
					<dim>64</dim>
					<dim>64</dim>
					<dim>1</dim>
					<dim>1</dim>
				</port>
			</output>
		</layer>
		<layer id="228" name="613/fq_weights_1/Convert_to_float" type="Convert" version="opset1">
			<data destination_type="f16"/>
			<input>
				<port id="0">
					<dim>64</dim>
					<dim>64</dim>
					<dim>1</dim>
					<dim>1</dim>
				</port>
			</input>
			<output>
				<port id="1" precision="FP16">
					<dim>64</dim>
					<dim>64</dim>
					<dim>1</dim>
					<dim>1</dim>
				</port>
			</output>
		</layer>
		<layer id="229" name="613/fq_weights_1/Copy/out_low16411_const" type="Const" version="opset1">
			<data element_type="f16" offset="42048" shape="1" size="2"/>
			<output>
				<port id="1" precision="FP16">
					<dim>1</dim>
				</port>
			</output>
		</layer>
		<layer id="230" name="613/fq_weights_1/Copy/out_high16412_const" type="Const" version="opset1">
			<data element_type="f16" offset="9426" shape="1" size="2"/>
			<output>
				<port id="1" precision="FP16">
					<dim>1</dim>
				</port>
			</output>
		</layer>
		<layer id="231" name="45954599_const" type="Const" version="opset1">
			<data element_type="f16" offset="42050" shape="64,1,1,1" size="128"/>
			<output>
				<port id="1" precision="FP16">
					<dim>64</dim>
					<dim>1</dim>
					<dim>1</dim>
					<dim>1</dim>
				</port>
			</output>
		</layer>
		<layer id="232" name="45964600_const" type="Const" version="opset1">
			<data element_type="f16" offset="42178" shape="64,1,1,1" size="128"/>
			<output>
				<port id="1" precision="FP16">
					<dim>64</dim>
					<dim>1</dim>
					<dim>1</dim>
					<dim>1</dim>
				</port>
			</output>
		</layer>
		<layer id="233" name="613/fq_weights_1" type="FakeQuantize" version="opset1">
			<data levels="255"/>
			<input>
				<port id="0">
					<dim>64</dim>
					<dim>64</dim>
					<dim>1</dim>
					<dim>1</dim>
				</port>
				<port id="1">
					<dim>1</dim>
				</port>
				<port id="2">
					<dim>1</dim>
				</port>
				<port id="3">
					<dim>64</dim>
					<dim>1</dim>
					<dim>1</dim>
					<dim>1</dim>
				</port>
				<port id="4">
					<dim>64</dim>
					<dim>1</dim>
					<dim>1</dim>
					<dim>1</dim>
				</port>
			</input>
			<output>
				<port id="5" precision="FP16">
					<dim>64</dim>
					<dim>64</dim>
					<dim>1</dim>
					<dim>1</dim>
				</port>
			</output>
		</layer>
		<layer id="234" name="613" type="Convolution" version="opset1">
			<data dilations="1,1" output_padding="0,0" pads_begin="0,0" pads_end="0,0" strides="1,1"/>
			<input>
				<port id="0">
					<dim>1</dim>
					<dim>64</dim>
					<dim>64</dim>
					<dim>32</dim>
				</port>
				<port id="1">
					<dim>64</dim>
					<dim>64</dim>
					<dim>1</dim>
					<dim>1</dim>
				</port>
			</input>
			<output>
				<port id="2" precision="FP16">
					<dim>1</dim>
					<dim>64</dim>
					<dim>64</dim>
					<dim>32</dim>
				</port>
			</output>
		</layer>
		<layer id="235" name="22322234_const" type="Const" version="opset1">
			<data element_type="f16" offset="18656" shape="1,64,1,1" size="128"/>
			<output>
				<port id="1" precision="FP16">
					<dim>1</dim>
					<dim>64</dim>
					<dim>1</dim>
					<dim>1</dim>
				</port>
			</output>
		</layer>
		<layer id="236" name="613/add_" type="Add" version="opset1">
			<input>
				<port id="0">
					<dim>1</dim>
					<dim>64</dim>
					<dim>64</dim>
					<dim>32</dim>
				</port>
				<port id="1">
					<dim>1</dim>
					<dim>64</dim>
					<dim>1</dim>
					<dim>1</dim>
				</port>
			</input>
			<output>
				<port id="2" precision="FP16">
					<dim>1</dim>
					<dim>64</dim>
					<dim>64</dim>
					<dim>32</dim>
				</port>
			</output>
		</layer>
		<layer id="237" name="62236227_const" type="Const" version="opset1">
			<data element_type="f16" offset="42306" shape="1,64,1,1" size="128"/>
			<output>
				<port id="1" precision="FP16">
					<dim>1</dim>
					<dim>64</dim>
					<dim>1</dim>
					<dim>1</dim>
				</port>
			</output>
		</layer>
		<layer id="238" name="62246228_const" type="Const" version="opset1">
			<data element_type="f16" offset="42434" shape="1,64,1,1" size="128"/>
			<output>
				<port id="1" precision="FP16">
					<dim>1</dim>
					<dim>64</dim>
					<dim>1</dim>
					<dim>1</dim>
				</port>
			</output>
		</layer>
		<layer id="239" name="62256229_const" type="Const" version="opset1">
			<data element_type="f16" offset="42306" shape="1,64,1,1" size="128"/>
			<output>
				<port id="1" precision="FP16">
					<dim>1</dim>
					<dim>64</dim>
					<dim>1</dim>
					<dim>1</dim>
				</port>
			</output>
		</layer>
		<layer id="240" name="62266230_const" type="Const" version="opset1">
			<data element_type="f16" offset="42434" shape="1,64,1,1" size="128"/>
			<output>
				<port id="1" precision="FP16">
					<dim>1</dim>
					<dim>64</dim>
					<dim>1</dim>
					<dim>1</dim>
				</port>
			</output>
		</layer>
		<layer id="241" name="614/fq_input_0" type="FakeQuantize" version="opset1">
			<data levels="256"/>
			<input>
				<port id="0">
					<dim>1</dim>
					<dim>64</dim>
					<dim>64</dim>
					<dim>32</dim>
				</port>
				<port id="1">
					<dim>1</dim>
					<dim>64</dim>
					<dim>1</dim>
					<dim>1</dim>
				</port>
				<port id="2">
					<dim>1</dim>
					<dim>64</dim>
					<dim>1</dim>
					<dim>1</dim>
				</port>
				<port id="3">
					<dim>1</dim>
					<dim>64</dim>
					<dim>1</dim>
					<dim>1</dim>
				</port>
				<port id="4">
					<dim>1</dim>
					<dim>64</dim>
					<dim>1</dim>
					<dim>1</dim>
				</port>
			</input>
			<output>
				<port id="5" precision="FP16">
					<dim>1</dim>
					<dim>64</dim>
					<dim>64</dim>
					<dim>32</dim>
				</port>
			</output>
		</layer>
		<layer id="242" name="614/fq_weights_1/Convert_to_float/Cast_019259_const" type="Const" version="opset1">
			<data element_type="u8" offset="42562" shape="64,1,3,3" size="576"/>
			<output>
				<port id="1" precision="U8">
					<dim>64</dim>
					<dim>1</dim>
					<dim>3</dim>
					<dim>3</dim>
				</port>
			</output>
		</layer>
		<layer id="243" name="614/fq_weights_1/Convert_to_float" type="Convert" version="opset1">
			<data destination_type="f16"/>
			<input>
				<port id="0">
					<dim>64</dim>
					<dim>1</dim>
					<dim>3</dim>
					<dim>3</dim>
				</port>
			</input>
			<output>
				<port id="1" precision="FP16">
					<dim>64</dim>
					<dim>1</dim>
					<dim>3</dim>
					<dim>3</dim>
				</port>
			</output>
		</layer>
		<layer id="244" name="614/fq_weights_1/Copy/out_low16443_const" type="Const" version="opset1">
			<data element_type="f16" offset="42048" shape="1" size="2"/>
			<output>
				<port id="1" precision="FP16">
					<dim>1</dim>
				</port>
			</output>
		</layer>
		<layer id="245" name="614/fq_weights_1/Copy/out_high16444_const" type="Const" version="opset1">
			<data element_type="f16" offset="9426" shape="1" size="2"/>
			<output>
				<port id="1" precision="FP16">
					<dim>1</dim>
				</port>
			</output>
		</layer>
		<layer id="246" name="62356239_const" type="Const" version="opset1">
			<data element_type="f16" offset="43138" shape="64,1,1,1" size="128"/>
			<output>
				<port id="1" precision="FP16">
					<dim>64</dim>
					<dim>1</dim>
					<dim>1</dim>
					<dim>1</dim>
				</port>
			</output>
		</layer>
		<layer id="247" name="62366240_const" type="Const" version="opset1">
			<data element_type="f16" offset="43266" shape="64,1,1,1" size="128"/>
			<output>
				<port id="1" precision="FP16">
					<dim>64</dim>
					<dim>1</dim>
					<dim>1</dim>
					<dim>1</dim>
				</port>
			</output>
		</layer>
		<layer id="248" name="614/fq_weights_1" type="FakeQuantize" version="opset1">
			<data levels="255"/>
			<input>
				<port id="0">
					<dim>64</dim>
					<dim>1</dim>
					<dim>3</dim>
					<dim>3</dim>
				</port>
				<port id="1">
					<dim>1</dim>
				</port>
				<port id="2">
					<dim>1</dim>
				</port>
				<port id="3">
					<dim>64</dim>
					<dim>1</dim>
					<dim>1</dim>
					<dim>1</dim>
				</port>
				<port id="4">
					<dim>64</dim>
					<dim>1</dim>
					<dim>1</dim>
					<dim>1</dim>
				</port>
			</input>
			<output>
				<port id="5" precision="FP16">
					<dim>64</dim>
					<dim>1</dim>
					<dim>3</dim>
					<dim>3</dim>
				</port>
			</output>
		</layer>
		<layer id="249" name="21350/value21352_const" type="Const" version="opset1">
			<data element_type="i64" offset="19872" shape="5" size="40"/>
			<output>
				<port id="1" precision="I64">
					<dim>5</dim>
				</port>
			</output>
		</layer>
		<layer id="250" name="21350" type="Reshape" version="opset1">
			<data special_zero="True"/>
			<input>
				<port id="0">
					<dim>64</dim>
					<dim>1</dim>
					<dim>3</dim>
					<dim>3</dim>
				</port>
				<port id="1">
					<dim>5</dim>
				</port>
			</input>
			<output>
				<port id="2" precision="FP16">
					<dim>64</dim>
					<dim>1</dim>
					<dim>1</dim>
					<dim>3</dim>
					<dim>3</dim>
				</port>
			</output>
		</layer>
		<layer id="251" name="614" type="GroupConvolution" version="opset1">
			<data dilations="1,1" output_padding="0,0" pads_begin="1,1" pads_end="1,1" strides="1,1"/>
			<input>
				<port id="0">
					<dim>1</dim>
					<dim>64</dim>
					<dim>64</dim>
					<dim>32</dim>
				</port>
				<port id="1">
					<dim>64</dim>
					<dim>1</dim>
					<dim>1</dim>
					<dim>3</dim>
					<dim>3</dim>
				</port>
			</input>
			<output>
				<port id="2" precision="FP16">
					<dim>1</dim>
					<dim>64</dim>
					<dim>64</dim>
					<dim>32</dim>
				</port>
			</output>
		</layer>
		<layer id="252" name="data_add_2063220637/copy_const1000_const" type="Const" version="opset1">
			<data element_type="f16" offset="43394" shape="1,64,1,1" size="128"/>
			<output>
				<port id="1" precision="FP16">
					<dim>1</dim>
					<dim>64</dim>
					<dim>1</dim>
					<dim>1</dim>
				</port>
			</output>
		</layer>
		<layer id="253" name="615/variance/Fused_Add_" type="Add" version="opset1">
			<input>
				<port id="0">
					<dim>1</dim>
					<dim>64</dim>
					<dim>64</dim>
					<dim>32</dim>
				</port>
				<port id="1">
					<dim>1</dim>
					<dim>64</dim>
					<dim>1</dim>
					<dim>1</dim>
				</port>
			</input>
			<output>
				<port id="2" precision="FP16">
					<dim>1</dim>
					<dim>64</dim>
					<dim>64</dim>
					<dim>32</dim>
				</port>
			</output>
		</layer>
		<layer id="254" name="616" type="ReLU" version="opset1">
			<input>
				<port id="0">
					<dim>1</dim>
					<dim>64</dim>
					<dim>64</dim>
					<dim>32</dim>
				</port>
			</input>
			<output>
				<port id="1" precision="FP16">
					<dim>1</dim>
					<dim>64</dim>
					<dim>64</dim>
					<dim>32</dim>
				</port>
			</output>
		</layer>
		<layer id="255" name="52535257_const" type="Const" version="opset1">
			<data element_type="f16" offset="43522" shape="" size="2"/>
			<output>
				<port id="1" precision="FP16"/>
			</output>
		</layer>
		<layer id="256" name="52545258_const" type="Const" version="opset1">
			<data element_type="f16" offset="43524" shape="" size="2"/>
			<output>
				<port id="1" precision="FP16"/>
			</output>
		</layer>
		<layer id="257" name="52555259_const" type="Const" version="opset1">
			<data element_type="f16" offset="43522" shape="" size="2"/>
			<output>
				<port id="1" precision="FP16"/>
			</output>
		</layer>
		<layer id="258" name="52565260_const" type="Const" version="opset1">
			<data element_type="f16" offset="43524" shape="" size="2"/>
			<output>
				<port id="1" precision="FP16"/>
			</output>
		</layer>
		<layer id="259" name="617/fq_input_0" type="FakeQuantize" version="opset1">
			<data levels="256"/>
			<input>
				<port id="0">
					<dim>1</dim>
					<dim>64</dim>
					<dim>64</dim>
					<dim>32</dim>
				</port>
				<port id="1"/>
				<port id="2"/>
				<port id="3"/>
				<port id="4"/>
			</input>
			<output>
				<port id="5" precision="FP16">
					<dim>1</dim>
					<dim>64</dim>
					<dim>64</dim>
					<dim>32</dim>
				</port>
			</output>
		</layer>
		<layer id="260" name="617/fq_weights_1/Convert_to_float/Cast_019001_const" type="Const" version="opset1">
			<data element_type="u8" offset="43526" shape="64,64,1,1" size="4096"/>
			<output>
				<port id="1" precision="U8">
					<dim>64</dim>
					<dim>64</dim>
					<dim>1</dim>
					<dim>1</dim>
				</port>
			</output>
		</layer>
		<layer id="261" name="617/fq_weights_1/Convert_to_float" type="Convert" version="opset1">
			<data destination_type="f16"/>
			<input>
				<port id="0">
					<dim>64</dim>
					<dim>64</dim>
					<dim>1</dim>
					<dim>1</dim>
				</port>
			</input>
			<output>
				<port id="1" precision="FP16">
					<dim>64</dim>
					<dim>64</dim>
					<dim>1</dim>
					<dim>1</dim>
				</port>
			</output>
		</layer>
		<layer id="262" name="617/fq_weights_1/Copy/out_low16299_const" type="Const" version="opset1">
			<data element_type="f16" offset="47622" shape="1" size="2"/>
			<output>
				<port id="1" precision="FP16">
					<dim>1</dim>
				</port>
			</output>
		</layer>
		<layer id="263" name="617/fq_weights_1/Copy/out_high16300_const" type="Const" version="opset1">
			<data element_type="f16" offset="9426" shape="1" size="2"/>
			<output>
				<port id="1" precision="FP16">
					<dim>1</dim>
				</port>
			</output>
		</layer>
		<layer id="264" name="52655269_const" type="Const" version="opset1">
			<data element_type="f16" offset="47624" shape="64,1,1,1" size="128"/>
			<output>
				<port id="1" precision="FP16">
					<dim>64</dim>
					<dim>1</dim>
					<dim>1</dim>
					<dim>1</dim>
				</port>
			</output>
		</layer>
		<layer id="265" name="52665270_const" type="Const" version="opset1">
			<data element_type="f16" offset="47752" shape="64,1,1,1" size="128"/>
			<output>
				<port id="1" precision="FP16">
					<dim>64</dim>
					<dim>1</dim>
					<dim>1</dim>
					<dim>1</dim>
				</port>
			</output>
		</layer>
		<layer id="266" name="617/fq_weights_1" type="FakeQuantize" version="opset1">
			<data levels="255"/>
			<input>
				<port id="0">
					<dim>64</dim>
					<dim>64</dim>
					<dim>1</dim>
					<dim>1</dim>
				</port>
				<port id="1">
					<dim>1</dim>
				</port>
				<port id="2">
					<dim>1</dim>
				</port>
				<port id="3">
					<dim>64</dim>
					<dim>1</dim>
					<dim>1</dim>
					<dim>1</dim>
				</port>
				<port id="4">
					<dim>64</dim>
					<dim>1</dim>
					<dim>1</dim>
					<dim>1</dim>
				</port>
			</input>
			<output>
				<port id="5" precision="FP16">
					<dim>64</dim>
					<dim>64</dim>
					<dim>1</dim>
					<dim>1</dim>
				</port>
			</output>
		</layer>
		<layer id="267" name="617" type="Convolution" version="opset1">
			<data dilations="1,1" output_padding="0,0" pads_begin="0,0" pads_end="0,0" strides="1,1"/>
			<input>
				<port id="0">
					<dim>1</dim>
					<dim>64</dim>
					<dim>64</dim>
					<dim>32</dim>
				</port>
				<port id="1">
					<dim>64</dim>
					<dim>64</dim>
					<dim>1</dim>
					<dim>1</dim>
				</port>
			</input>
			<output>
				<port id="2" precision="FP16">
					<dim>1</dim>
					<dim>64</dim>
					<dim>64</dim>
					<dim>32</dim>
				</port>
			</output>
		</layer>
		<layer id="268" name="22362238_const" type="Const" version="opset1">
			<data element_type="f16" offset="18656" shape="1,64,1,1" size="128"/>
			<output>
				<port id="1" precision="FP16">
					<dim>1</dim>
					<dim>64</dim>
					<dim>1</dim>
					<dim>1</dim>
				</port>
			</output>
		</layer>
		<layer id="269" name="617/add_" type="Add" version="opset1">
			<input>
				<port id="0">
					<dim>1</dim>
					<dim>64</dim>
					<dim>64</dim>
					<dim>32</dim>
				</port>
				<port id="1">
					<dim>1</dim>
					<dim>64</dim>
					<dim>1</dim>
					<dim>1</dim>
				</port>
			</input>
			<output>
				<port id="2" precision="FP16">
					<dim>1</dim>
					<dim>64</dim>
					<dim>64</dim>
					<dim>32</dim>
				</port>
			</output>
		</layer>
		<layer id="270" name="47534757_const" type="Const" version="opset1">
			<data element_type="f16" offset="47880" shape="1,64,1,1" size="128"/>
			<output>
				<port id="1" precision="FP16">
					<dim>1</dim>
					<dim>64</dim>
					<dim>1</dim>
					<dim>1</dim>
				</port>
			</output>
		</layer>
		<layer id="271" name="47544758_const" type="Const" version="opset1">
			<data element_type="f16" offset="48008" shape="1,64,1,1" size="128"/>
			<output>
				<port id="1" precision="FP16">
					<dim>1</dim>
					<dim>64</dim>
					<dim>1</dim>
					<dim>1</dim>
				</port>
			</output>
		</layer>
		<layer id="272" name="47554759_const" type="Const" version="opset1">
			<data element_type="f16" offset="47880" shape="1,64,1,1" size="128"/>
			<output>
				<port id="1" precision="FP16">
					<dim>1</dim>
					<dim>64</dim>
					<dim>1</dim>
					<dim>1</dim>
				</port>
			</output>
		</layer>
		<layer id="273" name="47564760_const" type="Const" version="opset1">
			<data element_type="f16" offset="48008" shape="1,64,1,1" size="128"/>
			<output>
				<port id="1" precision="FP16">
					<dim>1</dim>
					<dim>64</dim>
					<dim>1</dim>
					<dim>1</dim>
				</port>
			</output>
		</layer>
		<layer id="274" name="618/fq_input_0" type="FakeQuantize" version="opset1">
			<data levels="256"/>
			<input>
				<port id="0">
					<dim>1</dim>
					<dim>64</dim>
					<dim>64</dim>
					<dim>32</dim>
				</port>
				<port id="1">
					<dim>1</dim>
					<dim>64</dim>
					<dim>1</dim>
					<dim>1</dim>
				</port>
				<port id="2">
					<dim>1</dim>
					<dim>64</dim>
					<dim>1</dim>
					<dim>1</dim>
				</port>
				<port id="3">
					<dim>1</dim>
					<dim>64</dim>
					<dim>1</dim>
					<dim>1</dim>
				</port>
				<port id="4">
					<dim>1</dim>
					<dim>64</dim>
					<dim>1</dim>
					<dim>1</dim>
				</port>
			</input>
			<output>
				<port id="5" precision="FP16">
					<dim>1</dim>
					<dim>64</dim>
					<dim>64</dim>
					<dim>32</dim>
				</port>
			</output>
		</layer>
		<layer id="275" name="618/fq_weights_1/Convert_to_float/Cast_019159_const" type="Const" version="opset1">
			<data element_type="u8" offset="48136" shape="64,1,3,3" size="576"/>
			<output>
				<port id="1" precision="U8">
					<dim>64</dim>
					<dim>1</dim>
					<dim>3</dim>
					<dim>3</dim>
				</port>
			</output>
		</layer>
		<layer id="276" name="618/fq_weights_1/Convert_to_float" type="Convert" version="opset1">
			<data destination_type="f16"/>
			<input>
				<port id="0">
					<dim>64</dim>
					<dim>1</dim>
					<dim>3</dim>
					<dim>3</dim>
				</port>
			</input>
			<output>
				<port id="1" precision="FP16">
					<dim>64</dim>
					<dim>1</dim>
					<dim>3</dim>
					<dim>3</dim>
				</port>
			</output>
		</layer>
		<layer id="277" name="618/fq_weights_1/Copy/out_low15899_const" type="Const" version="opset1">
			<data element_type="f16" offset="47622" shape="1" size="2"/>
			<output>
				<port id="1" precision="FP16">
					<dim>1</dim>
				</port>
			</output>
		</layer>
		<layer id="278" name="618/fq_weights_1/Copy/out_high15900_const" type="Const" version="opset1">
			<data element_type="f16" offset="9426" shape="1" size="2"/>
			<output>
				<port id="1" precision="FP16">
					<dim>1</dim>
				</port>
			</output>
		</layer>
		<layer id="279" name="47654769_const" type="Const" version="opset1">
			<data element_type="f16" offset="48712" shape="64,1,1,1" size="128"/>
			<output>
				<port id="1" precision="FP16">
					<dim>64</dim>
					<dim>1</dim>
					<dim>1</dim>
					<dim>1</dim>
				</port>
			</output>
		</layer>
		<layer id="280" name="47664770_const" type="Const" version="opset1">
			<data element_type="f16" offset="48840" shape="64,1,1,1" size="128"/>
			<output>
				<port id="1" precision="FP16">
					<dim>64</dim>
					<dim>1</dim>
					<dim>1</dim>
					<dim>1</dim>
				</port>
			</output>
		</layer>
		<layer id="281" name="618/fq_weights_1" type="FakeQuantize" version="opset1">
			<data levels="255"/>
			<input>
				<port id="0">
					<dim>64</dim>
					<dim>1</dim>
					<dim>3</dim>
					<dim>3</dim>
				</port>
				<port id="1">
					<dim>1</dim>
				</port>
				<port id="2">
					<dim>1</dim>
				</port>
				<port id="3">
					<dim>64</dim>
					<dim>1</dim>
					<dim>1</dim>
					<dim>1</dim>
				</port>
				<port id="4">
					<dim>64</dim>
					<dim>1</dim>
					<dim>1</dim>
					<dim>1</dim>
				</port>
			</input>
			<output>
				<port id="5" precision="FP16">
					<dim>64</dim>
					<dim>1</dim>
					<dim>3</dim>
					<dim>3</dim>
				</port>
			</output>
		</layer>
		<layer id="282" name="21282/value21284_const" type="Const" version="opset1">
			<data element_type="i64" offset="19872" shape="5" size="40"/>
			<output>
				<port id="1" precision="I64">
					<dim>5</dim>
				</port>
			</output>
		</layer>
		<layer id="283" name="21282" type="Reshape" version="opset1">
			<data special_zero="True"/>
			<input>
				<port id="0">
					<dim>64</dim>
					<dim>1</dim>
					<dim>3</dim>
					<dim>3</dim>
				</port>
				<port id="1">
					<dim>5</dim>
				</port>
			</input>
			<output>
				<port id="2" precision="FP16">
					<dim>64</dim>
					<dim>1</dim>
					<dim>1</dim>
					<dim>3</dim>
					<dim>3</dim>
				</port>
			</output>
		</layer>
		<layer id="284" name="618" type="GroupConvolution" version="opset1">
			<data dilations="1,1" output_padding="0,0" pads_begin="1,1" pads_end="1,1" strides="1,1"/>
			<input>
				<port id="0">
					<dim>1</dim>
					<dim>64</dim>
					<dim>64</dim>
					<dim>32</dim>
				</port>
				<port id="1">
					<dim>64</dim>
					<dim>1</dim>
					<dim>1</dim>
					<dim>3</dim>
					<dim>3</dim>
				</port>
			</input>
			<output>
				<port id="2" precision="FP16">
					<dim>1</dim>
					<dim>64</dim>
					<dim>64</dim>
					<dim>32</dim>
				</port>
			</output>
		</layer>
		<layer id="285" name="data_add_2064020645/copy_const1007_const" type="Const" version="opset1">
			<data element_type="f16" offset="48968" shape="1,64,1,1" size="128"/>
			<output>
				<port id="1" precision="FP16">
					<dim>1</dim>
					<dim>64</dim>
					<dim>1</dim>
					<dim>1</dim>
				</port>
			</output>
		</layer>
		<layer id="286" name="619/variance/Fused_Add_" type="Add" version="opset1">
			<input>
				<port id="0">
					<dim>1</dim>
					<dim>64</dim>
					<dim>64</dim>
					<dim>32</dim>
				</port>
				<port id="1">
					<dim>1</dim>
					<dim>64</dim>
					<dim>1</dim>
					<dim>1</dim>
				</port>
			</input>
			<output>
				<port id="2" precision="FP16">
					<dim>1</dim>
					<dim>64</dim>
					<dim>64</dim>
					<dim>32</dim>
				</port>
			</output>
		</layer>
		<layer id="287" name="620" type="ReLU" version="opset1">
			<input>
				<port id="0">
					<dim>1</dim>
					<dim>64</dim>
					<dim>64</dim>
					<dim>32</dim>
				</port>
			</input>
			<output>
				<port id="1" precision="FP16">
					<dim>1</dim>
					<dim>64</dim>
					<dim>64</dim>
					<dim>32</dim>
				</port>
			</output>
		</layer>
		<layer id="288" name="48534857_const" type="Const" version="opset1">
			<data element_type="f16" offset="49096" shape="" size="2"/>
			<output>
				<port id="1" precision="FP16"/>
			</output>
		</layer>
		<layer id="289" name="48544858_const" type="Const" version="opset1">
			<data element_type="f16" offset="49098" shape="" size="2"/>
			<output>
				<port id="1" precision="FP16"/>
			</output>
		</layer>
		<layer id="290" name="48554859_const" type="Const" version="opset1">
			<data element_type="f16" offset="49096" shape="" size="2"/>
			<output>
				<port id="1" precision="FP16"/>
			</output>
		</layer>
		<layer id="291" name="48564860_const" type="Const" version="opset1">
			<data element_type="f16" offset="49098" shape="" size="2"/>
			<output>
				<port id="1" precision="FP16"/>
			</output>
		</layer>
		<layer id="292" name="650/reduce/fq_input_0" type="FakeQuantize" version="opset1">
			<data levels="256"/>
			<input>
				<port id="0">
					<dim>1</dim>
					<dim>64</dim>
					<dim>64</dim>
					<dim>32</dim>
				</port>
				<port id="1"/>
				<port id="2"/>
				<port id="3"/>
				<port id="4"/>
			</input>
			<output>
				<port id="5" precision="FP16">
					<dim>1</dim>
					<dim>64</dim>
					<dim>64</dim>
					<dim>32</dim>
				</port>
			</output>
		</layer>
		<layer id="293" name="650/reduce/Cast_119289_const" type="Const" version="opset1">
			<data element_type="i64" offset="20044" shape="2" size="16"/>
			<output>
				<port id="1" precision="I64">
					<dim>2</dim>
				</port>
			</output>
		</layer>
		<layer id="294" name="650/reduce" type="ReduceMean" version="opset1">
			<data keep_dims="True"/>
			<input>
				<port id="0">
					<dim>1</dim>
					<dim>64</dim>
					<dim>64</dim>
					<dim>32</dim>
				</port>
				<port id="1">
					<dim>2</dim>
				</port>
			</input>
			<output>
				<port id="2" precision="FP16">
					<dim>1</dim>
					<dim>64</dim>
					<dim>1</dim>
					<dim>1</dim>
				</port>
			</output>
		</layer>
		<layer id="295" name="Copy_onnx_initializer_node_conv2.0.gate.fc1.weight/Output_0/Data_3806_const1012_const" type="Const" version="opset1">
			<data element_type="f16" offset="20060" shape="4,64,1,1" size="512"/>
			<output>
				<port id="1" precision="FP16">
					<dim>4</dim>
					<dim>64</dim>
					<dim>1</dim>
					<dim>1</dim>
				</port>
			</output>
		</layer>
		<layer id="296" name="651/WithoutBiases" type="Convolution" version="opset1">
			<data dilations="1,1" output_padding="0,0" pads_begin="0,0" pads_end="0,0" strides="1,1"/>
			<input>
				<port id="0">
					<dim>1</dim>
					<dim>64</dim>
					<dim>1</dim>
					<dim>1</dim>
				</port>
				<port id="1">
					<dim>4</dim>
					<dim>64</dim>
					<dim>1</dim>
					<dim>1</dim>
				</port>
			</input>
			<output>
				<port id="2" precision="FP16">
					<dim>1</dim>
					<dim>4</dim>
					<dim>1</dim>
					<dim>1</dim>
				</port>
			</output>
		</layer>
		<layer id="297" name="651/Dims12624/copy_const1014_const" type="Const" version="opset1">
			<data element_type="f16" offset="20572" shape="1,4,1,1" size="8"/>
			<output>
				<port id="1" precision="FP16">
					<dim>1</dim>
					<dim>4</dim>
					<dim>1</dim>
					<dim>1</dim>
				</port>
			</output>
		</layer>
		<layer id="298" name="651" type="Add" version="opset1">
			<input>
				<port id="0">
					<dim>1</dim>
					<dim>4</dim>
					<dim>1</dim>
					<dim>1</dim>
				</port>
				<port id="1">
					<dim>1</dim>
					<dim>4</dim>
					<dim>1</dim>
					<dim>1</dim>
				</port>
			</input>
			<output>
				<port id="2" precision="FP16">
					<dim>1</dim>
					<dim>4</dim>
					<dim>1</dim>
					<dim>1</dim>
				</port>
			</output>
		</layer>
		<layer id="299" name="652" type="ReLU" version="opset1">
			<input>
				<port id="0">
					<dim>1</dim>
					<dim>4</dim>
					<dim>1</dim>
					<dim>1</dim>
				</port>
			</input>
			<output>
				<port id="1" precision="FP16">
					<dim>1</dim>
					<dim>4</dim>
					<dim>1</dim>
					<dim>1</dim>
				</port>
			</output>
		</layer>
		<layer id="300" name="Copy_onnx_initializer_node_conv2.0.gate.fc2.weight/Output_0/Data_3814_const1017_const" type="Const" version="opset1">
			<data element_type="f16" offset="20580" shape="64,4,1,1" size="512"/>
			<output>
				<port id="1" precision="FP16">
					<dim>64</dim>
					<dim>4</dim>
					<dim>1</dim>
					<dim>1</dim>
				</port>
			</output>
		</layer>
		<layer id="301" name="653/WithoutBiases" type="Convolution" version="opset1">
			<data dilations="1,1" output_padding="0,0" pads_begin="0,0" pads_end="0,0" strides="1,1"/>
			<input>
				<port id="0">
					<dim>1</dim>
					<dim>4</dim>
					<dim>1</dim>
					<dim>1</dim>
				</port>
				<port id="1">
					<dim>64</dim>
					<dim>4</dim>
					<dim>1</dim>
					<dim>1</dim>
				</port>
			</input>
			<output>
				<port id="2" precision="FP16">
					<dim>1</dim>
					<dim>64</dim>
					<dim>1</dim>
					<dim>1</dim>
				</port>
			</output>
		</layer>
		<layer id="302" name="653/Dims12630/copy_const1019_const" type="Const" version="opset1">
			<data element_type="f16" offset="21092" shape="1,64,1,1" size="128"/>
			<output>
				<port id="1" precision="FP16">
					<dim>1</dim>
					<dim>64</dim>
					<dim>1</dim>
					<dim>1</dim>
				</port>
			</output>
		</layer>
		<layer id="303" name="653" type="Add" version="opset1">
			<input>
				<port id="0">
					<dim>1</dim>
					<dim>64</dim>
					<dim>1</dim>
					<dim>1</dim>
				</port>
				<port id="1">
					<dim>1</dim>
					<dim>64</dim>
					<dim>1</dim>
					<dim>1</dim>
				</port>
			</input>
			<output>
				<port id="2" precision="FP16">
					<dim>1</dim>
					<dim>64</dim>
					<dim>1</dim>
					<dim>1</dim>
				</port>
			</output>
		</layer>
		<layer id="304" name="654" type="Sigmoid" version="opset1">
			<input>
				<port id="0">
					<dim>1</dim>
					<dim>64</dim>
					<dim>1</dim>
					<dim>1</dim>
				</port>
			</input>
			<output>
				<port id="1" precision="FP16">
					<dim>1</dim>
					<dim>64</dim>
					<dim>1</dim>
					<dim>1</dim>
				</port>
			</output>
		</layer>
		<layer id="305" name="38633867_const" type="Const" version="opset1">
			<data element_type="f16" offset="49096" shape="" size="2"/>
			<output>
				<port id="1" precision="FP16"/>
			</output>
		</layer>
		<layer id="306" name="38643868_const" type="Const" version="opset1">
			<data element_type="f16" offset="49100" shape="" size="2"/>
			<output>
				<port id="1" precision="FP16"/>
			</output>
		</layer>
		<layer id="307" name="38653869_const" type="Const" version="opset1">
			<data element_type="f16" offset="49096" shape="" size="2"/>
			<output>
				<port id="1" precision="FP16"/>
			</output>
		</layer>
		<layer id="308" name="38663870_const" type="Const" version="opset1">
			<data element_type="f16" offset="49100" shape="" size="2"/>
			<output>
				<port id="1" precision="FP16"/>
			</output>
		</layer>
		<layer id="309" name="655/fq_input_1" type="FakeQuantize" version="opset1">
			<data levels="256"/>
			<input>
				<port id="0">
					<dim>1</dim>
					<dim>64</dim>
					<dim>1</dim>
					<dim>1</dim>
				</port>
				<port id="1"/>
				<port id="2"/>
				<port id="3"/>
				<port id="4"/>
			</input>
			<output>
				<port id="5" precision="FP16">
					<dim>1</dim>
					<dim>64</dim>
					<dim>1</dim>
					<dim>1</dim>
				</port>
			</output>
		</layer>
		<layer id="310" name="655" type="Multiply" version="opset1">
			<input>
				<port id="0">
					<dim>1</dim>
					<dim>64</dim>
					<dim>64</dim>
					<dim>32</dim>
				</port>
				<port id="1">
					<dim>1</dim>
					<dim>64</dim>
					<dim>1</dim>
					<dim>1</dim>
				</port>
			</input>
			<output>
				<port id="2" precision="FP16">
					<dim>1</dim>
					<dim>64</dim>
					<dim>64</dim>
					<dim>32</dim>
				</port>
			</output>
		</layer>
		<layer id="311" name="51935197_const" type="Const" version="opset1">
			<data element_type="f16" offset="49096" shape="" size="2"/>
			<output>
				<port id="1" precision="FP16"/>
			</output>
		</layer>
		<layer id="312" name="51945198_const" type="Const" version="opset1">
			<data element_type="f16" offset="49102" shape="" size="2"/>
			<output>
				<port id="1" precision="FP16"/>
			</output>
		</layer>
		<layer id="313" name="51955199_const" type="Const" version="opset1">
			<data element_type="f16" offset="49096" shape="" size="2"/>
			<output>
				<port id="1" precision="FP16"/>
			</output>
		</layer>
		<layer id="314" name="51965200_const" type="Const" version="opset1">
			<data element_type="f16" offset="49102" shape="" size="2"/>
			<output>
				<port id="1" precision="FP16"/>
			</output>
		</layer>
		<layer id="315" name="656/fq_input_1" type="FakeQuantize" version="opset1">
			<data levels="256"/>
			<input>
				<port id="0">
					<dim>1</dim>
					<dim>64</dim>
					<dim>64</dim>
					<dim>32</dim>
				</port>
				<port id="1"/>
				<port id="2"/>
				<port id="3"/>
				<port id="4"/>
			</input>
			<output>
				<port id="5" precision="FP16">
					<dim>1</dim>
					<dim>64</dim>
					<dim>64</dim>
					<dim>32</dim>
				</port>
			</output>
		</layer>
		<layer id="316" name="656" type="Add" version="opset1">
			<input>
				<port id="0">
					<dim>1</dim>
					<dim>64</dim>
					<dim>64</dim>
					<dim>32</dim>
				</port>
				<port id="1">
					<dim>1</dim>
					<dim>64</dim>
					<dim>64</dim>
					<dim>32</dim>
				</port>
			</input>
			<output>
				<port id="2" precision="FP16">
					<dim>1</dim>
					<dim>64</dim>
					<dim>64</dim>
					<dim>32</dim>
				</port>
			</output>
		</layer>
		<layer id="317" name="53135317_const" type="Const" version="opset1">
			<data element_type="f16" offset="49096" shape="" size="2"/>
			<output>
				<port id="1" precision="FP16"/>
			</output>
		</layer>
		<layer id="318" name="53145318_const" type="Const" version="opset1">
			<data element_type="f16" offset="49104" shape="" size="2"/>
			<output>
				<port id="1" precision="FP16"/>
			</output>
		</layer>
		<layer id="319" name="53155319_const" type="Const" version="opset1">
			<data element_type="f16" offset="49096" shape="" size="2"/>
			<output>
				<port id="1" precision="FP16"/>
			</output>
		</layer>
		<layer id="320" name="53165320_const" type="Const" version="opset1">
			<data element_type="f16" offset="49104" shape="" size="2"/>
			<output>
				<port id="1" precision="FP16"/>
			</output>
		</layer>
		<layer id="321" name="663/fq_input_0" type="FakeQuantize" version="opset1">
			<data levels="256"/>
			<input>
				<port id="0">
					<dim>1</dim>
					<dim>64</dim>
					<dim>64</dim>
					<dim>32</dim>
				</port>
				<port id="1"/>
				<port id="2"/>
				<port id="3"/>
				<port id="4"/>
			</input>
			<output>
				<port id="5" precision="FP16">
					<dim>1</dim>
					<dim>64</dim>
					<dim>64</dim>
					<dim>32</dim>
				</port>
			</output>
		</layer>
		<layer id="322" name="621/fq_weights_1/Convert_to_float/Cast_019191_const" type="Const" version="opset1">
			<data element_type="u8" offset="49106" shape="64,64,1,1" size="4096"/>
			<output>
				<port id="1" precision="U8">
					<dim>64</dim>
					<dim>64</dim>
					<dim>1</dim>
					<dim>1</dim>
				</port>
			</output>
		</layer>
		<layer id="323" name="621/fq_weights_1/Convert_to_float" type="Convert" version="opset1">
			<data destination_type="f16"/>
			<input>
				<port id="0">
					<dim>64</dim>
					<dim>64</dim>
					<dim>1</dim>
					<dim>1</dim>
				</port>
			</input>
			<output>
				<port id="1" precision="FP16">
					<dim>64</dim>
					<dim>64</dim>
					<dim>1</dim>
					<dim>1</dim>
				</port>
			</output>
		</layer>
		<layer id="324" name="621/fq_weights_1/Copy/out_low16787_const" type="Const" version="opset1">
			<data element_type="f16" offset="53202" shape="1" size="2"/>
			<output>
				<port id="1" precision="FP16">
					<dim>1</dim>
				</port>
			</output>
		</layer>
		<layer id="325" name="621/fq_weights_1/Copy/out_high16788_const" type="Const" version="opset1">
			<data element_type="f16" offset="9426" shape="1" size="2"/>
			<output>
				<port id="1" precision="FP16">
					<dim>1</dim>
				</port>
			</output>
		</layer>
		<layer id="326" name="68256829_const" type="Const" version="opset1">
			<data element_type="f16" offset="53204" shape="64,1,1,1" size="128"/>
			<output>
				<port id="1" precision="FP16">
					<dim>64</dim>
					<dim>1</dim>
					<dim>1</dim>
					<dim>1</dim>
				</port>
			</output>
		</layer>
		<layer id="327" name="68266830_const" type="Const" version="opset1">
			<data element_type="f16" offset="53332" shape="64,1,1,1" size="128"/>
			<output>
				<port id="1" precision="FP16">
					<dim>64</dim>
					<dim>1</dim>
					<dim>1</dim>
					<dim>1</dim>
				</port>
			</output>
		</layer>
		<layer id="328" name="621/fq_weights_1" type="FakeQuantize" version="opset1">
			<data levels="255"/>
			<input>
				<port id="0">
					<dim>64</dim>
					<dim>64</dim>
					<dim>1</dim>
					<dim>1</dim>
				</port>
				<port id="1">
					<dim>1</dim>
				</port>
				<port id="2">
					<dim>1</dim>
				</port>
				<port id="3">
					<dim>64</dim>
					<dim>1</dim>
					<dim>1</dim>
					<dim>1</dim>
				</port>
				<port id="4">
					<dim>64</dim>
					<dim>1</dim>
					<dim>1</dim>
					<dim>1</dim>
				</port>
			</input>
			<output>
				<port id="5" precision="FP16">
					<dim>64</dim>
					<dim>64</dim>
					<dim>1</dim>
					<dim>1</dim>
				</port>
			</output>
		</layer>
		<layer id="329" name="621" type="Convolution" version="opset1">
			<data dilations="1,1" output_padding="0,0" pads_begin="0,0" pads_end="0,0" strides="1,1"/>
			<input>
				<port id="0">
					<dim>1</dim>
					<dim>64</dim>
					<dim>64</dim>
					<dim>32</dim>
				</port>
				<port id="1">
					<dim>64</dim>
					<dim>64</dim>
					<dim>1</dim>
					<dim>1</dim>
				</port>
			</input>
			<output>
				<port id="2" precision="FP16">
					<dim>1</dim>
					<dim>64</dim>
					<dim>64</dim>
					<dim>32</dim>
				</port>
			</output>
		</layer>
		<layer id="330" name="22402242_const" type="Const" version="opset1">
			<data element_type="f16" offset="18656" shape="1,64,1,1" size="128"/>
			<output>
				<port id="1" precision="FP16">
					<dim>1</dim>
					<dim>64</dim>
					<dim>1</dim>
					<dim>1</dim>
				</port>
			</output>
		</layer>
		<layer id="331" name="621/add_" type="Add" version="opset1">
			<input>
				<port id="0">
					<dim>1</dim>
					<dim>64</dim>
					<dim>64</dim>
					<dim>32</dim>
				</port>
				<port id="1">
					<dim>1</dim>
					<dim>64</dim>
					<dim>1</dim>
					<dim>1</dim>
				</port>
			</input>
			<output>
				<port id="2" precision="FP16">
					<dim>1</dim>
					<dim>64</dim>
					<dim>64</dim>
					<dim>32</dim>
				</port>
			</output>
		</layer>
		<layer id="332" name="71937197_const" type="Const" version="opset1">
			<data element_type="f16" offset="53460" shape="1,64,1,1" size="128"/>
			<output>
				<port id="1" precision="FP16">
					<dim>1</dim>
					<dim>64</dim>
					<dim>1</dim>
					<dim>1</dim>
				</port>
			</output>
		</layer>
		<layer id="333" name="71947198_const" type="Const" version="opset1">
			<data element_type="f16" offset="53588" shape="1,64,1,1" size="128"/>
			<output>
				<port id="1" precision="FP16">
					<dim>1</dim>
					<dim>64</dim>
					<dim>1</dim>
					<dim>1</dim>
				</port>
			</output>
		</layer>
		<layer id="334" name="71957199_const" type="Const" version="opset1">
			<data element_type="f16" offset="53460" shape="1,64,1,1" size="128"/>
			<output>
				<port id="1" precision="FP16">
					<dim>1</dim>
					<dim>64</dim>
					<dim>1</dim>
					<dim>1</dim>
				</port>
			</output>
		</layer>
		<layer id="335" name="71967200_const" type="Const" version="opset1">
			<data element_type="f16" offset="53588" shape="1,64,1,1" size="128"/>
			<output>
				<port id="1" precision="FP16">
					<dim>1</dim>
					<dim>64</dim>
					<dim>1</dim>
					<dim>1</dim>
				</port>
			</output>
		</layer>
		<layer id="336" name="622/fq_input_0" type="FakeQuantize" version="opset1">
			<data levels="256"/>
			<input>
				<port id="0">
					<dim>1</dim>
					<dim>64</dim>
					<dim>64</dim>
					<dim>32</dim>
				</port>
				<port id="1">
					<dim>1</dim>
					<dim>64</dim>
					<dim>1</dim>
					<dim>1</dim>
				</port>
				<port id="2">
					<dim>1</dim>
					<dim>64</dim>
					<dim>1</dim>
					<dim>1</dim>
				</port>
				<port id="3">
					<dim>1</dim>
					<dim>64</dim>
					<dim>1</dim>
					<dim>1</dim>
				</port>
				<port id="4">
					<dim>1</dim>
					<dim>64</dim>
					<dim>1</dim>
					<dim>1</dim>
				</port>
			</input>
			<output>
				<port id="5" precision="FP16">
					<dim>1</dim>
					<dim>64</dim>
					<dim>64</dim>
					<dim>32</dim>
				</port>
			</output>
		</layer>
		<layer id="337" name="622/fq_weights_1/Convert_to_float/Cast_019005_const" type="Const" version="opset1">
			<data element_type="u8" offset="53716" shape="64,1,3,3" size="576"/>
			<output>
				<port id="1" precision="U8">
					<dim>64</dim>
					<dim>1</dim>
					<dim>3</dim>
					<dim>3</dim>
				</port>
			</output>
		</layer>
		<layer id="338" name="622/fq_weights_1/Convert_to_float" type="Convert" version="opset1">
			<data destination_type="f16"/>
			<input>
				<port id="0">
					<dim>64</dim>
					<dim>1</dim>
					<dim>3</dim>
					<dim>3</dim>
				</port>
			</input>
			<output>
				<port id="1" precision="FP16">
					<dim>64</dim>
					<dim>1</dim>
					<dim>3</dim>
					<dim>3</dim>
				</port>
			</output>
		</layer>
		<layer id="339" name="622/fq_weights_1/Copy/out_low16267_const" type="Const" version="opset1">
			<data element_type="f16" offset="53202" shape="1" size="2"/>
			<output>
				<port id="1" precision="FP16">
					<dim>1</dim>
				</port>
			</output>
		</layer>
		<layer id="340" name="622/fq_weights_1/Copy/out_high16268_const" type="Const" version="opset1">
			<data element_type="f16" offset="9426" shape="1" size="2"/>
			<output>
				<port id="1" precision="FP16">
					<dim>1</dim>
				</port>
			</output>
		</layer>
		<layer id="341" name="72057209_const" type="Const" version="opset1">
			<data element_type="f16" offset="54292" shape="64,1,1,1" size="128"/>
			<output>
				<port id="1" precision="FP16">
					<dim>64</dim>
					<dim>1</dim>
					<dim>1</dim>
					<dim>1</dim>
				</port>
			</output>
		</layer>
		<layer id="342" name="72067210_const" type="Const" version="opset1">
			<data element_type="f16" offset="54420" shape="64,1,1,1" size="128"/>
			<output>
				<port id="1" precision="FP16">
					<dim>64</dim>
					<dim>1</dim>
					<dim>1</dim>
					<dim>1</dim>
				</port>
			</output>
		</layer>
		<layer id="343" name="622/fq_weights_1" type="FakeQuantize" version="opset1">
			<data levels="255"/>
			<input>
				<port id="0">
					<dim>64</dim>
					<dim>1</dim>
					<dim>3</dim>
					<dim>3</dim>
				</port>
				<port id="1">
					<dim>1</dim>
				</port>
				<port id="2">
					<dim>1</dim>
				</port>
				<port id="3">
					<dim>64</dim>
					<dim>1</dim>
					<dim>1</dim>
					<dim>1</dim>
				</port>
				<port id="4">
					<dim>64</dim>
					<dim>1</dim>
					<dim>1</dim>
					<dim>1</dim>
				</port>
			</input>
			<output>
				<port id="5" precision="FP16">
					<dim>64</dim>
					<dim>1</dim>
					<dim>3</dim>
					<dim>3</dim>
				</port>
			</output>
		</layer>
		<layer id="344" name="21310/value21312_const" type="Const" version="opset1">
			<data element_type="i64" offset="19872" shape="5" size="40"/>
			<output>
				<port id="1" precision="I64">
					<dim>5</dim>
				</port>
			</output>
		</layer>
		<layer id="345" name="21310" type="Reshape" version="opset1">
			<data special_zero="True"/>
			<input>
				<port id="0">
					<dim>64</dim>
					<dim>1</dim>
					<dim>3</dim>
					<dim>3</dim>
				</port>
				<port id="1">
					<dim>5</dim>
				</port>
			</input>
			<output>
				<port id="2" precision="FP16">
					<dim>64</dim>
					<dim>1</dim>
					<dim>1</dim>
					<dim>3</dim>
					<dim>3</dim>
				</port>
			</output>
		</layer>
		<layer id="346" name="622" type="GroupConvolution" version="opset1">
			<data dilations="1,1" output_padding="0,0" pads_begin="1,1" pads_end="1,1" strides="1,1"/>
			<input>
				<port id="0">
					<dim>1</dim>
					<dim>64</dim>
					<dim>64</dim>
					<dim>32</dim>
				</port>
				<port id="1">
					<dim>64</dim>
					<dim>1</dim>
					<dim>1</dim>
					<dim>3</dim>
					<dim>3</dim>
				</port>
			</input>
			<output>
				<port id="2" precision="FP16">
					<dim>1</dim>
					<dim>64</dim>
					<dim>64</dim>
					<dim>32</dim>
				</port>
			</output>
		</layer>
		<layer id="347" name="data_add_2059220597/copy_const1028_const" type="Const" version="opset1">
			<data element_type="f16" offset="54548" shape="1,64,1,1" size="128"/>
			<output>
				<port id="1" precision="FP16">
					<dim>1</dim>
					<dim>64</dim>
					<dim>1</dim>
					<dim>1</dim>
				</port>
			</output>
		</layer>
		<layer id="348" name="623/variance/Fused_Add_" type="Add" version="opset1">
			<input>
				<port id="0">
					<dim>1</dim>
					<dim>64</dim>
					<dim>64</dim>
					<dim>32</dim>
				</port>
				<port id="1">
					<dim>1</dim>
					<dim>64</dim>
					<dim>1</dim>
					<dim>1</dim>
				</port>
			</input>
			<output>
				<port id="2" precision="FP16">
					<dim>1</dim>
					<dim>64</dim>
					<dim>64</dim>
					<dim>32</dim>
				</port>
			</output>
		</layer>
		<layer id="349" name="624" type="ReLU" version="opset1">
			<input>
				<port id="0">
					<dim>1</dim>
					<dim>64</dim>
					<dim>64</dim>
					<dim>32</dim>
				</port>
			</input>
			<output>
				<port id="1" precision="FP16">
					<dim>1</dim>
					<dim>64</dim>
					<dim>64</dim>
					<dim>32</dim>
				</port>
			</output>
		</layer>
		<layer id="350" name="54835487_const" type="Const" version="opset1">
			<data element_type="f16" offset="54676" shape="" size="2"/>
			<output>
				<port id="1" precision="FP16"/>
			</output>
		</layer>
		<layer id="351" name="54845488_const" type="Const" version="opset1">
			<data element_type="f16" offset="54678" shape="" size="2"/>
			<output>
				<port id="1" precision="FP16"/>
			</output>
		</layer>
		<layer id="352" name="54855489_const" type="Const" version="opset1">
			<data element_type="f16" offset="54676" shape="" size="2"/>
			<output>
				<port id="1" precision="FP16"/>
			</output>
		</layer>
		<layer id="353" name="54865490_const" type="Const" version="opset1">
			<data element_type="f16" offset="54678" shape="" size="2"/>
			<output>
				<port id="1" precision="FP16"/>
			</output>
		</layer>
		<layer id="354" name="625/fq_input_0" type="FakeQuantize" version="opset1">
			<data levels="256"/>
			<input>
				<port id="0">
					<dim>1</dim>
					<dim>64</dim>
					<dim>64</dim>
					<dim>32</dim>
				</port>
				<port id="1"/>
				<port id="2"/>
				<port id="3"/>
				<port id="4"/>
			</input>
			<output>
				<port id="5" precision="FP16">
					<dim>1</dim>
					<dim>64</dim>
					<dim>64</dim>
					<dim>32</dim>
				</port>
			</output>
		</layer>
		<layer id="355" name="625/fq_weights_1/Convert_to_float/Cast_019247_const" type="Const" version="opset1">
			<data element_type="u8" offset="54680" shape="64,64,1,1" size="4096"/>
			<output>
				<port id="1" precision="U8">
					<dim>64</dim>
					<dim>64</dim>
					<dim>1</dim>
					<dim>1</dim>
				</port>
			</output>
		</layer>
		<layer id="356" name="625/fq_weights_1/Convert_to_float" type="Convert" version="opset1">
			<data destination_type="f16"/>
			<input>
				<port id="0">
					<dim>64</dim>
					<dim>64</dim>
					<dim>1</dim>
					<dim>1</dim>
				</port>
			</input>
			<output>
				<port id="1" precision="FP16">
					<dim>64</dim>
					<dim>64</dim>
					<dim>1</dim>
					<dim>1</dim>
				</port>
			</output>
		</layer>
		<layer id="357" name="625/fq_weights_1/Copy/out_low16627_const" type="Const" version="opset1">
			<data element_type="f16" offset="58776" shape="1" size="2"/>
			<output>
				<port id="1" precision="FP16">
					<dim>1</dim>
				</port>
			</output>
		</layer>
		<layer id="358" name="625/fq_weights_1/Copy/out_high16628_const" type="Const" version="opset1">
			<data element_type="f16" offset="9426" shape="1" size="2"/>
			<output>
				<port id="1" precision="FP16">
					<dim>1</dim>
				</port>
			</output>
		</layer>
		<layer id="359" name="54955499_const" type="Const" version="opset1">
			<data element_type="f16" offset="58778" shape="64,1,1,1" size="128"/>
			<output>
				<port id="1" precision="FP16">
					<dim>64</dim>
					<dim>1</dim>
					<dim>1</dim>
					<dim>1</dim>
				</port>
			</output>
		</layer>
		<layer id="360" name="54965500_const" type="Const" version="opset1">
			<data element_type="f16" offset="58906" shape="64,1,1,1" size="128"/>
			<output>
				<port id="1" precision="FP16">
					<dim>64</dim>
					<dim>1</dim>
					<dim>1</dim>
					<dim>1</dim>
				</port>
			</output>
		</layer>
		<layer id="361" name="625/fq_weights_1" type="FakeQuantize" version="opset1">
			<data levels="255"/>
			<input>
				<port id="0">
					<dim>64</dim>
					<dim>64</dim>
					<dim>1</dim>
					<dim>1</dim>
				</port>
				<port id="1">
					<dim>1</dim>
				</port>
				<port id="2">
					<dim>1</dim>
				</port>
				<port id="3">
					<dim>64</dim>
					<dim>1</dim>
					<dim>1</dim>
					<dim>1</dim>
				</port>
				<port id="4">
					<dim>64</dim>
					<dim>1</dim>
					<dim>1</dim>
					<dim>1</dim>
				</port>
			</input>
			<output>
				<port id="5" precision="FP16">
					<dim>64</dim>
					<dim>64</dim>
					<dim>1</dim>
					<dim>1</dim>
				</port>
			</output>
		</layer>
		<layer id="362" name="625" type="Convolution" version="opset1">
			<data dilations="1,1" output_padding="0,0" pads_begin="0,0" pads_end="0,0" strides="1,1"/>
			<input>
				<port id="0">
					<dim>1</dim>
					<dim>64</dim>
					<dim>64</dim>
					<dim>32</dim>
				</port>
				<port id="1">
					<dim>64</dim>
					<dim>64</dim>
					<dim>1</dim>
					<dim>1</dim>
				</port>
			</input>
			<output>
				<port id="2" precision="FP16">
					<dim>1</dim>
					<dim>64</dim>
					<dim>64</dim>
					<dim>32</dim>
				</port>
			</output>
		</layer>
		<layer id="363" name="22442246_const" type="Const" version="opset1">
			<data element_type="f16" offset="18656" shape="1,64,1,1" size="128"/>
			<output>
				<port id="1" precision="FP16">
					<dim>1</dim>
					<dim>64</dim>
					<dim>1</dim>
					<dim>1</dim>
				</port>
			</output>
		</layer>
		<layer id="364" name="625/add_" type="Add" version="opset1">
			<input>
				<port id="0">
					<dim>1</dim>
					<dim>64</dim>
					<dim>64</dim>
					<dim>32</dim>
				</port>
				<port id="1">
					<dim>1</dim>
					<dim>64</dim>
					<dim>1</dim>
					<dim>1</dim>
				</port>
			</input>
			<output>
				<port id="2" precision="FP16">
					<dim>1</dim>
					<dim>64</dim>
					<dim>64</dim>
					<dim>32</dim>
				</port>
			</output>
		</layer>
		<layer id="365" name="39933997_const" type="Const" version="opset1">
			<data element_type="f16" offset="59034" shape="1,64,1,1" size="128"/>
			<output>
				<port id="1" precision="FP16">
					<dim>1</dim>
					<dim>64</dim>
					<dim>1</dim>
					<dim>1</dim>
				</port>
			</output>
		</layer>
		<layer id="366" name="39943998_const" type="Const" version="opset1">
			<data element_type="f16" offset="59162" shape="1,64,1,1" size="128"/>
			<output>
				<port id="1" precision="FP16">
					<dim>1</dim>
					<dim>64</dim>
					<dim>1</dim>
					<dim>1</dim>
				</port>
			</output>
		</layer>
		<layer id="367" name="39953999_const" type="Const" version="opset1">
			<data element_type="f16" offset="59034" shape="1,64,1,1" size="128"/>
			<output>
				<port id="1" precision="FP16">
					<dim>1</dim>
					<dim>64</dim>
					<dim>1</dim>
					<dim>1</dim>
				</port>
			</output>
		</layer>
		<layer id="368" name="39964000_const" type="Const" version="opset1">
			<data element_type="f16" offset="59162" shape="1,64,1,1" size="128"/>
			<output>
				<port id="1" precision="FP16">
					<dim>1</dim>
					<dim>64</dim>
					<dim>1</dim>
					<dim>1</dim>
				</port>
			</output>
		</layer>
		<layer id="369" name="626/fq_input_0" type="FakeQuantize" version="opset1">
			<data levels="256"/>
			<input>
				<port id="0">
					<dim>1</dim>
					<dim>64</dim>
					<dim>64</dim>
					<dim>32</dim>
				</port>
				<port id="1">
					<dim>1</dim>
					<dim>64</dim>
					<dim>1</dim>
					<dim>1</dim>
				</port>
				<port id="2">
					<dim>1</dim>
					<dim>64</dim>
					<dim>1</dim>
					<dim>1</dim>
				</port>
				<port id="3">
					<dim>1</dim>
					<dim>64</dim>
					<dim>1</dim>
					<dim>1</dim>
				</port>
				<port id="4">
					<dim>1</dim>
					<dim>64</dim>
					<dim>1</dim>
					<dim>1</dim>
				</port>
			</input>
			<output>
				<port id="5" precision="FP16">
					<dim>1</dim>
					<dim>64</dim>
					<dim>64</dim>
					<dim>32</dim>
				</port>
			</output>
		</layer>
		<layer id="370" name="626/fq_weights_1/Convert_to_float/Cast_019231_const" type="Const" version="opset1">
			<data element_type="u8" offset="59290" shape="64,1,3,3" size="576"/>
			<output>
				<port id="1" precision="U8">
					<dim>64</dim>
					<dim>1</dim>
					<dim>3</dim>
					<dim>3</dim>
				</port>
			</output>
		</layer>
		<layer id="371" name="626/fq_weights_1/Convert_to_float" type="Convert" version="opset1">
			<data destination_type="f16"/>
			<input>
				<port id="0">
					<dim>64</dim>
					<dim>1</dim>
					<dim>3</dim>
					<dim>3</dim>
				</port>
			</input>
			<output>
				<port id="1" precision="FP16">
					<dim>64</dim>
					<dim>1</dim>
					<dim>3</dim>
					<dim>3</dim>
				</port>
			</output>
		</layer>
		<layer id="372" name="626/fq_weights_1/Copy/out_low15915_const" type="Const" version="opset1">
			<data element_type="f16" offset="58776" shape="1" size="2"/>
			<output>
				<port id="1" precision="FP16">
					<dim>1</dim>
				</port>
			</output>
		</layer>
		<layer id="373" name="626/fq_weights_1/Copy/out_high15916_const" type="Const" version="opset1">
			<data element_type="f16" offset="9426" shape="1" size="2"/>
			<output>
				<port id="1" precision="FP16">
					<dim>1</dim>
				</port>
			</output>
		</layer>
		<layer id="374" name="40054009_const" type="Const" version="opset1">
			<data element_type="f16" offset="59866" shape="64,1,1,1" size="128"/>
			<output>
				<port id="1" precision="FP16">
					<dim>64</dim>
					<dim>1</dim>
					<dim>1</dim>
					<dim>1</dim>
				</port>
			</output>
		</layer>
		<layer id="375" name="40064010_const" type="Const" version="opset1">
			<data element_type="f16" offset="59994" shape="64,1,1,1" size="128"/>
			<output>
				<port id="1" precision="FP16">
					<dim>64</dim>
					<dim>1</dim>
					<dim>1</dim>
					<dim>1</dim>
				</port>
			</output>
		</layer>
		<layer id="376" name="626/fq_weights_1" type="FakeQuantize" version="opset1">
			<data levels="255"/>
			<input>
				<port id="0">
					<dim>64</dim>
					<dim>1</dim>
					<dim>3</dim>
					<dim>3</dim>
				</port>
				<port id="1">
					<dim>1</dim>
				</port>
				<port id="2">
					<dim>1</dim>
				</port>
				<port id="3">
					<dim>64</dim>
					<dim>1</dim>
					<dim>1</dim>
					<dim>1</dim>
				</port>
				<port id="4">
					<dim>64</dim>
					<dim>1</dim>
					<dim>1</dim>
					<dim>1</dim>
				</port>
			</input>
			<output>
				<port id="5" precision="FP16">
					<dim>64</dim>
					<dim>1</dim>
					<dim>3</dim>
					<dim>3</dim>
				</port>
			</output>
		</layer>
		<layer id="377" name="21262/value21264_const" type="Const" version="opset1">
			<data element_type="i64" offset="19872" shape="5" size="40"/>
			<output>
				<port id="1" precision="I64">
					<dim>5</dim>
				</port>
			</output>
		</layer>
		<layer id="378" name="21262" type="Reshape" version="opset1">
			<data special_zero="True"/>
			<input>
				<port id="0">
					<dim>64</dim>
					<dim>1</dim>
					<dim>3</dim>
					<dim>3</dim>
				</port>
				<port id="1">
					<dim>5</dim>
				</port>
			</input>
			<output>
				<port id="2" precision="FP16">
					<dim>64</dim>
					<dim>1</dim>
					<dim>1</dim>
					<dim>3</dim>
					<dim>3</dim>
				</port>
			</output>
		</layer>
		<layer id="379" name="626" type="GroupConvolution" version="opset1">
			<data dilations="1,1" output_padding="0,0" pads_begin="1,1" pads_end="1,1" strides="1,1"/>
			<input>
				<port id="0">
					<dim>1</dim>
					<dim>64</dim>
					<dim>64</dim>
					<dim>32</dim>
				</port>
				<port id="1">
					<dim>64</dim>
					<dim>1</dim>
					<dim>1</dim>
					<dim>3</dim>
					<dim>3</dim>
				</port>
			</input>
			<output>
				<port id="2" precision="FP16">
					<dim>1</dim>
					<dim>64</dim>
					<dim>64</dim>
					<dim>32</dim>
				</port>
			</output>
		</layer>
		<layer id="380" name="data_add_2060020605/copy_const1035_const" type="Const" version="opset1">
			<data element_type="f16" offset="60122" shape="1,64,1,1" size="128"/>
			<output>
				<port id="1" precision="FP16">
					<dim>1</dim>
					<dim>64</dim>
					<dim>1</dim>
					<dim>1</dim>
				</port>
			</output>
		</layer>
		<layer id="381" name="627/variance/Fused_Add_" type="Add" version="opset1">
			<input>
				<port id="0">
					<dim>1</dim>
					<dim>64</dim>
					<dim>64</dim>
					<dim>32</dim>
				</port>
				<port id="1">
					<dim>1</dim>
					<dim>64</dim>
					<dim>1</dim>
					<dim>1</dim>
				</port>
			</input>
			<output>
				<port id="2" precision="FP16">
					<dim>1</dim>
					<dim>64</dim>
					<dim>64</dim>
					<dim>32</dim>
				</port>
			</output>
		</layer>
		<layer id="382" name="628" type="ReLU" version="opset1">
			<input>
				<port id="0">
					<dim>1</dim>
					<dim>64</dim>
					<dim>64</dim>
					<dim>32</dim>
				</port>
			</input>
			<output>
				<port id="1" precision="FP16">
					<dim>1</dim>
					<dim>64</dim>
					<dim>64</dim>
					<dim>32</dim>
				</port>
			</output>
		</layer>
		<layer id="383" name="75237527_const" type="Const" version="opset1">
			<data element_type="f16" offset="60250" shape="" size="2"/>
			<output>
				<port id="1" precision="FP16"/>
			</output>
		</layer>
		<layer id="384" name="75247528_const" type="Const" version="opset1">
			<data element_type="f16" offset="60252" shape="" size="2"/>
			<output>
				<port id="1" precision="FP16"/>
			</output>
		</layer>
		<layer id="385" name="75257529_const" type="Const" version="opset1">
			<data element_type="f16" offset="60250" shape="" size="2"/>
			<output>
				<port id="1" precision="FP16"/>
			</output>
		</layer>
		<layer id="386" name="75267530_const" type="Const" version="opset1">
			<data element_type="f16" offset="60252" shape="" size="2"/>
			<output>
				<port id="1" precision="FP16"/>
			</output>
		</layer>
		<layer id="387" name="629/fq_input_0" type="FakeQuantize" version="opset1">
			<data levels="256"/>
			<input>
				<port id="0">
					<dim>1</dim>
					<dim>64</dim>
					<dim>64</dim>
					<dim>32</dim>
				</port>
				<port id="1"/>
				<port id="2"/>
				<port id="3"/>
				<port id="4"/>
			</input>
			<output>
				<port id="5" precision="FP16">
					<dim>1</dim>
					<dim>64</dim>
					<dim>64</dim>
					<dim>32</dim>
				</port>
			</output>
		</layer>
		<layer id="388" name="629/fq_weights_1/Convert_to_float/Cast_019115_const" type="Const" version="opset1">
			<data element_type="u8" offset="60254" shape="64,64,1,1" size="4096"/>
			<output>
				<port id="1" precision="U8">
					<dim>64</dim>
					<dim>64</dim>
					<dim>1</dim>
					<dim>1</dim>
				</port>
			</output>
		</layer>
		<layer id="389" name="629/fq_weights_1/Convert_to_float" type="Convert" version="opset1">
			<data destination_type="f16"/>
			<input>
				<port id="0">
					<dim>64</dim>
					<dim>64</dim>
					<dim>1</dim>
					<dim>1</dim>
				</port>
			</input>
			<output>
				<port id="1" precision="FP16">
					<dim>64</dim>
					<dim>64</dim>
					<dim>1</dim>
					<dim>1</dim>
				</port>
			</output>
		</layer>
		<layer id="390" name="629/fq_weights_1/Copy/out_low16843_const" type="Const" version="opset1">
			<data element_type="f16" offset="64350" shape="1" size="2"/>
			<output>
				<port id="1" precision="FP16">
					<dim>1</dim>
				</port>
			</output>
		</layer>
		<layer id="391" name="629/fq_weights_1/Copy/out_high16844_const" type="Const" version="opset1">
			<data element_type="f16" offset="9426" shape="1" size="2"/>
			<output>
				<port id="1" precision="FP16">
					<dim>1</dim>
				</port>
			</output>
		</layer>
		<layer id="392" name="75357539_const" type="Const" version="opset1">
			<data element_type="f16" offset="64352" shape="64,1,1,1" size="128"/>
			<output>
				<port id="1" precision="FP16">
					<dim>64</dim>
					<dim>1</dim>
					<dim>1</dim>
					<dim>1</dim>
				</port>
			</output>
		</layer>
		<layer id="393" name="75367540_const" type="Const" version="opset1">
			<data element_type="f16" offset="64480" shape="64,1,1,1" size="128"/>
			<output>
				<port id="1" precision="FP16">
					<dim>64</dim>
					<dim>1</dim>
					<dim>1</dim>
					<dim>1</dim>
				</port>
			</output>
		</layer>
		<layer id="394" name="629/fq_weights_1" type="FakeQuantize" version="opset1">
			<data levels="255"/>
			<input>
				<port id="0">
					<dim>64</dim>
					<dim>64</dim>
					<dim>1</dim>
					<dim>1</dim>
				</port>
				<port id="1">
					<dim>1</dim>
				</port>
				<port id="2">
					<dim>1</dim>
				</port>
				<port id="3">
					<dim>64</dim>
					<dim>1</dim>
					<dim>1</dim>
					<dim>1</dim>
				</port>
				<port id="4">
					<dim>64</dim>
					<dim>1</dim>
					<dim>1</dim>
					<dim>1</dim>
				</port>
			</input>
			<output>
				<port id="5" precision="FP16">
					<dim>64</dim>
					<dim>64</dim>
					<dim>1</dim>
					<dim>1</dim>
				</port>
			</output>
		</layer>
		<layer id="395" name="629" type="Convolution" version="opset1">
			<data dilations="1,1" output_padding="0,0" pads_begin="0,0" pads_end="0,0" strides="1,1"/>
			<input>
				<port id="0">
					<dim>1</dim>
					<dim>64</dim>
					<dim>64</dim>
					<dim>32</dim>
				</port>
				<port id="1">
					<dim>64</dim>
					<dim>64</dim>
					<dim>1</dim>
					<dim>1</dim>
				</port>
			</input>
			<output>
				<port id="2" precision="FP16">
					<dim>1</dim>
					<dim>64</dim>
					<dim>64</dim>
					<dim>32</dim>
				</port>
			</output>
		</layer>
		<layer id="396" name="22482250_const" type="Const" version="opset1">
			<data element_type="f16" offset="18656" shape="1,64,1,1" size="128"/>
			<output>
				<port id="1" precision="FP16">
					<dim>1</dim>
					<dim>64</dim>
					<dim>1</dim>
					<dim>1</dim>
				</port>
			</output>
		</layer>
		<layer id="397" name="629/add_" type="Add" version="opset1">
			<input>
				<port id="0">
					<dim>1</dim>
					<dim>64</dim>
					<dim>64</dim>
					<dim>32</dim>
				</port>
				<port id="1">
					<dim>1</dim>
					<dim>64</dim>
					<dim>1</dim>
					<dim>1</dim>
				</port>
			</input>
			<output>
				<port id="2" precision="FP16">
					<dim>1</dim>
					<dim>64</dim>
					<dim>64</dim>
					<dim>32</dim>
				</port>
			</output>
		</layer>
		<layer id="398" name="54635467_const" type="Const" version="opset1">
			<data element_type="f16" offset="64608" shape="1,64,1,1" size="128"/>
			<output>
				<port id="1" precision="FP16">
					<dim>1</dim>
					<dim>64</dim>
					<dim>1</dim>
					<dim>1</dim>
				</port>
			</output>
		</layer>
		<layer id="399" name="54645468_const" type="Const" version="opset1">
			<data element_type="f16" offset="64736" shape="1,64,1,1" size="128"/>
			<output>
				<port id="1" precision="FP16">
					<dim>1</dim>
					<dim>64</dim>
					<dim>1</dim>
					<dim>1</dim>
				</port>
			</output>
		</layer>
		<layer id="400" name="54655469_const" type="Const" version="opset1">
			<data element_type="f16" offset="64608" shape="1,64,1,1" size="128"/>
			<output>
				<port id="1" precision="FP16">
					<dim>1</dim>
					<dim>64</dim>
					<dim>1</dim>
					<dim>1</dim>
				</port>
			</output>
		</layer>
		<layer id="401" name="54665470_const" type="Const" version="opset1">
			<data element_type="f16" offset="64736" shape="1,64,1,1" size="128"/>
			<output>
				<port id="1" precision="FP16">
					<dim>1</dim>
					<dim>64</dim>
					<dim>1</dim>
					<dim>1</dim>
				</port>
			</output>
		</layer>
		<layer id="402" name="630/fq_input_0" type="FakeQuantize" version="opset1">
			<data levels="256"/>
			<input>
				<port id="0">
					<dim>1</dim>
					<dim>64</dim>
					<dim>64</dim>
					<dim>32</dim>
				</port>
				<port id="1">
					<dim>1</dim>
					<dim>64</dim>
					<dim>1</dim>
					<dim>1</dim>
				</port>
				<port id="2">
					<dim>1</dim>
					<dim>64</dim>
					<dim>1</dim>
					<dim>1</dim>
				</port>
				<port id="3">
					<dim>1</dim>
					<dim>64</dim>
					<dim>1</dim>
					<dim>1</dim>
				</port>
				<port id="4">
					<dim>1</dim>
					<dim>64</dim>
					<dim>1</dim>
					<dim>1</dim>
				</port>
			</input>
			<output>
				<port id="5" precision="FP16">
					<dim>1</dim>
					<dim>64</dim>
					<dim>64</dim>
					<dim>32</dim>
				</port>
			</output>
		</layer>
		<layer id="403" name="630/fq_weights_1/Convert_to_float/Cast_019013_const" type="Const" version="opset1">
			<data element_type="u8" offset="64864" shape="64,1,3,3" size="576"/>
			<output>
				<port id="1" precision="U8">
					<dim>64</dim>
					<dim>1</dim>
					<dim>3</dim>
					<dim>3</dim>
				</port>
			</output>
		</layer>
		<layer id="404" name="630/fq_weights_1/Convert_to_float" type="Convert" version="opset1">
			<data destination_type="f16"/>
			<input>
				<port id="0">
					<dim>64</dim>
					<dim>1</dim>
					<dim>3</dim>
					<dim>3</dim>
				</port>
			</input>
			<output>
				<port id="1" precision="FP16">
					<dim>64</dim>
					<dim>1</dim>
					<dim>3</dim>
					<dim>3</dim>
				</port>
			</output>
		</layer>
		<layer id="405" name="630/fq_weights_1/Copy/out_low16595_const" type="Const" version="opset1">
			<data element_type="f16" offset="64350" shape="1" size="2"/>
			<output>
				<port id="1" precision="FP16">
					<dim>1</dim>
				</port>
			</output>
		</layer>
		<layer id="406" name="630/fq_weights_1/Copy/out_high16596_const" type="Const" version="opset1">
			<data element_type="f16" offset="9426" shape="1" size="2"/>
			<output>
				<port id="1" precision="FP16">
					<dim>1</dim>
				</port>
			</output>
		</layer>
		<layer id="407" name="54755479_const" type="Const" version="opset1">
			<data element_type="f16" offset="65440" shape="64,1,1,1" size="128"/>
			<output>
				<port id="1" precision="FP16">
					<dim>64</dim>
					<dim>1</dim>
					<dim>1</dim>
					<dim>1</dim>
				</port>
			</output>
		</layer>
		<layer id="408" name="54765480_const" type="Const" version="opset1">
			<data element_type="f16" offset="65568" shape="64,1,1,1" size="128"/>
			<output>
				<port id="1" precision="FP16">
					<dim>64</dim>
					<dim>1</dim>
					<dim>1</dim>
					<dim>1</dim>
				</port>
			</output>
		</layer>
		<layer id="409" name="630/fq_weights_1" type="FakeQuantize" version="opset1">
			<data levels="255"/>
			<input>
				<port id="0">
					<dim>64</dim>
					<dim>1</dim>
					<dim>3</dim>
					<dim>3</dim>
				</port>
				<port id="1">
					<dim>1</dim>
				</port>
				<port id="2">
					<dim>1</dim>
				</port>
				<port id="3">
					<dim>64</dim>
					<dim>1</dim>
					<dim>1</dim>
					<dim>1</dim>
				</port>
				<port id="4">
					<dim>64</dim>
					<dim>1</dim>
					<dim>1</dim>
					<dim>1</dim>
				</port>
			</input>
			<output>
				<port id="5" precision="FP16">
					<dim>64</dim>
					<dim>1</dim>
					<dim>3</dim>
					<dim>3</dim>
				</port>
			</output>
		</layer>
		<layer id="410" name="21286/value21288_const" type="Const" version="opset1">
			<data element_type="i64" offset="19872" shape="5" size="40"/>
			<output>
				<port id="1" precision="I64">
					<dim>5</dim>
				</port>
			</output>
		</layer>
		<layer id="411" name="21286" type="Reshape" version="opset1">
			<data special_zero="True"/>
			<input>
				<port id="0">
					<dim>64</dim>
					<dim>1</dim>
					<dim>3</dim>
					<dim>3</dim>
				</port>
				<port id="1">
					<dim>5</dim>
				</port>
			</input>
			<output>
				<port id="2" precision="FP16">
					<dim>64</dim>
					<dim>1</dim>
					<dim>1</dim>
					<dim>3</dim>
					<dim>3</dim>
				</port>
			</output>
		</layer>
		<layer id="412" name="630" type="GroupConvolution" version="opset1">
			<data dilations="1,1" output_padding="0,0" pads_begin="1,1" pads_end="1,1" strides="1,1"/>
			<input>
				<port id="0">
					<dim>1</dim>
					<dim>64</dim>
					<dim>64</dim>
					<dim>32</dim>
				</port>
				<port id="1">
					<dim>64</dim>
					<dim>1</dim>
					<dim>1</dim>
					<dim>3</dim>
					<dim>3</dim>
				</port>
			</input>
			<output>
				<port id="2" precision="FP16">
					<dim>1</dim>
					<dim>64</dim>
					<dim>64</dim>
					<dim>32</dim>
				</port>
			</output>
		</layer>
		<layer id="413" name="data_add_2060820613/copy_const1042_const" type="Const" version="opset1">
			<data element_type="f16" offset="65696" shape="1,64,1,1" size="128"/>
			<output>
				<port id="1" precision="FP16">
					<dim>1</dim>
					<dim>64</dim>
					<dim>1</dim>
					<dim>1</dim>
				</port>
			</output>
		</layer>
		<layer id="414" name="631/variance/Fused_Add_" type="Add" version="opset1">
			<input>
				<port id="0">
					<dim>1</dim>
					<dim>64</dim>
					<dim>64</dim>
					<dim>32</dim>
				</port>
				<port id="1">
					<dim>1</dim>
					<dim>64</dim>
					<dim>1</dim>
					<dim>1</dim>
				</port>
			</input>
			<output>
				<port id="2" precision="FP16">
					<dim>1</dim>
					<dim>64</dim>
					<dim>64</dim>
					<dim>32</dim>
				</port>
			</output>
		</layer>
		<layer id="415" name="632" type="ReLU" version="opset1">
			<input>
				<port id="0">
					<dim>1</dim>
					<dim>64</dim>
					<dim>64</dim>
					<dim>32</dim>
				</port>
			</input>
			<output>
				<port id="1" precision="FP16">
					<dim>1</dim>
					<dim>64</dim>
					<dim>64</dim>
					<dim>32</dim>
				</port>
			</output>
		</layer>
		<layer id="416" name="70937097_const" type="Const" version="opset1">
			<data element_type="f16" offset="65824" shape="" size="2"/>
			<output>
				<port id="1" precision="FP16"/>
			</output>
		</layer>
		<layer id="417" name="70947098_const" type="Const" version="opset1">
			<data element_type="f16" offset="65826" shape="" size="2"/>
			<output>
				<port id="1" precision="FP16"/>
			</output>
		</layer>
		<layer id="418" name="70957099_const" type="Const" version="opset1">
			<data element_type="f16" offset="65824" shape="" size="2"/>
			<output>
				<port id="1" precision="FP16"/>
			</output>
		</layer>
		<layer id="419" name="70967100_const" type="Const" version="opset1">
			<data element_type="f16" offset="65826" shape="" size="2"/>
			<output>
				<port id="1" precision="FP16"/>
			</output>
		</layer>
		<layer id="420" name="633/fq_input_0" type="FakeQuantize" version="opset1">
			<data levels="256"/>
			<input>
				<port id="0">
…
		<edge from-layer="2568" from-port="1" to-layer="2569" to-port="4"/>
		<edge from-layer="2569" from-port="5" to-layer="2571" to-port="0"/>
		<edge from-layer="2570" from-port="1" to-layer="2571" to-port="1"/>
		<edge from-layer="2571" from-port="2" to-layer="2573" to-port="0"/>
		<edge from-layer="2572" from-port="1" to-layer="2573" to-port="1"/>
		<edge from-layer="2573" from-port="2" to-layer="2575" to-port="0"/>
		<edge from-layer="2574" from-port="1" to-layer="2575" to-port="1"/>
		<edge from-layer="2575" from-port="2" to-layer="2576" to-port="0"/>
		<edge from-layer="2576" from-port="1" to-layer="2578" to-port="0"/>
		<edge from-layer="2577" from-port="1" to-layer="2578" to-port="1"/>
		<edge from-layer="2578" from-port="2" to-layer="2580" to-port="0"/>
		<edge from-layer="2579" from-port="1" to-layer="2580" to-port="1"/>
		<edge from-layer="2580" from-port="2" to-layer="2581" to-port="0"/>
		<edge from-layer="2581" from-port="1" to-layer="2586" to-port="0"/>
		<edge from-layer="2582" from-port="1" to-layer="2586" to-port="1"/>
		<edge from-layer="2583" from-port="1" to-layer="2586" to-port="2"/>
		<edge from-layer="2584" from-port="1" to-layer="2586" to-port="3"/>
		<edge from-layer="2585" from-port="1" to-layer="2586" to-port="4"/>
		<edge from-layer="2569" from-port="5" to-layer="2587" to-port="0"/>
		<edge from-layer="2586" from-port="5" to-layer="2587" to-port="1"/>
		<edge from-layer="2587" from-port="2" to-layer="2592" to-port="0"/>
		<edge from-layer="2588" from-port="1" to-layer="2592" to-port="1"/>
		<edge from-layer="2589" from-port="1" to-layer="2592" to-port="2"/>
		<edge from-layer="2590" from-port="1" to-layer="2592" to-port="3"/>
		<edge from-layer="2591" from-port="1" to-layer="2592" to-port="4"/>
		<edge from-layer="2593" from-port="1" to-layer="2594" to-port="0"/>
		<edge from-layer="2594" from-port="1" to-layer="2599" to-port="0"/>
		<edge from-layer="2595" from-port="1" to-layer="2599" to-port="1"/>
		<edge from-layer="2596" from-port="1" to-layer="2599" to-port="2"/>
		<edge from-layer="2597" from-port="1" to-layer="2599" to-port="3"/>
		<edge from-layer="2598" from-port="1" to-layer="2599" to-port="4"/>
		<edge from-layer="2536" from-port="5" to-layer="2600" to-port="0"/>
		<edge from-layer="2599" from-port="5" to-layer="2600" to-port="1"/>
		<edge from-layer="2600" from-port="2" to-layer="2602" to-port="0"/>
		<edge from-layer="2601" from-port="1" to-layer="2602" to-port="1"/>
		<edge from-layer="2602" from-port="2" to-layer="2607" to-port="0"/>
		<edge from-layer="2603" from-port="1" to-layer="2607" to-port="1"/>
		<edge from-layer="2604" from-port="1" to-layer="2607" to-port="2"/>
		<edge from-layer="2605" from-port="1" to-layer="2607" to-port="3"/>
		<edge from-layer="2606" from-port="1" to-layer="2607" to-port="4"/>
		<edge from-layer="2608" from-port="1" to-layer="2609" to-port="0"/>
		<edge from-layer="2609" from-port="1" to-layer="2614" to-port="0"/>
		<edge from-layer="2610" from-port="1" to-layer="2614" to-port="1"/>
		<edge from-layer="2611" from-port="1" to-layer="2614" to-port="2"/>
		<edge from-layer="2612" from-port="1" to-layer="2614" to-port="3"/>
		<edge from-layer="2613" from-port="1" to-layer="2614" to-port="4"/>
		<edge from-layer="2614" from-port="5" to-layer="2616" to-port="0"/>
		<edge from-layer="2615" from-port="1" to-layer="2616" to-port="1"/>
		<edge from-layer="2607" from-port="5" to-layer="2617" to-port="0"/>
		<edge from-layer="2616" from-port="2" to-layer="2617" to-port="1"/>
		<edge from-layer="2617" from-port="2" to-layer="2619" to-port="0"/>
		<edge from-layer="2618" from-port="1" to-layer="2619" to-port="1"/>
		<edge from-layer="2619" from-port="2" to-layer="2620" to-port="0"/>
		<edge from-layer="2620" from-port="1" to-layer="2625" to-port="0"/>
		<edge from-layer="2621" from-port="1" to-layer="2625" to-port="1"/>
		<edge from-layer="2622" from-port="1" to-layer="2625" to-port="2"/>
		<edge from-layer="2623" from-port="1" to-layer="2625" to-port="3"/>
		<edge from-layer="2624" from-port="1" to-layer="2625" to-port="4"/>
		<edge from-layer="2626" from-port="1" to-layer="2627" to-port="0"/>
		<edge from-layer="2627" from-port="1" to-layer="2632" to-port="0"/>
		<edge from-layer="2628" from-port="1" to-layer="2632" to-port="1"/>
		<edge from-layer="2629" from-port="1" to-layer="2632" to-port="2"/>
		<edge from-layer="2630" from-port="1" to-layer="2632" to-port="3"/>
		<edge from-layer="2631" from-port="1" to-layer="2632" to-port="4"/>
		<edge from-layer="2625" from-port="5" to-layer="2633" to-port="0"/>
		<edge from-layer="2632" from-port="5" to-layer="2633" to-port="1"/>
		<edge from-layer="2633" from-port="2" to-layer="2635" to-port="0"/>
		<edge from-layer="2634" from-port="1" to-layer="2635" to-port="1"/>
		<edge from-layer="2635" from-port="2" to-layer="2640" to-port="0"/>
		<edge from-layer="2636" from-port="1" to-layer="2640" to-port="1"/>
		<edge from-layer="2637" from-port="1" to-layer="2640" to-port="2"/>
		<edge from-layer="2638" from-port="1" to-layer="2640" to-port="3"/>
		<edge from-layer="2639" from-port="1" to-layer="2640" to-port="4"/>
		<edge from-layer="2641" from-port="1" to-layer="2642" to-port="0"/>
		<edge from-layer="2642" from-port="1" to-layer="2647" to-port="0"/>
		<edge from-layer="2643" from-port="1" to-layer="2647" to-port="1"/>
		<edge from-layer="2644" from-port="1" to-layer="2647" to-port="2"/>
		<edge from-layer="2645" from-port="1" to-layer="2647" to-port="3"/>
		<edge from-layer="2646" from-port="1" to-layer="2647" to-port="4"/>
		<edge from-layer="2647" from-port="5" to-layer="2649" to-port="0"/>
		<edge from-layer="2648" from-port="1" to-layer="2649" to-port="1"/>
		<edge from-layer="2640" from-port="5" to-layer="2650" to-port="0"/>
		<edge from-layer="2649" from-port="2" to-layer="2650" to-port="1"/>
		<edge from-layer="2650" from-port="2" to-layer="2652" to-port="0"/>
		<edge from-layer="2651" from-port="1" to-layer="2652" to-port="1"/>
		<edge from-layer="2652" from-port="2" to-layer="2653" to-port="0"/>
		<edge from-layer="2653" from-port="1" to-layer="2658" to-port="0"/>
		<edge from-layer="2654" from-port="1" to-layer="2658" to-port="1"/>
		<edge from-layer="2655" from-port="1" to-layer="2658" to-port="2"/>
		<edge from-layer="2656" from-port="1" to-layer="2658" to-port="3"/>
		<edge from-layer="2657" from-port="1" to-layer="2658" to-port="4"/>
		<edge from-layer="2658" from-port="5" to-layer="2660" to-port="0"/>
		<edge from-layer="2659" from-port="1" to-layer="2660" to-port="1"/>
		<edge from-layer="2660" from-port="2" to-layer="2662" to-port="0"/>
		<edge from-layer="2661" from-port="1" to-layer="2662" to-port="1"/>
		<edge from-layer="2662" from-port="2" to-layer="2664" to-port="0"/>
		<edge from-layer="2663" from-port="1" to-layer="2664" to-port="1"/>
		<edge from-layer="2664" from-port="2" to-layer="2665" to-port="0"/>
		<edge from-layer="2665" from-port="1" to-layer="2667" to-port="0"/>
		<edge from-layer="2666" from-port="1" to-layer="2667" to-port="1"/>
		<edge from-layer="2667" from-port="2" to-layer="2669" to-port="0"/>
		<edge from-layer="2668" from-port="1" to-layer="2669" to-port="1"/>
		<edge from-layer="2669" from-port="2" to-layer="2670" to-port="0"/>
		<edge from-layer="2670" from-port="1" to-layer="2675" to-port="0"/>
		<edge from-layer="2671" from-port="1" to-layer="2675" to-port="1"/>
		<edge from-layer="2672" from-port="1" to-layer="2675" to-port="2"/>
		<edge from-layer="2673" from-port="1" to-layer="2675" to-port="3"/>
		<edge from-layer="2674" from-port="1" to-layer="2675" to-port="4"/>
		<edge from-layer="2658" from-port="5" to-layer="2676" to-port="0"/>
		<edge from-layer="2675" from-port="5" to-layer="2676" to-port="1"/>
		<edge from-layer="2676" from-port="2" to-layer="2681" to-port="0"/>
		<edge from-layer="2677" from-port="1" to-layer="2681" to-port="1"/>
		<edge from-layer="2678" from-port="1" to-layer="2681" to-port="2"/>
		<edge from-layer="2679" from-port="1" to-layer="2681" to-port="3"/>
		<edge from-layer="2680" from-port="1" to-layer="2681" to-port="4"/>
		<edge from-layer="2592" from-port="5" to-layer="2682" to-port="0"/>
		<edge from-layer="2681" from-port="5" to-layer="2682" to-port="1"/>
		<edge from-layer="2682" from-port="2" to-layer="2687" to-port="0"/>
		<edge from-layer="2683" from-port="1" to-layer="2687" to-port="1"/>
		<edge from-layer="2684" from-port="1" to-layer="2687" to-port="2"/>
		<edge from-layer="2685" from-port="1" to-layer="2687" to-port="3"/>
		<edge from-layer="2686" from-port="1" to-layer="2687" to-port="4"/>
		<edge from-layer="2688" from-port="1" to-layer="2689" to-port="0"/>
		<edge from-layer="2689" from-port="1" to-layer="2694" to-port="0"/>
		<edge from-layer="2690" from-port="1" to-layer="2694" to-port="1"/>
		<edge from-layer="2691" from-port="1" to-layer="2694" to-port="2"/>
		<edge from-layer="2692" from-port="1" to-layer="2694" to-port="3"/>
		<edge from-layer="2693" from-port="1" to-layer="2694" to-port="4"/>
		<edge from-layer="2536" from-port="5" to-layer="2695" to-port="0"/>
		<edge from-layer="2694" from-port="5" to-layer="2695" to-port="1"/>
		<edge from-layer="2695" from-port="2" to-layer="2697" to-port="0"/>
		<edge from-layer="2696" from-port="1" to-layer="2697" to-port="1"/>
		<edge from-layer="2697" from-port="2" to-layer="2702" to-port="0"/>
		<edge from-layer="2698" from-port="1" to-layer="2702" to-port="1"/>
		<edge from-layer="2699" from-port="1" to-layer="2702" to-port="2"/>
		<edge from-layer="2700" from-port="1" to-layer="2702" to-port="3"/>
		<edge from-layer="2701" from-port="1" to-layer="2702" to-port="4"/>
		<edge from-layer="2703" from-port="1" to-layer="2704" to-port="0"/>
		<edge from-layer="2704" from-port="1" to-layer="2709" to-port="0"/>
		<edge from-layer="2705" from-port="1" to-layer="2709" to-port="1"/>
		<edge from-layer="2706" from-port="1" to-layer="2709" to-port="2"/>
		<edge from-layer="2707" from-port="1" to-layer="2709" to-port="3"/>
		<edge from-layer="2708" from-port="1" to-layer="2709" to-port="4"/>
		<edge from-layer="2709" from-port="5" to-layer="2711" to-port="0"/>
		<edge from-layer="2710" from-port="1" to-layer="2711" to-port="1"/>
		<edge from-layer="2702" from-port="5" to-layer="2712" to-port="0"/>
		<edge from-layer="2711" from-port="2" to-layer="2712" to-port="1"/>
		<edge from-layer="2712" from-port="2" to-layer="2714" to-port="0"/>
		<edge from-layer="2713" from-port="1" to-layer="2714" to-port="1"/>
		<edge from-layer="2714" from-port="2" to-layer="2715" to-port="0"/>
		<edge from-layer="2715" from-port="1" to-layer="2720" to-port="0"/>
		<edge from-layer="2716" from-port="1" to-layer="2720" to-port="1"/>
		<edge from-layer="2717" from-port="1" to-layer="2720" to-port="2"/>
		<edge from-layer="2718" from-port="1" to-layer="2720" to-port="3"/>
		<edge from-layer="2719" from-port="1" to-layer="2720" to-port="4"/>
		<edge from-layer="2721" from-port="1" to-layer="2722" to-port="0"/>
		<edge from-layer="2722" from-port="1" to-layer="2727" to-port="0"/>
		<edge from-layer="2723" from-port="1" to-layer="2727" to-port="1"/>
		<edge from-layer="2724" from-port="1" to-layer="2727" to-port="2"/>
		<edge from-layer="2725" from-port="1" to-layer="2727" to-port="3"/>
		<edge from-layer="2726" from-port="1" to-layer="2727" to-port="4"/>
		<edge from-layer="2720" from-port="5" to-layer="2728" to-port="0"/>
		<edge from-layer="2727" from-port="5" to-layer="2728" to-port="1"/>
		<edge from-layer="2728" from-port="2" to-layer="2730" to-port="0"/>
		<edge from-layer="2729" from-port="1" to-layer="2730" to-port="1"/>
		<edge from-layer="2730" from-port="2" to-layer="2735" to-port="0"/>
		<edge from-layer="2731" from-port="1" to-layer="2735" to-port="1"/>
		<edge from-layer="2732" from-port="1" to-layer="2735" to-port="2"/>
		<edge from-layer="2733" from-port="1" to-layer="2735" to-port="3"/>
		<edge from-layer="2734" from-port="1" to-layer="2735" to-port="4"/>
		<edge from-layer="2736" from-port="1" to-layer="2737" to-port="0"/>
		<edge from-layer="2737" from-port="1" to-layer="2742" to-port="0"/>
		<edge from-layer="2738" from-port="1" to-layer="2742" to-port="1"/>
		<edge from-layer="2739" from-port="1" to-layer="2742" to-port="2"/>
		<edge from-layer="2740" from-port="1" to-layer="2742" to-port="3"/>
		<edge from-layer="2741" from-port="1" to-layer="2742" to-port="4"/>
		<edge from-layer="2742" from-port="5" to-layer="2744" to-port="0"/>
		<edge from-layer="2743" from-port="1" to-layer="2744" to-port="1"/>
		<edge from-layer="2735" from-port="5" to-layer="2745" to-port="0"/>
		<edge from-layer="2744" from-port="2" to-layer="2745" to-port="1"/>
		<edge from-layer="2745" from-port="2" to-layer="2747" to-port="0"/>
		<edge from-layer="2746" from-port="1" to-layer="2747" to-port="1"/>
		<edge from-layer="2747" from-port="2" to-layer="2748" to-port="0"/>
		<edge from-layer="2748" from-port="1" to-layer="2753" to-port="0"/>
		<edge from-layer="2749" from-port="1" to-layer="2753" to-port="1"/>
		<edge from-layer="2750" from-port="1" to-layer="2753" to-port="2"/>
		<edge from-layer="2751" from-port="1" to-layer="2753" to-port="3"/>
		<edge from-layer="2752" from-port="1" to-layer="2753" to-port="4"/>
		<edge from-layer="2754" from-port="1" to-layer="2755" to-port="0"/>
		<edge from-layer="2755" from-port="1" to-layer="2760" to-port="0"/>
		<edge from-layer="2756" from-port="1" to-layer="2760" to-port="1"/>
		<edge from-layer="2757" from-port="1" to-layer="2760" to-port="2"/>
		<edge from-layer="2758" from-port="1" to-layer="2760" to-port="3"/>
		<edge from-layer="2759" from-port="1" to-layer="2760" to-port="4"/>
		<edge from-layer="2753" from-port="5" to-layer="2761" to-port="0"/>
		<edge from-layer="2760" from-port="5" to-layer="2761" to-port="1"/>
		<edge from-layer="2761" from-port="2" to-layer="2763" to-port="0"/>
		<edge from-layer="2762" from-port="1" to-layer="2763" to-port="1"/>
		<edge from-layer="2763" from-port="2" to-layer="2768" to-port="0"/>
		<edge from-layer="2764" from-port="1" to-layer="2768" to-port="1"/>
		<edge from-layer="2765" from-port="1" to-layer="2768" to-port="2"/>
		<edge from-layer="2766" from-port="1" to-layer="2768" to-port="3"/>
		<edge from-layer="2767" from-port="1" to-layer="2768" to-port="4"/>
		<edge from-layer="2769" from-port="1" to-layer="2770" to-port="0"/>
		<edge from-layer="2770" from-port="1" to-layer="2775" to-port="0"/>
		<edge from-layer="2771" from-port="1" to-layer="2775" to-port="1"/>
		<edge from-layer="2772" from-port="1" to-layer="2775" to-port="2"/>
		<edge from-layer="2773" from-port="1" to-layer="2775" to-port="3"/>
		<edge from-layer="2774" from-port="1" to-layer="2775" to-port="4"/>
		<edge from-layer="2775" from-port="5" to-layer="2777" to-port="0"/>
		<edge from-layer="2776" from-port="1" to-layer="2777" to-port="1"/>
		<edge from-layer="2768" from-port="5" to-layer="2778" to-port="0"/>
		<edge from-layer="2777" from-port="2" to-layer="2778" to-port="1"/>
		<edge from-layer="2778" from-port="2" to-layer="2780" to-port="0"/>
		<edge from-layer="2779" from-port="1" to-layer="2780" to-port="1"/>
		<edge from-layer="2780" from-port="2" to-layer="2781" to-port="0"/>
		<edge from-layer="2781" from-port="1" to-layer="2786" to-port="0"/>
		<edge from-layer="2782" from-port="1" to-layer="2786" to-port="1"/>
		<edge from-layer="2783" from-port="1" to-layer="2786" to-port="2"/>
		<edge from-layer="2784" from-port="1" to-layer="2786" to-port="3"/>
		<edge from-layer="2785" from-port="1" to-layer="2786" to-port="4"/>
		<edge from-layer="2786" from-port="5" to-layer="2788" to-port="0"/>
		<edge from-layer="2787" from-port="1" to-layer="2788" to-port="1"/>
		<edge from-layer="2788" from-port="2" to-layer="2790" to-port="0"/>
		<edge from-layer="2789" from-port="1" to-layer="2790" to-port="1"/>
		<edge from-layer="2790" from-port="2" to-layer="2792" to-port="0"/>
		<edge from-layer="2791" from-port="1" to-layer="2792" to-port="1"/>
		<edge from-layer="2792" from-port="2" to-layer="2793" to-port="0"/>
		<edge from-layer="2793" from-port="1" to-layer="2795" to-port="0"/>
		<edge from-layer="2794" from-port="1" to-layer="2795" to-port="1"/>
		<edge from-layer="2795" from-port="2" to-layer="2797" to-port="0"/>
		<edge from-layer="2796" from-port="1" to-layer="2797" to-port="1"/>
		<edge from-layer="2797" from-port="2" to-layer="2798" to-port="0"/>
		<edge from-layer="2798" from-port="1" to-layer="2803" to-port="0"/>
		<edge from-layer="2799" from-port="1" to-layer="2803" to-port="1"/>
		<edge from-layer="2800" from-port="1" to-layer="2803" to-port="2"/>
		<edge from-layer="2801" from-port="1" to-layer="2803" to-port="3"/>
		<edge from-layer="2802" from-port="1" to-layer="2803" to-port="4"/>
		<edge from-layer="2786" from-port="5" to-layer="2804" to-port="0"/>
		<edge from-layer="2803" from-port="5" to-layer="2804" to-port="1"/>
		<edge from-layer="2804" from-port="2" to-layer="2809" to-port="0"/>
		<edge from-layer="2805" from-port="1" to-layer="2809" to-port="1"/>
		<edge from-layer="2806" from-port="1" to-layer="2809" to-port="2"/>
		<edge from-layer="2807" from-port="1" to-layer="2809" to-port="3"/>
		<edge from-layer="2808" from-port="1" to-layer="2809" to-port="4"/>
		<edge from-layer="2687" from-port="5" to-layer="2810" to-port="0"/>
		<edge from-layer="2809" from-port="5" to-layer="2810" to-port="1"/>
		<edge from-layer="2810" from-port="2" to-layer="2815" to-port="0"/>
		<edge from-layer="2811" from-port="1" to-layer="2815" to-port="1"/>
		<edge from-layer="2812" from-port="1" to-layer="2815" to-port="2"/>
		<edge from-layer="2813" from-port="1" to-layer="2815" to-port="3"/>
		<edge from-layer="2814" from-port="1" to-layer="2815" to-port="4"/>
		<edge from-layer="2816" from-port="1" to-layer="2817" to-port="0"/>
		<edge from-layer="2817" from-port="1" to-layer="2822" to-port="0"/>
		<edge from-layer="2818" from-port="1" to-layer="2822" to-port="1"/>
		<edge from-layer="2819" from-port="1" to-layer="2822" to-port="2"/>
		<edge from-layer="2820" from-port="1" to-layer="2822" to-port="3"/>
		<edge from-layer="2821" from-port="1" to-layer="2822" to-port="4"/>
		<edge from-layer="2536" from-port="5" to-layer="2823" to-port="0"/>
		<edge from-layer="2822" from-port="5" to-layer="2823" to-port="1"/>
		<edge from-layer="2823" from-port="2" to-layer="2825" to-port="0"/>
		<edge from-layer="2824" from-port="1" to-layer="2825" to-port="1"/>
		<edge from-layer="2825" from-port="2" to-layer="2830" to-port="0"/>
		<edge from-layer="2826" from-port="1" to-layer="2830" to-port="1"/>
		<edge from-layer="2827" from-port="1" to-layer="2830" to-port="2"/>
		<edge from-layer="2828" from-port="1" to-layer="2830" to-port="3"/>
		<edge from-layer="2829" from-port="1" to-layer="2830" to-port="4"/>
		<edge from-layer="2831" from-port="1" to-layer="2832" to-port="0"/>
		<edge from-layer="2832" from-port="1" to-layer="2837" to-port="0"/>
		<edge from-layer="2833" from-port="1" to-layer="2837" to-port="1"/>
		<edge from-layer="2834" from-port="1" to-layer="2837" to-port="2"/>
		<edge from-layer="2835" from-port="1" to-layer="2837" to-port="3"/>
		<edge from-layer="2836" from-port="1" to-layer="2837" to-port="4"/>
		<edge from-layer="2837" from-port="5" to-layer="2839" to-port="0"/>
		<edge from-layer="2838" from-port="1" to-layer="2839" to-port="1"/>
		<edge from-layer="2830" from-port="5" to-layer="2840" to-port="0"/>
		<edge from-layer="2839" from-port="2" to-layer="2840" to-port="1"/>
		<edge from-layer="2840" from-port="2" to-layer="2842" to-port="0"/>
		<edge from-layer="2841" from-port="1" to-layer="2842" to-port="1"/>
		<edge from-layer="2842" from-port="2" to-layer="2843" to-port="0"/>
		<edge from-layer="2843" from-port="1" to-layer="2848" to-port="0"/>
		<edge from-layer="2844" from-port="1" to-layer="2848" to-port="1"/>
		<edge from-layer="2845" from-port="1" to-layer="2848" to-port="2"/>
		<edge from-layer="2846" from-port="1" to-layer="2848" to-port="3"/>
		<edge from-layer="2847" from-port="1" to-layer="2848" to-port="4"/>
		<edge from-layer="2849" from-port="1" to-layer="2850" to-port="0"/>
		<edge from-layer="2850" from-port="1" to-layer="2855" to-port="0"/>
		<edge from-layer="2851" from-port="1" to-layer="2855" to-port="1"/>
		<edge from-layer="2852" from-port="1" to-layer="2855" to-port="2"/>
		<edge from-layer="2853" from-port="1" to-layer="2855" to-port="3"/>
		<edge from-layer="2854" from-port="1" to-layer="2855" to-port="4"/>
		<edge from-layer="2848" from-port="5" to-layer="2856" to-port="0"/>
		<edge from-layer="2855" from-port="5" to-layer="2856" to-port="1"/>
		<edge from-layer="2856" from-port="2" to-layer="2858" to-port="0"/>
		<edge from-layer="2857" from-port="1" to-layer="2858" to-port="1"/>
		<edge from-layer="2858" from-port="2" to-layer="2863" to-port="0"/>
		<edge from-layer="2859" from-port="1" to-layer="2863" to-port="1"/>
		<edge from-layer="2860" from-port="1" to-layer="2863" to-port="2"/>
		<edge from-layer="2861" from-port="1" to-layer="2863" to-port="3"/>
		<edge from-layer="2862" from-port="1" to-layer="2863" to-port="4"/>
		<edge from-layer="2864" from-port="1" to-layer="2865" to-port="0"/>
		<edge from-layer="2865" from-port="1" to-layer="2870" to-port="0"/>
		<edge from-layer="2866" from-port="1" to-layer="2870" to-port="1"/>
		<edge from-layer="2867" from-port="1" to-layer="2870" to-port="2"/>
		<edge from-layer="2868" from-port="1" to-layer="2870" to-port="3"/>
		<edge from-layer="2869" from-port="1" to-layer="2870" to-port="4"/>
		<edge from-layer="2870" from-port="5" to-layer="2872" to-port="0"/>
		<edge from-layer="2871" from-port="1" to-layer="2872" to-port="1"/>
		<edge from-layer="2863" from-port="5" to-layer="2873" to-port="0"/>
		<edge from-layer="2872" from-port="2" to-layer="2873" to-port="1"/>
		<edge from-layer="2873" from-port="2" to-layer="2875" to-port="0"/>
		<edge from-layer="2874" from-port="1" to-layer="2875" to-port="1"/>
		<edge from-layer="2875" from-port="2" to-layer="2876" to-port="0"/>
		<edge from-layer="2876" from-port="1" to-layer="2881" to-port="0"/>
		<edge from-layer="2877" from-port="1" to-layer="2881" to-port="1"/>
		<edge from-layer="2878" from-port="1" to-layer="2881" to-port="2"/>
		<edge from-layer="2879" from-port="1" to-layer="2881" to-port="3"/>
		<edge from-layer="2880" from-port="1" to-layer="2881" to-port="4"/>
		<edge from-layer="2882" from-port="1" to-layer="2883" to-port="0"/>
		<edge from-layer="2883" from-port="1" to-layer="2888" to-port="0"/>
		<edge from-layer="2884" from-port="1" to-layer="2888" to-port="1"/>
		<edge from-layer="2885" from-port="1" to-layer="2888" to-port="2"/>
		<edge from-layer="2886" from-port="1" to-layer="2888" to-port="3"/>
		<edge from-layer="2887" from-port="1" to-layer="2888" to-port="4"/>
		<edge from-layer="2881" from-port="5" to-layer="2889" to-port="0"/>
		<edge from-layer="2888" from-port="5" to-layer="2889" to-port="1"/>
		<edge from-layer="2889" from-port="2" to-layer="2891" to-port="0"/>
		<edge from-layer="2890" from-port="1" to-layer="2891" to-port="1"/>
		<edge from-layer="2891" from-port="2" to-layer="2896" to-port="0"/>
		<edge from-layer="2892" from-port="1" to-layer="2896" to-port="1"/>
		<edge from-layer="2893" from-port="1" to-layer="2896" to-port="2"/>
		<edge from-layer="2894" from-port="1" to-layer="2896" to-port="3"/>
		<edge from-layer="2895" from-port="1" to-layer="2896" to-port="4"/>
		<edge from-layer="2897" from-port="1" to-layer="2898" to-port="0"/>
		<edge from-layer="2898" from-port="1" to-layer="2903" to-port="0"/>
		<edge from-layer="2899" from-port="1" to-layer="2903" to-port="1"/>
		<edge from-layer="2900" from-port="1" to-layer="2903" to-port="2"/>
		<edge from-layer="2901" from-port="1" to-layer="2903" to-port="3"/>
		<edge from-layer="2902" from-port="1" to-layer="2903" to-port="4"/>
		<edge from-layer="2903" from-port="5" to-layer="2905" to-port="0"/>
		<edge from-layer="2904" from-port="1" to-layer="2905" to-port="1"/>
		<edge from-layer="2896" from-port="5" to-layer="2906" to-port="0"/>
		<edge from-layer="2905" from-port="2" to-layer="2906" to-port="1"/>
		<edge from-layer="2906" from-port="2" to-layer="2908" to-port="0"/>
		<edge from-layer="2907" from-port="1" to-layer="2908" to-port="1"/>
		<edge from-layer="2908" from-port="2" to-layer="2909" to-port="0"/>
		<edge from-layer="2909" from-port="1" to-layer="2914" to-port="0"/>
		<edge from-layer="2910" from-port="1" to-layer="2914" to-port="1"/>
		<edge from-layer="2911" from-port="1" to-layer="2914" to-port="2"/>
		<edge from-layer="2912" from-port="1" to-layer="2914" to-port="3"/>
		<edge from-layer="2913" from-port="1" to-layer="2914" to-port="4"/>
		<edge from-layer="2915" from-port="1" to-layer="2916" to-port="0"/>
		<edge from-layer="2916" from-port="1" to-layer="2921" to-port="0"/>
		<edge from-layer="2917" from-port="1" to-layer="2921" to-port="1"/>
		<edge from-layer="2918" from-port="1" to-layer="2921" to-port="2"/>
		<edge from-layer="2919" from-port="1" to-layer="2921" to-port="3"/>
		<edge from-layer="2920" from-port="1" to-layer="2921" to-port="4"/>
		<edge from-layer="2914" from-port="5" to-layer="2922" to-port="0"/>
		<edge from-layer="2921" from-port="5" to-layer="2922" to-port="1"/>
		<edge from-layer="2922" from-port="2" to-layer="2924" to-port="0"/>
		<edge from-layer="2923" from-port="1" to-layer="2924" to-port="1"/>
		<edge from-layer="2924" from-port="2" to-layer="2929" to-port="0"/>
		<edge from-layer="2925" from-port="1" to-layer="2929" to-port="1"/>
		<edge from-layer="2926" from-port="1" to-layer="2929" to-port="2"/>
		<edge from-layer="2927" from-port="1" to-layer="2929" to-port="3"/>
		<edge from-layer="2928" from-port="1" to-layer="2929" to-port="4"/>
		<edge from-layer="2930" from-port="1" to-layer="2931" to-port="0"/>
		<edge from-layer="2931" from-port="1" to-layer="2936" to-port="0"/>
		<edge from-layer="2932" from-port="1" to-layer="2936" to-port="1"/>
		<edge from-layer="2933" from-port="1" to-layer="2936" to-port="2"/>
		<edge from-layer="2934" from-port="1" to-layer="2936" to-port="3"/>
		<edge from-layer="2935" from-port="1" to-layer="2936" to-port="4"/>
		<edge from-layer="2936" from-port="5" to-layer="2938" to-port="0"/>
		<edge from-layer="2937" from-port="1" to-layer="2938" to-port="1"/>
		<edge from-layer="2929" from-port="5" to-layer="2939" to-port="0"/>
		<edge from-layer="2938" from-port="2" to-layer="2939" to-port="1"/>
		<edge from-layer="2939" from-port="2" to-layer="2941" to-port="0"/>
		<edge from-layer="2940" from-port="1" to-layer="2941" to-port="1"/>
		<edge from-layer="2941" from-port="2" to-layer="2942" to-port="0"/>
		<edge from-layer="2942" from-port="1" to-layer="2947" to-port="0"/>
		<edge from-layer="2943" from-port="1" to-layer="2947" to-port="1"/>
		<edge from-layer="2944" from-port="1" to-layer="2947" to-port="2"/>
		<edge from-layer="2945" from-port="1" to-layer="2947" to-port="3"/>
		<edge from-layer="2946" from-port="1" to-layer="2947" to-port="4"/>
		<edge from-layer="2947" from-port="5" to-layer="2949" to-port="0"/>
		<edge from-layer="2948" from-port="1" to-layer="2949" to-port="1"/>
		<edge from-layer="2949" from-port="2" to-layer="2951" to-port="0"/>
		<edge from-layer="2950" from-port="1" to-layer="2951" to-port="1"/>
		<edge from-layer="2951" from-port="2" to-layer="2953" to-port="0"/>
		<edge from-layer="2952" from-port="1" to-layer="2953" to-port="1"/>
		<edge from-layer="2953" from-port="2" to-layer="2954" to-port="0"/>
		<edge from-layer="2954" from-port="1" to-layer="2956" to-port="0"/>
		<edge from-layer="2955" from-port="1" to-layer="2956" to-port="1"/>
		<edge from-layer="2956" from-port="2" to-layer="2958" to-port="0"/>
		<edge from-layer="2957" from-port="1" to-layer="2958" to-port="1"/>
		<edge from-layer="2958" from-port="2" to-layer="2959" to-port="0"/>
		<edge from-layer="2959" from-port="1" to-layer="2964" to-port="0"/>
		<edge from-layer="2960" from-port="1" to-layer="2964" to-port="1"/>
		<edge from-layer="2961" from-port="1" to-layer="2964" to-port="2"/>
		<edge from-layer="2962" from-port="1" to-layer="2964" to-port="3"/>
		<edge from-layer="2963" from-port="1" to-layer="2964" to-port="4"/>
		<edge from-layer="2947" from-port="5" to-layer="2965" to-port="0"/>
		<edge from-layer="2964" from-port="5" to-layer="2965" to-port="1"/>
		<edge from-layer="2965" from-port="2" to-layer="2970" to-port="0"/>
		<edge from-layer="2966" from-port="1" to-layer="2970" to-port="1"/>
		<edge from-layer="2967" from-port="1" to-layer="2970" to-port="2"/>
		<edge from-layer="2968" from-port="1" to-layer="2970" to-port="3"/>
		<edge from-layer="2969" from-port="1" to-layer="2970" to-port="4"/>
		<edge from-layer="2815" from-port="5" to-layer="2971" to-port="0"/>
		<edge from-layer="2970" from-port="5" to-layer="2971" to-port="1"/>
		<edge from-layer="2971" from-port="2" to-layer="2976" to-port="0"/>
		<edge from-layer="2972" from-port="1" to-layer="2976" to-port="1"/>
		<edge from-layer="2973" from-port="1" to-layer="2976" to-port="2"/>
		<edge from-layer="2974" from-port="1" to-layer="2976" to-port="3"/>
		<edge from-layer="2975" from-port="1" to-layer="2976" to-port="4"/>
		<edge from-layer="2977" from-port="1" to-layer="2978" to-port="0"/>
		<edge from-layer="2978" from-port="1" to-layer="2983" to-port="0"/>
		<edge from-layer="2979" from-port="1" to-layer="2983" to-port="1"/>
		<edge from-layer="2980" from-port="1" to-layer="2983" to-port="2"/>
		<edge from-layer="2981" from-port="1" to-layer="2983" to-port="3"/>
		<edge from-layer="2982" from-port="1" to-layer="2983" to-port="4"/>
		<edge from-layer="2976" from-port="5" to-layer="2984" to-port="0"/>
		<edge from-layer="2983" from-port="5" to-layer="2984" to-port="1"/>
		<edge from-layer="2984" from-port="2" to-layer="2986" to-port="0"/>
		<edge from-layer="2985" from-port="1" to-layer="2986" to-port="1"/>
		<edge from-layer="2986" from-port="2" to-layer="2991" to-port="0"/>
		<edge from-layer="2987" from-port="1" to-layer="2991" to-port="1"/>
		<edge from-layer="2988" from-port="1" to-layer="2991" to-port="2"/>
		<edge from-layer="2989" from-port="1" to-layer="2991" to-port="3"/>
		<edge from-layer="2990" from-port="1" to-layer="2991" to-port="4"/>
		<edge from-layer="2991" from-port="5" to-layer="2992" to-port="0"/>
		<edge from-layer="2520" from-port="5" to-layer="2992" to-port="1"/>
		<edge from-layer="2992" from-port="2" to-layer="2993" to-port="0"/>
		<edge from-layer="2993" from-port="1" to-layer="2998" to-port="0"/>
		<edge from-layer="2994" from-port="1" to-layer="2998" to-port="1"/>
		<edge from-layer="2995" from-port="1" to-layer="2998" to-port="2"/>
		<edge from-layer="2996" from-port="1" to-layer="2998" to-port="3"/>
		<edge from-layer="2997" from-port="1" to-layer="2998" to-port="4"/>
		<edge from-layer="2999" from-port="1" to-layer="3000" to-port="0"/>
		<edge from-layer="3000" from-port="1" to-layer="3005" to-port="0"/>
		<edge from-layer="3001" from-port="1" to-layer="3005" to-port="1"/>
		<edge from-layer="3002" from-port="1" to-layer="3005" to-port="2"/>
		<edge from-layer="3003" from-port="1" to-layer="3005" to-port="3"/>
		<edge from-layer="3004" from-port="1" to-layer="3005" to-port="4"/>
		<edge from-layer="2998" from-port="5" to-layer="3006" to-port="0"/>
		<edge from-layer="3005" from-port="5" to-layer="3006" to-port="1"/>
		<edge from-layer="3006" from-port="2" to-layer="3008" to-port="0"/>
		<edge from-layer="3007" from-port="1" to-layer="3008" to-port="1"/>
		<edge from-layer="3008" from-port="2" to-layer="3009" to-port="0"/>
		<edge from-layer="3009" from-port="1" to-layer="3014" to-port="0"/>
		<edge from-layer="3010" from-port="1" to-layer="3014" to-port="1"/>
		<edge from-layer="3011" from-port="1" to-layer="3014" to-port="2"/>
		<edge from-layer="3012" from-port="1" to-layer="3014" to-port="3"/>
		<edge from-layer="3013" from-port="1" to-layer="3014" to-port="4"/>
		<edge from-layer="3015" from-port="1" to-layer="3016" to-port="0"/>
		<edge from-layer="3016" from-port="1" to-layer="3021" to-port="0"/>
		<edge from-layer="3017" from-port="1" to-layer="3021" to-port="1"/>
		<edge from-layer="3018" from-port="1" to-layer="3021" to-port="2"/>
		<edge from-layer="3019" from-port="1" to-layer="3021" to-port="3"/>
		<edge from-layer="3020" from-port="1" to-layer="3021" to-port="4"/>
		<edge from-layer="3014" from-port="5" to-layer="3022" to-port="0"/>
		<edge from-layer="3021" from-port="5" to-layer="3022" to-port="1"/>
		<edge from-layer="3022" from-port="2" to-layer="3024" to-port="0"/>
		<edge from-layer="3023" from-port="1" to-layer="3024" to-port="1"/>
		<edge from-layer="3024" from-port="2" to-layer="3029" to-port="0"/>
		<edge from-layer="3025" from-port="1" to-layer="3029" to-port="1"/>
		<edge from-layer="3026" from-port="1" to-layer="3029" to-port="2"/>
		<edge from-layer="3027" from-port="1" to-layer="3029" to-port="3"/>
		<edge from-layer="3028" from-port="1" to-layer="3029" to-port="4"/>
		<edge from-layer="2027" from-port="5" to-layer="3030" to-port="0"/>
		<edge from-layer="3029" from-port="5" to-layer="3030" to-port="1"/>
		<edge from-layer="3030" from-port="2" to-layer="3035" to-port="0"/>
		<edge from-layer="3031" from-port="1" to-layer="3035" to-port="1"/>
		<edge from-layer="3032" from-port="1" to-layer="3035" to-port="2"/>
		<edge from-layer="3033" from-port="1" to-layer="3035" to-port="3"/>
		<edge from-layer="3034" from-port="1" to-layer="3035" to-port="4"/>
		<edge from-layer="3036" from-port="1" to-layer="3037" to-port="0"/>
		<edge from-layer="3037" from-port="1" to-layer="3042" to-port="0"/>
		<edge from-layer="3038" from-port="1" to-layer="3042" to-port="1"/>
		<edge from-layer="3039" from-port="1" to-layer="3042" to-port="2"/>
		<edge from-layer="3040" from-port="1" to-layer="3042" to-port="3"/>
		<edge from-layer="3041" from-port="1" to-layer="3042" to-port="4"/>
		<edge from-layer="3035" from-port="5" to-layer="3043" to-port="0"/>
		<edge from-layer="3042" from-port="5" to-layer="3043" to-port="1"/>
		<edge from-layer="3043" from-port="2" to-layer="3045" to-port="0"/>
		<edge from-layer="3044" from-port="1" to-layer="3045" to-port="1"/>
		<edge from-layer="3045" from-port="2" to-layer="3046" to-port="0"/>
		<edge from-layer="3047" from-port="1" to-layer="3048" to-port="0"/>
		<edge from-layer="3048" from-port="1" to-layer="3053" to-port="0"/>
		<edge from-layer="3049" from-port="1" to-layer="3053" to-port="1"/>
		<edge from-layer="3050" from-port="1" to-layer="3053" to-port="2"/>
		<edge from-layer="3051" from-port="1" to-layer="3053" to-port="3"/>
		<edge from-layer="3052" from-port="1" to-layer="3053" to-port="4"/>
		<edge from-layer="1019" from-port="5" to-layer="3054" to-port="0"/>
		<edge from-layer="3053" from-port="5" to-layer="3054" to-port="1"/>
		<edge from-layer="3054" from-port="2" to-layer="3056" to-port="0"/>
		<edge from-layer="3055" from-port="1" to-layer="3056" to-port="1"/>
		<edge from-layer="3056" from-port="2" to-layer="3061" to-port="0"/>
		<edge from-layer="3057" from-port="1" to-layer="3061" to-port="1"/>
		<edge from-layer="3058" from-port="1" to-layer="3061" to-port="2"/>
		<edge from-layer="3059" from-port="1" to-layer="3061" to-port="3"/>
		<edge from-layer="3060" from-port="1" to-layer="3061" to-port="4"/>
		<edge from-layer="3035" from-port="5" to-layer="3063" to-port="0"/>
		<edge from-layer="3062" from-port="1" to-layer="3063" to-port="1"/>
		<edge from-layer="3061" from-port="5" to-layer="3064" to-port="0"/>
		<edge from-layer="3063" from-port="2" to-layer="3064" to-port="1"/>
		<edge from-layer="3064" from-port="2" to-layer="3069" to-port="0"/>
		<edge from-layer="3065" from-port="1" to-layer="3069" to-port="1"/>
		<edge from-layer="3066" from-port="1" to-layer="3069" to-port="2"/>
		<edge from-layer="3067" from-port="1" to-layer="3069" to-port="3"/>
		<edge from-layer="3068" from-port="1" to-layer="3069" to-port="4"/>
		<edge from-layer="3070" from-port="1" to-layer="3071" to-port="0"/>
		<edge from-layer="3071" from-port="1" to-layer="3076" to-port="0"/>
		<edge from-layer="3072" from-port="1" to-layer="3076" to-port="1"/>
		<edge from-layer="3073" from-port="1" to-layer="3076" to-port="2"/>
		<edge from-layer="3074" from-port="1" to-layer="3076" to-port="3"/>
		<edge from-layer="3075" from-port="1" to-layer="3076" to-port="4"/>
		<edge from-layer="3069" from-port="5" to-layer="3077" to-port="0"/>
		<edge from-layer="3076" from-port="5" to-layer="3077" to-port="1"/>
		<edge from-layer="3077" from-port="2" to-layer="3079" to-port="0"/>
		<edge from-layer="3078" from-port="1" to-layer="3079" to-port="1"/>
		<edge from-layer="3079" from-port="2" to-layer="3080" to-port="0"/>
		<edge from-layer="3081" from-port="1" to-layer="3082" to-port="0"/>
		<edge from-layer="3082" from-port="1" to-layer="3087" to-port="0"/>
		<edge from-layer="3083" from-port="1" to-layer="3087" to-port="1"/>
		<edge from-layer="3084" from-port="1" to-layer="3087" to-port="2"/>
		<edge from-layer="3085" from-port="1" to-layer="3087" to-port="3"/>
		<edge from-layer="3086" from-port="1" to-layer="3087" to-port="4"/>
		<edge from-layer="26" from-port="1" to-layer="3088" to-port="0"/>
		<edge from-layer="3087" from-port="5" to-layer="3088" to-port="1"/>
		<edge from-layer="3088" from-port="2" to-layer="3090" to-port="0"/>
		<edge from-layer="3089" from-port="1" to-layer="3090" to-port="1"/>
		<edge from-layer="3090" from-port="2" to-layer="3095" to-port="0"/>
		<edge from-layer="3091" from-port="1" to-layer="3095" to-port="1"/>
		<edge from-layer="3092" from-port="1" to-layer="3095" to-port="2"/>
		<edge from-layer="3093" from-port="1" to-layer="3095" to-port="3"/>
		<edge from-layer="3094" from-port="1" to-layer="3095" to-port="4"/>
		<edge from-layer="3069" from-port="5" to-layer="3097" to-port="0"/>
		<edge from-layer="3096" from-port="1" to-layer="3097" to-port="1"/>
		<edge from-layer="3095" from-port="5" to-layer="3098" to-port="0"/>
		<edge from-layer="3097" from-port="2" to-layer="3098" to-port="1"/>
		<edge from-layer="3098" from-port="2" to-layer="3103" to-port="0"/>
		<edge from-layer="3099" from-port="1" to-layer="3103" to-port="1"/>
		<edge from-layer="3100" from-port="1" to-layer="3103" to-port="2"/>
		<edge from-layer="3101" from-port="1" to-layer="3103" to-port="3"/>
		<edge from-layer="3102" from-port="1" to-layer="3103" to-port="4"/>
		<edge from-layer="3104" from-port="1" to-layer="3105" to-port="0"/>
		<edge from-layer="3105" from-port="1" to-layer="3110" to-port="0"/>
		<edge from-layer="3106" from-port="1" to-layer="3110" to-port="1"/>
		<edge from-layer="3107" from-port="1" to-layer="3110" to-port="2"/>
		<edge from-layer="3108" from-port="1" to-layer="3110" to-port="3"/>
		<edge from-layer="3109" from-port="1" to-layer="3110" to-port="4"/>
		<edge from-layer="3103" from-port="5" to-layer="3111" to-port="0"/>
		<edge from-layer="3110" from-port="5" to-layer="3111" to-port="1"/>
		<edge from-layer="3111" from-port="2" to-layer="3113" to-port="0"/>
		<edge from-layer="3112" from-port="1" to-layer="3113" to-port="1"/>
		<edge from-layer="3113" from-port="2" to-layer="3114" to-port="0"/>
		<edge from-layer="3115" from-port="1" to-layer="3116" to-port="0"/>
		<edge from-layer="3116" from-port="1" to-layer="3121" to-port="0"/>
		<edge from-layer="3117" from-port="1" to-layer="3121" to-port="1"/>
		<edge from-layer="3118" from-port="1" to-layer="3121" to-port="2"/>
		<edge from-layer="3119" from-port="1" to-layer="3121" to-port="3"/>
		<edge from-layer="3120" from-port="1" to-layer="3121" to-port="4"/>
		<edge from-layer="3029" from-port="5" to-layer="3122" to-port="0"/>
		<edge from-layer="3121" from-port="5" to-layer="3122" to-port="1"/>
		<edge from-layer="3122" from-port="2" to-layer="3124" to-port="0"/>
		<edge from-layer="3123" from-port="1" to-layer="3124" to-port="1"/>
		<edge from-layer="3114" from-port="1" to-layer="3125" to-port="0"/>
		<edge from-layer="3124" from-port="2" to-layer="3125" to-port="1"/>
		<edge from-layer="3080" from-port="1" to-layer="3126" to-port="0"/>
		<edge from-layer="3125" from-port="2" to-layer="3126" to-port="1"/>
		<edge from-layer="3046" from-port="1" to-layer="3127" to-port="0"/>
		<edge from-layer="3126" from-port="2" to-layer="3127" to-port="1"/>
		<edge from-layer="3127" from-port="2" to-layer="3129" to-port="0"/>
		<edge from-layer="3128" from-port="1" to-layer="3129" to-port="1"/>
		<edge from-layer="3129" from-port="2" to-layer="3131" to-port="0"/>
		<edge from-layer="3130" from-port="1" to-layer="3131" to-port="1"/>
		<edge from-layer="3131" from-port="2" to-layer="3132" to-port="0"/>
		<edge from-layer="3132" from-port="1" to-layer="3137" to-port="0"/>
		<edge from-layer="3133" from-port="1" to-layer="3137" to-port="1"/>
		<edge from-layer="3134" from-port="1" to-layer="3137" to-port="2"/>
		<edge from-layer="3135" from-port="1" to-layer="3137" to-port="3"/>
		<edge from-layer="3136" from-port="1" to-layer="3137" to-port="4"/>
		<edge from-layer="3137" from-port="5" to-layer="3138" to-port="0"/>
		<edge from-layer="3138" from-port="1" to-layer="3143" to-port="0"/>
		<edge from-layer="3139" from-port="1" to-layer="3143" to-port="1"/>
		<edge from-layer="3140" from-port="1" to-layer="3143" to-port="2"/>
		<edge from-layer="3141" from-port="1" to-layer="3143" to-port="3"/>
		<edge from-layer="3142" from-port="1" to-layer="3143" to-port="4"/>
		<edge from-layer="3143" from-port="5" to-layer="3145" to-port="0"/>
		<edge from-layer="3144" from-port="1" to-layer="3145" to-port="1"/>
		<edge from-layer="3146" from-port="1" to-layer="3147" to-port="0"/>
		<edge from-layer="3147" from-port="1" to-layer="3152" to-port="0"/>
		<edge from-layer="3148" from-port="1" to-layer="3152" to-port="1"/>
		<edge from-layer="3149" from-port="1" to-layer="3152" to-port="2"/>
		<edge from-layer="3150" from-port="1" to-layer="3152" to-port="3"/>
		<edge from-layer="3151" from-port="1" to-layer="3152" to-port="4"/>
		<edge from-layer="3145" from-port="2" to-layer="3153" to-port="0"/>
		<edge from-layer="3152" from-port="5" to-layer="3153" to-port="1"/>
		<edge from-layer="3153" from-port="2" to-layer="3155" to-port="0"/>
		<edge from-layer="3154" from-port="1" to-layer="3155" to-port="1"/>
		<edge from-layer="3155" from-port="2" to-layer="3160" to-port="0"/>
		<edge from-layer="3156" from-port="1" to-layer="3160" to-port="1"/>
		<edge from-layer="3157" from-port="1" to-layer="3160" to-port="2"/>
		<edge from-layer="3158" from-port="1" to-layer="3160" to-port="3"/>
		<edge from-layer="3159" from-port="1" to-layer="3160" to-port="4"/>
		<edge from-layer="3160" from-port="5" to-layer="3162" to-port="0"/>
		<edge from-layer="3161" from-port="1" to-layer="3162" to-port="1"/>
		<edge from-layer="3162" from-port="2" to-layer="3164" to-port="0"/>
		<edge from-layer="3163" from-port="1" to-layer="3164" to-port="1"/>
		<edge from-layer="3164" from-port="2" to-layer="3166" to-port="0"/>
		<edge from-layer="3165" from-port="1" to-layer="3166" to-port="1"/>
		<edge from-layer="3166" from-port="2" to-layer="3168" to-port="0"/>
		<edge from-layer="3167" from-port="1" to-layer="3168" to-port="1"/>
		<edge from-layer="3168" from-port="2" to-layer="3170" to-port="0"/>
		<edge from-layer="3169" from-port="1" to-layer="3170" to-port="1"/>
		<edge from-layer="3170" from-port="2" to-layer="3171" to-port="0"/>
	</edges>
	<meta_data>
		<MO_version value="unknown version"/>
		<cli_parameters>
			<blobs_as_inputs value="True"/>
			<caffe_parser_path value="DIR"/>
			<data_type value="FP16"/>
			<disable_nhwc_to_nchw value="False"/>
			<disable_omitting_optional value="False"/>
			<disable_resnet_optimization value="False"/>
			<disable_weights_compression value="False"/>
			<enable_concat_optimization value="False"/>
			<enable_flattening_nested_params value="False"/>
			<enable_ssd_gluoncv value="False"/>
			<extensions value="DIR"/>
			<framework value="onnx"/>
			<freeze_placeholder_with_value value="{}"/>
			<generate_deprecated_IR_V2 value="False"/>
			<generate_deprecated_IR_V7 value="False"/>
			<generate_experimental_IR_V10 value="True"/>
			<input value="data"/>
			<input_model value="DIR/person-reidentification-retail-0300.onnx"/>
			<input_model_is_text value="False"/>
			<input_shape value="[1,3,256,128]"/>
			<k value="DIR/CustomLayersMapping.xml"/>
			<keep_quantize_ops_in_IR value="True"/>
			<keep_shape_ops value="False"/>
			<legacy_mxnet_model value="False"/>
			<log_level value="ERROR"/>
			<mean_scale_values value="{'data': {'mean': array([123.675, 116.28 , 103.53 ]), 'scale': array([58.395, 57.12 , 57.375])}}"/>
			<mean_values value="data[123.675,116.28,103.53]"/>
			<model_name value="person-reidentification-retail-0300"/>
			<move_to_preprocess value="False"/>
			<output value="['reid_embedding']"/>
			<output_dir value="DIR"/>
			<placeholder_data_types value="{}"/>
			<placeholder_shapes value="{'data': array([  1,   3, 256, 128])}"/>
			<progress value="False"/>
			<remove_memory value="False"/>
			<remove_output_softmax value="False"/>
			<reverse_input_channels value="True"/>
			<save_params_from_nd value="False"/>
			<scale_values value="data[58.395,57.12,57.375]"/>
			<silent value="False"/>
			<stream_output value="False"/>
			<unset unset_cli_parameters="batch, counts, disable_fusing, disable_gfusing, finegrain_fusing, input_checkpoint, input_meta_graph, input_proto, input_symbol, mean_file, mean_file_offsets, nd_prefix_name, pretrained_model_name, saved_model_dir, saved_model_tags, scale, tensorboard_logdir, tensorflow_custom_layer_libraries, tensorflow_custom_operations_config_update, tensorflow_object_detection_api_pipeline_config, tensorflow_use_custom_operations_config, transformations_config"/>
		</cli_parameters>
	</meta_data>
	<quantization_parameters>
		<config>{
		'compression': {
			'algorithms': [
				{
					'name': 'AccuracyAwareQuantization',
					'params': {
						'drop_type': 'relative',
						'max_iter_num': 20,
						'maximal_drop': 0.01,
						'metric_subset_ratio': 0.2,
						'preset': 'performance',
						'stat_subset_size': 300
					}
				}
			],
			'target_device': 'CPU'
		},
		'engine': {
			'models': [
				{
					'name': 'person-reidentification-retail-0300',
					'launchers': [
						{
							'framework': 'dlsdk',
							'tags': [
								'FP32'
							],
							'model': 'PATH',
							'weights': 'PATH',
							'adapter': 'reid',
							'device': 'CPU'
						}
					],
					'datasets': [
						{
							'name': 'market1501',
							'data_source': 'PATH',
							'annotation_conversion': {
								'converter': 'market1501_reid',
								'data_dir': 'PATH'
							},
							'annotation': 'market1501_reid.pickle',
							'preprocessing': [
								{
									'type': 'resize',
									'dst_width': 128,
									'dst_height': 256,
									'use_pillow': true,
									'interpolation': 'BILINEAR'
								}
							],
							'metrics': [
								{
									'name': 'rank@1',
									'type': 'cmc',
									'top_k': 1
								},
								{
									'type': 'reid_map'
								}
							]
						}
					]
				},
				{
					'name': 'person-reidentification-retail-0300',
					'launchers': [
						{
							'framework': 'dlsdk',
							'tags': [
								'FP16'
							],
							'model': 'PATH',
							'weights': 'PATH',
							'adapter': 'reid',
							'device': 'CPU'
						}
					],
					'datasets': [
						{
							'name': 'market1501',
							'data_source': 'PATH',
							'annotation_conversion': {
								'converter': 'market1501_reid',
								'data_dir': 'PATH'
							},
							'annotation': 'market1501_reid.pickle',
							'preprocessing': [
								{
									'type': 'resize',
									'dst_width': 128,
									'dst_height': 256,
									'use_pillow': true,
									'interpolation': 'BILINEAR'
								}
							],
							'metrics': [
								{
									'name': 'rank@1',
									'type': 'cmc',
									'top_k': 1
								},
								{
									'type': 'reid_map'
								}
							]
						}
					]
				},
				{
					'name': 'person-reidentification-retail-0300',
					'launchers': [
						{
							'framework': 'dlsdk',
							'tags': [
								'FP32-INT8'
							],
							'model': 'PATH',
							'weights': 'PATH',
							'adapter': 'reid',
							'device': 'CPU'
						}
					],
					'datasets': [
						{
							'name': 'market1501',
							'data_source': 'PATH',
							'annotation_conversion': {
								'converter': 'market1501_reid',
								'data_dir': 'PATH'
							},
							'annotation': 'market1501_reid.pickle',
							'preprocessing': [
								{
									'type': 'resize',
									'dst_width': 128,
									'dst_height': 256,
									'use_pillow': true,
									'interpolation': 'BILINEAR'
								}
							],
							'metrics': [
								{
									'name': 'rank@1',
									'type': 'cmc',
									'top_k': 1
								},
								{
									'type': 'reid_map'
								}
							]
						}
					]
				},
				{
					'name': 'person-reidentification-retail-0300',
					'launchers': [
						{
							'framework': 'dlsdk',
							'tags': [
								'FP16-INT8'
							],
							'model': 'PATH',
							'weights': 'PATH',
							'adapter': 'reid',
							'device': 'CPU'
						}
					],
					'datasets': [
						{
							'name': 'market1501',
							'data_source': 'PATH',
							'annotation_conversion': {
								'converter': 'market1501_reid',
								'data_dir': 'PATH'
							},
							'annotation': 'market1501_reid.pickle',
							'preprocessing': [
								{
									'type': 'resize',
									'dst_width': 128,
									'dst_height': 256,
									'use_pillow': true,
									'interpolation': 'BILINEAR'
								}
							],
							'metrics': [
								{
									'name': 'rank@1',
									'type': 'cmc',
									'top_k': 1
								},
								{
									'type': 'reid_map'
								}
							]
						}
					]
				}
			],
			'global_definitions': '../dataset_definitions.yml',
			'stat_requests_number': null,
			'eval_requests_number': null,
			'type': 'accuracy_checker'
		}
	}</config>
		<version value="1.0"/>
		<cli_params value="{'evaluate': False, 'output_dir': 'PATH', 'direct_dump': True, 'log_level': 'INFO', 'pbar': False, 'keep_uncompressed_weights': False}"/>
	</quantization_parameters>
</net>
