<?xml version="1.0" ?>
<net name="ResMobNet_v4 (LReLU) with single SSD head" version="10">
	<layers>
		<layer id="0" name="data" type="Parameter" version="opset1">
			<data element_type="f32" shape="1,3,320,544"/>
			<output>
				<port id="0" precision="FP32">
					<dim>1</dim>
					<dim>3</dim>
					<dim>320</dim>
					<dim>544</dim>
				</port>
			</output>
		</layer>
		<layer id="1" name="data_mul_24443/copy_const823_const" type="Const" version="opset1">
			<data element_type="f32" offset="0" shape="1,3,1,1" size="12"/>
			<output>
				<port id="1" precision="FP32">
					<dim>1</dim>
					<dim>3</dim>
					<dim>1</dim>
					<dim>1</dim>
				</port>
			</output>
		</layer>
		<layer id="2" name="Mul1_/Fused_Mul_" type="Multiply" version="opset1">
			<input>
				<port id="0">
					<dim>1</dim>
					<dim>3</dim>
					<dim>320</dim>
					<dim>544</dim>
				</port>
				<port id="1">
					<dim>1</dim>
					<dim>3</dim>
					<dim>1</dim>
					<dim>1</dim>
				</port>
			</input>
			<output>
				<port id="2" precision="FP32">
					<dim>1</dim>
					<dim>3</dim>
					<dim>320</dim>
					<dim>544</dim>
				</port>
			</output>
		</layer>
		<layer id="3" name="data_add_24445/copy_const825_const" type="Const" version="opset1">
			<data element_type="f32" offset="12" shape="1,3,1,1" size="12"/>
			<output>
				<port id="1" precision="FP32">
					<dim>1</dim>
					<dim>3</dim>
					<dim>1</dim>
					<dim>1</dim>
				</port>
			</output>
		</layer>
		<layer id="4" name="Add1_/Fused_Add_" type="Add" version="opset1">
			<input>
				<port id="0">
					<dim>1</dim>
					<dim>3</dim>
					<dim>320</dim>
					<dim>544</dim>
				</port>
				<port id="1">
					<dim>1</dim>
					<dim>3</dim>
					<dim>1</dim>
					<dim>1</dim>
				</port>
			</input>
			<output>
				<port id="2" precision="FP32">
					<dim>1</dim>
					<dim>3</dim>
					<dim>320</dim>
					<dim>544</dim>
				</port>
			</output>
		</layer>
		<layer id="5" name="41254129_const" type="Const" version="opset1">
			<data element_type="f32" offset="24" shape="" size="4"/>
			<output>
				<port id="1" precision="FP32"/>
			</output>
		</layer>
		<layer id="6" name="41264130_const" type="Const" version="opset1">
			<data element_type="f32" offset="28" shape="" size="4"/>
			<output>
				<port id="1" precision="FP32"/>
			</output>
		</layer>
		<layer id="7" name="41274131_const" type="Const" version="opset1">
			<data element_type="f32" offset="24" shape="" size="4"/>
			<output>
				<port id="1" precision="FP32"/>
			</output>
		</layer>
		<layer id="8" name="41284132_const" type="Const" version="opset1">
			<data element_type="f32" offset="28" shape="" size="4"/>
			<output>
				<port id="1" precision="FP32"/>
			</output>
		</layer>
		<layer id="9" name="init_block1/dim_inc/conv/fq_input_0" type="FakeQuantize" version="opset1">
			<data levels="256"/>
			<input>
				<port id="0">
					<dim>1</dim>
					<dim>3</dim>
					<dim>320</dim>
					<dim>544</dim>
				</port>
				<port id="1"/>
				<port id="2"/>
				<port id="3"/>
				<port id="4"/>
			</input>
			<output>
				<port id="5" precision="FP32">
					<dim>1</dim>
					<dim>3</dim>
					<dim>320</dim>
					<dim>544</dim>
				</port>
			</output>
		</layer>
		<layer id="10" name="Mul1_21043/Fused_Mul_2626826270_const827_const" type="Const" version="opset1">
			<data element_type="f32" offset="32" shape="32,3,3,3" size="3456"/>
			<output>
				<port id="1" precision="FP32">
					<dim>32</dim>
					<dim>3</dim>
					<dim>3</dim>
					<dim>3</dim>
				</port>
			</output>
		</layer>
		<layer id="11" name="41354139_const" type="Const" version="opset1">
			<data element_type="f32" offset="3488" shape="32,1,1,1" size="128"/>
			<output>
				<port id="1" precision="FP32">
					<dim>32</dim>
					<dim>1</dim>
					<dim>1</dim>
					<dim>1</dim>
				</port>
			</output>
		</layer>
		<layer id="12" name="41364140_const" type="Const" version="opset1">
			<data element_type="f32" offset="3616" shape="32,1,1,1" size="128"/>
			<output>
				<port id="1" precision="FP32">
					<dim>32</dim>
					<dim>1</dim>
					<dim>1</dim>
					<dim>1</dim>
				</port>
			</output>
		</layer>
		<layer id="13" name="41374141_const" type="Const" version="opset1">
			<data element_type="f32" offset="3744" shape="32,1,1,1" size="128"/>
			<output>
				<port id="1" precision="FP32">
					<dim>32</dim>
					<dim>1</dim>
					<dim>1</dim>
					<dim>1</dim>
				</port>
			</output>
		</layer>
		<layer id="14" name="41384142_const" type="Const" version="opset1">
			<data element_type="f32" offset="3872" shape="32,1,1,1" size="128"/>
			<output>
				<port id="1" precision="FP32">
					<dim>32</dim>
					<dim>1</dim>
					<dim>1</dim>
					<dim>1</dim>
				</port>
			</output>
		</layer>
		<layer id="15" name="init_block1/dim_inc/conv/fq_weights_1" type="FakeQuantize" version="opset1">
			<data levels="255"/>
			<input>
				<port id="0">
					<dim>32</dim>
					<dim>3</dim>
					<dim>3</dim>
					<dim>3</dim>
				</port>
				<port id="1">
					<dim>32</dim>
					<dim>1</dim>
					<dim>1</dim>
					<dim>1</dim>
				</port>
				<port id="2">
					<dim>32</dim>
					<dim>1</dim>
					<dim>1</dim>
					<dim>1</dim>
				</port>
				<port id="3">
					<dim>32</dim>
					<dim>1</dim>
					<dim>1</dim>
					<dim>1</dim>
				</port>
				<port id="4">
					<dim>32</dim>
					<dim>1</dim>
					<dim>1</dim>
					<dim>1</dim>
				</port>
			</input>
			<output>
				<port id="5" precision="FP32">
					<dim>32</dim>
					<dim>3</dim>
					<dim>3</dim>
					<dim>3</dim>
				</port>
			</output>
		</layer>
		<layer id="16" name="init_block1/dim_inc/conv" type="Convolution" version="opset1">
			<data dilations="1,1" output_padding="0,0" pads_begin="1,1" pads_end="1,1" strides="2,2"/>
			<input>
				<port id="0">
					<dim>1</dim>
					<dim>3</dim>
					<dim>320</dim>
					<dim>544</dim>
				</port>
				<port id="1">
					<dim>32</dim>
					<dim>3</dim>
					<dim>3</dim>
					<dim>3</dim>
				</port>
			</input>
			<output>
				<port id="2" precision="FP32">
					<dim>1</dim>
					<dim>32</dim>
					<dim>160</dim>
					<dim>272</dim>
				</port>
			</output>
		</layer>
		<layer id="17" name="data_add_2444824453/copy_const829_const" type="Const" version="opset1">
			<data element_type="f32" offset="4000" shape="1,32,1,1" size="128"/>
			<output>
				<port id="1" precision="FP32">
					<dim>1</dim>
					<dim>32</dim>
					<dim>1</dim>
					<dim>1</dim>
				</port>
			</output>
		</layer>
		<layer id="18" name="Add1_21044/Fused_Add_" type="Add" version="opset1">
			<input>
				<port id="0">
					<dim>1</dim>
					<dim>32</dim>
					<dim>160</dim>
					<dim>272</dim>
				</port>
				<port id="1">
					<dim>1</dim>
					<dim>32</dim>
					<dim>1</dim>
					<dim>1</dim>
				</port>
			</input>
			<output>
				<port id="2" precision="FP32">
					<dim>1</dim>
					<dim>32</dim>
					<dim>160</dim>
					<dim>272</dim>
				</port>
			</output>
		</layer>
		<layer id="19" name="init_block1/dim_inc/fn" type="ReLU" version="opset1">
			<input>
				<port id="0">
					<dim>1</dim>
					<dim>32</dim>
					<dim>160</dim>
					<dim>272</dim>
				</port>
			</input>
			<output>
				<port id="1" precision="FP32">
					<dim>1</dim>
					<dim>32</dim>
					<dim>160</dim>
					<dim>272</dim>
				</port>
			</output>
		</layer>
		<layer id="20" name="34853489_const" type="Const" version="opset1">
			<data element_type="f32" offset="4128" shape="" size="4"/>
			<output>
				<port id="1" precision="FP32"/>
			</output>
		</layer>
		<layer id="21" name="34863490_const" type="Const" version="opset1">
			<data element_type="f32" offset="4132" shape="" size="4"/>
			<output>
				<port id="1" precision="FP32"/>
			</output>
		</layer>
		<layer id="22" name="34873491_const" type="Const" version="opset1">
			<data element_type="f32" offset="4128" shape="" size="4"/>
			<output>
				<port id="1" precision="FP32"/>
			</output>
		</layer>
		<layer id="23" name="34883492_const" type="Const" version="opset1">
			<data element_type="f32" offset="4132" shape="" size="4"/>
			<output>
				<port id="1" precision="FP32"/>
			</output>
		</layer>
		<layer id="24" name="bottleneck1_1/add/fq_input_0" type="FakeQuantize" version="opset1">
			<data levels="256"/>
			<input>
				<port id="0">
					<dim>1</dim>
					<dim>32</dim>
					<dim>160</dim>
					<dim>272</dim>
				</port>
				<port id="1"/>
				<port id="2"/>
				<port id="3"/>
				<port id="4"/>
			</input>
			<output>
				<port id="5" precision="FP32">
					<dim>1</dim>
					<dim>32</dim>
					<dim>160</dim>
					<dim>272</dim>
				</port>
			</output>
		</layer>
		<layer id="25" name="Mul1_21055/Fused_Mul_2627226274_const832_const" type="Const" version="opset1">
			<data element_type="f32" offset="4136" shape="8,32,1,1" size="1024"/>
			<output>
				<port id="1" precision="FP32">
					<dim>8</dim>
					<dim>32</dim>
					<dim>1</dim>
					<dim>1</dim>
				</port>
			</output>
		</layer>
		<layer id="26" name="39753979_const" type="Const" version="opset1">
			<data element_type="f32" offset="5160" shape="8,1,1,1" size="32"/>
			<output>
				<port id="1" precision="FP32">
					<dim>8</dim>
					<dim>1</dim>
					<dim>1</dim>
					<dim>1</dim>
				</port>
			</output>
		</layer>
		<layer id="27" name="39763980_const" type="Const" version="opset1">
			<data element_type="f32" offset="5192" shape="8,1,1,1" size="32"/>
			<output>
				<port id="1" precision="FP32">
					<dim>8</dim>
					<dim>1</dim>
					<dim>1</dim>
					<dim>1</dim>
				</port>
			</output>
		</layer>
		<layer id="28" name="39773981_const" type="Const" version="opset1">
			<data element_type="f32" offset="5160" shape="8,1,1,1" size="32"/>
			<output>
				<port id="1" precision="FP32">
					<dim>8</dim>
					<dim>1</dim>
					<dim>1</dim>
					<dim>1</dim>
				</port>
			</output>
		</layer>
		<layer id="29" name="39783982_const" type="Const" version="opset1">
			<data element_type="f32" offset="5192" shape="8,1,1,1" size="32"/>
			<output>
				<port id="1" precision="FP32">
					<dim>8</dim>
					<dim>1</dim>
					<dim>1</dim>
					<dim>1</dim>
				</port>
			</output>
		</layer>
		<layer id="30" name="bottleneck1_1/dim_red/conv/fq_weights_1" type="FakeQuantize" version="opset1">
			<data levels="255"/>
			<input>
				<port id="0">
					<dim>8</dim>
					<dim>32</dim>
					<dim>1</dim>
					<dim>1</dim>
				</port>
				<port id="1">
					<dim>8</dim>
					<dim>1</dim>
					<dim>1</dim>
					<dim>1</dim>
				</port>
				<port id="2">
					<dim>8</dim>
					<dim>1</dim>
					<dim>1</dim>
					<dim>1</dim>
				</port>
				<port id="3">
					<dim>8</dim>
					<dim>1</dim>
					<dim>1</dim>
					<dim>1</dim>
				</port>
				<port id="4">
					<dim>8</dim>
					<dim>1</dim>
					<dim>1</dim>
					<dim>1</dim>
				</port>
			</input>
			<output>
				<port id="5" precision="FP32">
					<dim>8</dim>
					<dim>32</dim>
					<dim>1</dim>
					<dim>1</dim>
				</port>
			</output>
		</layer>
		<layer id="31" name="bottleneck1_1/dim_red/conv" type="Convolution" version="opset1">
			<data dilations="1,1" output_padding="0,0" pads_begin="0,0" pads_end="0,0" strides="1,1"/>
			<input>
				<port id="0">
					<dim>1</dim>
					<dim>32</dim>
					<dim>160</dim>
					<dim>272</dim>
				</port>
				<port id="1">
					<dim>8</dim>
					<dim>32</dim>
					<dim>1</dim>
					<dim>1</dim>
				</port>
			</input>
			<output>
				<port id="2" precision="FP32">
					<dim>1</dim>
					<dim>8</dim>
					<dim>160</dim>
					<dim>272</dim>
				</port>
			</output>
		</layer>
		<layer id="32" name="data_add_2445624461/copy_const834_const" type="Const" version="opset1">
			<data element_type="f32" offset="5224" shape="1,8,1,1" size="32"/>
			<output>
				<port id="1" precision="FP32">
					<dim>1</dim>
					<dim>8</dim>
					<dim>1</dim>
					<dim>1</dim>
				</port>
			</output>
		</layer>
		<layer id="33" name="Add1_21056/Fused_Add_" type="Add" version="opset1">
			<input>
				<port id="0">
					<dim>1</dim>
					<dim>8</dim>
					<dim>160</dim>
					<dim>272</dim>
				</port>
				<port id="1">
					<dim>1</dim>
					<dim>8</dim>
					<dim>1</dim>
					<dim>1</dim>
				</port>
			</input>
			<output>
				<port id="2" precision="FP32">
					<dim>1</dim>
					<dim>8</dim>
					<dim>160</dim>
					<dim>272</dim>
				</port>
			</output>
		</layer>
		<layer id="34" name="bottleneck1_1/dim_red/fn32069/Cast_137596_const836_const" type="Const" version="opset1">
			<data element_type="f32" offset="5256" shape="1" size="4"/>
			<output>
				<port id="1" precision="FP32">
					<dim>1</dim>
				</port>
			</output>
		</layer>
		<layer id="35" name="bottleneck1_1/dim_red/fn32069" type="PReLU" version="opset1">
			<input>
				<port id="0">
					<dim>1</dim>
					<dim>8</dim>
					<dim>160</dim>
					<dim>272</dim>
				</port>
				<port id="1">
					<dim>1</dim>
				</port>
			</input>
			<output>
				<port id="2" precision="FP32">
					<dim>1</dim>
					<dim>8</dim>
					<dim>160</dim>
					<dim>272</dim>
				</port>
			</output>
		</layer>
		<layer id="36" name="34253429_const" type="Const" version="opset1">
			<data element_type="f32" offset="5260" shape="1,8,1,1" size="32"/>
			<output>
				<port id="1" precision="FP32">
					<dim>1</dim>
					<dim>8</dim>
					<dim>1</dim>
					<dim>1</dim>
				</port>
			</output>
		</layer>
		<layer id="37" name="34263430_const" type="Const" version="opset1">
			<data element_type="f32" offset="5292" shape="1,8,1,1" size="32"/>
			<output>
				<port id="1" precision="FP32">
					<dim>1</dim>
					<dim>8</dim>
					<dim>1</dim>
					<dim>1</dim>
				</port>
			</output>
		</layer>
		<layer id="38" name="34273431_const" type="Const" version="opset1">
			<data element_type="f32" offset="5260" shape="1,8,1,1" size="32"/>
			<output>
				<port id="1" precision="FP32">
					<dim>1</dim>
					<dim>8</dim>
					<dim>1</dim>
					<dim>1</dim>
				</port>
			</output>
		</layer>
		<layer id="39" name="34283432_const" type="Const" version="opset1">
			<data element_type="f32" offset="5292" shape="1,8,1,1" size="32"/>
			<output>
				<port id="1" precision="FP32">
					<dim>1</dim>
					<dim>8</dim>
					<dim>1</dim>
					<dim>1</dim>
				</port>
			</output>
		</layer>
		<layer id="40" name="bottleneck1_1/inner/dw1/conv/fq_input_0" type="FakeQuantize" version="opset1">
			<data levels="256"/>
			<input>
				<port id="0">
					<dim>1</dim>
					<dim>8</dim>
					<dim>160</dim>
					<dim>272</dim>
				</port>
				<port id="1">
					<dim>1</dim>
					<dim>8</dim>
					<dim>1</dim>
					<dim>1</dim>
				</port>
				<port id="2">
					<dim>1</dim>
					<dim>8</dim>
					<dim>1</dim>
					<dim>1</dim>
				</port>
				<port id="3">
					<dim>1</dim>
					<dim>8</dim>
					<dim>1</dim>
					<dim>1</dim>
				</port>
				<port id="4">
					<dim>1</dim>
					<dim>8</dim>
					<dim>1</dim>
					<dim>1</dim>
				</port>
			</input>
			<output>
				<port id="5" precision="FP32">
					<dim>1</dim>
					<dim>8</dim>
					<dim>160</dim>
					<dim>272</dim>
				</port>
			</output>
		</layer>
		<layer id="41" name="18491570_const" type="Const" version="opset1">
			<data element_type="f32" offset="5324" shape="8,1,3,3" size="288"/>
			<output>
				<port id="1" precision="FP32">
					<dim>8</dim>
					<dim>1</dim>
					<dim>3</dim>
					<dim>3</dim>
				</port>
			</output>
		</layer>
		<layer id="42" name="34353439_const" type="Const" version="opset1">
			<data element_type="f32" offset="5612" shape="8,1,1,1" size="32"/>
			<output>
				<port id="1" precision="FP32">
					<dim>8</dim>
					<dim>1</dim>
					<dim>1</dim>
					<dim>1</dim>
				</port>
			</output>
		</layer>
		<layer id="43" name="34363440_const" type="Const" version="opset1">
			<data element_type="f32" offset="5644" shape="8,1,1,1" size="32"/>
			<output>
				<port id="1" precision="FP32">
					<dim>8</dim>
					<dim>1</dim>
					<dim>1</dim>
					<dim>1</dim>
				</port>
			</output>
		</layer>
		<layer id="44" name="34373441_const" type="Const" version="opset1">
			<data element_type="f32" offset="5612" shape="8,1,1,1" size="32"/>
			<output>
				<port id="1" precision="FP32">
					<dim>8</dim>
					<dim>1</dim>
					<dim>1</dim>
					<dim>1</dim>
				</port>
			</output>
		</layer>
		<layer id="45" name="34383442_const" type="Const" version="opset1">
			<data element_type="f32" offset="5644" shape="8,1,1,1" size="32"/>
			<output>
				<port id="1" precision="FP32">
					<dim>8</dim>
					<dim>1</dim>
					<dim>1</dim>
					<dim>1</dim>
				</port>
			</output>
		</layer>
		<layer id="46" name="bottleneck1_1/inner/dw1/conv/fq_weights_1" type="FakeQuantize" version="opset1">
			<data levels="255"/>
			<input>
				<port id="0">
					<dim>8</dim>
					<dim>1</dim>
					<dim>3</dim>
					<dim>3</dim>
				</port>
				<port id="1">
					<dim>8</dim>
					<dim>1</dim>
					<dim>1</dim>
					<dim>1</dim>
				</port>
				<port id="2">
					<dim>8</dim>
					<dim>1</dim>
					<dim>1</dim>
					<dim>1</dim>
				</port>
				<port id="3">
					<dim>8</dim>
					<dim>1</dim>
					<dim>1</dim>
					<dim>1</dim>
				</port>
				<port id="4">
					<dim>8</dim>
					<dim>1</dim>
					<dim>1</dim>
					<dim>1</dim>
				</port>
			</input>
			<output>
				<port id="5" precision="FP32">
					<dim>8</dim>
					<dim>1</dim>
					<dim>3</dim>
					<dim>3</dim>
				</port>
			</output>
		</layer>
		<layer id="47" name="9927/value9929_const" type="Const" version="opset1">
			<data element_type="i64" offset="5676" shape="5" size="40"/>
			<output>
				<port id="1" precision="I64">
					<dim>5</dim>
				</port>
			</output>
		</layer>
		<layer id="48" name="9927" type="Reshape" version="opset1">
			<data special_zero="True"/>
			<input>
				<port id="0">
					<dim>8</dim>
					<dim>1</dim>
					<dim>3</dim>
					<dim>3</dim>
				</port>
				<port id="1">
					<dim>5</dim>
				</port>
			</input>
			<output>
				<port id="2" precision="FP32">
					<dim>8</dim>
					<dim>1</dim>
					<dim>1</dim>
					<dim>3</dim>
					<dim>3</dim>
				</port>
			</output>
		</layer>
		<layer id="49" name="bottleneck1_1/inner/dw1/conv" type="GroupConvolution" version="opset1">
			<data dilations="1,1" output_padding="0,0" pads_begin="1,1" pads_end="1,1" strides="1,1"/>
			<input>
				<port id="0">
					<dim>1</dim>
					<dim>8</dim>
					<dim>160</dim>
					<dim>272</dim>
				</port>
				<port id="1">
					<dim>8</dim>
					<dim>1</dim>
					<dim>1</dim>
					<dim>3</dim>
					<dim>3</dim>
				</port>
			</input>
			<output>
				<port id="2" precision="FP32">
					<dim>1</dim>
					<dim>8</dim>
					<dim>160</dim>
					<dim>272</dim>
				</port>
			</output>
		</layer>
		<layer id="50" name="data_add_2446424469/copy_const840_const" type="Const" version="opset1">
			<data element_type="f32" offset="5716" shape="1,8,1,1" size="32"/>
			<output>
				<port id="1" precision="FP32">
					<dim>1</dim>
					<dim>8</dim>
					<dim>1</dim>
					<dim>1</dim>
				</port>
			</output>
		</layer>
		<layer id="51" name="Add1_21068/Fused_Add_" type="Add" version="opset1">
			<input>
				<port id="0">
					<dim>1</dim>
					<dim>8</dim>
					<dim>160</dim>
					<dim>272</dim>
				</port>
				<port id="1">
					<dim>1</dim>
					<dim>8</dim>
					<dim>1</dim>
					<dim>1</dim>
				</port>
			</input>
			<output>
				<port id="2" precision="FP32">
					<dim>1</dim>
					<dim>8</dim>
					<dim>160</dim>
					<dim>272</dim>
				</port>
			</output>
		</layer>
		<layer id="52" name="bottleneck1_1/inner/dw1/fn31949/Cast_137560_const842_const" type="Const" version="opset1">
			<data element_type="f32" offset="5256" shape="1" size="4"/>
			<output>
				<port id="1" precision="FP32">
					<dim>1</dim>
				</port>
			</output>
		</layer>
		<layer id="53" name="bottleneck1_1/inner/dw1/fn31949" type="PReLU" version="opset1">
			<input>
				<port id="0">
					<dim>1</dim>
					<dim>8</dim>
					<dim>160</dim>
					<dim>272</dim>
				</port>
				<port id="1">
					<dim>1</dim>
				</port>
			</input>
			<output>
				<port id="2" precision="FP32">
					<dim>1</dim>
					<dim>8</dim>
					<dim>160</dim>
					<dim>272</dim>
				</port>
			</output>
		</layer>
		<layer id="54" name="38253829_const" type="Const" version="opset1">
			<data element_type="f32" offset="5748" shape="" size="4"/>
			<output>
				<port id="1" precision="FP32"/>
			</output>
		</layer>
		<layer id="55" name="38263830_const" type="Const" version="opset1">
			<data element_type="f32" offset="5752" shape="" size="4"/>
			<output>
				<port id="1" precision="FP32"/>
			</output>
		</layer>
		<layer id="56" name="38273831_const" type="Const" version="opset1">
			<data element_type="f32" offset="5748" shape="" size="4"/>
			<output>
				<port id="1" precision="FP32"/>
			</output>
		</layer>
		<layer id="57" name="38283832_const" type="Const" version="opset1">
			<data element_type="f32" offset="5752" shape="" size="4"/>
			<output>
				<port id="1" precision="FP32"/>
			</output>
		</layer>
		<layer id="58" name="bottleneck1_1/dim_inc/conv/fq_input_0" type="FakeQuantize" version="opset1">
			<data levels="256"/>
			<input>
				<port id="0">
					<dim>1</dim>
					<dim>8</dim>
					<dim>160</dim>
					<dim>272</dim>
				</port>
				<port id="1"/>
				<port id="2"/>
				<port id="3"/>
				<port id="4"/>
			</input>
			<output>
				<port id="5" precision="FP32">
					<dim>1</dim>
					<dim>8</dim>
					<dim>160</dim>
					<dim>272</dim>
				</port>
			</output>
		</layer>
		<layer id="59" name="Mul1_21079/Fused_Mul_2628026282_const844_const" type="Const" version="opset1">
			<data element_type="f32" offset="5756" shape="32,8,1,1" size="1024"/>
			<output>
				<port id="1" precision="FP32">
					<dim>32</dim>
					<dim>8</dim>
					<dim>1</dim>
					<dim>1</dim>
				</port>
			</output>
		</layer>
		<layer id="60" name="38353839_const" type="Const" version="opset1">
			<data element_type="f32" offset="6780" shape="32,1,1,1" size="128"/>
			<output>
				<port id="1" precision="FP32">
					<dim>32</dim>
					<dim>1</dim>
					<dim>1</dim>
					<dim>1</dim>
				</port>
			</output>
		</layer>
		<layer id="61" name="38363840_const" type="Const" version="opset1">
			<data element_type="f32" offset="6908" shape="32,1,1,1" size="128"/>
			<output>
				<port id="1" precision="FP32">
					<dim>32</dim>
					<dim>1</dim>
					<dim>1</dim>
					<dim>1</dim>
				</port>
			</output>
		</layer>
		<layer id="62" name="38373841_const" type="Const" version="opset1">
			<data element_type="f32" offset="6780" shape="32,1,1,1" size="128"/>
			<output>
				<port id="1" precision="FP32">
					<dim>32</dim>
					<dim>1</dim>
					<dim>1</dim>
					<dim>1</dim>
				</port>
			</output>
		</layer>
		<layer id="63" name="38383842_const" type="Const" version="opset1">
			<data element_type="f32" offset="6908" shape="32,1,1,1" size="128"/>
			<output>
				<port id="1" precision="FP32">
					<dim>32</dim>
					<dim>1</dim>
					<dim>1</dim>
					<dim>1</dim>
				</port>
			</output>
		</layer>
		<layer id="64" name="bottleneck1_1/dim_inc/conv/fq_weights_1" type="FakeQuantize" version="opset1">
			<data levels="255"/>
			<input>
				<port id="0">
					<dim>32</dim>
					<dim>8</dim>
					<dim>1</dim>
					<dim>1</dim>
				</port>
				<port id="1">
					<dim>32</dim>
					<dim>1</dim>
					<dim>1</dim>
					<dim>1</dim>
				</port>
				<port id="2">
					<dim>32</dim>
					<dim>1</dim>
					<dim>1</dim>
					<dim>1</dim>
				</port>
				<port id="3">
					<dim>32</dim>
					<dim>1</dim>
					<dim>1</dim>
					<dim>1</dim>
				</port>
				<port id="4">
					<dim>32</dim>
					<dim>1</dim>
					<dim>1</dim>
					<dim>1</dim>
				</port>
			</input>
			<output>
				<port id="5" precision="FP32">
					<dim>32</dim>
					<dim>8</dim>
					<dim>1</dim>
					<dim>1</dim>
				</port>
			</output>
		</layer>
		<layer id="65" name="bottleneck1_1/dim_inc/conv" type="Convolution" version="opset1">
			<data dilations="1,1" output_padding="0,0" pads_begin="0,0" pads_end="0,0" strides="1,1"/>
			<input>
				<port id="0">
					<dim>1</dim>
					<dim>8</dim>
					<dim>160</dim>
					<dim>272</dim>
				</port>
				<port id="1">
					<dim>32</dim>
					<dim>8</dim>
					<dim>1</dim>
					<dim>1</dim>
				</port>
			</input>
			<output>
				<port id="2" precision="FP32">
					<dim>1</dim>
					<dim>32</dim>
					<dim>160</dim>
					<dim>272</dim>
				</port>
			</output>
		</layer>
		<layer id="66" name="data_add_2447224477/copy_const846_const" type="Const" version="opset1">
			<data element_type="f32" offset="7036" shape="1,32,1,1" size="128"/>
			<output>
				<port id="1" precision="FP32">
					<dim>1</dim>
					<dim>32</dim>
					<dim>1</dim>
					<dim>1</dim>
				</port>
			</output>
		</layer>
		<layer id="67" name="Add1_21080/Fused_Add_" type="Add" version="opset1">
			<input>
				<port id="0">
					<dim>1</dim>
					<dim>32</dim>
					<dim>160</dim>
					<dim>272</dim>
				</port>
				<port id="1">
					<dim>1</dim>
					<dim>32</dim>
					<dim>1</dim>
					<dim>1</dim>
				</port>
			</input>
			<output>
				<port id="2" precision="FP32">
					<dim>1</dim>
					<dim>32</dim>
					<dim>160</dim>
					<dim>272</dim>
				</port>
			</output>
		</layer>
		<layer id="68" name="34953499_const" type="Const" version="opset1">
			<data element_type="f32" offset="7164" shape="" size="4"/>
			<output>
				<port id="1" precision="FP32"/>
			</output>
		</layer>
		<layer id="69" name="34963500_const" type="Const" version="opset1">
			<data element_type="f32" offset="7168" shape="" size="4"/>
			<output>
				<port id="1" precision="FP32"/>
			</output>
		</layer>
		<layer id="70" name="34973501_const" type="Const" version="opset1">
			<data element_type="f32" offset="7164" shape="" size="4"/>
			<output>
				<port id="1" precision="FP32"/>
			</output>
		</layer>
		<layer id="71" name="34983502_const" type="Const" version="opset1">
			<data element_type="f32" offset="7168" shape="" size="4"/>
			<output>
				<port id="1" precision="FP32"/>
			</output>
		</layer>
		<layer id="72" name="bottleneck1_1/add/fq_input_1" type="FakeQuantize" version="opset1">
			<data levels="256"/>
			<input>
				<port id="0">
					<dim>1</dim>
					<dim>32</dim>
					<dim>160</dim>
					<dim>272</dim>
				</port>
				<port id="1"/>
				<port id="2"/>
				<port id="3"/>
				<port id="4"/>
			</input>
			<output>
				<port id="5" precision="FP32">
					<dim>1</dim>
					<dim>32</dim>
					<dim>160</dim>
					<dim>272</dim>
				</port>
			</output>
		</layer>
		<layer id="73" name="bottleneck1_1/add" type="Add" version="opset1">
			<input>
				<port id="0">
					<dim>1</dim>
					<dim>32</dim>
					<dim>160</dim>
					<dim>272</dim>
				</port>
				<port id="1">
					<dim>1</dim>
					<dim>32</dim>
					<dim>160</dim>
					<dim>272</dim>
				</port>
			</input>
			<output>
				<port id="2" precision="FP32">
					<dim>1</dim>
					<dim>32</dim>
					<dim>160</dim>
					<dim>272</dim>
				</port>
			</output>
		</layer>
		<layer id="74" name="bottleneck1_1/fn32081/Cast_137516_const849_const" type="Const" version="opset1">
			<data element_type="f32" offset="5256" shape="1" size="4"/>
			<output>
				<port id="1" precision="FP32">
					<dim>1</dim>
				</port>
			</output>
		</layer>
		<layer id="75" name="bottleneck1_1/fn32081" type="PReLU" version="opset1">
			<input>
				<port id="0">
					<dim>1</dim>
					<dim>32</dim>
					<dim>160</dim>
					<dim>272</dim>
				</port>
				<port id="1">
					<dim>1</dim>
				</port>
			</input>
			<output>
				<port id="2" precision="FP32">
					<dim>1</dim>
					<dim>32</dim>
					<dim>160</dim>
					<dim>272</dim>
				</port>
			</output>
		</layer>
		<layer id="76" name="47254729_const" type="Const" version="opset1">
			<data element_type="f32" offset="7172" shape="" size="4"/>
			<output>
				<port id="1" precision="FP32"/>
			</output>
		</layer>
		<layer id="77" name="47264730_const" type="Const" version="opset1">
			<data element_type="f32" offset="7176" shape="" size="4"/>
			<output>
				<port id="1" precision="FP32"/>
			</output>
		</layer>
		<layer id="78" name="47274731_const" type="Const" version="opset1">
			<data element_type="f32" offset="7172" shape="" size="4"/>
			<output>
				<port id="1" precision="FP32"/>
			</output>
		</layer>
		<layer id="79" name="47284732_const" type="Const" version="opset1">
			<data element_type="f32" offset="7176" shape="" size="4"/>
			<output>
				<port id="1" precision="FP32"/>
			</output>
		</layer>
		<layer id="80" name="bottleneck1_2/add/fq_input_0" type="FakeQuantize" version="opset1">
			<data levels="256"/>
			<input>
				<port id="0">
					<dim>1</dim>
					<dim>32</dim>
					<dim>160</dim>
					<dim>272</dim>
				</port>
				<port id="1"/>
				<port id="2"/>
				<port id="3"/>
				<port id="4"/>
			</input>
			<output>
				<port id="5" precision="FP32">
					<dim>1</dim>
					<dim>32</dim>
					<dim>160</dim>
					<dim>272</dim>
				</port>
			</output>
		</layer>
		<layer id="81" name="Mul1_21091/Fused_Mul_2628426286_const851_const" type="Const" version="opset1">
			<data element_type="f32" offset="7180" shape="8,32,1,1" size="1024"/>
			<output>
				<port id="1" precision="FP32">
					<dim>8</dim>
					<dim>32</dim>
					<dim>1</dim>
					<dim>1</dim>
				</port>
			</output>
		</layer>
		<layer id="82" name="32753279_const" type="Const" version="opset1">
			<data element_type="f32" offset="8204" shape="8,1,1,1" size="32"/>
			<output>
				<port id="1" precision="FP32">
					<dim>8</dim>
					<dim>1</dim>
					<dim>1</dim>
					<dim>1</dim>
				</port>
			</output>
		</layer>
		<layer id="83" name="32763280_const" type="Const" version="opset1">
			<data element_type="f32" offset="8236" shape="8,1,1,1" size="32"/>
			<output>
				<port id="1" precision="FP32">
					<dim>8</dim>
					<dim>1</dim>
					<dim>1</dim>
					<dim>1</dim>
				</port>
			</output>
		</layer>
		<layer id="84" name="32773281_const" type="Const" version="opset1">
			<data element_type="f32" offset="8204" shape="8,1,1,1" size="32"/>
			<output>
				<port id="1" precision="FP32">
					<dim>8</dim>
					<dim>1</dim>
					<dim>1</dim>
					<dim>1</dim>
				</port>
			</output>
		</layer>
		<layer id="85" name="32783282_const" type="Const" version="opset1">
			<data element_type="f32" offset="8236" shape="8,1,1,1" size="32"/>
			<output>
				<port id="1" precision="FP32">
					<dim>8</dim>
					<dim>1</dim>
					<dim>1</dim>
					<dim>1</dim>
				</port>
			</output>
		</layer>
		<layer id="86" name="bottleneck1_2/dim_red/conv/fq_weights_1" type="FakeQuantize" version="opset1">
			<data levels="255"/>
			<input>
				<port id="0">
					<dim>8</dim>
					<dim>32</dim>
					<dim>1</dim>
					<dim>1</dim>
				</port>
				<port id="1">
					<dim>8</dim>
					<dim>1</dim>
					<dim>1</dim>
					<dim>1</dim>
				</port>
				<port id="2">
					<dim>8</dim>
					<dim>1</dim>
					<dim>1</dim>
					<dim>1</dim>
				</port>
				<port id="3">
					<dim>8</dim>
					<dim>1</dim>
					<dim>1</dim>
					<dim>1</dim>
				</port>
				<port id="4">
					<dim>8</dim>
					<dim>1</dim>
					<dim>1</dim>
					<dim>1</dim>
				</port>
			</input>
			<output>
				<port id="5" precision="FP32">
					<dim>8</dim>
					<dim>32</dim>
					<dim>1</dim>
					<dim>1</dim>
				</port>
			</output>
		</layer>
		<layer id="87" name="bottleneck1_2/dim_red/conv" type="Convolution" version="opset1">
			<data dilations="1,1" output_padding="0,0" pads_begin="0,0" pads_end="0,0" strides="1,1"/>
			<input>
				<port id="0">
					<dim>1</dim>
					<dim>32</dim>
					<dim>160</dim>
					<dim>272</dim>
				</port>
				<port id="1">
					<dim>8</dim>
					<dim>32</dim>
					<dim>1</dim>
					<dim>1</dim>
				</port>
			</input>
			<output>
				<port id="2" precision="FP32">
					<dim>1</dim>
					<dim>8</dim>
					<dim>160</dim>
					<dim>272</dim>
				</port>
			</output>
		</layer>
		<layer id="88" name="data_add_2448024485/copy_const853_const" type="Const" version="opset1">
			<data element_type="f32" offset="8268" shape="1,8,1,1" size="32"/>
			<output>
				<port id="1" precision="FP32">
					<dim>1</dim>
					<dim>8</dim>
					<dim>1</dim>
					<dim>1</dim>
				</port>
			</output>
		</layer>
		<layer id="89" name="Add1_21092/Fused_Add_" type="Add" version="opset1">
			<input>
				<port id="0">
					<dim>1</dim>
					<dim>8</dim>
					<dim>160</dim>
					<dim>272</dim>
				</port>
				<port id="1">
					<dim>1</dim>
					<dim>8</dim>
					<dim>1</dim>
					<dim>1</dim>
				</port>
			</input>
			<output>
				<port id="2" precision="FP32">
					<dim>1</dim>
					<dim>8</dim>
					<dim>160</dim>
					<dim>272</dim>
				</port>
			</output>
		</layer>
		<layer id="90" name="bottleneck1_2/dim_red/fn32197/Cast_137530_const855_const" type="Const" version="opset1">
			<data element_type="f32" offset="5256" shape="1" size="4"/>
			<output>
				<port id="1" precision="FP32">
					<dim>1</dim>
				</port>
			</output>
		</layer>
		<layer id="91" name="bottleneck1_2/dim_red/fn32197" type="PReLU" version="opset1">
			<input>
				<port id="0">
					<dim>1</dim>
					<dim>8</dim>
					<dim>160</dim>
					<dim>272</dim>
				</port>
				<port id="1">
					<dim>1</dim>
				</port>
			</input>
			<output>
				<port id="2" precision="FP32">
					<dim>1</dim>
					<dim>8</dim>
					<dim>160</dim>
					<dim>272</dim>
				</port>
			</output>
		</layer>
		<layer id="92" name="40254029_const" type="Const" version="opset1">
			<data element_type="f32" offset="8300" shape="1,8,1,1" size="32"/>
			<output>
				<port id="1" precision="FP32">
					<dim>1</dim>
					<dim>8</dim>
					<dim>1</dim>
					<dim>1</dim>
				</port>
			</output>
		</layer>
		<layer id="93" name="40264030_const" type="Const" version="opset1">
			<data element_type="f32" offset="8332" shape="1,8,1,1" size="32"/>
			<output>
				<port id="1" precision="FP32">
					<dim>1</dim>
					<dim>8</dim>
					<dim>1</dim>
					<dim>1</dim>
				</port>
			</output>
		</layer>
		<layer id="94" name="40274031_const" type="Const" version="opset1">
			<data element_type="f32" offset="8300" shape="1,8,1,1" size="32"/>
			<output>
				<port id="1" precision="FP32">
					<dim>1</dim>
					<dim>8</dim>
					<dim>1</dim>
					<dim>1</dim>
				</port>
			</output>
		</layer>
		<layer id="95" name="40284032_const" type="Const" version="opset1">
			<data element_type="f32" offset="8332" shape="1,8,1,1" size="32"/>
			<output>
				<port id="1" precision="FP32">
					<dim>1</dim>
					<dim>8</dim>
					<dim>1</dim>
					<dim>1</dim>
				</port>
			</output>
		</layer>
		<layer id="96" name="bottleneck1_2/inner/dw1/conv/fq_input_0" type="FakeQuantize" version="opset1">
			<data levels="256"/>
			<input>
				<port id="0">
					<dim>1</dim>
					<dim>8</dim>
					<dim>160</dim>
					<dim>272</dim>
				</port>
				<port id="1">
					<dim>1</dim>
					<dim>8</dim>
					<dim>1</dim>
					<dim>1</dim>
				</port>
				<port id="2">
					<dim>1</dim>
					<dim>8</dim>
					<dim>1</dim>
					<dim>1</dim>
				</port>
				<port id="3">
					<dim>1</dim>
					<dim>8</dim>
					<dim>1</dim>
					<dim>1</dim>
				</port>
				<port id="4">
					<dim>1</dim>
					<dim>8</dim>
					<dim>1</dim>
					<dim>1</dim>
				</port>
			</input>
			<output>
				<port id="5" precision="FP32">
					<dim>1</dim>
					<dim>8</dim>
					<dim>160</dim>
					<dim>272</dim>
				</port>
			</output>
		</layer>
		<layer id="97" name="18531572_const" type="Const" version="opset1">
			<data element_type="f32" offset="8364" shape="8,1,3,3" size="288"/>
			<output>
				<port id="1" precision="FP32">
					<dim>8</dim>
					<dim>1</dim>
					<dim>3</dim>
					<dim>3</dim>
				</port>
			</output>
		</layer>
		<layer id="98" name="40354039_const" type="Const" version="opset1">
			<data element_type="f32" offset="8652" shape="8,1,1,1" size="32"/>
			<output>
				<port id="1" precision="FP32">
					<dim>8</dim>
					<dim>1</dim>
					<dim>1</dim>
					<dim>1</dim>
				</port>
			</output>
		</layer>
		<layer id="99" name="40364040_const" type="Const" version="opset1">
			<data element_type="f32" offset="8684" shape="8,1,1,1" size="32"/>
			<output>
				<port id="1" precision="FP32">
					<dim>8</dim>
					<dim>1</dim>
					<dim>1</dim>
					<dim>1</dim>
				</port>
			</output>
		</layer>
		<layer id="100" name="40374041_const" type="Const" version="opset1">
			<data element_type="f32" offset="8652" shape="8,1,1,1" size="32"/>
			<output>
				<port id="1" precision="FP32">
					<dim>8</dim>
					<dim>1</dim>
					<dim>1</dim>
					<dim>1</dim>
				</port>
			</output>
		</layer>
		<layer id="101" name="40384042_const" type="Const" version="opset1">
			<data element_type="f32" offset="8684" shape="8,1,1,1" size="32"/>
			<output>
				<port id="1" precision="FP32">
					<dim>8</dim>
					<dim>1</dim>
					<dim>1</dim>
					<dim>1</dim>
				</port>
			</output>
		</layer>
		<layer id="102" name="bottleneck1_2/inner/dw1/conv/fq_weights_1" type="FakeQuantize" version="opset1">
			<data levels="255"/>
			<input>
				<port id="0">
					<dim>8</dim>
					<dim>1</dim>
					<dim>3</dim>
					<dim>3</dim>
				</port>
				<port id="1">
					<dim>8</dim>
					<dim>1</dim>
					<dim>1</dim>
					<dim>1</dim>
				</port>
				<port id="2">
					<dim>8</dim>
					<dim>1</dim>
					<dim>1</dim>
					<dim>1</dim>
				</port>
				<port id="3">
					<dim>8</dim>
					<dim>1</dim>
					<dim>1</dim>
					<dim>1</dim>
				</port>
				<port id="4">
					<dim>8</dim>
					<dim>1</dim>
					<dim>1</dim>
					<dim>1</dim>
				</port>
			</input>
			<output>
				<port id="5" precision="FP32">
					<dim>8</dim>
					<dim>1</dim>
					<dim>3</dim>
					<dim>3</dim>
				</port>
			</output>
		</layer>
		<layer id="103" name="9951/value9953_const" type="Const" version="opset1">
			<data element_type="i64" offset="5676" shape="5" size="40"/>
			<output>
				<port id="1" precision="I64">
					<dim>5</dim>
				</port>
			</output>
		</layer>
		<layer id="104" name="9951" type="Reshape" version="opset1">
			<data special_zero="True"/>
			<input>
				<port id="0">
					<dim>8</dim>
					<dim>1</dim>
					<dim>3</dim>
					<dim>3</dim>
				</port>
				<port id="1">
					<dim>5</dim>
				</port>
			</input>
			<output>
				<port id="2" precision="FP32">
					<dim>8</dim>
					<dim>1</dim>
					<dim>1</dim>
					<dim>3</dim>
					<dim>3</dim>
				</port>
			</output>
		</layer>
		<layer id="105" name="bottleneck1_2/inner/dw1/conv" type="GroupConvolution" version="opset1">
			<data dilations="1,1" output_padding="0,0" pads_begin="1,1" pads_end="1,1" strides="1,1"/>
			<input>
				<port id="0">
					<dim>1</dim>
					<dim>8</dim>
					<dim>160</dim>
					<dim>272</dim>
				</port>
				<port id="1">
					<dim>8</dim>
					<dim>1</dim>
					<dim>1</dim>
					<dim>3</dim>
					<dim>3</dim>
				</port>
			</input>
			<output>
				<port id="2" precision="FP32">
					<dim>1</dim>
					<dim>8</dim>
					<dim>160</dim>
					<dim>272</dim>
				</port>
			</output>
		</layer>
		<layer id="106" name="data_add_2448824493/copy_const859_const" type="Const" version="opset1">
			<data element_type="f32" offset="8716" shape="1,8,1,1" size="32"/>
			<output>
				<port id="1" precision="FP32">
					<dim>1</dim>
					<dim>8</dim>
					<dim>1</dim>
					<dim>1</dim>
				</port>
			</output>
		</layer>
		<layer id="107" name="Add1_21104/Fused_Add_" type="Add" version="opset1">
			<input>
				<port id="0">
					<dim>1</dim>
					<dim>8</dim>
					<dim>160</dim>
					<dim>272</dim>
				</port>
				<port id="1">
					<dim>1</dim>
					<dim>8</dim>
					<dim>1</dim>
					<dim>1</dim>
				</port>
			</input>
			<output>
				<port id="2" precision="FP32">
					<dim>1</dim>
					<dim>8</dim>
					<dim>160</dim>
					<dim>272</dim>
				</port>
			</output>
		</layer>
		<layer id="108" name="bottleneck1_2/inner/dw1/fn32061/Cast_137534_const861_const" type="Const" version="opset1">
			<data element_type="f32" offset="5256" shape="1" size="4"/>
			<output>
				<port id="1" precision="FP32">
					<dim>1</dim>
				</port>
			</output>
		</layer>
		<layer id="109" name="bottleneck1_2/inner/dw1/fn32061" type="PReLU" version="opset1">
			<input>
				<port id="0">
					<dim>1</dim>
					<dim>8</dim>
					<dim>160</dim>
					<dim>272</dim>
				</port>
				<port id="1">
					<dim>1</dim>
				</port>
			</input>
			<output>
				<port id="2" precision="FP32">
					<dim>1</dim>
					<dim>8</dim>
					<dim>160</dim>
					<dim>272</dim>
				</port>
			</output>
		</layer>
		<layer id="110" name="31653169_const" type="Const" version="opset1">
			<data element_type="f32" offset="8748" shape="" size="4"/>
			<output>
				<port id="1" precision="FP32"/>
			</output>
		</layer>
		<layer id="111" name="31663170_const" type="Const" version="opset1">
			<data element_type="f32" offset="8752" shape="" size="4"/>
			<output>
				<port id="1" precision="FP32"/>
			</output>
		</layer>
		<layer id="112" name="31673171_const" type="Const" version="opset1">
			<data element_type="f32" offset="8748" shape="" size="4"/>
			<output>
				<port id="1" precision="FP32"/>
			</output>
		</layer>
		<layer id="113" name="31683172_const" type="Const" version="opset1">
			<data element_type="f32" offset="8752" shape="" size="4"/>
			<output>
				<port id="1" precision="FP32"/>
			</output>
		</layer>
		<layer id="114" name="bottleneck1_2/dim_inc/conv/fq_input_0" type="FakeQuantize" version="opset1">
			<data levels="256"/>
			<input>
				<port id="0">
					<dim>1</dim>
					<dim>8</dim>
					<dim>160</dim>
					<dim>272</dim>
				</port>
				<port id="1"/>
				<port id="2"/>
				<port id="3"/>
				<port id="4"/>
			</input>
			<output>
				<port id="5" precision="FP32">
					<dim>1</dim>
					<dim>8</dim>
					<dim>160</dim>
					<dim>272</dim>
				</port>
			</output>
		</layer>
		<layer id="115" name="Mul1_21115/Fused_Mul_2629226294_const863_const" type="Const" version="opset1">
			<data element_type="f32" offset="8756" shape="32,8,1,1" size="1024"/>
			<output>
				<port id="1" precision="FP32">
					<dim>32</dim>
					<dim>8</dim>
					<dim>1</dim>
					<dim>1</dim>
				</port>
			</output>
		</layer>
		<layer id="116" name="31753179_const" type="Const" version="opset1">
			<data element_type="f32" offset="9780" shape="32,1,1,1" size="128"/>
			<output>
				<port id="1" precision="FP32">
					<dim>32</dim>
					<dim>1</dim>
					<dim>1</dim>
					<dim>1</dim>
				</port>
			</output>
		</layer>
		<layer id="117" name="31763180_const" type="Const" version="opset1">
			<data element_type="f32" offset="9908" shape="32,1,1,1" size="128"/>
			<output>
				<port id="1" precision="FP32">
					<dim>32</dim>
					<dim>1</dim>
					<dim>1</dim>
					<dim>1</dim>
				</port>
			</output>
		</layer>
		<layer id="118" name="31773181_const" type="Const" version="opset1">
			<data element_type="f32" offset="9780" shape="32,1,1,1" size="128"/>
			<output>
				<port id="1" precision="FP32">
					<dim>32</dim>
					<dim>1</dim>
					<dim>1</dim>
					<dim>1</dim>
				</port>
			</output>
		</layer>
		<layer id="119" name="31783182_const" type="Const" version="opset1">
			<data element_type="f32" offset="9908" shape="32,1,1,1" size="128"/>
			<output>
				<port id="1" precision="FP32">
					<dim>32</dim>
					<dim>1</dim>
					<dim>1</dim>
					<dim>1</dim>
				</port>
			</output>
		</layer>
		<layer id="120" name="bottleneck1_2/dim_inc/conv/fq_weights_1" type="FakeQuantize" version="opset1">
			<data levels="255"/>
			<input>
				<port id="0">
					<dim>32</dim>
					<dim>8</dim>
					<dim>1</dim>
					<dim>1</dim>
				</port>
				<port id="1">
					<dim>32</dim>
					<dim>1</dim>
					<dim>1</dim>
					<dim>1</dim>
				</port>
				<port id="2">
					<dim>32</dim>
					<dim>1</dim>
					<dim>1</dim>
					<dim>1</dim>
				</port>
				<port id="3">
					<dim>32</dim>
					<dim>1</dim>
					<dim>1</dim>
					<dim>1</dim>
				</port>
				<port id="4">
					<dim>32</dim>
					<dim>1</dim>
					<dim>1</dim>
					<dim>1</dim>
				</port>
			</input>
			<output>
				<port id="5" precision="FP32">
					<dim>32</dim>
					<dim>8</dim>
					<dim>1</dim>
					<dim>1</dim>
				</port>
			</output>
		</layer>
		<layer id="121" name="bottleneck1_2/dim_inc/conv" type="Convolution" version="opset1">
			<data dilations="1,1" output_padding="0,0" pads_begin="0,0" pads_end="0,0" strides="1,1"/>
			<input>
				<port id="0">
					<dim>1</dim>
					<dim>8</dim>
					<dim>160</dim>
					<dim>272</dim>
				</port>
				<port id="1">
					<dim>32</dim>
					<dim>8</dim>
					<dim>1</dim>
					<dim>1</dim>
				</port>
			</input>
			<output>
				<port id="2" precision="FP32">
					<dim>1</dim>
					<dim>32</dim>
					<dim>160</dim>
					<dim>272</dim>
				</port>
			</output>
		</layer>
		<layer id="122" name="data_add_2449624501/copy_const865_const" type="Const" version="opset1">
			<data element_type="f32" offset="10036" shape="1,32,1,1" size="128"/>
			<output>
				<port id="1" precision="FP32">
					<dim>1</dim>
					<dim>32</dim>
					<dim>1</dim>
					<dim>1</dim>
				</port>
			</output>
		</layer>
		<layer id="123" name="Add1_21116/Fused_Add_" type="Add" version="opset1">
			<input>
				<port id="0">
					<dim>1</dim>
					<dim>32</dim>
					<dim>160</dim>
					<dim>272</dim>
				</port>
				<port id="1">
					<dim>1</dim>
					<dim>32</dim>
					<dim>1</dim>
					<dim>1</dim>
				</port>
			</input>
			<output>
				<port id="2" precision="FP32">
					<dim>1</dim>
					<dim>32</dim>
					<dim>160</dim>
					<dim>272</dim>
				</port>
			</output>
		</layer>
		<layer id="124" name="47354739_const" type="Const" version="opset1">
			<data element_type="f32" offset="10164" shape="" size="4"/>
			<output>
				<port id="1" precision="FP32"/>
			</output>
		</layer>
		<layer id="125" name="47364740_const" type="Const" version="opset1">
			<data element_type="f32" offset="10168" shape="" size="4"/>
			<output>
				<port id="1" precision="FP32"/>
			</output>
		</layer>
		<layer id="126" name="47374741_const" type="Const" version="opset1">
			<data element_type="f32" offset="10164" shape="" size="4"/>
			<output>
				<port id="1" precision="FP32"/>
			</output>
		</layer>
		<layer id="127" name="47384742_const" type="Const" version="opset1">
			<data element_type="f32" offset="10168" shape="" size="4"/>
			<output>
				<port id="1" precision="FP32"/>
			</output>
		</layer>
		<layer id="128" name="bottleneck1_2/add/fq_input_1" type="FakeQuantize" version="opset1">
			<data levels="256"/>
			<input>
				<port id="0">
					<dim>1</dim>
					<dim>32</dim>
					<dim>160</dim>
					<dim>272</dim>
				</port>
				<port id="1"/>
				<port id="2"/>
				<port id="3"/>
				<port id="4"/>
			</input>
			<output>
				<port id="5" precision="FP32">
					<dim>1</dim>
					<dim>32</dim>
					<dim>160</dim>
					<dim>272</dim>
				</port>
			</output>
		</layer>
		<layer id="129" name="bottleneck1_2/add" type="Add" version="opset1">
			<input>
				<port id="0">
					<dim>1</dim>
					<dim>32</dim>
					<dim>160</dim>
					<dim>272</dim>
				</port>
				<port id="1">
					<dim>1</dim>
					<dim>32</dim>
					<dim>160</dim>
					<dim>272</dim>
				</port>
			</input>
			<output>
				<port id="2" precision="FP32">
					<dim>1</dim>
					<dim>32</dim>
					<dim>160</dim>
					<dim>272</dim>
				</port>
			</output>
		</layer>
		<layer id="130" name="bottleneck1_2/fn32129/Cast_137546_const868_const" type="Const" version="opset1">
			<data element_type="f32" offset="5256" shape="1" size="4"/>
			<output>
				<port id="1" precision="FP32">
					<dim>1</dim>
				</port>
			</output>
		</layer>
		<layer id="131" name="bottleneck1_2/fn32129" type="PReLU" version="opset1">
			<input>
				<port id="0">
					<dim>1</dim>
					<dim>32</dim>
					<dim>160</dim>
					<dim>272</dim>
				</port>
				<port id="1">
					<dim>1</dim>
				</port>
			</input>
			<output>
				<port id="2" precision="FP32">
					<dim>1</dim>
					<dim>32</dim>
					<dim>160</dim>
					<dim>272</dim>
				</port>
			</output>
		</layer>
		<layer id="132" name="42454249_const" type="Const" version="opset1">
			<data element_type="f32" offset="10172" shape="" size="4"/>
			<output>
				<port id="1" precision="FP32"/>
			</output>
		</layer>
		<layer id="133" name="42464250_const" type="Const" version="opset1">
			<data element_type="f32" offset="10176" shape="" size="4"/>
			<output>
				<port id="1" precision="FP32"/>
			</output>
		</layer>
		<layer id="134" name="42474251_const" type="Const" version="opset1">
			<data element_type="f32" offset="10172" shape="" size="4"/>
			<output>
				<port id="1" precision="FP32"/>
			</output>
		</layer>
		<layer id="135" name="42484252_const" type="Const" version="opset1">
			<data element_type="f32" offset="10176" shape="" size="4"/>
			<output>
				<port id="1" precision="FP32"/>
			</output>
		</layer>
		<layer id="136" name="bottleneck1_3/add/fq_input_0" type="FakeQuantize" version="opset1">
			<data levels="256"/>
			<input>
				<port id="0">
					<dim>1</dim>
					<dim>32</dim>
					<dim>160</dim>
					<dim>272</dim>
				</port>
				<port id="1"/>
				<port id="2"/>
				<port id="3"/>
				<port id="4"/>
			</input>
			<output>
				<port id="5" precision="FP32">
					<dim>1</dim>
					<dim>32</dim>
					<dim>160</dim>
					<dim>272</dim>
				</port>
			</output>
		</layer>
		<layer id="137" name="Mul1_21127/Fused_Mul_2629626298_const870_const" type="Const" version="opset1">
			<data element_type="f32" offset="10180" shape="8,32,1,1" size="1024"/>
			<output>
				<port id="1" precision="FP32">
					<dim>8</dim>
					<dim>32</dim>
					<dim>1</dim>
					<dim>1</dim>
				</port>
			</output>
		</layer>
		<layer id="138" name="42354239_const" type="Const" version="opset1">
			<data element_type="f32" offset="11204" shape="8,1,1,1" size="32"/>
			<output>
				<port id="1" precision="FP32">
					<dim>8</dim>
					<dim>1</dim>
					<dim>1</dim>
					<dim>1</dim>
				</port>
			</output>
		</layer>
		<layer id="139" name="42364240_const" type="Const" version="opset1">
			<data element_type="f32" offset="11236" shape="8,1,1,1" size="32"/>
			<output>
				<port id="1" precision="FP32">
					<dim>8</dim>
					<dim>1</dim>
					<dim>1</dim>
					<dim>1</dim>
				</port>
			</output>
		</layer>
		<layer id="140" name="42374241_const" type="Const" version="opset1">
			<data element_type="f32" offset="11204" shape="8,1,1,1" size="32"/>
			<output>
				<port id="1" precision="FP32">
					<dim>8</dim>
					<dim>1</dim>
					<dim>1</dim>
					<dim>1</dim>
				</port>
			</output>
		</layer>
		<layer id="141" name="42384242_const" type="Const" version="opset1">
			<data element_type="f32" offset="11236" shape="8,1,1,1" size="32"/>
			<output>
				<port id="1" precision="FP32">
					<dim>8</dim>
					<dim>1</dim>
					<dim>1</dim>
					<dim>1</dim>
				</port>
			</output>
		</layer>
		<layer id="142" name="bottleneck1_3/dim_red/conv/fq_weights_1" type="FakeQuantize" version="opset1">
			<data levels="255"/>
			<input>
				<port id="0">
					<dim>8</dim>
					<dim>32</dim>
					<dim>1</dim>
					<dim>1</dim>
				</port>
				<port id="1">
					<dim>8</dim>
					<dim>1</dim>
					<dim>1</dim>
					<dim>1</dim>
				</port>
				<port id="2">
					<dim>8</dim>
					<dim>1</dim>
					<dim>1</dim>
					<dim>1</dim>
				</port>
				<port id="3">
					<dim>8</dim>
					<dim>1</dim>
					<dim>1</dim>
					<dim>1</dim>
				</port>
				<port id="4">
					<dim>8</dim>
					<dim>1</dim>
					<dim>1</dim>
					<dim>1</dim>
				</port>
			</input>
			<output>
				<port id="5" precision="FP32">
					<dim>8</dim>
					<dim>32</dim>
					<dim>1</dim>
					<dim>1</dim>
				</port>
			</output>
		</layer>
		<layer id="143" name="bottleneck1_3/dim_red/conv" type="Convolution" version="opset1">
			<data dilations="1,1" output_padding="0,0" pads_begin="0,0" pads_end="0,0" strides="1,1"/>
			<input>
				<port id="0">
					<dim>1</dim>
					<dim>32</dim>
					<dim>160</dim>
					<dim>272</dim>
				</port>
				<port id="1">
					<dim>8</dim>
					<dim>32</dim>
					<dim>1</dim>
					<dim>1</dim>
				</port>
			</input>
			<output>
				<port id="2" precision="FP32">
					<dim>1</dim>
					<dim>8</dim>
					<dim>160</dim>
					<dim>272</dim>
				</port>
			</output>
		</layer>
		<layer id="144" name="data_add_2450424509/copy_const872_const" type="Const" version="opset1">
			<data element_type="f32" offset="11268" shape="1,8,1,1" size="32"/>
			<output>
				<port id="1" precision="FP32">
					<dim>1</dim>
					<dim>8</dim>
					<dim>1</dim>
					<dim>1</dim>
				</port>
			</output>
		</layer>
		<layer id="145" name="Add1_21128/Fused_Add_" type="Add" version="opset1">
			<input>
				<port id="0">
					<dim>1</dim>
					<dim>8</dim>
					<dim>160</dim>
					<dim>272</dim>
				</port>
				<port id="1">
					<dim>1</dim>
					<dim>8</dim>
					<dim>1</dim>
					<dim>1</dim>
				</port>
			</input>
			<output>
				<port id="2" precision="FP32">
					<dim>1</dim>
					<dim>8</dim>
					<dim>160</dim>
					<dim>272</dim>
				</port>
			</output>
		</layer>
		<layer id="146" name="bottleneck1_3/dim_red/fn31993/Cast_137604_const874_const" type="Const" version="opset1">
			<data element_type="f32" offset="5256" shape="1" size="4"/>
			<output>
				<port id="1" precision="FP32">
					<dim>1</dim>
				</port>
			</output>
		</layer>
		<layer id="147" name="bottleneck1_3/dim_red/fn31993" type="PReLU" version="opset1">
			<input>
				<port id="0">
					<dim>1</dim>
					<dim>8</dim>
					<dim>160</dim>
					<dim>272</dim>
				</port>
				<port id="1">
					<dim>1</dim>
				</port>
			</input>
			<output>
				<port id="2" precision="FP32">
					<dim>1</dim>
					<dim>8</dim>
					<dim>160</dim>
					<dim>272</dim>
				</port>
			</output>
		</layer>
		<layer id="148" name="28452849_const" type="Const" version="opset1">
			<data element_type="f32" offset="11300" shape="1,8,1,1" size="32"/>
			<output>
				<port id="1" precision="FP32">
					<dim>1</dim>
					<dim>8</dim>
					<dim>1</dim>
					<dim>1</dim>
				</port>
			</output>
		</layer>
		<layer id="149" name="28462850_const" type="Const" version="opset1">
			<data element_type="f32" offset="11332" shape="1,8,1,1" size="32"/>
			<output>
				<port id="1" precision="FP32">
					<dim>1</dim>
					<dim>8</dim>
					<dim>1</dim>
					<dim>1</dim>
				</port>
			</output>
		</layer>
		<layer id="150" name="28472851_const" type="Const" version="opset1">
			<data element_type="f32" offset="11300" shape="1,8,1,1" size="32"/>
			<output>
				<port id="1" precision="FP32">
					<dim>1</dim>
					<dim>8</dim>
					<dim>1</dim>
					<dim>1</dim>
				</port>
			</output>
		</layer>
		<layer id="151" name="28482852_const" type="Const" version="opset1">
			<data element_type="f32" offset="11332" shape="1,8,1,1" size="32"/>
			<output>
				<port id="1" precision="FP32">
					<dim>1</dim>
					<dim>8</dim>
					<dim>1</dim>
					<dim>1</dim>
				</port>
			</output>
		</layer>
		<layer id="152" name="bottleneck1_3/inner/dw1/conv/fq_input_0" type="FakeQuantize" version="opset1">
			<data levels="256"/>
			<input>
				<port id="0">
					<dim>1</dim>
					<dim>8</dim>
					<dim>160</dim>
					<dim>272</dim>
				</port>
				<port id="1">
					<dim>1</dim>
					<dim>8</dim>
					<dim>1</dim>
					<dim>1</dim>
				</port>
				<port id="2">
					<dim>1</dim>
					<dim>8</dim>
					<dim>1</dim>
					<dim>1</dim>
				</port>
				<port id="3">
					<dim>1</dim>
					<dim>8</dim>
					<dim>1</dim>
					<dim>1</dim>
				</port>
				<port id="4">
					<dim>1</dim>
					<dim>8</dim>
					<dim>1</dim>
					<dim>1</dim>
				</port>
			</input>
			<output>
				<port id="5" precision="FP32">
					<dim>1</dim>
					<dim>8</dim>
					<dim>160</dim>
					<dim>272</dim>
				</port>
			</output>
		</layer>
		<layer id="153" name="18571574_const" type="Const" version="opset1">
			<data element_type="f32" offset="11364" shape="8,1,3,3" size="288"/>
			<output>
				<port id="1" precision="FP32">
					<dim>8</dim>
					<dim>1</dim>
					<dim>3</dim>
					<dim>3</dim>
				</port>
			</output>
		</layer>
		<layer id="154" name="28552859_const" type="Const" version="opset1">
			<data element_type="f32" offset="11652" shape="8,1,1,1" size="32"/>
			<output>
				<port id="1" precision="FP32">
					<dim>8</dim>
					<dim>1</dim>
					<dim>1</dim>
					<dim>1</dim>
				</port>
			</output>
		</layer>
		<layer id="155" name="28562860_const" type="Const" version="opset1">
			<data element_type="f32" offset="11684" shape="8,1,1,1" size="32"/>
			<output>
				<port id="1" precision="FP32">
					<dim>8</dim>
					<dim>1</dim>
					<dim>1</dim>
					<dim>1</dim>
				</port>
			</output>
		</layer>
		<layer id="156" name="28572861_const" type="Const" version="opset1">
			<data element_type="f32" offset="11652" shape="8,1,1,1" size="32"/>
			<output>
				<port id="1" precision="FP32">
					<dim>8</dim>
					<dim>1</dim>
					<dim>1</dim>
					<dim>1</dim>
				</port>
			</output>
		</layer>
		<layer id="157" name="28582862_const" type="Const" version="opset1">
			<data element_type="f32" offset="11684" shape="8,1,1,1" size="32"/>
			<output>
				<port id="1" precision="FP32">
					<dim>8</dim>
					<dim>1</dim>
					<dim>1</dim>
					<dim>1</dim>
				</port>
			</output>
		</layer>
		<layer id="158" name="bottleneck1_3/inner/dw1/conv/fq_weights_1" type="FakeQuantize" version="opset1">
			<data levels="255"/>
			<input>
				<port id="0">
					<dim>8</dim>
					<dim>1</dim>
					<dim>3</dim>
					<dim>3</dim>
				</port>
				<port id="1">
					<dim>8</dim>
					<dim>1</dim>
					<dim>1</dim>
					<dim>1</dim>
				</port>
				<port id="2">
					<dim>8</dim>
					<dim>1</dim>
					<dim>1</dim>
					<dim>1</dim>
				</port>
				<port id="3">
					<dim>8</dim>
					<dim>1</dim>
					<dim>1</dim>
					<dim>1</dim>
				</port>
				<port id="4">
					<dim>8</dim>
					<dim>1</dim>
					<dim>1</dim>
					<dim>1</dim>
				</port>
			</input>
			<output>
				<port id="5" precision="FP32">
					<dim>8</dim>
					<dim>1</dim>
					<dim>3</dim>
					<dim>3</dim>
				</port>
			</output>
		</layer>
		<layer id="159" name="9903/value9905_const" type="Const" version="opset1">
			<data element_type="i64" offset="5676" shape="5" size="40"/>
			<output>
				<port id="1" precision="I64">
					<dim>5</dim>
				</port>
			</output>
		</layer>
		<layer id="160" name="9903" type="Reshape" version="opset1">
			<data special_zero="True"/>
			<input>
				<port id="0">
					<dim>8</dim>
					<dim>1</dim>
					<dim>3</dim>
					<dim>3</dim>
				</port>
				<port id="1">
					<dim>5</dim>
				</port>
			</input>
			<output>
				<port id="2" precision="FP32">
					<dim>8</dim>
					<dim>1</dim>
					<dim>1</dim>
					<dim>3</dim>
					<dim>3</dim>
				</port>
			</output>
		</layer>
		<layer id="161" name="bottleneck1_3/inner/dw1/conv" type="GroupConvolution" version="opset1">
			<data dilations="1,1" output_padding="0,0" pads_begin="1,1" pads_end="1,1" strides="1,1"/>
			<input>
				<port id="0">
					<dim>1</dim>
					<dim>8</dim>
					<dim>160</dim>
					<dim>272</dim>
				</port>
				<port id="1">
					<dim>8</dim>
					<dim>1</dim>
					<dim>1</dim>
					<dim>3</dim>
					<dim>3</dim>
				</port>
			</input>
			<output>
				<port id="2" precision="FP32">
					<dim>1</dim>
					<dim>8</dim>
					<dim>160</dim>
					<dim>272</dim>
				</port>
			</output>
		</layer>
		<layer id="162" name="data_add_2451224517/copy_const878_const" type="Const" version="opset1">
			<data element_type="f32" offset="11716" shape="1,8,1,1" size="32"/>
			<output>
				<port id="1" precision="FP32">
					<dim>1</dim>
					<dim>8</dim>
					<dim>1</dim>
					<dim>1</dim>
				</port>
			</output>
		</layer>
		<layer id="163" name="Add1_21140/Fused_Add_" type="Add" version="opset1">
			<input>
				<port id="0">
					<dim>1</dim>
					<dim>8</dim>
					<dim>160</dim>
					<dim>272</dim>
				</port>
				<port id="1">
					<dim>1</dim>
					<dim>8</dim>
					<dim>1</dim>
					<dim>1</dim>
				</port>
			</input>
			<output>
				<port id="2" precision="FP32">
					<dim>1</dim>
					<dim>8</dim>
					<dim>160</dim>
					<dim>272</dim>
				</port>
			</output>
		</layer>
		<layer id="164" name="bottleneck1_3/inner/dw1/fn31981/Cast_137636_const880_const" type="Const" version="opset1">
			<data element_type="f32" offset="5256" shape="1" size="4"/>
			<output>
				<port id="1" precision="FP32">
					<dim>1</dim>
				</port>
			</output>
		</layer>
		<layer id="165" name="bottleneck1_3/inner/dw1/fn31981" type="PReLU" version="opset1">
			<input>
				<port id="0">
					<dim>1</dim>
					<dim>8</dim>
					<dim>160</dim>
					<dim>272</dim>
				</port>
				<port id="1">
					<dim>1</dim>
				</port>
			</input>
			<output>
				<port id="2" precision="FP32">
					<dim>1</dim>
					<dim>8</dim>
					<dim>160</dim>
					<dim>272</dim>
				</port>
			</output>
		</layer>
		<layer id="166" name="51655169_const" type="Const" version="opset1">
			<data element_type="f32" offset="11748" shape="" size="4"/>
			<output>
				<port id="1" precision="FP32"/>
			</output>
		</layer>
		<layer id="167" name="51665170_const" type="Const" version="opset1">
			<data element_type="f32" offset="11752" shape="" size="4"/>
			<output>
				<port id="1" precision="FP32"/>
			</output>
		</layer>
		<layer id="168" name="51675171_const" type="Const" version="opset1">
			<data element_type="f32" offset="11748" shape="" size="4"/>
			<output>
				<port id="1" precision="FP32"/>
			</output>
		</layer>
		<layer id="169" name="51685172_const" type="Const" version="opset1">
			<data element_type="f32" offset="11752" shape="" size="4"/>
			<output>
				<port id="1" precision="FP32"/>
			</output>
		</layer>
		<layer id="170" name="bottleneck1_3/dim_inc/conv/fq_input_0" type="FakeQuantize" version="opset1">
			<data levels="256"/>
			<input>
				<port id="0">
					<dim>1</dim>
					<dim>8</dim>
					<dim>160</dim>
					<dim>272</dim>
				</port>
				<port id="1"/>
				<port id="2"/>
				<port id="3"/>
				<port id="4"/>
			</input>
			<output>
				<port id="5" precision="FP32">
					<dim>1</dim>
					<dim>8</dim>
					<dim>160</dim>
					<dim>272</dim>
				</port>
			</output>
		</layer>
		<layer id="171" name="Mul1_21151/Fused_Mul_2630426306_const882_const" type="Const" version="opset1">
			<data element_type="f32" offset="11756" shape="32,8,1,1" size="1024"/>
			<output>
				<port id="1" precision="FP32">
					<dim>32</dim>
					<dim>8</dim>
					<dim>1</dim>
					<dim>1</dim>
				</port>
			</output>
		</layer>
		<layer id="172" name="51755179_const" type="Const" version="opset1">
			<data element_type="f32" offset="12780" shape="32,1,1,1" size="128"/>
			<output>
				<port id="1" precision="FP32">
					<dim>32</dim>
					<dim>1</dim>
					<dim>1</dim>
					<dim>1</dim>
				</port>
			</output>
		</layer>
		<layer id="173" name="51765180_const" type="Const" version="opset1">
			<data element_type="f32" offset="12908" shape="32,1,1,1" size="128"/>
			<output>
				<port id="1" precision="FP32">
					<dim>32</dim>
					<dim>1</dim>
					<dim>1</dim>
					<dim>1</dim>
				</port>
			</output>
		</layer>
		<layer id="174" name="51775181_const" type="Const" version="opset1">
			<data element_type="f32" offset="12780" shape="32,1,1,1" size="128"/>
			<output>
				<port id="1" precision="FP32">
					<dim>32</dim>
					<dim>1</dim>
					<dim>1</dim>
					<dim>1</dim>
				</port>
			</output>
		</layer>
		<layer id="175" name="51785182_const" type="Const" version="opset1">
			<data element_type="f32" offset="12908" shape="32,1,1,1" size="128"/>
			<output>
				<port id="1" precision="FP32">
					<dim>32</dim>
					<dim>1</dim>
					<dim>1</dim>
					<dim>1</dim>
				</port>
			</output>
		</layer>
		<layer id="176" name="bottleneck1_3/dim_inc/conv/fq_weights_1" type="FakeQuantize" version="opset1">
			<data levels="255"/>
			<input>
				<port id="0">
					<dim>32</dim>
					<dim>8</dim>
					<dim>1</dim>
					<dim>1</dim>
				</port>
				<port id="1">
					<dim>32</dim>
					<dim>1</dim>
					<dim>1</dim>
					<dim>1</dim>
				</port>
				<port id="2">
					<dim>32</dim>
					<dim>1</dim>
					<dim>1</dim>
					<dim>1</dim>
				</port>
				<port id="3">
					<dim>32</dim>
					<dim>1</dim>
					<dim>1</dim>
					<dim>1</dim>
				</port>
				<port id="4">
					<dim>32</dim>
					<dim>1</dim>
					<dim>1</dim>
					<dim>1</dim>
				</port>
			</input>
			<output>
				<port id="5" precision="FP32">
					<dim>32</dim>
					<dim>8</dim>
					<dim>1</dim>
					<dim>1</dim>
				</port>
			</output>
		</layer>
		<layer id="177" name="bottleneck1_3/dim_inc/conv" type="Convolution" version="opset1">
			<data dilations="1,1" output_padding="0,0" pads_begin="0,0" pads_end="0,0" strides="1,1"/>
			<input>
				<port id="0">
					<dim>1</dim>
					<dim>8</dim>
					<dim>160</dim>
					<dim>272</dim>
				</port>
				<port id="1">
					<dim>32</dim>
					<dim>8</dim>
					<dim>1</dim>
					<dim>1</dim>
				</port>
			</input>
			<output>
				<port id="2" precision="FP32">
					<dim>1</dim>
					<dim>32</dim>
					<dim>160</dim>
					<dim>272</dim>
				</port>
			</output>
		</layer>
		<layer id="178" name="data_add_2452024525/copy_const884_const" type="Const" version="opset1">
			<data element_type="f32" offset="13036" shape="1,32,1,1" size="128"/>
			<output>
				<port id="1" precision="FP32">
					<dim>1</dim>
					<dim>32</dim>
					<dim>1</dim>
					<dim>1</dim>
				</port>
			</output>
		</layer>
		<layer id="179" name="Add1_21152/Fused_Add_" type="Add" version="opset1">
			<input>
				<port id="0">
					<dim>1</dim>
					<dim>32</dim>
					<dim>160</dim>
					<dim>272</dim>
				</port>
				<port id="1">
					<dim>1</dim>
					<dim>32</dim>
					<dim>1</dim>
					<dim>1</dim>
				</port>
			</input>
			<output>
				<port id="2" precision="FP32">
					<dim>1</dim>
					<dim>32</dim>
					<dim>160</dim>
					<dim>272</dim>
				</port>
			</output>
		</layer>
		<layer id="180" name="42554259_const" type="Const" version="opset1">
			<data element_type="f32" offset="13164" shape="" size="4"/>
			<output>
				<port id="1" precision="FP32"/>
			</output>
		</layer>
		<layer id="181" name="42564260_const" type="Const" version="opset1">
			<data element_type="f32" offset="13168" shape="" size="4"/>
			<output>
				<port id="1" precision="FP32"/>
			</output>
		</layer>
		<layer id="182" name="42574261_const" type="Const" version="opset1">
			<data element_type="f32" offset="13164" shape="" size="4"/>
			<output>
				<port id="1" precision="FP32"/>
			</output>
		</layer>
		<layer id="183" name="42584262_const" type="Const" version="opset1">
			<data element_type="f32" offset="13168" shape="" size="4"/>
			<output>
				<port id="1" precision="FP32"/>
			</output>
		</layer>
		<layer id="184" name="bottleneck1_3/add/fq_input_1" type="FakeQuantize" version="opset1">
			<data levels="256"/>
			<input>
				<port id="0">
					<dim>1</dim>
					<dim>32</dim>
					<dim>160</dim>
					<dim>272</dim>
				</port>
				<port id="1"/>
				<port id="2"/>
				<port id="3"/>
				<port id="4"/>
			</input>
			<output>
				<port id="5" precision="FP32">
					<dim>1</dim>
					<dim>32</dim>
					<dim>160</dim>
					<dim>272</dim>
				</port>
			</output>
		</layer>
		<layer id="185" name="bottleneck1_3/add" type="Add" version="opset1">
			<input>
				<port id="0">
					<dim>1</dim>
					<dim>32</dim>
					<dim>160</dim>
					<dim>272</dim>
				</port>
				<port id="1">
					<dim>1</dim>
					<dim>32</dim>
					<dim>160</dim>
					<dim>272</dim>
				</port>
			</input>
			<output>
				<port id="2" precision="FP32">
					<dim>1</dim>
					<dim>32</dim>
					<dim>160</dim>
					<dim>272</dim>
				</port>
			</output>
		</layer>
		<layer id="186" name="bottleneck1_3/fn32369/Cast_137632_const887_const" type="Const" version="opset1">
			<data element_type="f32" offset="5256" shape="1" size="4"/>
			<output>
				<port id="1" precision="FP32">
					<dim>1</dim>
				</port>
			</output>
		</layer>
		<layer id="187" name="bottleneck1_3/fn32369" type="PReLU" version="opset1">
			<input>
				<port id="0">
					<dim>1</dim>
					<dim>32</dim>
					<dim>160</dim>
					<dim>272</dim>
				</port>
				<port id="1">
					<dim>1</dim>
				</port>
			</input>
			<output>
				<port id="2" precision="FP32">
					<dim>1</dim>
					<dim>32</dim>
					<dim>160</dim>
					<dim>272</dim>
				</port>
			</output>
		</layer>
		<layer id="188" name="33853389_const" type="Const" version="opset1">
			<data element_type="f32" offset="13172" shape="" size="4"/>
			<output>
				<port id="1" precision="FP32"/>
			</output>
		</layer>
		<layer id="189" name="33863390_const" type="Const" version="opset1">
			<data element_type="f32" offset="13176" shape="" size="4"/>
			<output>
				<port id="1" precision="FP32"/>
			</output>
		</layer>
		<layer id="190" name="33873391_const" type="Const" version="opset1">
			<data element_type="f32" offset="13172" shape="" size="4"/>
			<output>
				<port id="1" precision="FP32"/>
			</output>
		</layer>
		<layer id="191" name="33883392_const" type="Const" version="opset1">
			<data element_type="f32" offset="13176" shape="" size="4"/>
			<output>
				<port id="1" precision="FP32"/>
			</output>
		</layer>
		<layer id="192" name="bottleneck1_4/add/fq_input_0" type="FakeQuantize" version="opset1">
			<data levels="256"/>
			<input>
				<port id="0">
					<dim>1</dim>
					<dim>32</dim>
					<dim>160</dim>
					<dim>272</dim>
				</port>
				<port id="1"/>
				<port id="2"/>
				<port id="3"/>
				<port id="4"/>
			</input>
			<output>
				<port id="5" precision="FP32">
					<dim>1</dim>
					<dim>32</dim>
					<dim>160</dim>
					<dim>272</dim>
				</port>
			</output>
		</layer>
		<layer id="193" name="Mul1_21163/Fused_Mul_2630826310_const889_const" type="Const" version="opset1">
			<data element_type="f32" offset="13180" shape="8,32,1,1" size="1024"/>
			<output>
				<port id="1" precision="FP32">
					<dim>8</dim>
					<dim>32</dim>
					<dim>1</dim>
					<dim>1</dim>
				</port>
			</output>
		</layer>
		<layer id="194" name="24752479_const" type="Const" version="opset1">
			<data element_type="f32" offset="14204" shape="8,1,1,1" size="32"/>
			<output>
				<port id="1" precision="FP32">
					<dim>8</dim>
					<dim>1</dim>
					<dim>1</dim>
					<dim>1</dim>
				</port>
			</output>
		</layer>
		<layer id="195" name="24762480_const" type="Const" version="opset1">
			<data element_type="f32" offset="14236" shape="8,1,1,1" size="32"/>
			<output>
				<port id="1" precision="FP32">
					<dim>8</dim>
					<dim>1</dim>
					<dim>1</dim>
					<dim>1</dim>
				</port>
			</output>
		</layer>
		<layer id="196" name="24772481_const" type="Const" version="opset1">
			<data element_type="f32" offset="14204" shape="8,1,1,1" size="32"/>
			<output>
				<port id="1" precision="FP32">
					<dim>8</dim>
					<dim>1</dim>
					<dim>1</dim>
					<dim>1</dim>
				</port>
			</output>
		</layer>
		<layer id="197" name="24782482_const" type="Const" version="opset1">
			<data element_type="f32" offset="14236" shape="8,1,1,1" size="32"/>
			<output>
				<port id="1" precision="FP32">
					<dim>8</dim>
					<dim>1</dim>
					<dim>1</dim>
					<dim>1</dim>
				</port>
			</output>
		</layer>
		<layer id="198" name="bottleneck1_4/dim_red/conv/fq_weights_1" type="FakeQuantize" version="opset1">
			<data levels="255"/>
			<input>
				<port id="0">
					<dim>8</dim>
					<dim>32</dim>
					<dim>1</dim>
					<dim>1</dim>
				</port>
				<port id="1">
					<dim>8</dim>
					<dim>1</dim>
					<dim>1</dim>
					<dim>1</dim>
				</port>
				<port id="2">
					<dim>8</dim>
					<dim>1</dim>
					<dim>1</dim>
					<dim>1</dim>
				</port>
				<port id="3">
					<dim>8</dim>
					<dim>1</dim>
					<dim>1</dim>
					<dim>1</dim>
				</port>
				<port id="4">
					<dim>8</dim>
					<dim>1</dim>
					<dim>1</dim>
					<dim>1</dim>
				</port>
			</input>
			<output>
				<port id="5" precision="FP32">
					<dim>8</dim>
					<dim>32</dim>
					<dim>1</dim>
					<dim>1</dim>
				</port>
			</output>
		</layer>
		<layer id="199" name="bottleneck1_4/dim_red/conv" type="Convolution" version="opset1">
			<data dilations="1,1" output_padding="0,0" pads_begin="0,0" pads_end="0,0" strides="1,1"/>
			<input>
				<port id="0">
					<dim>1</dim>
					<dim>32</dim>
					<dim>160</dim>
					<dim>272</dim>
				</port>
				<port id="1">
					<dim>8</dim>
					<dim>32</dim>
					<dim>1</dim>
					<dim>1</dim>
				</port>
			</input>
			<output>
				<port id="2" precision="FP32">
					<dim>1</dim>
					<dim>8</dim>
					<dim>160</dim>
					<dim>272</dim>
				</port>
			</output>
		</layer>
		<layer id="200" name="data_add_2452824533/copy_const891_const" type="Const" version="opset1">
			<data element_type="f32" offset="14268" shape="1,8,1,1" size="32"/>
			<output>
				<port id="1" precision="FP32">
					<dim>1</dim>
					<dim>8</dim>
					<dim>1</dim>
					<dim>1</dim>
				</port>
			</output>
		</layer>
		<layer id="201" name="Add1_21164/Fused_Add_" type="Add" version="opset1">
			<input>
				<port id="0">
					<dim>1</dim>
					<dim>8</dim>
					<dim>160</dim>
					<dim>272</dim>
				</port>
				<port id="1">
					<dim>1</dim>
					<dim>8</dim>
					<dim>1</dim>
					<dim>1</dim>
				</port>
			</input>
			<output>
				<port id="2" precision="FP32">
					<dim>1</dim>
					<dim>8</dim>
					<dim>160</dim>
					<dim>272</dim>
				</port>
			</output>
		</layer>
		<layer id="202" name="bottleneck1_4/dim_red/fn32117/Cast_137614_const893_const" type="Const" version="opset1">
			<data element_type="f32" offset="5256" shape="1" size="4"/>
			<output>
				<port id="1" precision="FP32">
					<dim>1</dim>
				</port>
			</output>
		</layer>
		<layer id="203" name="bottleneck1_4/dim_red/fn32117" type="PReLU" version="opset1">
			<input>
				<port id="0">
					<dim>1</dim>
					<dim>8</dim>
					<dim>160</dim>
					<dim>272</dim>
				</port>
				<port id="1">
					<dim>1</dim>
				</port>
			</input>
			<output>
				<port id="2" precision="FP32">
					<dim>1</dim>
					<dim>8</dim>
					<dim>160</dim>
					<dim>272</dim>
				</port>
			</output>
		</layer>
		<layer id="204" name="49854989_const" type="Const" version="opset1">
			<data element_type="f32" offset="14300" shape="1,8,1,1" size="32"/>
			<output>
				<port id="1" precision="FP32">
					<dim>1</dim>
					<dim>8</dim>
					<dim>1</dim>
					<dim>1</dim>
				</port>
			</output>
		</layer>
		<layer id="205" name="49864990_const" type="Const" version="opset1">
			<data element_type="f32" offset="14332" shape="1,8,1,1" size="32"/>
			<output>
				<port id="1" precision="FP32">
					<dim>1</dim>
					<dim>8</dim>
					<dim>1</dim>
					<dim>1</dim>
				</port>
			</output>
		</layer>
		<layer id="206" name="49874991_const" type="Const" version="opset1">
			<data element_type="f32" offset="14300" shape="1,8,1,1" size="32"/>
			<output>
				<port id="1" precision="FP32">
					<dim>1</dim>
					<dim>8</dim>
					<dim>1</dim>
					<dim>1</dim>
				</port>
			</output>
		</layer>
		<layer id="207" name="49884992_const" type="Const" version="opset1">
			<data element_type="f32" offset="14332" shape="1,8,1,1" size="32"/>
			<output>
				<port id="1" precision="FP32">
					<dim>1</dim>
					<dim>8</dim>
					<dim>1</dim>
					<dim>1</dim>
				</port>
			</output>
		</layer>
		<layer id="208" name="bottleneck1_4/inner/dw1/conv/fq_input_0" type="FakeQuantize" version="opset1">
			<data levels="256"/>
			<input>
				<port id="0">
					<dim>1</dim>
					<dim>8</dim>
					<dim>160</dim>
					<dim>272</dim>
				</port>
				<port id="1">
					<dim>1</dim>
					<dim>8</dim>
					<dim>1</dim>
					<dim>1</dim>
				</port>
				<port id="2">
					<dim>1</dim>
					<dim>8</dim>
					<dim>1</dim>
					<dim>1</dim>
				</port>
				<port id="3">
					<dim>1</dim>
					<dim>8</dim>
					<dim>1</dim>
					<dim>1</dim>
				</port>
				<port id="4">
					<dim>1</dim>
					<dim>8</dim>
					<dim>1</dim>
					<dim>1</dim>
				</port>
			</input>
			<output>
				<port id="5" precision="FP32">
					<dim>1</dim>
					<dim>8</dim>
					<dim>160</dim>
					<dim>272</dim>
				</port>
			</output>
		</layer>
		<layer id="209" name="18611576_const" type="Const" version="opset1">
			<data element_type="f32" offset="14364" shape="8,1,3,3" size="288"/>
			<output>
				<port id="1" precision="FP32">
					<dim>8</dim>
					<dim>1</dim>
					<dim>3</dim>
					<dim>3</dim>
				</port>
			</output>
		</layer>
		<layer id="210" name="49954999_const" type="Const" version="opset1">
			<data element_type="f32" offset="14652" shape="8,1,1,1" size="32"/>
			<output>
				<port id="1" precision="FP32">
					<dim>8</dim>
					<dim>1</dim>
					<dim>1</dim>
					<dim>1</dim>
				</port>
			</output>
		</layer>
		<layer id="211" name="49965000_const" type="Const" version="opset1">
			<data element_type="f32" offset="14684" shape="8,1,1,1" size="32"/>
			<output>
				<port id="1" precision="FP32">
					<dim>8</dim>
					<dim>1</dim>
					<dim>1</dim>
					<dim>1</dim>
				</port>
			</output>
		</layer>
		<layer id="212" name="49975001_const" type="Const" version="opset1">
			<data element_type="f32" offset="14652" shape="8,1,1,1" size="32"/>
			<output>
				<port id="1" precision="FP32">
					<dim>8</dim>
					<dim>1</dim>
					<dim>1</dim>
					<dim>1</dim>
				</port>
			</output>
		</layer>
		<layer id="213" name="49985002_const" type="Const" version="opset1">
			<data element_type="f32" offset="14684" shape="8,1,1,1" size="32"/>
			<output>
				<port id="1" precision="FP32">
					<dim>8</dim>
					<dim>1</dim>
					<dim>1</dim>
					<dim>1</dim>
				</port>
			</output>
		</layer>
		<layer id="214" name="bottleneck1_4/inner/dw1/conv/fq_weights_1" type="FakeQuantize" version="opset1">
			<data levels="255"/>
			<input>
				<port id="0">
					<dim>8</dim>
					<dim>1</dim>
					<dim>3</dim>
					<dim>3</dim>
				</port>
				<port id="1">
					<dim>8</dim>
					<dim>1</dim>
					<dim>1</dim>
					<dim>1</dim>
				</port>
				<port id="2">
					<dim>8</dim>
					<dim>1</dim>
					<dim>1</dim>
					<dim>1</dim>
				</port>
				<port id="3">
					<dim>8</dim>
					<dim>1</dim>
					<dim>1</dim>
					<dim>1</dim>
				</port>
				<port id="4">
					<dim>8</dim>
					<dim>1</dim>
					<dim>1</dim>
					<dim>1</dim>
				</port>
			</input>
			<output>
				<port id="5" precision="FP32">
					<dim>8</dim>
					<dim>1</dim>
					<dim>3</dim>
					<dim>3</dim>
				</port>
			</output>
		</layer>
		<layer id="215" name="9995/value9997_const" type="Const" version="opset1">
			<data element_type="i64" offset="5676" shape="5" size="40"/>
			<output>
				<port id="1" precision="I64">
					<dim>5</dim>
				</port>
			</output>
		</layer>
		<layer id="216" name="9995" type="Reshape" version="opset1">
			<data special_zero="True"/>
			<input>
				<port id="0">
					<dim>8</dim>
					<dim>1</dim>
					<dim>3</dim>
					<dim>3</dim>
				</port>
				<port id="1">
					<dim>5</dim>
				</port>
			</input>
			<output>
				<port id="2" precision="FP32">
					<dim>8</dim>
					<dim>1</dim>
					<dim>1</dim>
					<dim>3</dim>
					<dim>3</dim>
				</port>
			</output>
		</layer>
		<layer id="217" name="bottleneck1_4/inner/dw1/conv" type="GroupConvolution" version="opset1">
			<data dilations="1,1" output_padding="0,0" pads_begin="1,1" pads_end="1,1" strides="1,1"/>
			<input>
				<port id="0">
					<dim>1</dim>
					<dim>8</dim>
					<dim>160</dim>
					<dim>272</dim>
				</port>
				<port id="1">
					<dim>8</dim>
					<dim>1</dim>
					<dim>1</dim>
					<dim>3</dim>
					<dim>3</dim>
				</port>
			</input>
			<output>
				<port id="2" precision="FP32">
					<dim>1</dim>
					<dim>8</dim>
					<dim>160</dim>
					<dim>272</dim>
				</port>
			</output>
		</layer>
		<layer id="218" name="data_add_2453624541/copy_const897_const" type="Const" version="opset1">
			<data element_type="f32" offset="14716" shape="1,8,1,1" size="32"/>
			<output>
				<port id="1" precision="FP32">
					<dim>1</dim>
					<dim>8</dim>
					<dim>1</dim>
					<dim>1</dim>
				</port>
			</output>
		</layer>
		<layer id="219" name="Add1_21176/Fused_Add_" type="Add" version="opset1">
			<input>
				<port id="0">
					<dim>1</dim>
					<dim>8</dim>
					<dim>160</dim>
					<dim>272</dim>
				</port>
				<port id="1">
					<dim>1</dim>
					<dim>8</dim>
					<dim>1</dim>
					<dim>1</dim>
				</port>
			</input>
			<output>
				<port id="2" precision="FP32">
					<dim>1</dim>
					<dim>8</dim>
					<dim>160</dim>
					<dim>272</dim>
				</port>
			</output>
		</layer>
		<layer id="220" name="bottleneck1_4/inner/dw1/fn31961/Cast_137510_const899_const" type="Const" version="opset1">
			<data element_type="f32" offset="5256" shape="1" size="4"/>
			<output>
				<port id="1" precision="FP32">
					<dim>1</dim>
				</port>
			</output>
		</layer>
		<layer id="221" name="bottleneck1_4/inner/dw1/fn31961" type="PReLU" version="opset1">
			<input>
				<port id="0">
					<dim>1</dim>
					<dim>8</dim>
					<dim>160</dim>
					<dim>272</dim>
				</port>
				<port id="1">
					<dim>1</dim>
				</port>
			</input>
			<output>
				<port id="2" precision="FP32">
					<dim>1</dim>
					<dim>8</dim>
					<dim>160</dim>
					<dim>272</dim>
				</port>
			</output>
		</layer>
		<layer id="222" name="53255329_const" type="Const" version="opset1">
			<data element_type="f32" offset="14748" shape="" size="4"/>
			<output>
				<port id="1" precision="FP32"/>
			</output>
		</layer>
		<layer id="223" name="53265330_const" type="Const" version="opset1">
			<data element_type="f32" offset="14752" shape="" size="4"/>
			<output>
				<port id="1" precision="FP32"/>
			</output>
		</layer>
		<layer id="224" name="53275331_const" type="Const" version="opset1">
			<data element_type="f32" offset="14748" shape="" size="4"/>
			<output>
				<port id="1" precision="FP32"/>
			</output>
		</layer>
		<layer id="225" name="53285332_const" type="Const" version="opset1">
			<data element_type="f32" offset="14752" shape="" size="4"/>
			<output>
				<port id="1" precision="FP32"/>
			</output>
		</layer>
		<layer id="226" name="bottleneck1_4/dim_inc/conv/fq_input_0" type="FakeQuantize" version="opset1">
			<data levels="256"/>
			<input>
				<port id="0">
					<dim>1</dim>
					<dim>8</dim>
					<dim>160</dim>
					<dim>272</dim>
				</port>
				<port id="1"/>
				<port id="2"/>
				<port id="3"/>
				<port id="4"/>
			</input>
			<output>
				<port id="5" precision="FP32">
					<dim>1</dim>
					<dim>8</dim>
					<dim>160</dim>
					<dim>272</dim>
				</port>
			</output>
		</layer>
		<layer id="227" name="Mul1_21187/Fused_Mul_2631626318_const901_const" type="Const" version="opset1">
			<data element_type="f32" offset="14756" shape="32,8,1,1" size="1024"/>
			<output>
				<port id="1" precision="FP32">
					<dim>32</dim>
					<dim>8</dim>
					<dim>1</dim>
					<dim>1</dim>
				</port>
			</output>
		</layer>
		<layer id="228" name="53355339_const" type="Const" version="opset1">
			<data element_type="f32" offset="15780" shape="32,1,1,1" size="128"/>
			<output>
				<port id="1" precision="FP32">
					<dim>32</dim>
					<dim>1</dim>
					<dim>1</dim>
					<dim>1</dim>
				</port>
			</output>
		</layer>
		<layer id="229" name="53365340_const" type="Const" version="opset1">
			<data element_type="f32" offset="15908" shape="32,1,1,1" size="128"/>
			<output>
				<port id="1" precision="FP32">
					<dim>32</dim>
					<dim>1</dim>
					<dim>1</dim>
					<dim>1</dim>
				</port>
			</output>
		</layer>
		<layer id="230" name="53375341_const" type="Const" version="opset1">
			<data element_type="f32" offset="15780" shape="32,1,1,1" size="128"/>
			<output>
				<port id="1" precision="FP32">
					<dim>32</dim>
					<dim>1</dim>
					<dim>1</dim>
					<dim>1</dim>
				</port>
			</output>
		</layer>
		<layer id="231" name="53385342_const" type="Const" version="opset1">
			<data element_type="f32" offset="15908" shape="32,1,1,1" size="128"/>
			<output>
				<port id="1" precision="FP32">
					<dim>32</dim>
					<dim>1</dim>
					<dim>1</dim>
					<dim>1</dim>
				</port>
			</output>
		</layer>
		<layer id="232" name="bottleneck1_4/dim_inc/conv/fq_weights_1" type="FakeQuantize" version="opset1">
			<data levels="255"/>
			<input>
				<port id="0">
					<dim>32</dim>
					<dim>8</dim>
					<dim>1</dim>
					<dim>1</dim>
				</port>
				<port id="1">
					<dim>32</dim>
					<dim>1</dim>
					<dim>1</dim>
					<dim>1</dim>
				</port>
				<port id="2">
					<dim>32</dim>
					<dim>1</dim>
					<dim>1</dim>
					<dim>1</dim>
				</port>
				<port id="3">
					<dim>32</dim>
					<dim>1</dim>
					<dim>1</dim>
					<dim>1</dim>
				</port>
				<port id="4">
					<dim>32</dim>
					<dim>1</dim>
					<dim>1</dim>
					<dim>1</dim>
				</port>
			</input>
			<output>
				<port id="5" precision="FP32">
					<dim>32</dim>
					<dim>8</dim>
					<dim>1</dim>
					<dim>1</dim>
				</port>
			</output>
		</layer>
		<layer id="233" name="bottleneck1_4/dim_inc/conv" type="Convolution" version="opset1">
			<data dilations="1,1" output_padding="0,0" pads_begin="0,0" pads_end="0,0" strides="1,1"/>
			<input>
				<port id="0">
					<dim>1</dim>
					<dim>8</dim>
					<dim>160</dim>
					<dim>272</dim>
				</port>
				<port id="1">
					<dim>32</dim>
					<dim>8</dim>
					<dim>1</dim>
					<dim>1</dim>
				</port>
			</input>
			<output>
				<port id="2" precision="FP32">
					<dim>1</dim>
					<dim>32</dim>
					<dim>160</dim>
					<dim>272</dim>
				</port>
			</output>
		</layer>
		<layer id="234" name="data_add_2454424549/copy_const903_const" type="Const" version="opset1">
			<data element_type="f32" offset="16036" shape="1,32,1,1" size="128"/>
			<output>
				<port id="1" precision="FP32">
					<dim>1</dim>
					<dim>32</dim>
					<dim>1</dim>
					<dim>1</dim>
				</port>
			</output>
		</layer>
		<layer id="235" name="Add1_21188/Fused_Add_" type="Add" version="opset1">
			<input>
				<port id="0">
					<dim>1</dim>
					<dim>32</dim>
					<dim>160</dim>
					<dim>272</dim>
				</port>
				<port id="1">
					<dim>1</dim>
					<dim>32</dim>
					<dim>1</dim>
					<dim>1</dim>
				</port>
			</input>
			<output>
				<port id="2" precision="FP32">
					<dim>1</dim>
					<dim>32</dim>
					<dim>160</dim>
					<dim>272</dim>
				</port>
			</output>
		</layer>
		<layer id="236" name="33953399_const" type="Const" version="opset1">
			<data element_type="f32" offset="16164" shape="" size="4"/>
			<output>
				<port id="1" precision="FP32"/>
			</output>
		</layer>
		<layer id="237" name="33963400_const" type="Const" version="opset1">
			<data element_type="f32" offset="16168" shape="" size="4"/>
			<output>
				<port id="1" precision="FP32"/>
			</output>
		</layer>
		<layer id="238" name="33973401_const" type="Const" version="opset1">
			<data element_type="f32" offset="16164" shape="" size="4"/>
			<output>
				<port id="1" precision="FP32"/>
			</output>
		</layer>
		<layer id="239" name="33983402_const" type="Const" version="opset1">
			<data element_type="f32" offset="16168" shape="" size="4"/>
			<output>
				<port id="1" precision="FP32"/>
			</output>
		</layer>
		<layer id="240" name="bottleneck1_4/add/fq_input_1" type="FakeQuantize" version="opset1">
			<data levels="256"/>
			<input>
				<port id="0">
					<dim>1</dim>
					<dim>32</dim>
					<dim>160</dim>
					<dim>272</dim>
				</port>
				<port id="1"/>
				<port id="2"/>
				<port id="3"/>
				<port id="4"/>
			</input>
			<output>
				<port id="5" precision="FP32">
					<dim>1</dim>
					<dim>32</dim>
					<dim>160</dim>
					<dim>272</dim>
				</port>
			</output>
		</layer>
		<layer id="241" name="bottleneck1_4/add" type="Add" version="opset1">
			<input>
				<port id="0">
					<dim>1</dim>
					<dim>32</dim>
					<dim>160</dim>
					<dim>272</dim>
				</port>
				<port id="1">
					<dim>1</dim>
					<dim>32</dim>
					<dim>160</dim>
					<dim>272</dim>
				</port>
			</input>
			<output>
				<port id="2" precision="FP32">
					<dim>1</dim>
					<dim>32</dim>
					<dim>160</dim>
					<dim>272</dim>
				</port>
			</output>
		</layer>
		<layer id="242" name="bottleneck1_4/fn32169/Cast_137642_const906_const" type="Const" version="opset1">
			<data element_type="f32" offset="5256" shape="1" size="4"/>
			<output>
				<port id="1" precision="FP32">
					<dim>1</dim>
				</port>
			</output>
		</layer>
		<layer id="243" name="bottleneck1_4/fn32169" type="PReLU" version="opset1">
			<input>
				<port id="0">
					<dim>1</dim>
					<dim>32</dim>
					<dim>160</dim>
					<dim>272</dim>
				</port>
				<port id="1">
					<dim>1</dim>
				</port>
			</input>
			<output>
				<port id="2" precision="FP32">
					<dim>1</dim>
					<dim>32</dim>
					<dim>160</dim>
					<dim>272</dim>
				</port>
			</output>
		</layer>
		<layer id="244" name="52455249_const" type="Const" version="opset1">
			<data element_type="f32" offset="16172" shape="" size="4"/>
			<output>
				<port id="1" precision="FP32"/>
			</output>
		</layer>
		<layer id="245" name="52465250_const" type="Const" version="opset1">
			<data element_type="f32" offset="16176" shape="" size="4"/>
			<output>
				<port id="1" precision="FP32"/>
			</output>
		</layer>
		<layer id="246" name="52475251_const" type="Const" version="opset1">
			<data element_type="f32" offset="16172" shape="" size="4"/>
			<output>
				<port id="1" precision="FP32"/>
			</output>
		</layer>
		<layer id="247" name="52485252_const" type="Const" version="opset1">
			<data element_type="f32" offset="16176" shape="" size="4"/>
			<output>
				<port id="1" precision="FP32"/>
			</output>
		</layer>
		<layer id="248" name="bottleneck2_0/dim_red/conv/fq_input_0" type="FakeQuantize" version="opset1">
			<data levels="256"/>
			<input>
				<port id="0">
					<dim>1</dim>
					<dim>32</dim>
					<dim>160</dim>
					<dim>272</dim>
				</port>
				<port id="1"/>
				<port id="2"/>
				<port id="3"/>
				<port id="4"/>
			</input>
			<output>
				<port id="5" precision="FP32">
					<dim>1</dim>
					<dim>32</dim>
					<dim>160</dim>
					<dim>272</dim>
				</port>
			</output>
		</layer>
		<layer id="249" name="bottleneck2_0/skip/pooling" type="MaxPool" version="opset1">
			<data kernel="2,2" pads_begin="0,0" pads_end="0,0" rounding_type="ceil" strides="2,2"/>
			<input>
				<port id="0">
					<dim>1</dim>
					<dim>32</dim>
					<dim>160</dim>
					<dim>272</dim>
				</port>
			</input>
			<output>
				<port id="1" precision="FP32">
					<dim>1</dim>
					<dim>32</dim>
					<dim>80</dim>
					<dim>136</dim>
				</port>
			</output>
		</layer>
		<layer id="250" name="Mul1_21235/Fused_Mul_2632026322_const909_const" type="Const" version="opset1">
			<data element_type="f32" offset="16180" shape="64,32,1,1" size="8192"/>
			<output>
				<port id="1" precision="FP32">
					<dim>64</dim>
					<dim>32</dim>
					<dim>1</dim>
					<dim>1</dim>
				</port>
			</output>
		</layer>
		<layer id="251" name="33153319_const" type="Const" version="opset1">
			<data element_type="f32" offset="24372" shape="64,1,1,1" size="256"/>
			<output>
				<port id="1" precision="FP32">
					<dim>64</dim>
					<dim>1</dim>
					<dim>1</dim>
					<dim>1</dim>
				</port>
			</output>
		</layer>
		<layer id="252" name="33163320_const" type="Const" version="opset1">
			<data element_type="f32" offset="24628" shape="64,1,1,1" size="256"/>
			<output>
				<port id="1" precision="FP32">
					<dim>64</dim>
					<dim>1</dim>
					<dim>1</dim>
					<dim>1</dim>
				</port>
			</output>
		</layer>
		<layer id="253" name="33173321_const" type="Const" version="opset1">
			<data element_type="f32" offset="24372" shape="64,1,1,1" size="256"/>
			<output>
				<port id="1" precision="FP32">
					<dim>64</dim>
					<dim>1</dim>
					<dim>1</dim>
					<dim>1</dim>
				</port>
			</output>
		</layer>
		<layer id="254" name="33183322_const" type="Const" version="opset1">
			<data element_type="f32" offset="24628" shape="64,1,1,1" size="256"/>
			<output>
				<port id="1" precision="FP32">
					<dim>64</dim>
					<dim>1</dim>
					<dim>1</dim>
					<dim>1</dim>
				</port>
			</output>
		</layer>
		<layer id="255" name="bottleneck2_0/skip/conv/fq_weights_1" type="FakeQuantize" version="opset1">
			<data levels="255"/>
			<input>
				<port id="0">
					<dim>64</dim>
					<dim>32</dim>
					<dim>1</dim>
					<dim>1</dim>
				</port>
				<port id="1">
					<dim>64</dim>
					<dim>1</dim>
					<dim>1</dim>
					<dim>1</dim>
				</port>
				<port id="2">
					<dim>64</dim>
					<dim>1</dim>
					<dim>1</dim>
					<dim>1</dim>
				</port>
				<port id="3">
					<dim>64</dim>
					<dim>1</dim>
					<dim>1</dim>
					<dim>1</dim>
				</port>
				<port id="4">
					<dim>64</dim>
					<dim>1</dim>
					<dim>1</dim>
					<dim>1</dim>
				</port>
			</input>
			<output>
				<port id="5" precision="FP32">
					<dim>64</dim>
					<dim>32</dim>
					<dim>1</dim>
					<dim>1</dim>
				</port>
			</output>
		</layer>
		<layer id="256" name="bottleneck2_0/skip/conv" type="Convolution" version="opset1">
			<data dilations="1,1" output_padding="0,0" pads_begin="0,0" pads_end="0,0" strides="1,1"/>
			<input>
				<port id="0">
					<dim>1</dim>
					<dim>32</dim>
					<dim>80</dim>
					<dim>136</dim>
				</port>
				<port id="1">
					<dim>64</dim>
					<dim>32</dim>
					<dim>1</dim>
					<dim>1</dim>
				</port>
			</input>
			<output>
				<port id="2" precision="FP32">
					<dim>1</dim>
					<dim>64</dim>
					<dim>80</dim>
					<dim>136</dim>
				</port>
			</output>
		</layer>
		<layer id="257" name="data_add_2455224557/copy_const911_const" type="Const" version="opset1">
			<data element_type="f32" offset="24884" shape="1,64,1,1" size="256"/>
			<output>
				<port id="1" precision="FP32">
					<dim>1</dim>
					<dim>64</dim>
					<dim>1</dim>
					<dim>1</dim>
				</port>
			</output>
		</layer>
		<layer id="258" name="Add1_21236/Fused_Add_" type="Add" version="opset1">
			<input>
				<port id="0">
					<dim>1</dim>
					<dim>64</dim>
					<dim>80</dim>
					<dim>136</dim>
				</port>
				<port id="1">
					<dim>1</dim>
					<dim>64</dim>
					<dim>1</dim>
					<dim>1</dim>
				</port>
			</input>
			<output>
				<port id="2" precision="FP32">
					<dim>1</dim>
					<dim>64</dim>
					<dim>80</dim>
					<dim>136</dim>
				</port>
			</output>
		</layer>
		<layer id="259" name="23852389_const" type="Const" version="opset1">
			<data element_type="f32" offset="25140" shape="" size="4"/>
			<output>
				<port id="1" precision="FP32"/>
			</output>
		</layer>
		<layer id="260" name="23862390_const" type="Const" version="opset1">
			<data element_type="f32" offset="25144" shape="" size="4"/>
			<output>
				<port id="1" precision="FP32"/>
			</output>
		</layer>
		<layer id="261" name="23872391_const" type="Const" version="opset1">
			<data element_type="f32" offset="25140" shape="" size="4"/>
			<output>
				<port id="1" precision="FP32"/>
			</output>
		</layer>
		<layer id="262" name="23882392_const" type="Const" version="opset1">
			<data element_type="f32" offset="25144" shape="" size="4"/>
			<output>
				<port id="1" precision="FP32"/>
			</output>
		</layer>
		<layer id="263" name="bottleneck2_0/add/fq_input_0" type="FakeQuantize" version="opset1">
			<data levels="256"/>
			<input>
				<port id="0">
					<dim>1</dim>
					<dim>64</dim>
					<dim>80</dim>
					<dim>136</dim>
				</port>
				<port id="1"/>
				<port id="2"/>
				<port id="3"/>
				<port id="4"/>
			</input>
			<output>
				<port id="5" precision="FP32">
					<dim>1</dim>
					<dim>64</dim>
					<dim>80</dim>
					<dim>136</dim>
				</port>
			</output>
		</layer>
		<layer id="264" name="Mul1_21199/Fused_Mul_2632426326_const913_const" type="Const" version="opset1">
			<data element_type="f32" offset="25148" shape="16,32,1,1" size="2048"/>
			<output>
				<port id="1" precision="FP32">
					<dim>16</dim>
					<dim>32</dim>
					<dim>1</dim>
					<dim>1</dim>
				</port>
			</output>
		</layer>
		<layer id="265" name="52555259_const" type="Const" version="opset1">
			<data element_type="f32" offset="27196" shape="16,1,1,1" size="64"/>
			<output>
				<port id="1" precision="FP32">
					<dim>16</dim>
					<dim>1</dim>
					<dim>1</dim>
					<dim>1</dim>
				</port>
			</output>
		</layer>
		<layer id="266" name="52565260_const" type="Const" version="opset1">
			<data element_type="f32" offset="27260" shape="16,1,1,1" size="64"/>
			<output>
				<port id="1" precision="FP32">
					<dim>16</dim>
					<dim>1</dim>
					<dim>1</dim>
					<dim>1</dim>
				</port>
			</output>
		</layer>
		<layer id="267" name="52575261_const" type="Const" version="opset1">
			<data element_type="f32" offset="27196" shape="16,1,1,1" size="64"/>
			<output>
				<port id="1" precision="FP32">
					<dim>16</dim>
					<dim>1</dim>
					<dim>1</dim>
					<dim>1</dim>
				</port>
			</output>
		</layer>
		<layer id="268" name="52585262_const" type="Const" version="opset1">
			<data element_type="f32" offset="27260" shape="16,1,1,1" size="64"/>
			<output>
				<port id="1" precision="FP32">
					<dim>16</dim>
					<dim>1</dim>
					<dim>1</dim>
					<dim>1</dim>
				</port>
			</output>
		</layer>
		<layer id="269" name="bottleneck2_0/dim_red/conv/fq_weights_1" type="FakeQuantize" version="opset1">
			<data levels="255"/>
			<input>
				<port id="0">
					<dim>16</dim>
					<dim>32</dim>
					<dim>1</dim>
					<dim>1</dim>
				</port>
				<port id="1">
					<dim>16</dim>
					<dim>1</dim>
					<dim>1</dim>
					<dim>1</dim>
				</port>
				<port id="2">
					<dim>16</dim>
					<dim>1</dim>
					<dim>1</dim>
					<dim>1</dim>
				</port>
				<port id="3">
					<dim>16</dim>
					<dim>1</dim>
					<dim>1</dim>
					<dim>1</dim>
				</port>
				<port id="4">
					<dim>16</dim>
					<dim>1</dim>
					<dim>1</dim>
					<dim>1</dim>
				</port>
			</input>
			<output>
				<port id="5" precision="FP32">
					<dim>16</dim>
					<dim>32</dim>
					<dim>1</dim>
					<dim>1</dim>
				</port>
			</output>
		</layer>
		<layer id="270" name="bottleneck2_0/dim_red/conv" type="Convolution" version="opset1">
			<data dilations="1,1" output_padding="0,0" pads_begin="0,0" pads_end="0,0" strides="1,1"/>
			<input>
				<port id="0">
					<dim>1</dim>
					<dim>32</dim>
					<dim>160</dim>
					<dim>272</dim>
				</port>
				<port id="1">
					<dim>16</dim>
					<dim>32</dim>
					<dim>1</dim>
					<dim>1</dim>
				</port>
			</input>
			<output>
				<port id="2" precision="FP32">
					<dim>1</dim>
					<dim>16</dim>
					<dim>160</dim>
					<dim>272</dim>
				</port>
			</output>
		</layer>
		<layer id="271" name="data_add_2456024565/copy_const915_const" type="Const" version="opset1">
			<data element_type="f32" offset="27324" shape="1,16,1,1" size="64"/>
			<output>
				<port id="1" precision="FP32">
					<dim>1</dim>
					<dim>16</dim>
					<dim>1</dim>
					<dim>1</dim>
				</port>
			</output>
		</layer>
		<layer id="272" name="Add1_21200/Fused_Add_" type="Add" version="opset1">
			<input>
				<port id="0">
					<dim>1</dim>
					<dim>16</dim>
					<dim>160</dim>
					<dim>272</dim>
				</port>
				<port id="1">
					<dim>1</dim>
					<dim>16</dim>
					<dim>1</dim>
					<dim>1</dim>
				</port>
			</input>
			<output>
				<port id="2" precision="FP32">
					<dim>1</dim>
					<dim>16</dim>
					<dim>160</dim>
					<dim>272</dim>
				</port>
			</output>
		</layer>
		<layer id="273" name="bottleneck2_0/dim_red/fn32085/Cast_137610_const917_const" type="Const" version="opset1">
			<data element_type="f32" offset="5256" shape="1" size="4"/>
			<output>
				<port id="1" precision="FP32">
					<dim>1</dim>
				</port>
			</output>
		</layer>
		<layer id="274" name="bottleneck2_0/dim_red/fn32085" type="PReLU" version="opset1">
			<input>
				<port id="0">
					<dim>1</dim>
					<dim>16</dim>
					<dim>160</dim>
					<dim>272</dim>
				</port>
				<port id="1">
					<dim>1</dim>
				</port>
			</input>
			<output>
				<port id="2" precision="FP32">
					<dim>1</dim>
					<dim>16</dim>
					<dim>160</dim>
					<dim>272</dim>
				</port>
			</output>
		</layer>
		<layer id="275" name="36053609_const" type="Const" version="opset1">
			<data element_type="f32" offset="27388" shape="1,16,1,1" size="64"/>
			<output>
				<port id="1" precision="FP32">
					<dim>1</dim>
					<dim>16</dim>
					<dim>1</dim>
					<dim>1</dim>
				</port>
			</output>
		</layer>
		<layer id="276" name="36063610_const" type="Const" version="opset1">
			<data element_type="f32" offset="27452" shape="1,16,1,1" size="64"/>
			<output>
				<port id="1" precision="FP32">
					<dim>1</dim>
					<dim>16</dim>
					<dim>1</dim>
					<dim>1</dim>
				</port>
			</output>
		</layer>
		<layer id="277" name="36073611_const" type="Const" version="opset1">
			<data element_type="f32" offset="27388" shape="1,16,1,1" size="64"/>
			<output>
				<port id="1" precision="FP32">
					<dim>1</dim>
					<dim>16</dim>
					<dim>1</dim>
					<dim>1</dim>
				</port>
			</output>
		</layer>
		<layer id="278" name="36083612_const" type="Const" version="opset1">
			<data element_type="f32" offset="27452" shape="1,16,1,1" size="64"/>
			<output>
				<port id="1" precision="FP32">
					<dim>1</dim>
					<dim>16</dim>
					<dim>1</dim>
					<dim>1</dim>
				</port>
			</output>
		</layer>
		<layer id="279" name="bottleneck2_0/inner/dw1/conv/fq_input_0" type="FakeQuantize" version="opset1">
			<data levels="256"/>
			<input>
				<port id="0">
					<dim>1</dim>
					<dim>16</dim>
					<dim>160</dim>
					<dim>272</dim>
				</port>
				<port id="1">
					<dim>1</dim>
					<dim>16</dim>
					<dim>1</dim>
					<dim>1</dim>
				</port>
				<port id="2">
					<dim>1</dim>
					<dim>16</dim>
					<dim>1</dim>
					<dim>1</dim>
				</port>
				<port id="3">
					<dim>1</dim>
					<dim>16</dim>
					<dim>1</dim>
					<dim>1</dim>
				</port>
				<port id="4">
					<dim>1</dim>
					<dim>16</dim>
					<dim>1</dim>
					<dim>1</dim>
				</port>
			</input>
			<output>
				<port id="5" precision="FP32">
					<dim>1</dim>
					<dim>16</dim>
					<dim>160</dim>
					<dim>272</dim>
				</port>
			</output>
		</layer>
		<layer id="280" name="18651578_const" type="Const" version="opset1">
			<data element_type="f32" offset="27516" shape="16,1,3,3" size="576"/>
			<output>
				<port id="1" precision="FP32">
					<dim>16</dim>
					<dim>1</dim>
					<dim>3</dim>
					<dim>3</dim>
				</port>
			</output>
		</layer>
		<layer id="281" name="36153619_const" type="Const" version="opset1">
			<data element_type="f32" offset="28092" shape="16,1,1,1" size="64"/>
			<output>
				<port id="1" precision="FP32">
					<dim>16</dim>
					<dim>1</dim>
					<dim>1</dim>
					<dim>1</dim>
				</port>
			</output>
		</layer>
		<layer id="282" name="36163620_const" type="Const" version="opset1">
			<data element_type="f32" offset="28156" shape="16,1,1,1" size="64"/>
			<output>
				<port id="1" precision="FP32">
					<dim>16</dim>
					<dim>1</dim>
					<dim>1</dim>
					<dim>1</dim>
				</port>
			</output>
		</layer>
		<layer id="283" name="36173621_const" type="Const" version="opset1">
			<data element_type="f32" offset="28092" shape="16,1,1,1" size="64"/>
			<output>
				<port id="1" precision="FP32">
					<dim>16</dim>
					<dim>1</dim>
					<dim>1</dim>
					<dim>1</dim>
				</port>
			</output>
		</layer>
		<layer id="284" name="36183622_const" type="Const" version="opset1">
			<data element_type="f32" offset="28156" shape="16,1,1,1" size="64"/>
			<output>
				<port id="1" precision="FP32">
					<dim>16</dim>
					<dim>1</dim>
					<dim>1</dim>
					<dim>1</dim>
				</port>
			</output>
		</layer>
		<layer id="285" name="bottleneck2_0/inner/dw1/conv/fq_weights_1" type="FakeQuantize" version="opset1">
			<data levels="255"/>
			<input>
				<port id="0">
					<dim>16</dim>
					<dim>1</dim>
					<dim>3</dim>
					<dim>3</dim>
				</port>
				<port id="1">
					<dim>16</dim>
					<dim>1</dim>
					<dim>1</dim>
					<dim>1</dim>
				</port>
				<port id="2">
					<dim>16</dim>
					<dim>1</dim>
					<dim>1</dim>
					<dim>1</dim>
				</port>
				<port id="3">
					<dim>16</dim>
					<dim>1</dim>
					<dim>1</dim>
					<dim>1</dim>
				</port>
				<port id="4">
					<dim>16</dim>
					<dim>1</dim>
					<dim>1</dim>
					<dim>1</dim>
				</port>
			</input>
			<output>
				<port id="5" precision="FP32">
					<dim>16</dim>
					<dim>1</dim>
					<dim>3</dim>
					<dim>3</dim>
				</port>
			</output>
		</layer>
		<layer id="286" name="9935/value9937_const" type="Const" version="opset1">
			<data element_type="i64" offset="28220" shape="5" size="40"/>
			<output>
				<port id="1" precision="I64">
					<dim>5</dim>
				</port>
			</output>
		</layer>
		<layer id="287" name="9935" type="Reshape" version="opset1">
			<data special_zero="True"/>
			<input>
				<port id="0">
					<dim>16</dim>
					<dim>1</dim>
					<dim>3</dim>
					<dim>3</dim>
				</port>
				<port id="1">
					<dim>5</dim>
				</port>
			</input>
			<output>
				<port id="2" precision="FP32">
					<dim>16</dim>
					<dim>1</dim>
					<dim>1</dim>
					<dim>3</dim>
					<dim>3</dim>
				</port>
			</output>
		</layer>
		<layer id="288" name="bottleneck2_0/inner/dw1/conv" type="GroupConvolution" version="opset1">
			<data dilations="1,1" output_padding="0,0" pads_begin="1,1" pads_end="1,1" strides="2,2"/>
			<input>
				<port id="0">
					<dim>1</dim>
					<dim>16</dim>
					<dim>160</dim>
					<dim>272</dim>
				</port>
				<port id="1">
					<dim>16</dim>
					<dim>1</dim>
					<dim>1</dim>
					<dim>3</dim>
					<dim>3</dim>
				</port>
			</input>
			<output>
				<port id="2" precision="FP32">
					<dim>1</dim>
					<dim>16</dim>
					<dim>80</dim>
					<dim>136</dim>
				</port>
			</output>
		</layer>
		<layer id="289" name="data_add_2456824573/copy_const921_const" type="Const" version="opset1">
			<data element_type="f32" offset="28260" shape="1,16,1,1" size="64"/>
			<output>
				<port id="1" precision="FP32">
					<dim>1</dim>
					<dim>16</dim>
					<dim>1</dim>
					<dim>1</dim>
				</port>
			</output>
		</layer>
		<layer id="290" name="Add1_21212/Fused_Add_" type="Add" version="opset1">
			<input>
				<port id="0">
					<dim>1</dim>
					<dim>16</dim>
					<dim>80</dim>
					<dim>136</dim>
				</port>
				<port id="1">
					<dim>1</dim>
					<dim>16</dim>
					<dim>1</dim>
					<dim>1</dim>
				</port>
			</input>
			<output>
				<port id="2" precision="FP32">
					<dim>1</dim>
					<dim>16</dim>
					<dim>80</dim>
					<dim>136</dim>
				</port>
			</output>
		</layer>
		<layer id="291" name="bottleneck2_0/inner/dw1/fn32185/Cast_137676_const923_const" type="Const" version="opset1">
			<data element_type="f32" offset="5256" shape="1" size="4"/>
			<output>
				<port id="1" precision="FP32">
					<dim>1</dim>
				</port>
			</output>
		</layer>
		<layer id="292" name="bottleneck2_0/inner/dw1/fn32185" type="PReLU" version="opset1">
			<input>
				<port id="0">
					<dim>1</dim>
					<dim>16</dim>
					<dim>80</dim>
					<dim>136</dim>
				</port>
				<port id="1">
					<dim>1</dim>
				</port>
			</input>
			<output>
				<port id="2" precision="FP32">
					<dim>1</dim>
					<dim>16</dim>
					<dim>80</dim>
					<dim>136</dim>
				</port>
			</output>
		</layer>
		<layer id="293" name="37453749_const" type="Const" version="opset1">
			<data element_type="f32" offset="28324" shape="" size="4"/>
			<output>
				<port id="1" precision="FP32"/>
			</output>
		</layer>
		<layer id="294" name="37463750_const" type="Const" version="opset1">
			<data element_type="f32" offset="28328" shape="" size="4"/>
			<output>
				<port id="1" precision="FP32"/>
			</output>
		</layer>
		<layer id="295" name="37473751_const" type="Const" version="opset1">
			<data element_type="f32" offset="28324" shape="" size="4"/>
			<output>
				<port id="1" precision="FP32"/>
			</output>
		</layer>
		<layer id="296" name="37483752_const" type="Const" version="opset1">
			<data element_type="f32" offset="28328" shape="" size="4"/>
			<output>
				<port id="1" precision="FP32"/>
			</output>
		</layer>
		<layer id="297" name="bottleneck2_0/dim_inc/conv/fq_input_0" type="FakeQuantize" version="opset1">
			<data levels="256"/>
			<input>
				<port id="0">
					<dim>1</dim>
					<dim>16</dim>
					<dim>80</dim>
					<dim>136</dim>
				</port>
				<port id="1"/>
				<port id="2"/>
				<port id="3"/>
				<port id="4"/>
			</input>
			<output>
				<port id="5" precision="FP32">
					<dim>1</dim>
					<dim>16</dim>
					<dim>80</dim>
					<dim>136</dim>
				</port>
			</output>
		</layer>
		<layer id="298" name="Mul1_21223/Fused_Mul_2633226334_const925_const" type="Const" version="opset1">
			<data element_type="f32" offset="28332" shape="64,16,1,1" size="4096"/>
			<output>
				<port id="1" precision="FP32">
					<dim>64</dim>
					<dim>16</dim>
					<dim>1</dim>
					<dim>1</dim>
				</port>
			</output>
		</layer>
		<layer id="299" name="37553759_const" type="Const" version="opset1">
			<data element_type="f32" offset="32428" shape="64,1,1,1" size="256"/>
			<output>
				<port id="1" precision="FP32">
					<dim>64</dim>
					<dim>1</dim>
					<dim>1</dim>
					<dim>1</dim>
				</port>
			</output>
		</layer>
		<layer id="300" name="37563760_const" type="Const" version="opset1">
			<data element_type="f32" offset="32684" shape="64,1,1,1" size="256"/>
			<output>
				<port id="1" precision="FP32">
					<dim>64</dim>
					<dim>1</dim>
					<dim>1</dim>
					<dim>1</dim>
				</port>
			</output>
		</layer>
		<layer id="301" name="37573761_const" type="Const" version="opset1">
			<data element_type="f32" offset="32428" shape="64,1,1,1" size="256"/>
			<output>
				<port id="1" precision="FP32">
					<dim>64</dim>
					<dim>1</dim>
					<dim>1</dim>
					<dim>1</dim>
				</port>
			</output>
		</layer>
		<layer id="302" name="37583762_const" type="Const" version="opset1">
			<data element_type="f32" offset="32684" shape="64,1,1,1" size="256"/>
			<output>
				<port id="1" precision="FP32">
					<dim>64</dim>
					<dim>1</dim>
					<dim>1</dim>
					<dim>1</dim>
				</port>
			</output>
		</layer>
		<layer id="303" name="bottleneck2_0/dim_inc/conv/fq_weights_1" type="FakeQuantize" version="opset1">
			<data levels="255"/>
			<input>
				<port id="0">
					<dim>64</dim>
					<dim>16</dim>
					<dim>1</dim>
					<dim>1</dim>
				</port>
				<port id="1">
					<dim>64</dim>
					<dim>1</dim>
					<dim>1</dim>
					<dim>1</dim>
				</port>
				<port id="2">
					<dim>64</dim>
					<dim>1</dim>
					<dim>1</dim>
					<dim>1</dim>
				</port>
				<port id="3">
					<dim>64</dim>
					<dim>1</dim>
					<dim>1</dim>
					<dim>1</dim>
				</port>
				<port id="4">
					<dim>64</dim>
					<dim>1</dim>
					<dim>1</dim>
					<dim>1</dim>
				</port>
			</input>
			<output>
				<port id="5" precision="FP32">
					<dim>64</dim>
					<dim>16</dim>
					<dim>1</dim>
					<dim>1</dim>
				</port>
			</output>
		</layer>
		<layer id="304" name="bottleneck2_0/dim_inc/conv" type="Convolution" version="opset1">
			<data dilations="1,1" output_padding="0,0" pads_begin="0,0" pads_end="0,0" strides="1,1"/>
			<input>
				<port id="0">
					<dim>1</dim>
					<dim>16</dim>
					<dim>80</dim>
					<dim>136</dim>
				</port>
				<port id="1">
					<dim>64</dim>
					<dim>16</dim>
					<dim>1</dim>
					<dim>1</dim>
				</port>
			</input>
			<output>
				<port id="2" precision="FP32">
					<dim>1</dim>
					<dim>64</dim>
					<dim>80</dim>
					<dim>136</dim>
				</port>
			</output>
		</layer>
		<layer id="305" name="data_add_2457624581/copy_const927_const" type="Const" version="opset1">
			<data element_type="f32" offset="32940" shape="1,64,1,1" size="256"/>
			<output>
				<port id="1" precision="FP32">
					<dim>1</dim>
					<dim>64</dim>
					<dim>1</dim>
					<dim>1</dim>
				</port>
			</output>
		</layer>
		<layer id="306" name="Add1_21224/Fused_Add_" type="Add" version="opset1">
			<input>
				<port id="0">
					<dim>1</dim>
					<dim>64</dim>
					<dim>80</dim>
					<dim>136</dim>
				</port>
				<port id="1">
					<dim>1</dim>
					<dim>64</dim>
					<dim>1</dim>
					<dim>1</dim>
				</port>
			</input>
			<output>
				<port id="2" precision="FP32">
					<dim>1</dim>
					<dim>64</dim>
					<dim>80</dim>
					<dim>136</dim>
				</port>
			</output>
		</layer>
		<layer id="307" name="23952399_const" type="Const" version="opset1">
			<data element_type="f32" offset="33196" shape="" size="4"/>
			<output>
				<port id="1" precision="FP32"/>
			</output>
		</layer>
		<layer id="308" name="23962400_const" type="Const" version="opset1">
			<data element_type="f32" offset="33200" shape="" size="4"/>
			<output>
				<port id="1" precision="FP32"/>
			</output>
		</layer>
		<layer id="309" name="23972401_const" type="Const" version="opset1">
			<data element_type="f32" offset="33196" shape="" size="4"/>
			<output>
				<port id="1" precision="FP32"/>
			</output>
		</layer>
		<layer id="310" name="23982402_const" type="Const" version="opset1">
			<data element_type="f32" offset="33200" shape="" size="4"/>
			<output>
				<port id="1" precision="FP32"/>
			</output>
		</layer>
		<layer id="311" name="bottleneck2_0/add/fq_input_1" type="FakeQuantize" version="opset1">
			<data levels="256"/>
			<input>
				<port id="0">
					<dim>1</dim>
					<dim>64</dim>
					<dim>80</dim>
					<dim>136</dim>
				</port>
				<port id="1"/>
				<port id="2"/>
				<port id="3"/>
				<port id="4"/>
			</input>
			<output>
				<port id="5" precision="FP32">
					<dim>1</dim>
					<dim>64</dim>
					<dim>80</dim>
					<dim>136</dim>
				</port>
			</output>
		</layer>
		<layer id="312" name="bottleneck2_0/add" type="Add" version="opset1">
			<input>
				<port id="0">
					<dim>1</dim>
					<dim>64</dim>
					<dim>80</dim>
					<dim>136</dim>
				</port>
				<port id="1">
					<dim>1</dim>
					<dim>64</dim>
					<dim>80</dim>
					<dim>136</dim>
				</port>
			</input>
			<output>
				<port id="2" precision="FP32">
					<dim>1</dim>
					<dim>64</dim>
					<dim>80</dim>
					<dim>136</dim>
				</port>
			</output>
		</layer>
		<layer id="313" name="bottleneck2_0/fn31965/Cast_137656_const930_const" type="Const" version="opset1">
			<data element_type="f32" offset="5256" shape="1" size="4"/>
			<output>
				<port id="1" precision="FP32">
					<dim>1</dim>
				</port>
			</output>
		</layer>
		<layer id="314" name="bottleneck2_0/fn31965" type="PReLU" version="opset1">
			<input>
				<port id="0">
					<dim>1</dim>
					<dim>64</dim>
					<dim>80</dim>
					<dim>136</dim>
				</port>
				<port id="1">
					<dim>1</dim>
				</port>
			</input>
			<output>
				<port id="2" precision="FP32">
					<dim>1</dim>
					<dim>64</dim>
					<dim>80</dim>
					<dim>136</dim>
				</port>
			</output>
		</layer>
		<layer id="315" name="40054009_const" type="Const" version="opset1">
			<data element_type="f32" offset="33204" shape="" size="4"/>
			<output>
				<port id="1" precision="FP32"/>
			</output>
		</layer>
		<layer id="316" name="40064010_const" type="Const" version="opset1">
			<data element_type="f32" offset="33208" shape="" size="4"/>
			<output>
				<port id="1" precision="FP32"/>
			</output>
		</layer>
		<layer id="317" name="40074011_const" type="Const" version="opset1">
			<data element_type="f32" offset="33204" shape="" size="4"/>
			<output>
				<port id="1" precision="FP32"/>
			</output>
		</layer>
		<layer id="318" name="40084012_const" type="Const" version="opset1">
			<data element_type="f32" offset="33208" shape="" size="4"/>
			<output>
				<port id="1" precision="FP32"/>
			</output>
		</layer>
		<layer id="319" name="bottleneck2_1/add/fq_input_0" type="FakeQuantize" version="opset1">
			<data levels="256"/>
			<input>
				<port id="0">
					<dim>1</dim>
					<dim>64</dim>
					<dim>80</dim>
					<dim>136</dim>
				</port>
				<port id="1"/>
				<port id="2"/>
				<port id="3"/>
				<port id="4"/>
			</input>
			<output>
				<port id="5" precision="FP32">
					<dim>1</dim>
					<dim>64</dim>
					<dim>80</dim>
					<dim>136</dim>
				</port>
			</output>
		</layer>
		<layer id="320" name="Mul1_21247/Fused_Mul_2633626338_const932_const" type="Const" version="opset1">
			<data element_type="f32" offset="33212" shape="16,64,1,1" size="4096"/>
			<output>
				<port id="1" precision="FP32">
					<dim>16</dim>
					<dim>64</dim>
					<dim>1</dim>
					<dim>1</dim>
				</port>
			</output>
		</layer>
		<layer id="321" name="35553559_const" type="Const" version="opset1">
			<data element_type="f32" offset="37308" shape="16,1,1,1" size="64"/>
			<output>
				<port id="1" precision="FP32">
					<dim>16</dim>
					<dim>1</dim>
					<dim>1</dim>
					<dim>1</dim>
				</port>
			</output>
		</layer>
		<layer id="322" name="35563560_const" type="Const" version="opset1">
			<data element_type="f32" offset="37372" shape="16,1,1,1" size="64"/>
			<output>
				<port id="1" precision="FP32">
					<dim>16</dim>
					<dim>1</dim>
					<dim>1</dim>
					<dim>1</dim>
				</port>
			</output>
		</layer>
		<layer id="323" name="35573561_const" type="Const" version="opset1">
			<data element_type="f32" offset="37308" shape="16,1,1,1" size="64"/>
			<output>
				<port id="1" precision="FP32">
					<dim>16</dim>
					<dim>1</dim>
					<dim>1</dim>
					<dim>1</dim>
				</port>
			</output>
		</layer>
		<layer id="324" name="35583562_const" type="Const" version="opset1">
			<data element_type="f32" offset="37372" shape="16,1,1,1" size="64"/>
			<output>
				<port id="1" precision="FP32">
					<dim>16</dim>
					<dim>1</dim>
					<dim>1</dim>
					<dim>1</dim>
				</port>
			</output>
		</layer>
		<layer id="325" name="bottleneck2_1/dim_red/conv/fq_weights_1" type="FakeQuantize" version="opset1">
			<data levels="255"/>
			<input>
				<port id="0">
					<dim>16</dim>
					<dim>64</dim>
					<dim>1</dim>
					<dim>1</dim>
				</port>
				<port id="1">
					<dim>16</dim>
					<dim>1</dim>
					<dim>1</dim>
					<dim>1</dim>
				</port>
				<port id="2">
					<dim>16</dim>
					<dim>1</dim>
					<dim>1</dim>
					<dim>1</dim>
				</port>
				<port id="3">
					<dim>16</dim>
					<dim>1</dim>
					<dim>1</dim>
					<dim>1</dim>
				</port>
				<port id="4">
					<dim>16</dim>
					<dim>1</dim>
					<dim>1</dim>
					<dim>1</dim>
				</port>
			</input>
			<output>
				<port id="5" precision="FP32">
					<dim>16</dim>
					<dim>64</dim>
					<dim>1</dim>
					<dim>1</dim>
				</port>
			</output>
		</layer>
		<layer id="326" name="bottleneck2_1/dim_red/conv" type="Convolution" version="opset1">
			<data dilations="1,1" output_padding="0,0" pads_begin="0,0" pads_end="0,0" strides="1,1"/>
			<input>
				<port id="0">
					<dim>1</dim>
					<dim>64</dim>
					<dim>80</dim>
					<dim>136</dim>
				</port>
				<port id="1">
					<dim>16</dim>
					<dim>64</dim>
					<dim>1</dim>
					<dim>1</dim>
				</port>
			</input>
			<output>
				<port id="2" precision="FP32">
					<dim>1</dim>
					<dim>16</dim>
					<dim>80</dim>
					<dim>136</dim>
				</port>
			</output>
		</layer>
		<layer id="327" name="data_add_2458424589/copy_const934_const" type="Const" version="opset1">
			<data element_type="f32" offset="37436" shape="1,16,1,1" size="64"/>
			<output>
				<port id="1" precision="FP32">
					<dim>1</dim>
					<dim>16</dim>
					<dim>1</dim>
					<dim>1</dim>
				</port>
			</output>
		</layer>
		<layer id="328" name="Add1_21248/Fused_Add_" type="Add" version="opset1">
			<input>
				<port id="0">
					<dim>1</dim>
					<dim>16</dim>
					<dim>80</dim>
					<dim>136</dim>
				</port>
				<port id="1">
					<dim>1</dim>
					<dim>16</dim>
					<dim>1</dim>
					<dim>1</dim>
				</port>
			</input>
			<output>
				<port id="2" precision="FP32">
					<dim>1</dim>
					<dim>16</dim>
					<dim>80</dim>
					<dim>136</dim>
				</port>
			</output>
		</layer>
		<layer id="329" name="bottleneck2_1/dim_red/fn32373/Cast_137540_const936_const" type="Const" version="opset1">
			<data element_type="f32" offset="5256" shape="1" size="4"/>
			<output>
				<port id="1" precision="FP32">
					<dim>1</dim>
				</port>
			</output>
		</layer>
		<layer id="330" name="bottleneck2_1/dim_red/fn32373" type="PReLU" version="opset1">
			<input>
				<port id="0">
					<dim>1</dim>
					<dim>16</dim>
					<dim>80</dim>
					<dim>136</dim>
				</port>
				<port id="1">
					<dim>1</dim>
				</port>
			</input>
			<output>
				<port id="2" precision="FP32">
					<dim>1</dim>
					<dim>16</dim>
					<dim>80</dim>
					<dim>136</dim>
				</port>
			</output>
		</layer>
		<layer id="331" name="32453249_const" type="Const" version="opset1">
			<data element_type="f32" offset="37500" shape="1,16,1,1" size="64"/>
			<output>
				<port id="1" precision="FP32">
					<dim>1</dim>
					<dim>16</dim>
					<dim>1</dim>
					<dim>1</dim>
				</port>
			</output>
		</layer>
		<layer id="332" name="32463250_const" type="Const" version="opset1">
			<data element_type="f32" offset="37564" shape="1,16,1,1" size="64"/>
			<output>
				<port id="1" precision="FP32">
					<dim>1</dim>
					<dim>16</dim>
					<dim>1</dim>
					<dim>1</dim>
				</port>
			</output>
		</layer>
		<layer id="333" name="32473251_const" type="Const" version="opset1">
			<data element_type="f32" offset="37500" shape="1,16,1,1" size="64"/>
			<output>
				<port id="1" precision="FP32">
					<dim>1</dim>
					<dim>16</dim>
					<dim>1</dim>
					<dim>1</dim>
				</port>
			</output>
		</layer>
		<layer id="334" name="32483252_const" type="Const" version="opset1">
			<data element_type="f32" offset="37564" shape="1,16,1,1" size="64"/>
			<output>
				<port id="1" precision="FP32">
					<dim>1</dim>
					<dim>16</dim>
					<dim>1</dim>
					<dim>1</dim>
				</port>
			</output>
		</layer>
		<layer id="335" name="bottleneck2_1/inner/dw1/conv/fq_input_0" type="FakeQuantize" version="opset1">
			<data levels="256"/>
			<input>
				<port id="0">
					<dim>1</dim>
					<dim>16</dim>
					<dim>80</dim>
					<dim>136</dim>
				</port>
				<port id="1">
					<dim>1</dim>
					<dim>16</dim>
					<dim>1</dim>
					<dim>1</dim>
				</port>
				<port id="2">
					<dim>1</dim>
					<dim>16</dim>
					<dim>1</dim>
					<dim>1</dim>
				</port>
				<port id="3">
					<dim>1</dim>
					<dim>16</dim>
					<dim>1</dim>
					<dim>1</dim>
				</port>
				<port id="4">
					<dim>1</dim>
					<dim>16</dim>
					<dim>1</dim>
					<dim>1</dim>
				</port>
			</input>
			<output>
				<port id="5" precision="FP32">
					<dim>1</dim>
					<dim>16</dim>
					<dim>80</dim>
					<dim>136</dim>
				</port>
			</output>
		</layer>
		<layer id="336" name="18691580_const" type="Const" version="opset1">
			<data element_type="f32" offset="37628" shape="16,1,3,3" size="576"/>
			<output>
				<port id="1" precision="FP32">
					<dim>16</dim>
					<dim>1</dim>
					<dim>3</dim>
					<dim>3</dim>
				</port>
			</output>
		</layer>
		<layer id="337" name="32553259_const" type="Const" version="opset1">
			<data element_type="f32" offset="38204" shape="16,1,1,1" size="64"/>
			<output>
				<port id="1" precision="FP32">
					<dim>16</dim>
					<dim>1</dim>
					<dim>1</dim>
					<dim>1</dim>
				</port>
			</output>
		</layer>
		<layer id="338" name="32563260_const" type="Const" version="opset1">
			<data element_type="f32" offset="38268" shape="16,1,1,1" size="64"/>
			<output>
				<port id="1" precision="FP32">
					<dim>16</dim>
					<dim>1</dim>
					<dim>1</dim>
					<dim>1</dim>
				</port>
			</output>
		</layer>
		<layer id="339" name="32573261_const" type="Const" version="opset1">
			<data element_type="f32" offset="38204" shape="16,1,1,1" size="64"/>
			<output>
				<port id="1" precision="FP32">
					<dim>16</dim>
					<dim>1</dim>
					<dim>1</dim>
					<dim>1</dim>
				</port>
			</output>
		</layer>
		<layer id="340" name="32583262_const" type="Const" version="opset1">
			<data element_type="f32" offset="38268" shape="16,1,1,1" size="64"/>
			<output>
				<port id="1" precision="FP32">
					<dim>16</dim>
					<dim>1</dim>
					<dim>1</dim>
					<dim>1</dim>
				</port>
			</output>
		</layer>
		<layer id="341" name="bottleneck2_1/inner/dw1/conv/fq_weights_1" type="FakeQuantize" version="opset1">
			<data levels="255"/>
			<input>
				<port id="0">
					<dim>16</dim>
					<dim>1</dim>
					<dim>3</dim>
					<dim>3</dim>
				</port>
				<port id="1">
					<dim>16</dim>
					<dim>1</dim>
					<dim>1</dim>
					<dim>1</dim>
				</port>
				<port id="2">
					<dim>16</dim>
					<dim>1</dim>
					<dim>1</dim>
					<dim>1</dim>
				</port>
				<port id="3">
					<dim>16</dim>
					<dim>1</dim>
					<dim>1</dim>
					<dim>1</dim>
				</port>
				<port id="4">
					<dim>16</dim>
					<dim>1</dim>
					<dim>1</dim>
					<dim>1</dim>
				</port>
			</input>
			<output>
				<port id="5" precision="FP32">
					<dim>16</dim>
					<dim>1</dim>
					<dim>3</dim>
					<dim>3</dim>
				</port>
			</output>
		</layer>
		<layer id="342" name="9919/value9921_const" type="Const" version="opset1">
			<data element_type="i64" offset="28220" shape="5" size="40"/>
			<output>
				<port id="1" precision="I64">
					<dim>5</dim>
				</port>
			</output>
		</layer>
		<layer id="343" name="9919" type="Reshape" version="opset1">
			<data special_zero="True"/>
			<input>
				<port id="0">
					<dim>16</dim>
					<dim>1</dim>
					<dim>3</dim>
					<dim>3</dim>
				</port>
				<port id="1">
					<dim>5</dim>
				</port>
			</input>
			<output>
				<port id="2" precision="FP32">
					<dim>16</dim>
					<dim>1</dim>
					<dim>1</dim>
					<dim>3</dim>
					<dim>3</dim>
				</port>
			</output>
		</layer>
		<layer id="344" name="bottleneck2_1/inner/dw1/conv" type="GroupConvolution" version="opset1">
			<data dilations="1,1" output_padding="0,0" pads_begin="1,1" pads_end="1,1" strides="1,1"/>
			<input>
				<port id="0">
					<dim>1</dim>
					<dim>16</dim>
					<dim>80</dim>
					<dim>136</dim>
				</port>
				<port id="1">
					<dim>16</dim>
					<dim>1</dim>
					<dim>1</dim>
					<dim>3</dim>
					<dim>3</dim>
				</port>
			</input>
			<output>
				<port id="2" precision="FP32">
					<dim>1</dim>
					<dim>16</dim>
					<dim>80</dim>
					<dim>136</dim>
				</port>
			</output>
		</layer>
		<layer id="345" name="data_add_2459224597/copy_const940_const" type="Const" version="opset1">
			<data element_type="f32" offset="38332" shape="1,16,1,1" size="64"/>
			<output>
				<port id="1" precision="FP32">
					<dim>1</dim>
					<dim>16</dim>
					<dim>1</dim>
					<dim>1</dim>
				</port>
			</output>
		</layer>
		<layer id="346" name="Add1_21260/Fused_Add_" type="Add" version="opset1">
			<input>
				<port id="0">
					<dim>1</dim>
					<dim>16</dim>
					<dim>80</dim>
					<dim>136</dim>
				</port>
				<port id="1">
					<dim>1</dim>
					<dim>16</dim>
					<dim>1</dim>
					<dim>1</dim>
				</port>
			</input>
			<output>
				<port id="2" precision="FP32">
					<dim>1</dim>
					<dim>16</dim>
					<dim>80</dim>
					<dim>136</dim>
				</port>
			</output>
		</layer>
		<layer id="347" name="bottleneck2_1/inner/dw1/fn32285/Cast_137474_const942_const" type="Const" version="opset1">
			<data element_type="f32" offset="5256" shape="1" size="4"/>
			<output>
				<port id="1" precision="FP32">
					<dim>1</dim>
				</port>
			</output>
		</layer>
		<layer id="348" name="bottleneck2_1/inner/dw1/fn32285" type="PReLU" version="opset1">
			<input>
				<port id="0">
					<dim>1</dim>
					<dim>16</dim>
					<dim>80</dim>
					<dim>136</dim>
				</port>
				<port id="1">
					<dim>1</dim>
				</port>
			</input>
			<output>
				<port id="2" precision="FP32">
					<dim>1</dim>
					<dim>16</dim>
					<dim>80</dim>
					<dim>136</dim>
				</port>
			</output>
		</layer>
		<layer id="349" name="37653769_const" type="Const" version="opset1">
			<data element_type="f32" offset="38396" shape="" size="4"/>
			<output>
				<port id="1" precision="FP32"/>
			</output>
		</layer>
		<layer id="350" name="37663770_const" type="Const" version="opset1">
			<data element_type="f32" offset="38400" shape="" size="4"/>
			<output>
				<port id="1" precision="FP32"/>
			</output>
		</layer>
		<layer id="351" name="37673771_const" type="Const" version="opset1">
			<data element_type="f32" offset="38396" shape="" size="4"/>
			<output>
				<port id="1" precision="FP32"/>
			</output>
		</layer>
		<layer id="352" name="37683772_const" type="Const" version="opset1">
			<data element_type="f32" offset="38400" shape="" size="4"/>
			<output>
				<port id="1" precision="FP32"/>
			</output>
		</layer>
		<layer id="353" name="bottleneck2_1/dim_inc/conv/fq_input_0" type="FakeQuantize" version="opset1">
			<data levels="256"/>
			<input>
				<port id="0">
					<dim>1</dim>
					<dim>16</dim>
					<dim>80</dim>
					<dim>136</dim>
				</port>
				<port id="1"/>
				<port id="2"/>
				<port id="3"/>
				<port id="4"/>
			</input>
			<output>
				<port id="5" precision="FP32">
					<dim>1</dim>
					<dim>16</dim>
					<dim>80</dim>
					<dim>136</dim>
				</port>
			</output>
		</layer>
		<layer id="354" name="Mul1_21271/Fused_Mul_2634426346_const944_const" type="Const" version="opset1">
			<data element_type="f32" offset="38404" shape="64,16,1,1" size="4096"/>
			<output>
				<port id="1" precision="FP32">
					<dim>64</dim>
					<dim>16</dim>
					<dim>1</dim>
					<dim>1</dim>
				</port>
			</output>
		</layer>
		<layer id="355" name="37753779_const" type="Const" version="opset1">
			<data element_type="f32" offset="42500" shape="64,1,1,1" size="256"/>
			<output>
				<port id="1" precision="FP32">
					<dim>64</dim>
					<dim>1</dim>
					<dim>1</dim>
					<dim>1</dim>
				</port>
			</output>
		</layer>
		<layer id="356" name="37763780_const" type="Const" version="opset1">
			<data element_type="f32" offset="42756" shape="64,1,1,1" size="256"/>
			<output>
				<port id="1" precision="FP32">
					<dim>64</dim>
					<dim>1</dim>
					<dim>1</dim>
					<dim>1</dim>
				</port>
			</output>
		</layer>
		<layer id="357" name="37773781_const" type="Const" version="opset1">
			<data element_type="f32" offset="42500" shape="64,1,1,1" size="256"/>
			<output>
				<port id="1" precision="FP32">
					<dim>64</dim>
					<dim>1</dim>
					<dim>1</dim>
					<dim>1</dim>
				</port>
			</output>
		</layer>
		<layer id="358" name="37783782_const" type="Const" version="opset1">
			<data element_type="f32" offset="42756" shape="64,1,1,1" size="256"/>
			<output>
				<port id="1" precision="FP32">
					<dim>64</dim>
					<dim>1</dim>
					<dim>1</dim>
					<dim>1</dim>
				</port>
			</output>
		</layer>
		<layer id="359" name="bottleneck2_1/dim_inc/conv/fq_weights_1" type="FakeQuantize" version="opset1">
			<data levels="255"/>
			<input>
				<port id="0">
					<dim>64</dim>
					<dim>16</dim>
					<dim>1</dim>
					<dim>1</dim>
				</port>
				<port id="1">
					<dim>64</dim>
					<dim>1</dim>
					<dim>1</dim>
					<dim>1</dim>
				</port>
				<port id="2">
					<dim>64</dim>
					<dim>1</dim>
					<dim>1</dim>
					<dim>1</dim>
				</port>
				<port id="3">
					<dim>64</dim>
					<dim>1</dim>
					<dim>1</dim>
					<dim>1</dim>
				</port>
				<port id="4">
					<dim>64</dim>
					<dim>1</dim>
					<dim>1</dim>
					<dim>1</dim>
				</port>
			</input>
			<output>
				<port id="5" precision="FP32">
					<dim>64</dim>
					<dim>16</dim>
					<dim>1</dim>
					<dim>1</dim>
				</port>
			</output>
		</layer>
		<layer id="360" name="bottleneck2_1/dim_inc/conv" type="Convolution" version="opset1">
			<data dilations="1,1" output_padding="0,0" pads_begin="0,0" pads_end="0,0" strides="1,1"/>
			<input>
				<port id="0">
					<dim>1</dim>
					<dim>16</dim>
					<dim>80</dim>
					<dim>136</dim>
				</port>
				<port id="1">
					<dim>64</dim>
					<dim>16</dim>
					<dim>1</dim>
					<dim>1</dim>
				</port>
			</input>
			<output>
				<port id="2" precision="FP32">
					<dim>1</dim>
					<dim>64</dim>
					<dim>80</dim>
					<dim>136</dim>
				</port>
			</output>
		</layer>
		<layer id="361" name="data_add_2460024605/copy_const946_const" type="Const" version="opset1">
			<data element_type="f32" offset="43012" shape="1,64,1,1" size="256"/>
			<output>
				<port id="1" precision="FP32">
					<dim>1</dim>
					<dim>64</dim>
					<dim>1</dim>
					<dim>1</dim>
				</port>
			</output>
		</layer>
		<layer id="362" name="Add1_21272/Fused_Add_" type="Add" version="opset1">
			<input>
				<port id="0">
					<dim>1</dim>
					<dim>64</dim>
					<dim>80</dim>
					<dim>136</dim>
				</port>
				<port id="1">
					<dim>1</dim>
					<dim>64</dim>
					<dim>1</dim>
					<dim>1</dim>
				</port>
			</input>
			<output>
				<port id="2" precision="FP32">
					<dim>1</dim>
					<dim>64</dim>
					<dim>80</dim>
					<dim>136</dim>
				</port>
			</output>
		</layer>
		<layer id="363" name="40154019_const" type="Const" version="opset1">
			<data element_type="f32" offset="43268" shape="" size="4"/>
			<output>
				<port id="1" precision="FP32"/>
			</output>
		</layer>
		<layer id="364" name="40164020_const" type="Const" version="opset1">
			<data element_type="f32" offset="43272" shape="" size="4"/>
			<output>
				<port id="1" precision="FP32"/>
			</output>
		</layer>
		<layer id="365" name="40174021_const" type="Const" version="opset1">
			<data element_type="f32" offset="43268" shape="" size="4"/>
			<output>
				<port id="1" precision="FP32"/>
			</output>
		</layer>
		<layer id="366" name="40184022_const" type="Const" version="opset1">
			<data element_type="f32" offset="43272" shape="" size="4"/>
			<output>
				<port id="1" precision="FP32"/>
			</output>
		</layer>
		<layer id="367" name="bottleneck2_1/add/fq_input_1" type="FakeQuantize" version="opset1">
			<data levels="256"/>
			<input>
				<port id="0">
					<dim>1</dim>
					<dim>64</dim>
					<dim>80</dim>
					<dim>136</dim>
				</port>
				<port id="1"/>
				<port id="2"/>
				<port id="3"/>
				<port id="4"/>
			</input>
			<output>
				<port id="5" precision="FP32">
					<dim>1</dim>
					<dim>64</dim>
					<dim>80</dim>
					<dim>136</dim>
				</port>
			</output>
		</layer>
		<layer id="368" name="bottleneck2_1/add" type="Add" version="opset1">
			<input>
				<port id="0">
					<dim>1</dim>
					<dim>64</dim>
					<dim>80</dim>
					<dim>136</dim>
				</port>
				<port id="1">
					<dim>1</dim>
					<dim>64</dim>
					<dim>80</dim>
					<dim>136</dim>
				</port>
			</input>
			<output>
				<port id="2" precision="FP32">
					<dim>1</dim>
					<dim>64</dim>
					<dim>80</dim>
					<dim>136</dim>
				</port>
			</output>
		</layer>
		<layer id="369" name="bottleneck2_1/fn31977/Cast_137488_const949_const" type="Const" version="opset1">
			<data element_type="f32" offset="5256" shape="1" size="4"/>
			<output>
				<port id="1" precision="FP32">
					<dim>1</dim>
				</port>
			</output>
		</layer>
		<layer id="370" name="bottleneck2_1/fn31977" type="PReLU" version="opset1">
			<input>
				<port id="0">
					<dim>1</dim>
					<dim>64</dim>
					<dim>80</dim>
					<dim>136</dim>
				</port>
				<port id="1">
					<dim>1</dim>
				</port>
			</input>
			<output>
				<port id="2" precision="FP32">
					<dim>1</dim>
					<dim>64</dim>
					<dim>80</dim>
					<dim>136</dim>
				</port>
			</output>
		</layer>
		<layer id="371" name="52855289_const" type="Const" version="opset1">
			<data element_type="f32" offset="43276" shape="" size="4"/>
			<output>
				<port id="1" precision="FP32"/>
			</output>
		</layer>
		<layer id="372" name="52865290_const" type="Const" version="opset1">
			<data element_type="f32" offset="43280" shape="" size="4"/>
			<output>
				<port id="1" precision="FP32"/>
			</output>
		</layer>
		<layer id="373" name="52875291_const" type="Const" version="opset1">
			<data element_type="f32" offset="43276" shape="" size="4"/>
			<output>
				<port id="1" precision="FP32"/>
			</output>
		</layer>
		<layer id="374" name="52885292_const" type="Const" version="opset1">
			<data element_type="f32" offset="43280" shape="" size="4"/>
			<output>
				<port id="1" precision="FP32"/>
			</output>
		</layer>
		<layer id="375" name="bottleneck2_2/add/fq_input_0" type="FakeQuantize" version="opset1">
			<data levels="256"/>
			<input>
				<port id="0">
					<dim>1</dim>
					<dim>64</dim>
					<dim>80</dim>
					<dim>136</dim>
				</port>
				<port id="1"/>
				<port id="2"/>
				<port id="3"/>
				<port id="4"/>
			</input>
			<output>
				<port id="5" precision="FP32">
					<dim>1</dim>
					<dim>64</dim>
					<dim>80</dim>
					<dim>136</dim>
				</port>
			</output>
		</layer>
		<layer id="376" name="Mul1_21283/Fused_Mul_2634826350_const951_const" type="Const" version="opset1">
			<data element_type="f32" offset="43284" shape="16,64,1,1" size="4096"/>
			<output>
				<port id="1" precision="FP32">
					<dim>16</dim>
					<dim>64</dim>
					<dim>1</dim>
					<dim>1</dim>
				</port>
			</output>
		</layer>
		<layer id="377" name="27152719_const" type="Const" version="opset1">
			<data element_type="f32" offset="47380" shape="16,1,1,1" size="64"/>
			<output>
				<port id="1" precision="FP32">
					<dim>16</dim>
					<dim>1</dim>
					<dim>1</dim>
					<dim>1</dim>
				</port>
			</output>
		</layer>
		<layer id="378" name="27162720_const" type="Const" version="opset1">
			<data element_type="f32" offset="47444" shape="16,1,1,1" size="64"/>
			<output>
				<port id="1" precision="FP32">
					<dim>16</dim>
					<dim>1</dim>
					<dim>1</dim>
					<dim>1</dim>
				</port>
			</output>
		</layer>
		<layer id="379" name="27172721_const" type="Const" version="opset1">
			<data element_type="f32" offset="47380" shape="16,1,1,1" size="64"/>
			<output>
				<port id="1" precision="FP32">
					<dim>16</dim>
					<dim>1</dim>
					<dim>1</dim>
					<dim>1</dim>
				</port>
			</output>
		</layer>
		<layer id="380" name="27182722_const" type="Const" version="opset1">
			<data element_type="f32" offset="47444" shape="16,1,1,1" size="64"/>
			<output>
				<port id="1" precision="FP32">
					<dim>16</dim>
					<dim>1</dim>
					<dim>1</dim>
					<dim>1</dim>
				</port>
			</output>
		</layer>
		<layer id="381" name="bottleneck2_2/dim_red/conv/fq_weights_1" type="FakeQuantize" version="opset1">
			<data levels="255"/>
			<input>
				<port id="0">
					<dim>16</dim>
					<dim>64</dim>
					<dim>1</dim>
					<dim>1</dim>
				</port>
				<port id="1">
					<dim>16</dim>
					<dim>1</dim>
					<dim>1</dim>
					<dim>1</dim>
				</port>
				<port id="2">
					<dim>16</dim>
					<dim>1</dim>
					<dim>1</dim>
					<dim>1</dim>
				</port>
				<port id="3">
					<dim>16</dim>
					<dim>1</dim>
					<dim>1</dim>
					<dim>1</dim>
				</port>
				<port id="4">
					<dim>16</dim>
					<dim>1</dim>
					<dim>1</dim>
					<dim>1</dim>
				</port>
			</input>
			<output>
				<port id="5" precision="FP32">
					<dim>16</dim>
					<dim>64</dim>
					<dim>1</dim>
					<dim>1</dim>
				</port>
			</output>
		</layer>
		<layer id="382" name="bottleneck2_2/dim_red/conv" type="Convolution" version="opset1">
			<data dilations="1,1" output_padding="0,0" pads_begin="0,0" pads_end="0,0" strides="1,1"/>
			<input>
				<port id="0">
					<dim>1</dim>
					<dim>64</dim>
					<dim>80</dim>
					<dim>136</dim>
				</port>
				<port id="1">
					<dim>16</dim>
					<dim>64</dim>
					<dim>1</dim>
					<dim>1</dim>
				</port>
			</input>
			<output>
				<port id="2" precision="FP32">
					<dim>1</dim>
					<dim>16</dim>
					<dim>80</dim>
					<dim>136</dim>
				</port>
			</output>
		</layer>
		<layer id="383" name="data_add_2460824613/copy_const953_const" type="Const" version="opset1">
			<data element_type="f32" offset="47508" shape="1,16,1,1" size="64"/>
			<output>
				<port id="1" precision="FP32">
					<dim>1</dim>
					<dim>16</dim>
					<dim>1</dim>
					<dim>1</dim>
				</port>
			</output>
		</layer>
		<layer id="384" name="Add1_21284/Fused_Add_" type="Add" version="opset1">
			<input>
				<port id="0">
					<dim>1</dim>
					<dim>16</dim>
					<dim>80</dim>
					<dim>136</dim>
				</port>
				<port id="1">
					<dim>1</dim>
					<dim>16</dim>
					<dim>1</dim>
					<dim>1</dim>
				</port>
			</input>
			<output>
				<port id="2" precision="FP32">
					<dim>1</dim>
					<dim>16</dim>
					<dim>80</dim>
					<dim>136</dim>
				</port>
			</output>
		</layer>
		<layer id="385" name="bottleneck2_2/dim_red/fn32261/Cast_137696_const955_const" type="Const" version="opset1">
			<data element_type="f32" offset="5256" shape="1" size="4"/>
			<output>
				<port id="1" precision="FP32">
					<dim>1</dim>
				</port>
			</output>
		</layer>
		<layer id="386" name="bottleneck2_2/dim_red/fn32261" type="PReLU" version="opset1">
			<input>
				<port id="0">
					<dim>1</dim>
					<dim>16</dim>
					<dim>80</dim>
					<dim>136</dim>
				</port>
				<port id="1">
					<dim>1</dim>
				</port>
			</input>
			<output>
				<port id="2" precision="FP32">
					<dim>1</dim>
					<dim>16</dim>
					<dim>80</dim>
					<dim>136</dim>
				</port>
			</output>
		</layer>
		<layer id="387" name="26252629_const" type="Const" version="opset1">
			<data element_type="f32" offset="47572" shape="1,16,1,1" size="64"/>
			<output>
				<port id="1" precision="FP32">
					<dim>1</dim>
					<dim>16</dim>
					<dim>1</dim>
					<dim>1</dim>
				</port>
			</output>
		</layer>
		<layer id="388" name="26262630_const" type="Const" version="opset1">
			<data element_type="f32" offset="47636" shape="1,16,1,1" size="64"/>
			<output>
				<port id="1" precision="FP32">
					<dim>1</dim>
					<dim>16</dim>
					<dim>1</dim>
					<dim>1</dim>
				</port>
			</output>
		</layer>
		<layer id="389" name="26272631_const" type="Const" version="opset1">
			<data element_type="f32" offset="47572" shape="1,16,1,1" size="64"/>
			<output>
				<port id="1" precision="FP32">
					<dim>1</dim>
					<dim>16</dim>
					<dim>1</dim>
					<dim>1</dim>
				</port>
			</output>
		</layer>
		<layer id="390" name="26282632_const" type="Const" version="opset1">
			<data element_type="f32" offset="47636" shape="1,16,1,1" size="64"/>
			<output>
				<port id="1" precision="FP32">
					<dim>1</dim>
					<dim>16</dim>
					<dim>1</dim>
					<dim>1</dim>
				</port>
			</output>
		</layer>
		<layer id="391" name="bottleneck2_2/inner/dw1/conv/fq_input_0" type="FakeQuantize" version="opset1">
			<data levels="256"/>
			<input>
				<port id="0">
					<dim>1</dim>
					<dim>16</dim>
					<dim>80</dim>
					<dim>136</dim>
				</port>
				<port id="1">
					<dim>1</dim>
					<dim>16</dim>
					<dim>1</dim>
					<dim>1</dim>
				</port>
				<port id="2">
					<dim>1</dim>
					<dim>16</dim>
					<dim>1</dim>
					<dim>1</dim>
				</port>
				<port id="3">
					<dim>1</dim>
					<dim>16</dim>
					<dim>1</dim>
					<dim>1</dim>
				</port>
				<port id="4">
					<dim>1</dim>
					<dim>16</dim>
					<dim>1</dim>
					<dim>1</dim>
				</port>
			</input>
			<output>
				<port id="5" precision="FP32">
					<dim>1</dim>
					<dim>16</dim>
					<dim>80</dim>
					<dim>136</dim>
				</port>
			</output>
		</layer>
		<layer id="392" name="18731582_const" type="Const" version="opset1">
			<data element_type="f32" offset="47700" shape="16,1,3,3" size="576"/>
			<output>
				<port id="1" precision="FP32">
					<dim>16</dim>
					<dim>1</dim>
					<dim>3</dim>
					<dim>3</dim>
				</port>
			</output>
		</layer>
		<layer id="393" name="26352639_const" type="Const" version="opset1">
			<data element_type="f32" offset="48276" shape="16,1,1,1" size="64"/>
			<output>
				<port id="1" precision="FP32">
					<dim>16</dim>
					<dim>1</dim>
					<dim>1</dim>
					<dim>1</dim>
				</port>
			</output>
		</layer>
		<layer id="394" name="26362640_const" type="Const" version="opset1">
			<data element_type="f32" offset="48340" shape="16,1,1,1" size="64"/>
			<output>
				<port id="1" precision="FP32">
					<dim>16</dim>
					<dim>1</dim>
					<dim>1</dim>
					<dim>1</dim>
				</port>
			</output>
		</layer>
		<layer id="395" name="26372641_const" type="Const" version="opset1">
			<data element_type="f32" offset="48276" shape="16,1,1,1" size="64"/>
			<output>
				<port id="1" precision="FP32">
					<dim>16</dim>
					<dim>1</dim>
					<dim>1</dim>
					<dim>1</dim>
				</port>
			</output>
		</layer>
		<layer id="396" name="26382642_const" type="Const" version="opset1">
			<data element_type="f32" offset="48340" shape="16,1,1,1" size="64"/>
			<output>
				<port id="1" precision="FP32">
					<dim>16</dim>
					<dim>1</dim>
					<dim>1</dim>
					<dim>1</dim>
				</port>
			</output>
		</layer>
		<layer id="397" name="bottleneck2_2/inner/dw1/conv/fq_weights_1" type="FakeQuantize" version="opset1">
			<data levels="255"/>
			<input>
				<port id="0">
					<dim>16</dim>
					<dim>1</dim>
					<dim>3</dim>
					<dim>3</dim>
				</port>
				<port id="1">
					<dim>16</dim>
					<dim>1</dim>
					<dim>1</dim>
					<dim>1</dim>
				</port>
				<port id="2">
					<dim>16</dim>
					<dim>1</dim>
					<dim>1</dim>
					<dim>1</dim>
				</port>
				<port id="3">
					<dim>16</dim>
					<dim>1</dim>
					<dim>1</dim>
					<dim>1</dim>
				</port>
				<port id="4">
					<dim>16</dim>
					<dim>1</dim>
					<dim>1</dim>
					<dim>1</dim>
				</port>
			</input>
			<output>
				<port id="5" precision="FP32">
					<dim>16</dim>
					<dim>1</dim>
					<dim>3</dim>
					<dim>3</dim>
				</port>
			</output>
		</layer>
		<layer id="398" name="9887/value9889_const" type="Const" version="opset1">
			<data element_type="i64" offset="28220" shape="5" size="40"/>
			<output>
				<port id="1" precision="I64">
					<dim>5</dim>
				</port>
			</output>
		</layer>
		<layer id="399" name="9887" type="Reshape" version="opset1">
			<data special_zero="True"/>
			<input>
				<port id="0">
					<dim>16</dim>
					<dim>1</dim>
					<dim>3</dim>
					<dim>3</dim>
				</port>
				<port id="1">
					<dim>5</dim>
				</port>
			</input>
			<output>
				<port id="2" precision="FP32">
					<dim>16</dim>
					<dim>1</dim>
					<dim>1</dim>
					<dim>3</dim>
					<dim>3</dim>
				</port>
			</output>
		</layer>
		<layer id="400" name="bottleneck2_2/inner/dw1/conv" type="GroupConvolution" version="opset1">
			<data dilations="1,1" output_padding="0,0" pads_begin="1,1" pads_end="1,1" strides="1,1"/>
			<input>
				<port id="0">
					<dim>1</dim>
					<dim>16</dim>
					<dim>80</dim>
					<dim>136</dim>
				</port>
				<port id="1">
					<dim>16</dim>
					<dim>1</dim>
					<dim>1</dim>
					<dim>3</dim>
					<dim>3</dim>
				</port>
			</input>
			<output>
				<port id="2" precision="FP32">
					<dim>1</dim>
					<dim>16</dim>
					<dim>80</dim>
					<dim>136</dim>
				</port>
			</output>
		</layer>
		<layer id="401" name="data_add_2461624621/copy_const959_const" type="Const" version="opset1">
			<data element_type="f32" offset="48404" shape="1,16,1,1" size="64"/>
			<output>
				<port id="1" precision="FP32">
					<dim>1</dim>
					<dim>16</dim>
					<dim>1</dim>
					<dim>1</dim>
				</port>
			</output>
		</layer>
		<layer id="402" name="Add1_21296/Fused_Add_" type="Add" version="opset1">
			<input>
				<port id="0">
					<dim>1</dim>
					<dim>16</dim>
					<dim>80</dim>
					<dim>136</dim>
				</port>
				<port id="1">
					<dim>1</dim>
					<dim>16</dim>
					<dim>1</dim>
					<dim>1</dim>
				</port>
			</input>
			<output>
				<port id="2" precision="FP32">
					<dim>1</dim>
					<dim>16</dim>
					<dim>80</dim>
					<dim>136</dim>
				</port>
			</output>
		</layer>
		<layer id="403" name="bottleneck2_2/inner/dw1/fn32021/Cast_137638_const961_const" type="Const" version="opset1">
			<data element_type="f32" offset="5256" shape="1" size="4"/>
			<output>
				<port id="1" precision="FP32">
					<dim>1</dim>
				</port>
			</output>
		</layer>
		<layer id="404" name="bottleneck2_2/inner/dw1/fn32021" type="PReLU" version="opset1">
			<input>
				<port id="0">
					<dim>1</dim>
					<dim>16</dim>
					<dim>80</dim>
					<dim>136</dim>
				</port>
				<port id="1">
					<dim>1</dim>
				</port>
			</input>
			<output>
				<port id="2" precision="FP32">
					<dim>1</dim>
					<dim>16</dim>
					<dim>80</dim>
					<dim>136</dim>
				</port>
			</output>
		</layer>
		<layer id="405" name="47854789_const" type="Const" version="opset1">
			<data element_type="f32" offset="48468" shape="" size="4"/>
			<output>
				<port id="1" precision="FP32"/>
			</output>
		</layer>
		<layer id="406" name="47864790_const" type="Const" version="opset1">
			<data element_type="f32" offset="48472" shape="" size="4"/>
			<output>
				<port id="1" precision="FP32"/>
			</output>
		</layer>
		<layer id="407" name="47874791_const" type="Const" version="opset1">
			<data element_type="f32" offset="48468" shape="" size="4"/>
			<output>
				<port id="1" precision="FP32"/>
			</output>
		</layer>
		<layer id="408" name="47884792_const" type="Const" version="opset1">
			<data element_type="f32" offset="48472" shape="" size="4"/>
			<output>
				<port id="1" precision="FP32"/>
			</output>
		</layer>
		<layer id="409" name="bottleneck2_2/dim_inc/conv/fq_input_0" type="FakeQuantize" version="opset1">
			<data levels="256"/>
			<input>
				<port id="0">
					<dim>1</dim>
					<dim>16</dim>
					<dim>80</dim>
					<dim>136</dim>
				</port>
				<port id="1"/>
				<port id="2"/>
				<port id="3"/>
				<port id="4"/>
			</input>
			<output>
				<port id="5" precision="FP32">
					<dim>1</dim>
					<dim>16</dim>
					<dim>80</dim>
					<dim>136</dim>
				</port>
			</output>
		</layer>
		<layer id="410" name="Mul1_21307/Fused_Mul_2635626358_const963_const" type="Const" version="opset1">
			<data element_type="f32" offset="48476" shape="64,16,1,1" size="4096"/>
			<output>
				<port id="1" precision="FP32">
					<dim>64</dim>
					<dim>16</dim>
					<dim>1</dim>
					<dim>1</dim>
				</port>
			</output>
		</layer>
		<layer id="411" name="47954799_const" type="Const" version="opset1">
			<data element_type="f32" offset="52572" shape="64,1,1,1" size="256"/>
			<output>
				<port id="1" precision="FP32">
					<dim>64</dim>
					<dim>1</dim>
					<dim>1</dim>
					<dim>1</dim>
				</port>
			</output>
		</layer>
		<layer id="412" name="47964800_const" type="Const" version="opset1">
			<data element_type="f32" offset="52828" shape="64,1,1,1" size="256"/>
			<output>
				<port id="1" precision="FP32">
					<dim>64</dim>
					<dim>1</dim>
					<dim>1</dim>
					<dim>1</dim>
				</port>
			</output>
		</layer>
		<layer id="413" name="47974801_const" type="Const" version="opset1">
			<data element_type="f32" offset="52572" shape="64,1,1,1" size="256"/>
			<output>
				<port id="1" precision="FP32">
					<dim>64</dim>
					<dim>1</dim>
					<dim>1</dim>
					<dim>1</dim>
				</port>
			</output>
		</layer>
		<layer id="414" name="47984802_const" type="Const" version="opset1">
			<data element_type="f32" offset="52828" shape="64,1,1,1" size="256"/>
			<output>
…
		<edge from-layer="1467" from-port="1" to-layer="1469" to-port="3"/>
		<edge from-layer="1468" from-port="1" to-layer="1469" to-port="4"/>
		<edge from-layer="1470" from-port="1" to-layer="1475" to-port="0"/>
		<edge from-layer="1471" from-port="1" to-layer="1475" to-port="1"/>
		<edge from-layer="1472" from-port="1" to-layer="1475" to-port="2"/>
		<edge from-layer="1473" from-port="1" to-layer="1475" to-port="3"/>
		<edge from-layer="1474" from-port="1" to-layer="1475" to-port="4"/>
		<edge from-layer="1469" from-port="5" to-layer="1476" to-port="0"/>
		<edge from-layer="1475" from-port="5" to-layer="1476" to-port="1"/>
		<edge from-layer="1476" from-port="2" to-layer="1478" to-port="0"/>
		<edge from-layer="1477" from-port="1" to-layer="1478" to-port="1"/>
		<edge from-layer="1478" from-port="2" to-layer="1480" to-port="0"/>
		<edge from-layer="1479" from-port="1" to-layer="1480" to-port="1"/>
		<edge from-layer="1480" from-port="2" to-layer="1485" to-port="0"/>
		<edge from-layer="1481" from-port="1" to-layer="1485" to-port="1"/>
		<edge from-layer="1482" from-port="1" to-layer="1485" to-port="2"/>
		<edge from-layer="1483" from-port="1" to-layer="1485" to-port="3"/>
		<edge from-layer="1484" from-port="1" to-layer="1485" to-port="4"/>
		<edge from-layer="1486" from-port="1" to-layer="1491" to-port="0"/>
		<edge from-layer="1487" from-port="1" to-layer="1491" to-port="1"/>
		<edge from-layer="1488" from-port="1" to-layer="1491" to-port="2"/>
		<edge from-layer="1489" from-port="1" to-layer="1491" to-port="3"/>
		<edge from-layer="1490" from-port="1" to-layer="1491" to-port="4"/>
		<edge from-layer="1491" from-port="5" to-layer="1493" to-port="0"/>
		<edge from-layer="1492" from-port="1" to-layer="1493" to-port="1"/>
		<edge from-layer="1485" from-port="5" to-layer="1494" to-port="0"/>
		<edge from-layer="1493" from-port="2" to-layer="1494" to-port="1"/>
		<edge from-layer="1494" from-port="2" to-layer="1496" to-port="0"/>
		<edge from-layer="1495" from-port="1" to-layer="1496" to-port="1"/>
		<edge from-layer="1496" from-port="2" to-layer="1498" to-port="0"/>
		<edge from-layer="1497" from-port="1" to-layer="1498" to-port="1"/>
		<edge from-layer="1498" from-port="2" to-layer="1503" to-port="0"/>
		<edge from-layer="1499" from-port="1" to-layer="1503" to-port="1"/>
		<edge from-layer="1500" from-port="1" to-layer="1503" to-port="2"/>
		<edge from-layer="1501" from-port="1" to-layer="1503" to-port="3"/>
		<edge from-layer="1502" from-port="1" to-layer="1503" to-port="4"/>
		<edge from-layer="1504" from-port="1" to-layer="1509" to-port="0"/>
		<edge from-layer="1505" from-port="1" to-layer="1509" to-port="1"/>
		<edge from-layer="1506" from-port="1" to-layer="1509" to-port="2"/>
		<edge from-layer="1507" from-port="1" to-layer="1509" to-port="3"/>
		<edge from-layer="1508" from-port="1" to-layer="1509" to-port="4"/>
		<edge from-layer="1503" from-port="5" to-layer="1510" to-port="0"/>
		<edge from-layer="1509" from-port="5" to-layer="1510" to-port="1"/>
		<edge from-layer="1510" from-port="2" to-layer="1512" to-port="0"/>
		<edge from-layer="1511" from-port="1" to-layer="1512" to-port="1"/>
		<edge from-layer="1512" from-port="2" to-layer="1517" to-port="0"/>
		<edge from-layer="1513" from-port="1" to-layer="1517" to-port="1"/>
		<edge from-layer="1514" from-port="1" to-layer="1517" to-port="2"/>
		<edge from-layer="1515" from-port="1" to-layer="1517" to-port="3"/>
		<edge from-layer="1516" from-port="1" to-layer="1517" to-port="4"/>
		<edge from-layer="1469" from-port="5" to-layer="1518" to-port="0"/>
		<edge from-layer="1517" from-port="5" to-layer="1518" to-port="1"/>
		<edge from-layer="1518" from-port="2" to-layer="1520" to-port="0"/>
		<edge from-layer="1519" from-port="1" to-layer="1520" to-port="1"/>
		<edge from-layer="1520" from-port="2" to-layer="1525" to-port="0"/>
		<edge from-layer="1521" from-port="1" to-layer="1525" to-port="1"/>
		<edge from-layer="1522" from-port="1" to-layer="1525" to-port="2"/>
		<edge from-layer="1523" from-port="1" to-layer="1525" to-port="3"/>
		<edge from-layer="1524" from-port="1" to-layer="1525" to-port="4"/>
		<edge from-layer="1526" from-port="1" to-layer="1531" to-port="0"/>
		<edge from-layer="1527" from-port="1" to-layer="1531" to-port="1"/>
		<edge from-layer="1528" from-port="1" to-layer="1531" to-port="2"/>
		<edge from-layer="1529" from-port="1" to-layer="1531" to-port="3"/>
		<edge from-layer="1530" from-port="1" to-layer="1531" to-port="4"/>
		<edge from-layer="1525" from-port="5" to-layer="1532" to-port="0"/>
		<edge from-layer="1531" from-port="5" to-layer="1532" to-port="1"/>
		<edge from-layer="1532" from-port="2" to-layer="1534" to-port="0"/>
		<edge from-layer="1533" from-port="1" to-layer="1534" to-port="1"/>
		<edge from-layer="1534" from-port="2" to-layer="1536" to-port="0"/>
		<edge from-layer="1535" from-port="1" to-layer="1536" to-port="1"/>
		<edge from-layer="1536" from-port="2" to-layer="1541" to-port="0"/>
		<edge from-layer="1537" from-port="1" to-layer="1541" to-port="1"/>
		<edge from-layer="1538" from-port="1" to-layer="1541" to-port="2"/>
		<edge from-layer="1539" from-port="1" to-layer="1541" to-port="3"/>
		<edge from-layer="1540" from-port="1" to-layer="1541" to-port="4"/>
		<edge from-layer="1542" from-port="1" to-layer="1547" to-port="0"/>
		<edge from-layer="1543" from-port="1" to-layer="1547" to-port="1"/>
		<edge from-layer="1544" from-port="1" to-layer="1547" to-port="2"/>
		<edge from-layer="1545" from-port="1" to-layer="1547" to-port="3"/>
		<edge from-layer="1546" from-port="1" to-layer="1547" to-port="4"/>
		<edge from-layer="1547" from-port="5" to-layer="1549" to-port="0"/>
		<edge from-layer="1548" from-port="1" to-layer="1549" to-port="1"/>
		<edge from-layer="1541" from-port="5" to-layer="1550" to-port="0"/>
		<edge from-layer="1549" from-port="2" to-layer="1550" to-port="1"/>
		<edge from-layer="1550" from-port="2" to-layer="1552" to-port="0"/>
		<edge from-layer="1551" from-port="1" to-layer="1552" to-port="1"/>
		<edge from-layer="1552" from-port="2" to-layer="1554" to-port="0"/>
		<edge from-layer="1553" from-port="1" to-layer="1554" to-port="1"/>
		<edge from-layer="1554" from-port="2" to-layer="1559" to-port="0"/>
		<edge from-layer="1555" from-port="1" to-layer="1559" to-port="1"/>
		<edge from-layer="1556" from-port="1" to-layer="1559" to-port="2"/>
		<edge from-layer="1557" from-port="1" to-layer="1559" to-port="3"/>
		<edge from-layer="1558" from-port="1" to-layer="1559" to-port="4"/>
		<edge from-layer="1560" from-port="1" to-layer="1565" to-port="0"/>
		<edge from-layer="1561" from-port="1" to-layer="1565" to-port="1"/>
		<edge from-layer="1562" from-port="1" to-layer="1565" to-port="2"/>
		<edge from-layer="1563" from-port="1" to-layer="1565" to-port="3"/>
		<edge from-layer="1564" from-port="1" to-layer="1565" to-port="4"/>
		<edge from-layer="1559" from-port="5" to-layer="1566" to-port="0"/>
		<edge from-layer="1565" from-port="5" to-layer="1566" to-port="1"/>
		<edge from-layer="1566" from-port="2" to-layer="1568" to-port="0"/>
		<edge from-layer="1567" from-port="1" to-layer="1568" to-port="1"/>
		<edge from-layer="1568" from-port="2" to-layer="1573" to-port="0"/>
		<edge from-layer="1569" from-port="1" to-layer="1573" to-port="1"/>
		<edge from-layer="1570" from-port="1" to-layer="1573" to-port="2"/>
		<edge from-layer="1571" from-port="1" to-layer="1573" to-port="3"/>
		<edge from-layer="1572" from-port="1" to-layer="1573" to-port="4"/>
		<edge from-layer="1525" from-port="5" to-layer="1574" to-port="0"/>
		<edge from-layer="1573" from-port="5" to-layer="1574" to-port="1"/>
		<edge from-layer="1574" from-port="2" to-layer="1576" to-port="0"/>
		<edge from-layer="1575" from-port="1" to-layer="1576" to-port="1"/>
		<edge from-layer="1576" from-port="2" to-layer="1581" to-port="0"/>
		<edge from-layer="1577" from-port="1" to-layer="1581" to-port="1"/>
		<edge from-layer="1578" from-port="1" to-layer="1581" to-port="2"/>
		<edge from-layer="1579" from-port="1" to-layer="1581" to-port="3"/>
		<edge from-layer="1580" from-port="1" to-layer="1581" to-port="4"/>
		<edge from-layer="1582" from-port="1" to-layer="1587" to-port="0"/>
		<edge from-layer="1583" from-port="1" to-layer="1587" to-port="1"/>
		<edge from-layer="1584" from-port="1" to-layer="1587" to-port="2"/>
		<edge from-layer="1585" from-port="1" to-layer="1587" to-port="3"/>
		<edge from-layer="1586" from-port="1" to-layer="1587" to-port="4"/>
		<edge from-layer="1581" from-port="5" to-layer="1588" to-port="0"/>
		<edge from-layer="1587" from-port="5" to-layer="1588" to-port="1"/>
		<edge from-layer="1588" from-port="2" to-layer="1590" to-port="0"/>
		<edge from-layer="1589" from-port="1" to-layer="1590" to-port="1"/>
		<edge from-layer="1590" from-port="2" to-layer="1592" to-port="0"/>
		<edge from-layer="1591" from-port="1" to-layer="1592" to-port="1"/>
		<edge from-layer="1592" from-port="2" to-layer="1597" to-port="0"/>
		<edge from-layer="1593" from-port="1" to-layer="1597" to-port="1"/>
		<edge from-layer="1594" from-port="1" to-layer="1597" to-port="2"/>
		<edge from-layer="1595" from-port="1" to-layer="1597" to-port="3"/>
		<edge from-layer="1596" from-port="1" to-layer="1597" to-port="4"/>
		<edge from-layer="1598" from-port="1" to-layer="1603" to-port="0"/>
		<edge from-layer="1599" from-port="1" to-layer="1603" to-port="1"/>
		<edge from-layer="1600" from-port="1" to-layer="1603" to-port="2"/>
		<edge from-layer="1601" from-port="1" to-layer="1603" to-port="3"/>
		<edge from-layer="1602" from-port="1" to-layer="1603" to-port="4"/>
		<edge from-layer="1603" from-port="5" to-layer="1605" to-port="0"/>
		<edge from-layer="1604" from-port="1" to-layer="1605" to-port="1"/>
		<edge from-layer="1597" from-port="5" to-layer="1606" to-port="0"/>
		<edge from-layer="1605" from-port="2" to-layer="1606" to-port="1"/>
		<edge from-layer="1606" from-port="2" to-layer="1608" to-port="0"/>
		<edge from-layer="1607" from-port="1" to-layer="1608" to-port="1"/>
		<edge from-layer="1608" from-port="2" to-layer="1610" to-port="0"/>
		<edge from-layer="1609" from-port="1" to-layer="1610" to-port="1"/>
		<edge from-layer="1610" from-port="2" to-layer="1615" to-port="0"/>
		<edge from-layer="1611" from-port="1" to-layer="1615" to-port="1"/>
		<edge from-layer="1612" from-port="1" to-layer="1615" to-port="2"/>
		<edge from-layer="1613" from-port="1" to-layer="1615" to-port="3"/>
		<edge from-layer="1614" from-port="1" to-layer="1615" to-port="4"/>
		<edge from-layer="1616" from-port="1" to-layer="1621" to-port="0"/>
		<edge from-layer="1617" from-port="1" to-layer="1621" to-port="1"/>
		<edge from-layer="1618" from-port="1" to-layer="1621" to-port="2"/>
		<edge from-layer="1619" from-port="1" to-layer="1621" to-port="3"/>
		<edge from-layer="1620" from-port="1" to-layer="1621" to-port="4"/>
		<edge from-layer="1615" from-port="5" to-layer="1622" to-port="0"/>
		<edge from-layer="1621" from-port="5" to-layer="1622" to-port="1"/>
		<edge from-layer="1622" from-port="2" to-layer="1624" to-port="0"/>
		<edge from-layer="1623" from-port="1" to-layer="1624" to-port="1"/>
		<edge from-layer="1624" from-port="2" to-layer="1629" to-port="0"/>
		<edge from-layer="1625" from-port="1" to-layer="1629" to-port="1"/>
		<edge from-layer="1626" from-port="1" to-layer="1629" to-port="2"/>
		<edge from-layer="1627" from-port="1" to-layer="1629" to-port="3"/>
		<edge from-layer="1628" from-port="1" to-layer="1629" to-port="4"/>
		<edge from-layer="1581" from-port="5" to-layer="1630" to-port="0"/>
		<edge from-layer="1629" from-port="5" to-layer="1630" to-port="1"/>
		<edge from-layer="1630" from-port="2" to-layer="1632" to-port="0"/>
		<edge from-layer="1631" from-port="1" to-layer="1632" to-port="1"/>
		<edge from-layer="1632" from-port="2" to-layer="1637" to-port="0"/>
		<edge from-layer="1633" from-port="1" to-layer="1637" to-port="1"/>
		<edge from-layer="1634" from-port="1" to-layer="1637" to-port="2"/>
		<edge from-layer="1635" from-port="1" to-layer="1637" to-port="3"/>
		<edge from-layer="1636" from-port="1" to-layer="1637" to-port="4"/>
		<edge from-layer="1638" from-port="1" to-layer="1643" to-port="0"/>
		<edge from-layer="1639" from-port="1" to-layer="1643" to-port="1"/>
		<edge from-layer="1640" from-port="1" to-layer="1643" to-port="2"/>
		<edge from-layer="1641" from-port="1" to-layer="1643" to-port="3"/>
		<edge from-layer="1642" from-port="1" to-layer="1643" to-port="4"/>
		<edge from-layer="1637" from-port="5" to-layer="1644" to-port="0"/>
		<edge from-layer="1643" from-port="5" to-layer="1644" to-port="1"/>
		<edge from-layer="1644" from-port="2" to-layer="1646" to-port="0"/>
		<edge from-layer="1645" from-port="1" to-layer="1646" to-port="1"/>
		<edge from-layer="1646" from-port="2" to-layer="1648" to-port="0"/>
		<edge from-layer="1647" from-port="1" to-layer="1648" to-port="1"/>
		<edge from-layer="1648" from-port="2" to-layer="1653" to-port="0"/>
		<edge from-layer="1649" from-port="1" to-layer="1653" to-port="1"/>
		<edge from-layer="1650" from-port="1" to-layer="1653" to-port="2"/>
		<edge from-layer="1651" from-port="1" to-layer="1653" to-port="3"/>
		<edge from-layer="1652" from-port="1" to-layer="1653" to-port="4"/>
		<edge from-layer="1654" from-port="1" to-layer="1659" to-port="0"/>
		<edge from-layer="1655" from-port="1" to-layer="1659" to-port="1"/>
		<edge from-layer="1656" from-port="1" to-layer="1659" to-port="2"/>
		<edge from-layer="1657" from-port="1" to-layer="1659" to-port="3"/>
		<edge from-layer="1658" from-port="1" to-layer="1659" to-port="4"/>
		<edge from-layer="1659" from-port="5" to-layer="1661" to-port="0"/>
		<edge from-layer="1660" from-port="1" to-layer="1661" to-port="1"/>
		<edge from-layer="1653" from-port="5" to-layer="1662" to-port="0"/>
		<edge from-layer="1661" from-port="2" to-layer="1662" to-port="1"/>
		<edge from-layer="1662" from-port="2" to-layer="1664" to-port="0"/>
		<edge from-layer="1663" from-port="1" to-layer="1664" to-port="1"/>
		<edge from-layer="1664" from-port="2" to-layer="1666" to-port="0"/>
		<edge from-layer="1665" from-port="1" to-layer="1666" to-port="1"/>
		<edge from-layer="1666" from-port="2" to-layer="1671" to-port="0"/>
		<edge from-layer="1667" from-port="1" to-layer="1671" to-port="1"/>
		<edge from-layer="1668" from-port="1" to-layer="1671" to-port="2"/>
		<edge from-layer="1669" from-port="1" to-layer="1671" to-port="3"/>
		<edge from-layer="1670" from-port="1" to-layer="1671" to-port="4"/>
		<edge from-layer="1672" from-port="1" to-layer="1677" to-port="0"/>
		<edge from-layer="1673" from-port="1" to-layer="1677" to-port="1"/>
		<edge from-layer="1674" from-port="1" to-layer="1677" to-port="2"/>
		<edge from-layer="1675" from-port="1" to-layer="1677" to-port="3"/>
		<edge from-layer="1676" from-port="1" to-layer="1677" to-port="4"/>
		<edge from-layer="1671" from-port="5" to-layer="1678" to-port="0"/>
		<edge from-layer="1677" from-port="5" to-layer="1678" to-port="1"/>
		<edge from-layer="1678" from-port="2" to-layer="1680" to-port="0"/>
		<edge from-layer="1679" from-port="1" to-layer="1680" to-port="1"/>
		<edge from-layer="1680" from-port="2" to-layer="1685" to-port="0"/>
		<edge from-layer="1681" from-port="1" to-layer="1685" to-port="1"/>
		<edge from-layer="1682" from-port="1" to-layer="1685" to-port="2"/>
		<edge from-layer="1683" from-port="1" to-layer="1685" to-port="3"/>
		<edge from-layer="1684" from-port="1" to-layer="1685" to-port="4"/>
		<edge from-layer="1637" from-port="5" to-layer="1686" to-port="0"/>
		<edge from-layer="1685" from-port="5" to-layer="1686" to-port="1"/>
		<edge from-layer="1686" from-port="2" to-layer="1688" to-port="0"/>
		<edge from-layer="1687" from-port="1" to-layer="1688" to-port="1"/>
		<edge from-layer="1688" from-port="2" to-layer="1693" to-port="0"/>
		<edge from-layer="1689" from-port="1" to-layer="1693" to-port="1"/>
		<edge from-layer="1690" from-port="1" to-layer="1693" to-port="2"/>
		<edge from-layer="1691" from-port="1" to-layer="1693" to-port="3"/>
		<edge from-layer="1692" from-port="1" to-layer="1693" to-port="4"/>
		<edge from-layer="1694" from-port="1" to-layer="1699" to-port="0"/>
		<edge from-layer="1695" from-port="1" to-layer="1699" to-port="1"/>
		<edge from-layer="1696" from-port="1" to-layer="1699" to-port="2"/>
		<edge from-layer="1697" from-port="1" to-layer="1699" to-port="3"/>
		<edge from-layer="1698" from-port="1" to-layer="1699" to-port="4"/>
		<edge from-layer="1693" from-port="5" to-layer="1700" to-port="0"/>
		<edge from-layer="1699" from-port="5" to-layer="1700" to-port="1"/>
		<edge from-layer="1700" from-port="2" to-layer="1702" to-port="0"/>
		<edge from-layer="1701" from-port="1" to-layer="1702" to-port="1"/>
		<edge from-layer="1702" from-port="2" to-layer="1704" to-port="0"/>
		<edge from-layer="1703" from-port="1" to-layer="1704" to-port="1"/>
		<edge from-layer="1704" from-port="2" to-layer="1709" to-port="0"/>
		<edge from-layer="1705" from-port="1" to-layer="1709" to-port="1"/>
		<edge from-layer="1706" from-port="1" to-layer="1709" to-port="2"/>
		<edge from-layer="1707" from-port="1" to-layer="1709" to-port="3"/>
		<edge from-layer="1708" from-port="1" to-layer="1709" to-port="4"/>
		<edge from-layer="1710" from-port="1" to-layer="1715" to-port="0"/>
		<edge from-layer="1711" from-port="1" to-layer="1715" to-port="1"/>
		<edge from-layer="1712" from-port="1" to-layer="1715" to-port="2"/>
		<edge from-layer="1713" from-port="1" to-layer="1715" to-port="3"/>
		<edge from-layer="1714" from-port="1" to-layer="1715" to-port="4"/>
		<edge from-layer="1715" from-port="5" to-layer="1717" to-port="0"/>
		<edge from-layer="1716" from-port="1" to-layer="1717" to-port="1"/>
		<edge from-layer="1709" from-port="5" to-layer="1718" to-port="0"/>
		<edge from-layer="1717" from-port="2" to-layer="1718" to-port="1"/>
		<edge from-layer="1718" from-port="2" to-layer="1720" to-port="0"/>
		<edge from-layer="1719" from-port="1" to-layer="1720" to-port="1"/>
		<edge from-layer="1720" from-port="2" to-layer="1722" to-port="0"/>
		<edge from-layer="1721" from-port="1" to-layer="1722" to-port="1"/>
		<edge from-layer="1722" from-port="2" to-layer="1727" to-port="0"/>
		<edge from-layer="1723" from-port="1" to-layer="1727" to-port="1"/>
		<edge from-layer="1724" from-port="1" to-layer="1727" to-port="2"/>
		<edge from-layer="1725" from-port="1" to-layer="1727" to-port="3"/>
		<edge from-layer="1726" from-port="1" to-layer="1727" to-port="4"/>
		<edge from-layer="1728" from-port="1" to-layer="1733" to-port="0"/>
		<edge from-layer="1729" from-port="1" to-layer="1733" to-port="1"/>
		<edge from-layer="1730" from-port="1" to-layer="1733" to-port="2"/>
		<edge from-layer="1731" from-port="1" to-layer="1733" to-port="3"/>
		<edge from-layer="1732" from-port="1" to-layer="1733" to-port="4"/>
		<edge from-layer="1727" from-port="5" to-layer="1734" to-port="0"/>
		<edge from-layer="1733" from-port="5" to-layer="1734" to-port="1"/>
		<edge from-layer="1734" from-port="2" to-layer="1736" to-port="0"/>
		<edge from-layer="1735" from-port="1" to-layer="1736" to-port="1"/>
		<edge from-layer="1736" from-port="2" to-layer="1741" to-port="0"/>
		<edge from-layer="1737" from-port="1" to-layer="1741" to-port="1"/>
		<edge from-layer="1738" from-port="1" to-layer="1741" to-port="2"/>
		<edge from-layer="1739" from-port="1" to-layer="1741" to-port="3"/>
		<edge from-layer="1740" from-port="1" to-layer="1741" to-port="4"/>
		<edge from-layer="1693" from-port="5" to-layer="1742" to-port="0"/>
		<edge from-layer="1741" from-port="5" to-layer="1742" to-port="1"/>
		<edge from-layer="1742" from-port="2" to-layer="1744" to-port="0"/>
		<edge from-layer="1743" from-port="1" to-layer="1744" to-port="1"/>
		<edge from-layer="1744" from-port="2" to-layer="1749" to-port="0"/>
		<edge from-layer="1745" from-port="1" to-layer="1749" to-port="1"/>
		<edge from-layer="1746" from-port="1" to-layer="1749" to-port="2"/>
		<edge from-layer="1747" from-port="1" to-layer="1749" to-port="3"/>
		<edge from-layer="1748" from-port="1" to-layer="1749" to-port="4"/>
		<edge from-layer="1750" from-port="1" to-layer="1755" to-port="0"/>
		<edge from-layer="1751" from-port="1" to-layer="1755" to-port="1"/>
		<edge from-layer="1752" from-port="1" to-layer="1755" to-port="2"/>
		<edge from-layer="1753" from-port="1" to-layer="1755" to-port="3"/>
		<edge from-layer="1754" from-port="1" to-layer="1755" to-port="4"/>
		<edge from-layer="1749" from-port="5" to-layer="1756" to-port="0"/>
		<edge from-layer="1755" from-port="5" to-layer="1756" to-port="1"/>
		<edge from-layer="1756" from-port="2" to-layer="1758" to-port="0"/>
		<edge from-layer="1757" from-port="1" to-layer="1758" to-port="1"/>
		<edge from-layer="1758" from-port="2" to-layer="1760" to-port="0"/>
		<edge from-layer="1759" from-port="1" to-layer="1760" to-port="1"/>
		<edge from-layer="1760" from-port="2" to-layer="1765" to-port="0"/>
		<edge from-layer="1761" from-port="1" to-layer="1765" to-port="1"/>
		<edge from-layer="1762" from-port="1" to-layer="1765" to-port="2"/>
		<edge from-layer="1763" from-port="1" to-layer="1765" to-port="3"/>
		<edge from-layer="1764" from-port="1" to-layer="1765" to-port="4"/>
		<edge from-layer="1766" from-port="1" to-layer="1771" to-port="0"/>
		<edge from-layer="1767" from-port="1" to-layer="1771" to-port="1"/>
		<edge from-layer="1768" from-port="1" to-layer="1771" to-port="2"/>
		<edge from-layer="1769" from-port="1" to-layer="1771" to-port="3"/>
		<edge from-layer="1770" from-port="1" to-layer="1771" to-port="4"/>
		<edge from-layer="1771" from-port="5" to-layer="1773" to-port="0"/>
		<edge from-layer="1772" from-port="1" to-layer="1773" to-port="1"/>
		<edge from-layer="1765" from-port="5" to-layer="1774" to-port="0"/>
		<edge from-layer="1773" from-port="2" to-layer="1774" to-port="1"/>
		<edge from-layer="1774" from-port="2" to-layer="1776" to-port="0"/>
		<edge from-layer="1775" from-port="1" to-layer="1776" to-port="1"/>
		<edge from-layer="1776" from-port="2" to-layer="1778" to-port="0"/>
		<edge from-layer="1777" from-port="1" to-layer="1778" to-port="1"/>
		<edge from-layer="1778" from-port="2" to-layer="1783" to-port="0"/>
		<edge from-layer="1779" from-port="1" to-layer="1783" to-port="1"/>
		<edge from-layer="1780" from-port="1" to-layer="1783" to-port="2"/>
		<edge from-layer="1781" from-port="1" to-layer="1783" to-port="3"/>
		<edge from-layer="1782" from-port="1" to-layer="1783" to-port="4"/>
		<edge from-layer="1784" from-port="1" to-layer="1789" to-port="0"/>
		<edge from-layer="1785" from-port="1" to-layer="1789" to-port="1"/>
		<edge from-layer="1786" from-port="1" to-layer="1789" to-port="2"/>
		<edge from-layer="1787" from-port="1" to-layer="1789" to-port="3"/>
		<edge from-layer="1788" from-port="1" to-layer="1789" to-port="4"/>
		<edge from-layer="1783" from-port="5" to-layer="1790" to-port="0"/>
		<edge from-layer="1789" from-port="5" to-layer="1790" to-port="1"/>
		<edge from-layer="1790" from-port="2" to-layer="1792" to-port="0"/>
		<edge from-layer="1791" from-port="1" to-layer="1792" to-port="1"/>
		<edge from-layer="1792" from-port="2" to-layer="1797" to-port="0"/>
		<edge from-layer="1793" from-port="1" to-layer="1797" to-port="1"/>
		<edge from-layer="1794" from-port="1" to-layer="1797" to-port="2"/>
		<edge from-layer="1795" from-port="1" to-layer="1797" to-port="3"/>
		<edge from-layer="1796" from-port="1" to-layer="1797" to-port="4"/>
		<edge from-layer="1749" from-port="5" to-layer="1798" to-port="0"/>
		<edge from-layer="1797" from-port="5" to-layer="1798" to-port="1"/>
		<edge from-layer="1798" from-port="2" to-layer="1800" to-port="0"/>
		<edge from-layer="1799" from-port="1" to-layer="1800" to-port="1"/>
		<edge from-layer="1800" from-port="2" to-layer="1805" to-port="0"/>
		<edge from-layer="1801" from-port="1" to-layer="1805" to-port="1"/>
		<edge from-layer="1802" from-port="1" to-layer="1805" to-port="2"/>
		<edge from-layer="1803" from-port="1" to-layer="1805" to-port="3"/>
		<edge from-layer="1804" from-port="1" to-layer="1805" to-port="4"/>
		<edge from-layer="1806" from-port="1" to-layer="1811" to-port="0"/>
		<edge from-layer="1807" from-port="1" to-layer="1811" to-port="1"/>
		<edge from-layer="1808" from-port="1" to-layer="1811" to-port="2"/>
		<edge from-layer="1809" from-port="1" to-layer="1811" to-port="3"/>
		<edge from-layer="1810" from-port="1" to-layer="1811" to-port="4"/>
		<edge from-layer="1805" from-port="5" to-layer="1812" to-port="0"/>
		<edge from-layer="1811" from-port="5" to-layer="1812" to-port="1"/>
		<edge from-layer="1812" from-port="2" to-layer="1814" to-port="0"/>
		<edge from-layer="1813" from-port="1" to-layer="1814" to-port="1"/>
		<edge from-layer="1814" from-port="2" to-layer="1816" to-port="0"/>
		<edge from-layer="1815" from-port="1" to-layer="1816" to-port="1"/>
		<edge from-layer="1816" from-port="2" to-layer="1821" to-port="0"/>
		<edge from-layer="1817" from-port="1" to-layer="1821" to-port="1"/>
		<edge from-layer="1818" from-port="1" to-layer="1821" to-port="2"/>
		<edge from-layer="1819" from-port="1" to-layer="1821" to-port="3"/>
		<edge from-layer="1820" from-port="1" to-layer="1821" to-port="4"/>
		<edge from-layer="1822" from-port="1" to-layer="1827" to-port="0"/>
		<edge from-layer="1823" from-port="1" to-layer="1827" to-port="1"/>
		<edge from-layer="1824" from-port="1" to-layer="1827" to-port="2"/>
		<edge from-layer="1825" from-port="1" to-layer="1827" to-port="3"/>
		<edge from-layer="1826" from-port="1" to-layer="1827" to-port="4"/>
		<edge from-layer="1827" from-port="5" to-layer="1829" to-port="0"/>
		<edge from-layer="1828" from-port="1" to-layer="1829" to-port="1"/>
		<edge from-layer="1821" from-port="5" to-layer="1830" to-port="0"/>
		<edge from-layer="1829" from-port="2" to-layer="1830" to-port="1"/>
		<edge from-layer="1830" from-port="2" to-layer="1832" to-port="0"/>
		<edge from-layer="1831" from-port="1" to-layer="1832" to-port="1"/>
		<edge from-layer="1832" from-port="2" to-layer="1834" to-port="0"/>
		<edge from-layer="1833" from-port="1" to-layer="1834" to-port="1"/>
		<edge from-layer="1834" from-port="2" to-layer="1839" to-port="0"/>
		<edge from-layer="1835" from-port="1" to-layer="1839" to-port="1"/>
		<edge from-layer="1836" from-port="1" to-layer="1839" to-port="2"/>
		<edge from-layer="1837" from-port="1" to-layer="1839" to-port="3"/>
		<edge from-layer="1838" from-port="1" to-layer="1839" to-port="4"/>
		<edge from-layer="1840" from-port="1" to-layer="1845" to-port="0"/>
		<edge from-layer="1841" from-port="1" to-layer="1845" to-port="1"/>
		<edge from-layer="1842" from-port="1" to-layer="1845" to-port="2"/>
		<edge from-layer="1843" from-port="1" to-layer="1845" to-port="3"/>
		<edge from-layer="1844" from-port="1" to-layer="1845" to-port="4"/>
		<edge from-layer="1839" from-port="5" to-layer="1846" to-port="0"/>
		<edge from-layer="1845" from-port="5" to-layer="1846" to-port="1"/>
		<edge from-layer="1846" from-port="2" to-layer="1848" to-port="0"/>
		<edge from-layer="1847" from-port="1" to-layer="1848" to-port="1"/>
		<edge from-layer="1848" from-port="2" to-layer="1853" to-port="0"/>
		<edge from-layer="1849" from-port="1" to-layer="1853" to-port="1"/>
		<edge from-layer="1850" from-port="1" to-layer="1853" to-port="2"/>
		<edge from-layer="1851" from-port="1" to-layer="1853" to-port="3"/>
		<edge from-layer="1852" from-port="1" to-layer="1853" to-port="4"/>
		<edge from-layer="1805" from-port="5" to-layer="1854" to-port="0"/>
		<edge from-layer="1853" from-port="5" to-layer="1854" to-port="1"/>
		<edge from-layer="1854" from-port="2" to-layer="1856" to-port="0"/>
		<edge from-layer="1855" from-port="1" to-layer="1856" to-port="1"/>
		<edge from-layer="1856" from-port="2" to-layer="1861" to-port="0"/>
		<edge from-layer="1857" from-port="1" to-layer="1861" to-port="1"/>
		<edge from-layer="1858" from-port="1" to-layer="1861" to-port="2"/>
		<edge from-layer="1859" from-port="1" to-layer="1861" to-port="3"/>
		<edge from-layer="1860" from-port="1" to-layer="1861" to-port="4"/>
		<edge from-layer="1862" from-port="1" to-layer="1867" to-port="0"/>
		<edge from-layer="1863" from-port="1" to-layer="1867" to-port="1"/>
		<edge from-layer="1864" from-port="1" to-layer="1867" to-port="2"/>
		<edge from-layer="1865" from-port="1" to-layer="1867" to-port="3"/>
		<edge from-layer="1866" from-port="1" to-layer="1867" to-port="4"/>
		<edge from-layer="1861" from-port="5" to-layer="1868" to-port="0"/>
		<edge from-layer="1867" from-port="5" to-layer="1868" to-port="1"/>
		<edge from-layer="1868" from-port="2" to-layer="1870" to-port="0"/>
		<edge from-layer="1869" from-port="1" to-layer="1870" to-port="1"/>
		<edge from-layer="1870" from-port="2" to-layer="1872" to-port="0"/>
		<edge from-layer="1871" from-port="1" to-layer="1872" to-port="1"/>
		<edge from-layer="1872" from-port="2" to-layer="1877" to-port="0"/>
		<edge from-layer="1873" from-port="1" to-layer="1877" to-port="1"/>
		<edge from-layer="1874" from-port="1" to-layer="1877" to-port="2"/>
		<edge from-layer="1875" from-port="1" to-layer="1877" to-port="3"/>
		<edge from-layer="1876" from-port="1" to-layer="1877" to-port="4"/>
		<edge from-layer="1878" from-port="1" to-layer="1883" to-port="0"/>
		<edge from-layer="1879" from-port="1" to-layer="1883" to-port="1"/>
		<edge from-layer="1880" from-port="1" to-layer="1883" to-port="2"/>
		<edge from-layer="1881" from-port="1" to-layer="1883" to-port="3"/>
		<edge from-layer="1882" from-port="1" to-layer="1883" to-port="4"/>
		<edge from-layer="1883" from-port="5" to-layer="1885" to-port="0"/>
		<edge from-layer="1884" from-port="1" to-layer="1885" to-port="1"/>
		<edge from-layer="1877" from-port="5" to-layer="1886" to-port="0"/>
		<edge from-layer="1885" from-port="2" to-layer="1886" to-port="1"/>
		<edge from-layer="1886" from-port="2" to-layer="1888" to-port="0"/>
		<edge from-layer="1887" from-port="1" to-layer="1888" to-port="1"/>
		<edge from-layer="1888" from-port="2" to-layer="1890" to-port="0"/>
		<edge from-layer="1889" from-port="1" to-layer="1890" to-port="1"/>
		<edge from-layer="1890" from-port="2" to-layer="1895" to-port="0"/>
		<edge from-layer="1891" from-port="1" to-layer="1895" to-port="1"/>
		<edge from-layer="1892" from-port="1" to-layer="1895" to-port="2"/>
		<edge from-layer="1893" from-port="1" to-layer="1895" to-port="3"/>
		<edge from-layer="1894" from-port="1" to-layer="1895" to-port="4"/>
		<edge from-layer="1896" from-port="1" to-layer="1901" to-port="0"/>
		<edge from-layer="1897" from-port="1" to-layer="1901" to-port="1"/>
		<edge from-layer="1898" from-port="1" to-layer="1901" to-port="2"/>
		<edge from-layer="1899" from-port="1" to-layer="1901" to-port="3"/>
		<edge from-layer="1900" from-port="1" to-layer="1901" to-port="4"/>
		<edge from-layer="1895" from-port="5" to-layer="1902" to-port="0"/>
		<edge from-layer="1901" from-port="5" to-layer="1902" to-port="1"/>
		<edge from-layer="1902" from-port="2" to-layer="1904" to-port="0"/>
		<edge from-layer="1903" from-port="1" to-layer="1904" to-port="1"/>
		<edge from-layer="1904" from-port="2" to-layer="1909" to-port="0"/>
		<edge from-layer="1905" from-port="1" to-layer="1909" to-port="1"/>
		<edge from-layer="1906" from-port="1" to-layer="1909" to-port="2"/>
		<edge from-layer="1907" from-port="1" to-layer="1909" to-port="3"/>
		<edge from-layer="1908" from-port="1" to-layer="1909" to-port="4"/>
		<edge from-layer="1861" from-port="5" to-layer="1910" to-port="0"/>
		<edge from-layer="1909" from-port="5" to-layer="1910" to-port="1"/>
		<edge from-layer="1910" from-port="2" to-layer="1912" to-port="0"/>
		<edge from-layer="1911" from-port="1" to-layer="1912" to-port="1"/>
		<edge from-layer="1912" from-port="2" to-layer="1917" to-port="0"/>
		<edge from-layer="1913" from-port="1" to-layer="1917" to-port="1"/>
		<edge from-layer="1914" from-port="1" to-layer="1917" to-port="2"/>
		<edge from-layer="1915" from-port="1" to-layer="1917" to-port="3"/>
		<edge from-layer="1916" from-port="1" to-layer="1917" to-port="4"/>
		<edge from-layer="1918" from-port="1" to-layer="1923" to-port="0"/>
		<edge from-layer="1919" from-port="1" to-layer="1923" to-port="1"/>
		<edge from-layer="1920" from-port="1" to-layer="1923" to-port="2"/>
		<edge from-layer="1921" from-port="1" to-layer="1923" to-port="3"/>
		<edge from-layer="1922" from-port="1" to-layer="1923" to-port="4"/>
		<edge from-layer="1917" from-port="5" to-layer="1924" to-port="0"/>
		<edge from-layer="1923" from-port="5" to-layer="1924" to-port="1"/>
		<edge from-layer="1924" from-port="2" to-layer="1926" to-port="0"/>
		<edge from-layer="1925" from-port="1" to-layer="1926" to-port="1"/>
		<edge from-layer="1926" from-port="2" to-layer="1928" to-port="0"/>
		<edge from-layer="1927" from-port="1" to-layer="1928" to-port="1"/>
		<edge from-layer="1928" from-port="2" to-layer="1933" to-port="0"/>
		<edge from-layer="1929" from-port="1" to-layer="1933" to-port="1"/>
		<edge from-layer="1930" from-port="1" to-layer="1933" to-port="2"/>
		<edge from-layer="1931" from-port="1" to-layer="1933" to-port="3"/>
		<edge from-layer="1932" from-port="1" to-layer="1933" to-port="4"/>
		<edge from-layer="1934" from-port="1" to-layer="1939" to-port="0"/>
		<edge from-layer="1935" from-port="1" to-layer="1939" to-port="1"/>
		<edge from-layer="1936" from-port="1" to-layer="1939" to-port="2"/>
		<edge from-layer="1937" from-port="1" to-layer="1939" to-port="3"/>
		<edge from-layer="1938" from-port="1" to-layer="1939" to-port="4"/>
		<edge from-layer="1939" from-port="5" to-layer="1941" to-port="0"/>
		<edge from-layer="1940" from-port="1" to-layer="1941" to-port="1"/>
		<edge from-layer="1933" from-port="5" to-layer="1942" to-port="0"/>
		<edge from-layer="1941" from-port="2" to-layer="1942" to-port="1"/>
		<edge from-layer="1942" from-port="2" to-layer="1944" to-port="0"/>
		<edge from-layer="1943" from-port="1" to-layer="1944" to-port="1"/>
		<edge from-layer="1944" from-port="2" to-layer="1946" to-port="0"/>
		<edge from-layer="1945" from-port="1" to-layer="1946" to-port="1"/>
		<edge from-layer="1946" from-port="2" to-layer="1951" to-port="0"/>
		<edge from-layer="1947" from-port="1" to-layer="1951" to-port="1"/>
		<edge from-layer="1948" from-port="1" to-layer="1951" to-port="2"/>
		<edge from-layer="1949" from-port="1" to-layer="1951" to-port="3"/>
		<edge from-layer="1950" from-port="1" to-layer="1951" to-port="4"/>
		<edge from-layer="1952" from-port="1" to-layer="1957" to-port="0"/>
		<edge from-layer="1953" from-port="1" to-layer="1957" to-port="1"/>
		<edge from-layer="1954" from-port="1" to-layer="1957" to-port="2"/>
		<edge from-layer="1955" from-port="1" to-layer="1957" to-port="3"/>
		<edge from-layer="1956" from-port="1" to-layer="1957" to-port="4"/>
		<edge from-layer="1951" from-port="5" to-layer="1958" to-port="0"/>
		<edge from-layer="1957" from-port="5" to-layer="1958" to-port="1"/>
		<edge from-layer="1958" from-port="2" to-layer="1960" to-port="0"/>
		<edge from-layer="1959" from-port="1" to-layer="1960" to-port="1"/>
		<edge from-layer="1960" from-port="2" to-layer="1965" to-port="0"/>
		<edge from-layer="1961" from-port="1" to-layer="1965" to-port="1"/>
		<edge from-layer="1962" from-port="1" to-layer="1965" to-port="2"/>
		<edge from-layer="1963" from-port="1" to-layer="1965" to-port="3"/>
		<edge from-layer="1964" from-port="1" to-layer="1965" to-port="4"/>
		<edge from-layer="1917" from-port="5" to-layer="1966" to-port="0"/>
		<edge from-layer="1965" from-port="5" to-layer="1966" to-port="1"/>
		<edge from-layer="1966" from-port="2" to-layer="1968" to-port="0"/>
		<edge from-layer="1967" from-port="1" to-layer="1968" to-port="1"/>
		<edge from-layer="1968" from-port="2" to-layer="1973" to-port="0"/>
		<edge from-layer="1969" from-port="1" to-layer="1973" to-port="1"/>
		<edge from-layer="1970" from-port="1" to-layer="1973" to-port="2"/>
		<edge from-layer="1971" from-port="1" to-layer="1973" to-port="3"/>
		<edge from-layer="1972" from-port="1" to-layer="1973" to-port="4"/>
		<edge from-layer="1974" from-port="1" to-layer="1979" to-port="0"/>
		<edge from-layer="1975" from-port="1" to-layer="1979" to-port="1"/>
		<edge from-layer="1976" from-port="1" to-layer="1979" to-port="2"/>
		<edge from-layer="1977" from-port="1" to-layer="1979" to-port="3"/>
		<edge from-layer="1978" from-port="1" to-layer="1979" to-port="4"/>
		<edge from-layer="1973" from-port="5" to-layer="1980" to-port="0"/>
		<edge from-layer="1979" from-port="5" to-layer="1980" to-port="1"/>
		<edge from-layer="1980" from-port="2" to-layer="1982" to-port="0"/>
		<edge from-layer="1981" from-port="1" to-layer="1982" to-port="1"/>
		<edge from-layer="1982" from-port="2" to-layer="1984" to-port="0"/>
		<edge from-layer="1983" from-port="1" to-layer="1984" to-port="1"/>
		<edge from-layer="1984" from-port="2" to-layer="1989" to-port="0"/>
		<edge from-layer="1985" from-port="1" to-layer="1989" to-port="1"/>
		<edge from-layer="1986" from-port="1" to-layer="1989" to-port="2"/>
		<edge from-layer="1987" from-port="1" to-layer="1989" to-port="3"/>
		<edge from-layer="1988" from-port="1" to-layer="1989" to-port="4"/>
		<edge from-layer="1990" from-port="1" to-layer="1995" to-port="0"/>
		<edge from-layer="1991" from-port="1" to-layer="1995" to-port="1"/>
		<edge from-layer="1992" from-port="1" to-layer="1995" to-port="2"/>
		<edge from-layer="1993" from-port="1" to-layer="1995" to-port="3"/>
		<edge from-layer="1994" from-port="1" to-layer="1995" to-port="4"/>
		<edge from-layer="1995" from-port="5" to-layer="1997" to-port="0"/>
		<edge from-layer="1996" from-port="1" to-layer="1997" to-port="1"/>
		<edge from-layer="1989" from-port="5" to-layer="1998" to-port="0"/>
		<edge from-layer="1997" from-port="2" to-layer="1998" to-port="1"/>
		<edge from-layer="1998" from-port="2" to-layer="2000" to-port="0"/>
		<edge from-layer="1999" from-port="1" to-layer="2000" to-port="1"/>
		<edge from-layer="2000" from-port="2" to-layer="2002" to-port="0"/>
		<edge from-layer="2001" from-port="1" to-layer="2002" to-port="1"/>
		<edge from-layer="2002" from-port="2" to-layer="2007" to-port="0"/>
		<edge from-layer="2003" from-port="1" to-layer="2007" to-port="1"/>
		<edge from-layer="2004" from-port="1" to-layer="2007" to-port="2"/>
		<edge from-layer="2005" from-port="1" to-layer="2007" to-port="3"/>
		<edge from-layer="2006" from-port="1" to-layer="2007" to-port="4"/>
		<edge from-layer="2008" from-port="1" to-layer="2013" to-port="0"/>
		<edge from-layer="2009" from-port="1" to-layer="2013" to-port="1"/>
		<edge from-layer="2010" from-port="1" to-layer="2013" to-port="2"/>
		<edge from-layer="2011" from-port="1" to-layer="2013" to-port="3"/>
		<edge from-layer="2012" from-port="1" to-layer="2013" to-port="4"/>
		<edge from-layer="2007" from-port="5" to-layer="2014" to-port="0"/>
		<edge from-layer="2013" from-port="5" to-layer="2014" to-port="1"/>
		<edge from-layer="2014" from-port="2" to-layer="2016" to-port="0"/>
		<edge from-layer="2015" from-port="1" to-layer="2016" to-port="1"/>
		<edge from-layer="2016" from-port="2" to-layer="2021" to-port="0"/>
		<edge from-layer="2017" from-port="1" to-layer="2021" to-port="1"/>
		<edge from-layer="2018" from-port="1" to-layer="2021" to-port="2"/>
		<edge from-layer="2019" from-port="1" to-layer="2021" to-port="3"/>
		<edge from-layer="2020" from-port="1" to-layer="2021" to-port="4"/>
		<edge from-layer="1973" from-port="5" to-layer="2022" to-port="0"/>
		<edge from-layer="2021" from-port="5" to-layer="2022" to-port="1"/>
		<edge from-layer="2022" from-port="2" to-layer="2024" to-port="0"/>
		<edge from-layer="2023" from-port="1" to-layer="2024" to-port="1"/>
		<edge from-layer="2024" from-port="2" to-layer="2029" to-port="0"/>
		<edge from-layer="2025" from-port="1" to-layer="2029" to-port="1"/>
		<edge from-layer="2026" from-port="1" to-layer="2029" to-port="2"/>
		<edge from-layer="2027" from-port="1" to-layer="2029" to-port="3"/>
		<edge from-layer="2028" from-port="1" to-layer="2029" to-port="4"/>
		<edge from-layer="2030" from-port="1" to-layer="2035" to-port="0"/>
		<edge from-layer="2031" from-port="1" to-layer="2035" to-port="1"/>
		<edge from-layer="2032" from-port="1" to-layer="2035" to-port="2"/>
		<edge from-layer="2033" from-port="1" to-layer="2035" to-port="3"/>
		<edge from-layer="2034" from-port="1" to-layer="2035" to-port="4"/>
		<edge from-layer="2029" from-port="5" to-layer="2036" to-port="0"/>
		<edge from-layer="2035" from-port="5" to-layer="2036" to-port="1"/>
		<edge from-layer="2036" from-port="2" to-layer="2038" to-port="0"/>
		<edge from-layer="2037" from-port="1" to-layer="2038" to-port="1"/>
		<edge from-layer="2038" from-port="2" to-layer="2040" to-port="0"/>
		<edge from-layer="2039" from-port="1" to-layer="2040" to-port="1"/>
		<edge from-layer="2040" from-port="2" to-layer="2045" to-port="0"/>
		<edge from-layer="2041" from-port="1" to-layer="2045" to-port="1"/>
		<edge from-layer="2042" from-port="1" to-layer="2045" to-port="2"/>
		<edge from-layer="2043" from-port="1" to-layer="2045" to-port="3"/>
		<edge from-layer="2044" from-port="1" to-layer="2045" to-port="4"/>
		<edge from-layer="2046" from-port="1" to-layer="2051" to-port="0"/>
		<edge from-layer="2047" from-port="1" to-layer="2051" to-port="1"/>
		<edge from-layer="2048" from-port="1" to-layer="2051" to-port="2"/>
		<edge from-layer="2049" from-port="1" to-layer="2051" to-port="3"/>
		<edge from-layer="2050" from-port="1" to-layer="2051" to-port="4"/>
		<edge from-layer="2051" from-port="5" to-layer="2053" to-port="0"/>
		<edge from-layer="2052" from-port="1" to-layer="2053" to-port="1"/>
		<edge from-layer="2045" from-port="5" to-layer="2054" to-port="0"/>
		<edge from-layer="2053" from-port="2" to-layer="2054" to-port="1"/>
		<edge from-layer="2054" from-port="2" to-layer="2056" to-port="0"/>
		<edge from-layer="2055" from-port="1" to-layer="2056" to-port="1"/>
		<edge from-layer="2056" from-port="2" to-layer="2058" to-port="0"/>
		<edge from-layer="2057" from-port="1" to-layer="2058" to-port="1"/>
		<edge from-layer="2058" from-port="2" to-layer="2063" to-port="0"/>
		<edge from-layer="2059" from-port="1" to-layer="2063" to-port="1"/>
		<edge from-layer="2060" from-port="1" to-layer="2063" to-port="2"/>
		<edge from-layer="2061" from-port="1" to-layer="2063" to-port="3"/>
		<edge from-layer="2062" from-port="1" to-layer="2063" to-port="4"/>
		<edge from-layer="2064" from-port="1" to-layer="2069" to-port="0"/>
		<edge from-layer="2065" from-port="1" to-layer="2069" to-port="1"/>
		<edge from-layer="2066" from-port="1" to-layer="2069" to-port="2"/>
		<edge from-layer="2067" from-port="1" to-layer="2069" to-port="3"/>
		<edge from-layer="2068" from-port="1" to-layer="2069" to-port="4"/>
		<edge from-layer="2063" from-port="5" to-layer="2070" to-port="0"/>
		<edge from-layer="2069" from-port="5" to-layer="2070" to-port="1"/>
		<edge from-layer="2070" from-port="2" to-layer="2072" to-port="0"/>
		<edge from-layer="2071" from-port="1" to-layer="2072" to-port="1"/>
		<edge from-layer="2072" from-port="2" to-layer="2077" to-port="0"/>
		<edge from-layer="2073" from-port="1" to-layer="2077" to-port="1"/>
		<edge from-layer="2074" from-port="1" to-layer="2077" to-port="2"/>
		<edge from-layer="2075" from-port="1" to-layer="2077" to-port="3"/>
		<edge from-layer="2076" from-port="1" to-layer="2077" to-port="4"/>
		<edge from-layer="2029" from-port="5" to-layer="2078" to-port="0"/>
		<edge from-layer="2077" from-port="5" to-layer="2078" to-port="1"/>
		<edge from-layer="2078" from-port="2" to-layer="2080" to-port="0"/>
		<edge from-layer="2079" from-port="1" to-layer="2080" to-port="1"/>
		<edge from-layer="2080" from-port="2" to-layer="2085" to-port="0"/>
		<edge from-layer="2081" from-port="1" to-layer="2085" to-port="1"/>
		<edge from-layer="2082" from-port="1" to-layer="2085" to-port="2"/>
		<edge from-layer="2083" from-port="1" to-layer="2085" to-port="3"/>
		<edge from-layer="2084" from-port="1" to-layer="2085" to-port="4"/>
		<edge from-layer="2086" from-port="1" to-layer="2091" to-port="0"/>
		<edge from-layer="2087" from-port="1" to-layer="2091" to-port="1"/>
		<edge from-layer="2088" from-port="1" to-layer="2091" to-port="2"/>
		<edge from-layer="2089" from-port="1" to-layer="2091" to-port="3"/>
		<edge from-layer="2090" from-port="1" to-layer="2091" to-port="4"/>
		<edge from-layer="2085" from-port="5" to-layer="2092" to-port="0"/>
		<edge from-layer="2091" from-port="5" to-layer="2092" to-port="1"/>
		<edge from-layer="2092" from-port="2" to-layer="2094" to-port="0"/>
		<edge from-layer="2093" from-port="1" to-layer="2094" to-port="1"/>
		<edge from-layer="2094" from-port="2" to-layer="2096" to-port="0"/>
		<edge from-layer="2095" from-port="1" to-layer="2096" to-port="1"/>
		<edge from-layer="2096" from-port="2" to-layer="2098" to-port="0"/>
		<edge from-layer="2097" from-port="1" to-layer="2098" to-port="1"/>
		<edge from-layer="2099" from-port="1" to-layer="2104" to-port="0"/>
		<edge from-layer="2100" from-port="1" to-layer="2104" to-port="1"/>
		<edge from-layer="2101" from-port="1" to-layer="2104" to-port="2"/>
		<edge from-layer="2102" from-port="1" to-layer="2104" to-port="3"/>
		<edge from-layer="2103" from-port="1" to-layer="2104" to-port="4"/>
		<edge from-layer="2085" from-port="5" to-layer="2105" to-port="0"/>
		<edge from-layer="2104" from-port="5" to-layer="2105" to-port="1"/>
		<edge from-layer="2105" from-port="2" to-layer="2107" to-port="0"/>
		<edge from-layer="2106" from-port="1" to-layer="2107" to-port="1"/>
		<edge from-layer="2107" from-port="2" to-layer="2109" to-port="0"/>
		<edge from-layer="2108" from-port="1" to-layer="2109" to-port="1"/>
		<edge from-layer="2109" from-port="2" to-layer="2111" to-port="0"/>
		<edge from-layer="2110" from-port="1" to-layer="2111" to-port="1"/>
		<edge from-layer="2111" from-port="2" to-layer="2113" to-port="0"/>
		<edge from-layer="2112" from-port="1" to-layer="2113" to-port="1"/>
		<edge from-layer="2113" from-port="2" to-layer="2114" to-port="0"/>
		<edge from-layer="2114" from-port="1" to-layer="2116" to-port="0"/>
		<edge from-layer="2115" from-port="1" to-layer="2116" to-port="1"/>
		<edge from-layer="2080" from-port="2" to-layer="2117" to-port="0"/>
		<edge from-layer="2117" from-port="1" to-layer="2118" to-port="0"/>
		<edge from-layer="2118" from-port="1" to-layer="2122" to-port="0"/>
		<edge from-layer="2119" from-port="1" to-layer="2122" to-port="1"/>
		<edge from-layer="2120" from-port="1" to-layer="2122" to-port="2"/>
		<edge from-layer="2121" from-port="1" to-layer="2122" to-port="3"/>
		<edge from-layer="2122" from-port="4" to-layer="2123" to-port="0"/>
		<edge from-layer="0" from-port="0" to-layer="2124" to-port="0"/>
		<edge from-layer="2124" from-port="1" to-layer="2125" to-port="0"/>
		<edge from-layer="2125" from-port="1" to-layer="2129" to-port="0"/>
		<edge from-layer="2126" from-port="1" to-layer="2129" to-port="1"/>
		<edge from-layer="2127" from-port="1" to-layer="2129" to-port="2"/>
		<edge from-layer="2128" from-port="1" to-layer="2129" to-port="3"/>
		<edge from-layer="2129" from-port="4" to-layer="2130" to-port="0"/>
		<edge from-layer="2123" from-port="1" to-layer="2131" to-port="0"/>
		<edge from-layer="2130" from-port="1" to-layer="2131" to-port="1"/>
		<edge from-layer="2131" from-port="2" to-layer="2133" to-port="0"/>
		<edge from-layer="2132" from-port="1" to-layer="2133" to-port="1"/>
		<edge from-layer="2098" from-port="2" to-layer="2134" to-port="0"/>
		<edge from-layer="2116" from-port="2" to-layer="2134" to-port="1"/>
		<edge from-layer="2133" from-port="2" to-layer="2134" to-port="2"/>
		<edge from-layer="2134" from-port="3" to-layer="2135" to-port="0"/>
	</edges>
	<meta_data>
		<MO_version value="unknown version"/>
		<cli_parameters>
			<blobs_as_inputs value="True"/>
			<caffe_parser_path value="DIR"/>
			<data_type value="FP32"/>
			<disable_nhwc_to_nchw value="False"/>
			<disable_omitting_optional value="False"/>
			<disable_resnet_optimization value="False"/>
			<enable_concat_optimization value="False"/>
			<enable_flattening_nested_params value="False"/>
			<enable_ssd_gluoncv value="False"/>
			<extensions value="DIR"/>
			<framework value="caffe"/>
			<freeze_placeholder_with_value value="{}"/>
			<generate_deprecated_IR_V2 value="False"/>
			<generate_deprecated_IR_V7 value="False"/>
			<generate_experimental_IR_V10 value="True"/>
			<input value="data"/>
			<input_model value="DIR/rmnet_lrelu_pd_ssd.caffemodel"/>
			<input_model_is_text value="False"/>
			<input_proto value="DIR/rmnet_lrelu_pd_ssd.prototxt"/>
			<input_shape value="[1,3,320,544]"/>
			<k value="DIR/CustomLayersMapping.xml"/>
			<keep_quantize_ops_in_IR value="True"/>
			<keep_shape_ops value="True"/>
			<legacy_mxnet_model value="False"/>
			<log_level value="ERROR"/>
			<mean_scale_values value="{}"/>
			<mean_values value="()"/>
			<model_name value="person-detection-retail-0013"/>
			<move_to_preprocess value="False"/>
			<output value="['detection_out']"/>
			<output_dir value="DIR"/>
			<placeholder_data_types value="{}"/>
			<placeholder_shapes value="{'data': array([  1,   3, 320, 544])}"/>
			<progress value="False"/>
			<remove_memory value="False"/>
			<remove_output_softmax value="False"/>
			<reverse_input_channels value="False"/>
			<save_params_from_nd value="False"/>
			<scale_values value="()"/>
			<silent value="False"/>
			<stream_output value="False"/>
			<unset unset_cli_parameters="batch, counts, disable_fusing, disable_gfusing, finegrain_fusing, input_checkpoint, input_meta_graph, input_symbol, mean_file, mean_file_offsets, nd_prefix_name, pretrained_model_name, saved_model_dir, saved_model_tags, scale, tensorboard_logdir, tensorflow_custom_layer_libraries, tensorflow_custom_operations_config_update, tensorflow_object_detection_api_pipeline_config, tensorflow_operation_patterns, tensorflow_subgraph_patterns, tensorflow_use_custom_operations_config, transformations_config"/>
		</cli_parameters>
	</meta_data>
</net>
