<?xml version="1.0" ?>
<net name="person-reidentification-retail-0300" version="10">
	<layers>
		<layer id="0" name="data" type="Parameter" version="opset1">
			<data element_type="f32" shape="1,3,256,128"/>
			<output>
				<port id="0" precision="FP32">
					<dim>1</dim>
					<dim>3</dim>
					<dim>256</dim>
					<dim>128</dim>
				</port>
			</output>
		</layer>
		<layer id="1" name="data/reverse_input_channels34062/Concat34081_const" type="Const" version="opset1">
			<data element_type="f32" offset="0" shape="1,3,1,1" size="12"/>
			<output>
				<port id="1" precision="FP32">
					<dim>1</dim>
					<dim>3</dim>
					<dim>1</dim>
					<dim>1</dim>
				</port>
			</output>
		</layer>
		<layer id="2" name="Mul_/Fused_Mul_" type="Multiply" version="opset1">
			<input>
				<port id="0">
					<dim>1</dim>
					<dim>3</dim>
					<dim>256</dim>
					<dim>128</dim>
				</port>
				<port id="1">
					<dim>1</dim>
					<dim>3</dim>
					<dim>1</dim>
					<dim>1</dim>
				</port>
			</input>
			<output>
				<port id="2" precision="FP32">
					<dim>1</dim>
					<dim>3</dim>
					<dim>256</dim>
					<dim>128</dim>
				</port>
			</output>
		</layer>
		<layer id="3" name="data/reverse_input_channels34064/Concat34089_const" type="Const" version="opset1">
			<data element_type="f32" offset="12" shape="1,3,1,1" size="12"/>
			<output>
				<port id="1" precision="FP32">
					<dim>1</dim>
					<dim>3</dim>
					<dim>1</dim>
					<dim>1</dim>
				</port>
			</output>
		</layer>
		<layer id="4" name="Add_/Fused_Add_" type="Add" version="opset1">
			<input>
				<port id="0">
					<dim>1</dim>
					<dim>3</dim>
					<dim>256</dim>
					<dim>128</dim>
				</port>
				<port id="1">
					<dim>1</dim>
					<dim>3</dim>
					<dim>1</dim>
					<dim>1</dim>
				</port>
			</input>
			<output>
				<port id="2" precision="FP32">
					<dim>1</dim>
					<dim>3</dim>
					<dim>256</dim>
					<dim>128</dim>
				</port>
			</output>
		</layer>
		<layer id="5" name="data/reverse_input_channels/Concat34073_const" type="Const" version="opset1">
			<data element_type="f32" offset="24" shape="64,3,7,7" size="37632"/>
			<output>
				<port id="1" precision="FP32">
					<dim>64</dim>
					<dim>3</dim>
					<dim>7</dim>
					<dim>7</dim>
				</port>
			</output>
		</layer>
		<layer id="6" name="590" type="Convolution" version="opset1">
			<data dilations="1,1" output_padding="0,0" pads_begin="3,3" pads_end="3,3" strides="2,2"/>
			<input>
				<port id="0">
					<dim>1</dim>
					<dim>3</dim>
					<dim>256</dim>
					<dim>128</dim>
				</port>
				<port id="1">
					<dim>64</dim>
					<dim>3</dim>
					<dim>7</dim>
					<dim>7</dim>
				</port>
			</input>
			<output>
				<port id="2" precision="FP32">
					<dim>1</dim>
					<dim>64</dim>
					<dim>128</dim>
					<dim>64</dim>
				</port>
			</output>
		</layer>
		<layer id="7" name="data_add_2056820573/copy_const" type="Const" version="opset1">
			<data element_type="f32" offset="37656" shape="1,64,1,1" size="256"/>
			<output>
				<port id="1" precision="FP32">
					<dim>1</dim>
					<dim>64</dim>
					<dim>1</dim>
					<dim>1</dim>
				</port>
			</output>
		</layer>
		<layer id="8" name="591/variance/Fused_Add_" type="Add" version="opset1">
			<input>
				<port id="0">
					<dim>1</dim>
					<dim>64</dim>
					<dim>128</dim>
					<dim>64</dim>
				</port>
				<port id="1">
					<dim>1</dim>
					<dim>64</dim>
					<dim>1</dim>
					<dim>1</dim>
				</port>
			</input>
			<output>
				<port id="2" precision="FP32">
					<dim>1</dim>
					<dim>64</dim>
					<dim>128</dim>
					<dim>64</dim>
				</port>
			</output>
		</layer>
		<layer id="9" name="592" type="ReLU" version="opset1">
			<input>
				<port id="0">
					<dim>1</dim>
					<dim>64</dim>
					<dim>128</dim>
					<dim>64</dim>
				</port>
			</input>
			<output>
				<port id="1" precision="FP32">
					<dim>1</dim>
					<dim>64</dim>
					<dim>128</dim>
					<dim>64</dim>
				</port>
			</output>
		</layer>
		<layer id="10" name="593" type="MaxPool" version="opset1">
			<data kernel="3,3" pads_begin="1,1" pads_end="1,1" rounding_type="floor" strides="2,2"/>
			<input>
				<port id="0">
					<dim>1</dim>
					<dim>64</dim>
					<dim>128</dim>
					<dim>64</dim>
				</port>
			</input>
			<output>
				<port id="1" precision="FP32">
					<dim>1</dim>
					<dim>64</dim>
					<dim>64</dim>
					<dim>32</dim>
				</port>
			</output>
		</layer>
		<layer id="11" name="595/mean/Fused_Mul_2234122343_const" type="Const" version="opset1">
			<data element_type="f32" offset="37912" shape="64,64,1,1" size="16384"/>
			<output>
				<port id="1" precision="FP32">
					<dim>64</dim>
					<dim>64</dim>
					<dim>1</dim>
					<dim>1</dim>
				</port>
			</output>
		</layer>
		<layer id="12" name="594" type="Convolution" version="opset1">
			<data dilations="1,1" output_padding="0,0" pads_begin="0,0" pads_end="0,0" strides="1,1"/>
			<input>
				<port id="0">
					<dim>1</dim>
					<dim>64</dim>
					<dim>64</dim>
					<dim>32</dim>
				</port>
				<port id="1">
					<dim>64</dim>
					<dim>64</dim>
					<dim>1</dim>
					<dim>1</dim>
				</port>
			</input>
			<output>
				<port id="2" precision="FP32">
					<dim>1</dim>
					<dim>64</dim>
					<dim>64</dim>
					<dim>32</dim>
				</port>
			</output>
		</layer>
		<layer id="13" name="data_add_2058420589/copy_const" type="Const" version="opset1">
			<data element_type="f32" offset="54296" shape="1,64,1,1" size="256"/>
			<output>
				<port id="1" precision="FP32">
					<dim>1</dim>
					<dim>64</dim>
					<dim>1</dim>
					<dim>1</dim>
				</port>
			</output>
		</layer>
		<layer id="14" name="595/variance/Fused_Add_" type="Add" version="opset1">
			<input>
				<port id="0">
					<dim>1</dim>
					<dim>64</dim>
					<dim>64</dim>
					<dim>32</dim>
				</port>
				<port id="1">
					<dim>1</dim>
					<dim>64</dim>
					<dim>1</dim>
					<dim>1</dim>
				</port>
			</input>
			<output>
				<port id="2" precision="FP32">
					<dim>1</dim>
					<dim>64</dim>
					<dim>64</dim>
					<dim>32</dim>
				</port>
			</output>
		</layer>
		<layer id="15" name="596" type="ReLU" version="opset1">
			<input>
				<port id="0">
					<dim>1</dim>
					<dim>64</dim>
					<dim>64</dim>
					<dim>32</dim>
				</port>
			</input>
			<output>
				<port id="1" precision="FP32">
					<dim>1</dim>
					<dim>64</dim>
					<dim>64</dim>
					<dim>32</dim>
				</port>
			</output>
		</layer>
		<layer id="16" name="onnx_initializer_node_conv2.0.conv2a.conv1.weight/Output_0/Data__const" type="Const" version="opset1">
			<data element_type="f32" offset="54552" shape="64,64,1,1" size="16384"/>
			<output>
				<port id="1" precision="FP32">
					<dim>64</dim>
					<dim>64</dim>
					<dim>1</dim>
					<dim>1</dim>
				</port>
			</output>
		</layer>
		<layer id="17" name="597" type="Convolution" version="opset1">
			<data dilations="1,1" output_padding="0,0" pads_begin="0,0" pads_end="0,0" strides="1,1"/>
			<input>
				<port id="0">
					<dim>1</dim>
					<dim>64</dim>
					<dim>64</dim>
					<dim>32</dim>
				</port>
				<port id="1">
					<dim>64</dim>
					<dim>64</dim>
					<dim>1</dim>
					<dim>1</dim>
				</port>
			</input>
			<output>
				<port id="2" precision="FP32">
					<dim>1</dim>
					<dim>64</dim>
					<dim>64</dim>
					<dim>32</dim>
				</port>
			</output>
		</layer>
		<layer id="18" name="3583435837_const" type="Const" version="opset1">
			<data element_type="f32" offset="70936" shape="64,1,1,3,3" size="2304"/>
			<output>
				<port id="1" precision="FP32">
					<dim>64</dim>
					<dim>1</dim>
					<dim>1</dim>
					<dim>3</dim>
					<dim>3</dim>
				</port>
			</output>
		</layer>
		<layer id="19" name="598" type="GroupConvolution" version="opset1">
			<data dilations="1,1" output_padding="0,0" pads_begin="1,1" pads_end="1,1" strides="1,1"/>
			<input>
				<port id="0">
					<dim>1</dim>
					<dim>64</dim>
					<dim>64</dim>
					<dim>32</dim>
				</port>
				<port id="1">
					<dim>64</dim>
					<dim>1</dim>
					<dim>1</dim>
					<dim>3</dim>
					<dim>3</dim>
				</port>
			</input>
			<output>
				<port id="2" precision="FP32">
					<dim>1</dim>
					<dim>64</dim>
					<dim>64</dim>
					<dim>32</dim>
				</port>
			</output>
		</layer>
		<layer id="20" name="data_add_2066420669/copy_const" type="Const" version="opset1">
			<data element_type="f32" offset="73240" shape="1,64,1,1" size="256"/>
			<output>
				<port id="1" precision="FP32">
					<dim>1</dim>
					<dim>64</dim>
					<dim>1</dim>
					<dim>1</dim>
				</port>
			</output>
		</layer>
		<layer id="21" name="599/variance/Fused_Add_" type="Add" version="opset1">
			<input>
				<port id="0">
					<dim>1</dim>
					<dim>64</dim>
					<dim>64</dim>
					<dim>32</dim>
				</port>
				<port id="1">
					<dim>1</dim>
					<dim>64</dim>
					<dim>1</dim>
					<dim>1</dim>
				</port>
			</input>
			<output>
				<port id="2" precision="FP32">
					<dim>1</dim>
					<dim>64</dim>
					<dim>64</dim>
					<dim>32</dim>
				</port>
			</output>
		</layer>
		<layer id="22" name="600" type="ReLU" version="opset1">
			<input>
				<port id="0">
					<dim>1</dim>
					<dim>64</dim>
					<dim>64</dim>
					<dim>32</dim>
				</port>
			</input>
			<output>
				<port id="1" precision="FP32">
					<dim>1</dim>
					<dim>64</dim>
					<dim>64</dim>
					<dim>32</dim>
				</port>
			</output>
		</layer>
		<layer id="23" name="637/reduce/Cast_136703_const" type="Const" version="opset1">
			<data element_type="i64" offset="73496" shape="2" size="16"/>
			<output>
				<port id="1" precision="I64">
					<dim>2</dim>
				</port>
			</output>
		</layer>
		<layer id="24" name="637/reduce" type="ReduceMean" version="opset1">
			<data keep_dims="True"/>
			<input>
				<port id="0">
					<dim>1</dim>
					<dim>64</dim>
					<dim>64</dim>
					<dim>32</dim>
				</port>
				<port id="1">
					<dim>2</dim>
				</port>
			</input>
			<output>
				<port id="2" precision="FP32">
					<dim>1</dim>
					<dim>64</dim>
					<dim>1</dim>
					<dim>1</dim>
				</port>
			</output>
		</layer>
		<layer id="25" name="Copy_onnx_initializer_node_conv2.0.gate.fc1.weight/Output_0/Data__const" type="Const" version="opset1">
			<data element_type="f32" offset="73512" shape="4,64,1,1" size="1024"/>
			<output>
				<port id="1" precision="FP32">
					<dim>4</dim>
					<dim>64</dim>
					<dim>1</dim>
					<dim>1</dim>
				</port>
			</output>
		</layer>
		<layer id="26" name="638/WithoutBiases" type="Convolution" version="opset1">
			<data dilations="1,1" output_padding="0,0" pads_begin="0,0" pads_end="0,0" strides="1,1"/>
			<input>
				<port id="0">
					<dim>1</dim>
					<dim>64</dim>
					<dim>1</dim>
					<dim>1</dim>
				</port>
				<port id="1">
					<dim>4</dim>
					<dim>64</dim>
					<dim>1</dim>
					<dim>1</dim>
				</port>
			</input>
			<output>
				<port id="2" precision="FP32">
					<dim>1</dim>
					<dim>4</dim>
					<dim>1</dim>
					<dim>1</dim>
				</port>
			</output>
		</layer>
		<layer id="27" name="638/Dims12588/copy_const" type="Const" version="opset1">
			<data element_type="f32" offset="74536" shape="1,4,1,1" size="16"/>
			<output>
				<port id="1" precision="FP32">
					<dim>1</dim>
					<dim>4</dim>
					<dim>1</dim>
					<dim>1</dim>
				</port>
			</output>
		</layer>
		<layer id="28" name="638" type="Add" version="opset1">
			<input>
				<port id="0">
					<dim>1</dim>
					<dim>4</dim>
					<dim>1</dim>
					<dim>1</dim>
				</port>
				<port id="1">
					<dim>1</dim>
					<dim>4</dim>
					<dim>1</dim>
					<dim>1</dim>
				</port>
			</input>
			<output>
				<port id="2" precision="FP32">
					<dim>1</dim>
					<dim>4</dim>
					<dim>1</dim>
					<dim>1</dim>
				</port>
			</output>
		</layer>
		<layer id="29" name="639" type="ReLU" version="opset1">
			<input>
				<port id="0">
					<dim>1</dim>
					<dim>4</dim>
					<dim>1</dim>
					<dim>1</dim>
				</port>
			</input>
			<output>
				<port id="1" precision="FP32">
					<dim>1</dim>
					<dim>4</dim>
					<dim>1</dim>
					<dim>1</dim>
				</port>
			</output>
		</layer>
		<layer id="30" name="Copy_onnx_initializer_node_conv2.0.gate.fc2.weight/Output_0/Data__const" type="Const" version="opset1">
			<data element_type="f32" offset="74552" shape="64,4,1,1" size="1024"/>
			<output>
				<port id="1" precision="FP32">
					<dim>64</dim>
					<dim>4</dim>
					<dim>1</dim>
					<dim>1</dim>
				</port>
			</output>
		</layer>
		<layer id="31" name="640/WithoutBiases" type="Convolution" version="opset1">
			<data dilations="1,1" output_padding="0,0" pads_begin="0,0" pads_end="0,0" strides="1,1"/>
			<input>
				<port id="0">
					<dim>1</dim>
					<dim>4</dim>
					<dim>1</dim>
					<dim>1</dim>
				</port>
				<port id="1">
					<dim>64</dim>
					<dim>4</dim>
					<dim>1</dim>
					<dim>1</dim>
				</port>
			</input>
			<output>
				<port id="2" precision="FP32">
					<dim>1</dim>
					<dim>64</dim>
					<dim>1</dim>
					<dim>1</dim>
				</port>
			</output>
		</layer>
		<layer id="32" name="640/Dims12762/copy_const" type="Const" version="opset1">
			<data element_type="f32" offset="75576" shape="1,64,1,1" size="256"/>
			<output>
				<port id="1" precision="FP32">
					<dim>1</dim>
					<dim>64</dim>
					<dim>1</dim>
					<dim>1</dim>
				</port>
			</output>
		</layer>
		<layer id="33" name="640" type="Add" version="opset1">
			<input>
				<port id="0">
					<dim>1</dim>
					<dim>64</dim>
					<dim>1</dim>
					<dim>1</dim>
				</port>
				<port id="1">
					<dim>1</dim>
					<dim>64</dim>
					<dim>1</dim>
					<dim>1</dim>
				</port>
			</input>
			<output>
				<port id="2" precision="FP32">
					<dim>1</dim>
					<dim>64</dim>
					<dim>1</dim>
					<dim>1</dim>
				</port>
			</output>
		</layer>
		<layer id="34" name="641" type="Sigmoid" version="opset1">
			<input>
				<port id="0">
					<dim>1</dim>
					<dim>64</dim>
					<dim>1</dim>
					<dim>1</dim>
				</port>
			</input>
			<output>
				<port id="1" precision="FP32">
					<dim>1</dim>
					<dim>64</dim>
					<dim>1</dim>
					<dim>1</dim>
				</port>
			</output>
		</layer>
		<layer id="35" name="642" type="Multiply" version="opset1">
			<input>
				<port id="0">
					<dim>1</dim>
					<dim>64</dim>
					<dim>64</dim>
					<dim>32</dim>
				</port>
				<port id="1">
					<dim>1</dim>
					<dim>64</dim>
					<dim>1</dim>
					<dim>1</dim>
				</port>
			</input>
			<output>
				<port id="2" precision="FP32">
					<dim>1</dim>
					<dim>64</dim>
					<dim>64</dim>
					<dim>32</dim>
				</port>
			</output>
		</layer>
		<layer id="36" name="onnx_initializer_node_conv2.0.conv2b.0.conv1.weight/Output_0/Data__const" type="Const" version="opset1">
			<data element_type="f32" offset="75832" shape="64,64,1,1" size="16384"/>
			<output>
				<port id="1" precision="FP32">
					<dim>64</dim>
					<dim>64</dim>
					<dim>1</dim>
					<dim>1</dim>
				</port>
			</output>
		</layer>
		<layer id="37" name="601" type="Convolution" version="opset1">
			<data dilations="1,1" output_padding="0,0" pads_begin="0,0" pads_end="0,0" strides="1,1"/>
			<input>
				<port id="0">
					<dim>1</dim>
					<dim>64</dim>
					<dim>64</dim>
					<dim>32</dim>
				</port>
				<port id="1">
					<dim>64</dim>
					<dim>64</dim>
					<dim>1</dim>
					<dim>1</dim>
				</port>
			</input>
			<output>
				<port id="2" precision="FP32">
					<dim>1</dim>
					<dim>64</dim>
					<dim>64</dim>
					<dim>32</dim>
				</port>
			</output>
		</layer>
		<layer id="38" name="3585035853_const" type="Const" version="opset1">
			<data element_type="f32" offset="92216" shape="64,1,1,3,3" size="2304"/>
			<output>
				<port id="1" precision="FP32">
					<dim>64</dim>
					<dim>1</dim>
					<dim>1</dim>
					<dim>3</dim>
					<dim>3</dim>
				</port>
			</output>
		</layer>
		<layer id="39" name="602" type="GroupConvolution" version="opset1">
			<data dilations="1,1" output_padding="0,0" pads_begin="1,1" pads_end="1,1" strides="1,1"/>
			<input>
				<port id="0">
					<dim>1</dim>
					<dim>64</dim>
					<dim>64</dim>
					<dim>32</dim>
				</port>
				<port id="1">
					<dim>64</dim>
					<dim>1</dim>
					<dim>1</dim>
					<dim>3</dim>
					<dim>3</dim>
				</port>
			</input>
			<output>
				<port id="2" precision="FP32">
					<dim>1</dim>
					<dim>64</dim>
					<dim>64</dim>
					<dim>32</dim>
				</port>
			</output>
		</layer>
		<layer id="40" name="data_add_2064820653/copy_const" type="Const" version="opset1">
			<data element_type="f32" offset="94520" shape="1,64,1,1" size="256"/>
			<output>
				<port id="1" precision="FP32">
					<dim>1</dim>
					<dim>64</dim>
					<dim>1</dim>
					<dim>1</dim>
				</port>
			</output>
		</layer>
		<layer id="41" name="603/variance/Fused_Add_" type="Add" version="opset1">
			<input>
				<port id="0">
					<dim>1</dim>
					<dim>64</dim>
					<dim>64</dim>
					<dim>32</dim>
				</port>
				<port id="1">
					<dim>1</dim>
					<dim>64</dim>
					<dim>1</dim>
					<dim>1</dim>
				</port>
			</input>
			<output>
				<port id="2" precision="FP32">
					<dim>1</dim>
					<dim>64</dim>
					<dim>64</dim>
					<dim>32</dim>
				</port>
			</output>
		</layer>
		<layer id="42" name="604" type="ReLU" version="opset1">
			<input>
				<port id="0">
					<dim>1</dim>
					<dim>64</dim>
					<dim>64</dim>
					<dim>32</dim>
				</port>
			</input>
			<output>
				<port id="1" precision="FP32">
					<dim>1</dim>
					<dim>64</dim>
					<dim>64</dim>
					<dim>32</dim>
				</port>
			</output>
		</layer>
		<layer id="43" name="onnx_initializer_node_conv2.0.conv2b.1.conv1.weight/Output_0/Data__const" type="Const" version="opset1">
			<data element_type="f32" offset="94776" shape="64,64,1,1" size="16384"/>
			<output>
				<port id="1" precision="FP32">
					<dim>64</dim>
					<dim>64</dim>
					<dim>1</dim>
					<dim>1</dim>
				</port>
			</output>
		</layer>
		<layer id="44" name="605" type="Convolution" version="opset1">
			<data dilations="1,1" output_padding="0,0" pads_begin="0,0" pads_end="0,0" strides="1,1"/>
			<input>
				<port id="0">
					<dim>1</dim>
					<dim>64</dim>
					<dim>64</dim>
					<dim>32</dim>
				</port>
				<port id="1">
					<dim>64</dim>
					<dim>64</dim>
					<dim>1</dim>
					<dim>1</dim>
				</port>
			</input>
			<output>
				<port id="2" precision="FP32">
					<dim>1</dim>
					<dim>64</dim>
					<dim>64</dim>
					<dim>32</dim>
				</port>
			</output>
		</layer>
		<layer id="45" name="3580635809_const" type="Const" version="opset1">
			<data element_type="f32" offset="111160" shape="64,1,1,3,3" size="2304"/>
			<output>
				<port id="1" precision="FP32">
					<dim>64</dim>
					<dim>1</dim>
					<dim>1</dim>
					<dim>3</dim>
					<dim>3</dim>
				</port>
			</output>
		</layer>
		<layer id="46" name="606" type="GroupConvolution" version="opset1">
			<data dilations="1,1" output_padding="0,0" pads_begin="1,1" pads_end="1,1" strides="1,1"/>
			<input>
				<port id="0">
					<dim>1</dim>
					<dim>64</dim>
					<dim>64</dim>
					<dim>32</dim>
				</port>
				<port id="1">
					<dim>64</dim>
					<dim>1</dim>
					<dim>1</dim>
					<dim>3</dim>
					<dim>3</dim>
				</port>
			</input>
			<output>
				<port id="2" precision="FP32">
					<dim>1</dim>
					<dim>64</dim>
					<dim>64</dim>
					<dim>32</dim>
				</port>
			</output>
		</layer>
		<layer id="47" name="data_add_2065620661/copy_const" type="Const" version="opset1">
			<data element_type="f32" offset="113464" shape="1,64,1,1" size="256"/>
			<output>
				<port id="1" precision="FP32">
					<dim>1</dim>
					<dim>64</dim>
					<dim>1</dim>
					<dim>1</dim>
				</port>
			</output>
		</layer>
		<layer id="48" name="607/variance/Fused_Add_" type="Add" version="opset1">
			<input>
				<port id="0">
					<dim>1</dim>
					<dim>64</dim>
					<dim>64</dim>
					<dim>32</dim>
				</port>
				<port id="1">
					<dim>1</dim>
					<dim>64</dim>
					<dim>1</dim>
					<dim>1</dim>
				</port>
			</input>
			<output>
				<port id="2" precision="FP32">
					<dim>1</dim>
					<dim>64</dim>
					<dim>64</dim>
					<dim>32</dim>
				</port>
			</output>
		</layer>
		<layer id="49" name="608" type="ReLU" version="opset1">
			<input>
				<port id="0">
					<dim>1</dim>
					<dim>64</dim>
					<dim>64</dim>
					<dim>32</dim>
				</port>
			</input>
			<output>
				<port id="1" precision="FP32">
					<dim>1</dim>
					<dim>64</dim>
					<dim>64</dim>
					<dim>32</dim>
				</port>
			</output>
		</layer>
		<layer id="50" name="643/reduce/Cast_136695_const" type="Const" version="opset1">
			<data element_type="i64" offset="73496" shape="2" size="16"/>
			<output>
				<port id="1" precision="I64">
					<dim>2</dim>
				</port>
			</output>
		</layer>
		<layer id="51" name="643/reduce" type="ReduceMean" version="opset1">
			<data keep_dims="True"/>
			<input>
				<port id="0">
					<dim>1</dim>
					<dim>64</dim>
					<dim>64</dim>
					<dim>32</dim>
				</port>
				<port id="1">
					<dim>2</dim>
				</port>
			</input>
			<output>
				<port id="2" precision="FP32">
					<dim>1</dim>
					<dim>64</dim>
					<dim>1</dim>
					<dim>1</dim>
				</port>
			</output>
		</layer>
		<layer id="52" name="Copy_onnx_initializer_node_conv2.0.gate.fc1.weight/Output_0/Data_3805_const" type="Const" version="opset1">
			<data element_type="f32" offset="73512" shape="4,64,1,1" size="1024"/>
			<output>
				<port id="1" precision="FP32">
					<dim>4</dim>
					<dim>64</dim>
					<dim>1</dim>
					<dim>1</dim>
				</port>
			</output>
		</layer>
		<layer id="53" name="644/WithoutBiases" type="Convolution" version="opset1">
			<data dilations="1,1" output_padding="0,0" pads_begin="0,0" pads_end="0,0" strides="1,1"/>
			<input>
				<port id="0">
					<dim>1</dim>
					<dim>64</dim>
					<dim>1</dim>
					<dim>1</dim>
				</port>
				<port id="1">
					<dim>4</dim>
					<dim>64</dim>
					<dim>1</dim>
					<dim>1</dim>
				</port>
			</input>
			<output>
				<port id="2" precision="FP32">
					<dim>1</dim>
					<dim>4</dim>
					<dim>1</dim>
					<dim>1</dim>
				</port>
			</output>
		</layer>
		<layer id="54" name="644/Dims12864/copy_const" type="Const" version="opset1">
			<data element_type="f32" offset="74536" shape="1,4,1,1" size="16"/>
			<output>
				<port id="1" precision="FP32">
					<dim>1</dim>
					<dim>4</dim>
					<dim>1</dim>
					<dim>1</dim>
				</port>
			</output>
		</layer>
		<layer id="55" name="644" type="Add" version="opset1">
			<input>
				<port id="0">
					<dim>1</dim>
					<dim>4</dim>
					<dim>1</dim>
					<dim>1</dim>
				</port>
				<port id="1">
					<dim>1</dim>
					<dim>4</dim>
					<dim>1</dim>
					<dim>1</dim>
				</port>
			</input>
			<output>
				<port id="2" precision="FP32">
					<dim>1</dim>
					<dim>4</dim>
					<dim>1</dim>
					<dim>1</dim>
				</port>
			</output>
		</layer>
		<layer id="56" name="645" type="ReLU" version="opset1">
			<input>
				<port id="0">
					<dim>1</dim>
					<dim>4</dim>
					<dim>1</dim>
					<dim>1</dim>
				</port>
			</input>
			<output>
				<port id="1" precision="FP32">
					<dim>1</dim>
					<dim>4</dim>
					<dim>1</dim>
					<dim>1</dim>
				</port>
			</output>
		</layer>
		<layer id="57" name="Copy_onnx_initializer_node_conv2.0.gate.fc2.weight/Output_0/Data_3813_const" type="Const" version="opset1">
			<data element_type="f32" offset="74552" shape="64,4,1,1" size="1024"/>
			<output>
				<port id="1" precision="FP32">
					<dim>64</dim>
					<dim>4</dim>
					<dim>1</dim>
					<dim>1</dim>
				</port>
			</output>
		</layer>
		<layer id="58" name="646/WithoutBiases" type="Convolution" version="opset1">
			<data dilations="1,1" output_padding="0,0" pads_begin="0,0" pads_end="0,0" strides="1,1"/>
			<input>
				<port id="0">
					<dim>1</dim>
					<dim>4</dim>
					<dim>1</dim>
					<dim>1</dim>
				</port>
				<port id="1">
					<dim>64</dim>
					<dim>4</dim>
					<dim>1</dim>
					<dim>1</dim>
				</port>
			</input>
			<output>
				<port id="2" precision="FP32">
					<dim>1</dim>
					<dim>64</dim>
					<dim>1</dim>
					<dim>1</dim>
				</port>
			</output>
		</layer>
		<layer id="59" name="646/Dims12816/copy_const" type="Const" version="opset1">
			<data element_type="f32" offset="75576" shape="1,64,1,1" size="256"/>
			<output>
				<port id="1" precision="FP32">
					<dim>1</dim>
					<dim>64</dim>
					<dim>1</dim>
					<dim>1</dim>
				</port>
			</output>
		</layer>
		<layer id="60" name="646" type="Add" version="opset1">
			<input>
				<port id="0">
					<dim>1</dim>
					<dim>64</dim>
					<dim>1</dim>
					<dim>1</dim>
				</port>
				<port id="1">
					<dim>1</dim>
					<dim>64</dim>
					<dim>1</dim>
					<dim>1</dim>
				</port>
			</input>
			<output>
				<port id="2" precision="FP32">
					<dim>1</dim>
					<dim>64</dim>
					<dim>1</dim>
					<dim>1</dim>
				</port>
			</output>
		</layer>
		<layer id="61" name="647" type="Sigmoid" version="opset1">
			<input>
				<port id="0">
					<dim>1</dim>
					<dim>64</dim>
					<dim>1</dim>
					<dim>1</dim>
				</port>
			</input>
			<output>
				<port id="1" precision="FP32">
					<dim>1</dim>
					<dim>64</dim>
					<dim>1</dim>
					<dim>1</dim>
				</port>
			</output>
		</layer>
		<layer id="62" name="648" type="Multiply" version="opset1">
			<input>
				<port id="0">
					<dim>1</dim>
					<dim>64</dim>
					<dim>64</dim>
					<dim>32</dim>
				</port>
				<port id="1">
					<dim>1</dim>
					<dim>64</dim>
					<dim>1</dim>
					<dim>1</dim>
				</port>
			</input>
			<output>
				<port id="2" precision="FP32">
					<dim>1</dim>
					<dim>64</dim>
					<dim>64</dim>
					<dim>32</dim>
				</port>
			</output>
		</layer>
		<layer id="63" name="649" type="Add" version="opset1">
			<input>
				<port id="0">
					<dim>1</dim>
					<dim>64</dim>
					<dim>64</dim>
					<dim>32</dim>
				</port>
				<port id="1">
					<dim>1</dim>
					<dim>64</dim>
					<dim>64</dim>
					<dim>32</dim>
				</port>
			</input>
			<output>
				<port id="2" precision="FP32">
					<dim>1</dim>
					<dim>64</dim>
					<dim>64</dim>
					<dim>32</dim>
				</port>
			</output>
		</layer>
		<layer id="64" name="onnx_initializer_node_conv2.0.conv2c.0.conv1.weight/Output_0/Data__const" type="Const" version="opset1">
			<data element_type="f32" offset="113720" shape="64,64,1,1" size="16384"/>
			<output>
				<port id="1" precision="FP32">
					<dim>64</dim>
					<dim>64</dim>
					<dim>1</dim>
					<dim>1</dim>
				</port>
			</output>
		</layer>
		<layer id="65" name="609" type="Convolution" version="opset1">
			<data dilations="1,1" output_padding="0,0" pads_begin="0,0" pads_end="0,0" strides="1,1"/>
			<input>
				<port id="0">
					<dim>1</dim>
					<dim>64</dim>
					<dim>64</dim>
					<dim>32</dim>
				</port>
				<port id="1">
					<dim>64</dim>
					<dim>64</dim>
					<dim>1</dim>
					<dim>1</dim>
				</port>
			</input>
			<output>
				<port id="2" precision="FP32">
					<dim>1</dim>
					<dim>64</dim>
					<dim>64</dim>
					<dim>32</dim>
				</port>
			</output>
		</layer>
		<layer id="66" name="3576635769_const" type="Const" version="opset1">
			<data element_type="f32" offset="130104" shape="64,1,1,3,3" size="2304"/>
			<output>
				<port id="1" precision="FP32">
					<dim>64</dim>
					<dim>1</dim>
					<dim>1</dim>
					<dim>3</dim>
					<dim>3</dim>
				</port>
			</output>
		</layer>
		<layer id="67" name="610" type="GroupConvolution" version="opset1">
			<data dilations="1,1" output_padding="0,0" pads_begin="1,1" pads_end="1,1" strides="1,1"/>
			<input>
				<port id="0">
					<dim>1</dim>
					<dim>64</dim>
					<dim>64</dim>
					<dim>32</dim>
				</port>
				<port id="1">
					<dim>64</dim>
					<dim>1</dim>
					<dim>1</dim>
					<dim>3</dim>
					<dim>3</dim>
				</port>
			</input>
			<output>
				<port id="2" precision="FP32">
					<dim>1</dim>
					<dim>64</dim>
					<dim>64</dim>
					<dim>32</dim>
				</port>
			</output>
		</layer>
		<layer id="68" name="data_add_2062420629/copy_const" type="Const" version="opset1">
			<data element_type="f32" offset="132408" shape="1,64,1,1" size="256"/>
			<output>
				<port id="1" precision="FP32">
					<dim>1</dim>
					<dim>64</dim>
					<dim>1</dim>
					<dim>1</dim>
				</port>
			</output>
		</layer>
		<layer id="69" name="611/variance/Fused_Add_" type="Add" version="opset1">
			<input>
				<port id="0">
					<dim>1</dim>
					<dim>64</dim>
					<dim>64</dim>
					<dim>32</dim>
				</port>
				<port id="1">
					<dim>1</dim>
					<dim>64</dim>
					<dim>1</dim>
					<dim>1</dim>
				</port>
			</input>
			<output>
				<port id="2" precision="FP32">
					<dim>1</dim>
					<dim>64</dim>
					<dim>64</dim>
					<dim>32</dim>
				</port>
			</output>
		</layer>
		<layer id="70" name="612" type="ReLU" version="opset1">
			<input>
				<port id="0">
					<dim>1</dim>
					<dim>64</dim>
					<dim>64</dim>
					<dim>32</dim>
				</port>
			</input>
			<output>
				<port id="1" precision="FP32">
					<dim>1</dim>
					<dim>64</dim>
					<dim>64</dim>
					<dim>32</dim>
				</port>
			</output>
		</layer>
		<layer id="71" name="onnx_initializer_node_conv2.0.conv2c.1.conv1.weight/Output_0/Data__const" type="Const" version="opset1">
			<data element_type="f32" offset="132664" shape="64,64,1,1" size="16384"/>
			<output>
				<port id="1" precision="FP32">
					<dim>64</dim>
					<dim>64</dim>
					<dim>1</dim>
					<dim>1</dim>
				</port>
			</output>
		</layer>
		<layer id="72" name="613" type="Convolution" version="opset1">
			<data dilations="1,1" output_padding="0,0" pads_begin="0,0" pads_end="0,0" strides="1,1"/>
			<input>
				<port id="0">
					<dim>1</dim>
					<dim>64</dim>
					<dim>64</dim>
					<dim>32</dim>
				</port>
				<port id="1">
					<dim>64</dim>
					<dim>64</dim>
					<dim>1</dim>
					<dim>1</dim>
				</port>
			</input>
			<output>
				<port id="2" precision="FP32">
					<dim>1</dim>
					<dim>64</dim>
					<dim>64</dim>
					<dim>32</dim>
				</port>
			</output>
		</layer>
		<layer id="73" name="3575435757_const" type="Const" version="opset1">
			<data element_type="f32" offset="149048" shape="64,1,1,3,3" size="2304"/>
			<output>
				<port id="1" precision="FP32">
					<dim>64</dim>
					<dim>1</dim>
					<dim>1</dim>
					<dim>3</dim>
					<dim>3</dim>
				</port>
			</output>
		</layer>
		<layer id="74" name="614" type="GroupConvolution" version="opset1">
			<data dilations="1,1" output_padding="0,0" pads_begin="1,1" pads_end="1,1" strides="1,1"/>
			<input>
				<port id="0">
					<dim>1</dim>
					<dim>64</dim>
					<dim>64</dim>
					<dim>32</dim>
				</port>
				<port id="1">
					<dim>64</dim>
					<dim>1</dim>
					<dim>1</dim>
					<dim>3</dim>
					<dim>3</dim>
				</port>
			</input>
			<output>
				<port id="2" precision="FP32">
					<dim>1</dim>
					<dim>64</dim>
					<dim>64</dim>
					<dim>32</dim>
				</port>
			</output>
		</layer>
		<layer id="75" name="data_add_2063220637/copy_const" type="Const" version="opset1">
			<data element_type="f32" offset="151352" shape="1,64,1,1" size="256"/>
			<output>
				<port id="1" precision="FP32">
					<dim>1</dim>
					<dim>64</dim>
					<dim>1</dim>
					<dim>1</dim>
				</port>
			</output>
		</layer>
		<layer id="76" name="615/variance/Fused_Add_" type="Add" version="opset1">
			<input>
				<port id="0">
					<dim>1</dim>
					<dim>64</dim>
					<dim>64</dim>
					<dim>32</dim>
				</port>
				<port id="1">
					<dim>1</dim>
					<dim>64</dim>
					<dim>1</dim>
					<dim>1</dim>
				</port>
			</input>
			<output>
				<port id="2" precision="FP32">
					<dim>1</dim>
					<dim>64</dim>
					<dim>64</dim>
					<dim>32</dim>
				</port>
			</output>
		</layer>
		<layer id="77" name="616" type="ReLU" version="opset1">
			<input>
				<port id="0">
					<dim>1</dim>
					<dim>64</dim>
					<dim>64</dim>
					<dim>32</dim>
				</port>
			</input>
			<output>
				<port id="1" precision="FP32">
					<dim>1</dim>
					<dim>64</dim>
					<dim>64</dim>
					<dim>32</dim>
				</port>
			</output>
		</layer>
		<layer id="78" name="onnx_initializer_node_conv2.0.conv2c.2.conv1.weight/Output_0/Data__const" type="Const" version="opset1">
			<data element_type="f32" offset="151608" shape="64,64,1,1" size="16384"/>
			<output>
				<port id="1" precision="FP32">
					<dim>64</dim>
					<dim>64</dim>
					<dim>1</dim>
					<dim>1</dim>
				</port>
			</output>
		</layer>
		<layer id="79" name="617" type="Convolution" version="opset1">
			<data dilations="1,1" output_padding="0,0" pads_begin="0,0" pads_end="0,0" strides="1,1"/>
			<input>
				<port id="0">
					<dim>1</dim>
					<dim>64</dim>
					<dim>64</dim>
					<dim>32</dim>
				</port>
				<port id="1">
					<dim>64</dim>
					<dim>64</dim>
					<dim>1</dim>
					<dim>1</dim>
				</port>
			</input>
			<output>
				<port id="2" precision="FP32">
					<dim>1</dim>
					<dim>64</dim>
					<dim>64</dim>
					<dim>32</dim>
				</port>
			</output>
		</layer>
		<layer id="80" name="3587035873_const" type="Const" version="opset1">
			<data element_type="f32" offset="167992" shape="64,1,1,3,3" size="2304"/>
			<output>
				<port id="1" precision="FP32">
					<dim>64</dim>
					<dim>1</dim>
					<dim>1</dim>
					<dim>3</dim>
					<dim>3</dim>
				</port>
			</output>
		</layer>
		<layer id="81" name="618" type="GroupConvolution" version="opset1">
			<data dilations="1,1" output_padding="0,0" pads_begin="1,1" pads_end="1,1" strides="1,1"/>
			<input>
				<port id="0">
					<dim>1</dim>
					<dim>64</dim>
					<dim>64</dim>
					<dim>32</dim>
				</port>
				<port id="1">
					<dim>64</dim>
					<dim>1</dim>
					<dim>1</dim>
					<dim>3</dim>
					<dim>3</dim>
				</port>
			</input>
			<output>
				<port id="2" precision="FP32">
					<dim>1</dim>
					<dim>64</dim>
					<dim>64</dim>
					<dim>32</dim>
				</port>
			</output>
		</layer>
		<layer id="82" name="data_add_2064020645/copy_const" type="Const" version="opset1">
			<data element_type="f32" offset="170296" shape="1,64,1,1" size="256"/>
			<output>
				<port id="1" precision="FP32">
					<dim>1</dim>
					<dim>64</dim>
					<dim>1</dim>
					<dim>1</dim>
				</port>
			</output>
		</layer>
		<layer id="83" name="619/variance/Fused_Add_" type="Add" version="opset1">
			<input>
				<port id="0">
					<dim>1</dim>
					<dim>64</dim>
					<dim>64</dim>
					<dim>32</dim>
				</port>
				<port id="1">
					<dim>1</dim>
					<dim>64</dim>
					<dim>1</dim>
					<dim>1</dim>
				</port>
			</input>
			<output>
				<port id="2" precision="FP32">
					<dim>1</dim>
					<dim>64</dim>
					<dim>64</dim>
					<dim>32</dim>
				</port>
			</output>
		</layer>
		<layer id="84" name="620" type="ReLU" version="opset1">
			<input>
				<port id="0">
					<dim>1</dim>
					<dim>64</dim>
					<dim>64</dim>
					<dim>32</dim>
				</port>
			</input>
			<output>
				<port id="1" precision="FP32">
					<dim>1</dim>
					<dim>64</dim>
					<dim>64</dim>
					<dim>32</dim>
				</port>
			</output>
		</layer>
		<layer id="85" name="650/reduce/Cast_136685_const" type="Const" version="opset1">
			<data element_type="i64" offset="73496" shape="2" size="16"/>
			<output>
				<port id="1" precision="I64">
					<dim>2</dim>
				</port>
			</output>
		</layer>
		<layer id="86" name="650/reduce" type="ReduceMean" version="opset1">
			<data keep_dims="True"/>
			<input>
				<port id="0">
					<dim>1</dim>
					<dim>64</dim>
					<dim>64</dim>
					<dim>32</dim>
				</port>
				<port id="1">
					<dim>2</dim>
				</port>
			</input>
			<output>
				<port id="2" precision="FP32">
					<dim>1</dim>
					<dim>64</dim>
					<dim>1</dim>
					<dim>1</dim>
				</port>
			</output>
		</layer>
		<layer id="87" name="Copy_onnx_initializer_node_conv2.0.gate.fc1.weight/Output_0/Data_3806_const" type="Const" version="opset1">
			<data element_type="f32" offset="73512" shape="4,64,1,1" size="1024"/>
			<output>
				<port id="1" precision="FP32">
					<dim>4</dim>
					<dim>64</dim>
					<dim>1</dim>
					<dim>1</dim>
				</port>
			</output>
		</layer>
		<layer id="88" name="651/WithoutBiases" type="Convolution" version="opset1">
			<data dilations="1,1" output_padding="0,0" pads_begin="0,0" pads_end="0,0" strides="1,1"/>
			<input>
				<port id="0">
					<dim>1</dim>
					<dim>64</dim>
					<dim>1</dim>
					<dim>1</dim>
				</port>
				<port id="1">
					<dim>4</dim>
					<dim>64</dim>
					<dim>1</dim>
					<dim>1</dim>
				</port>
			</input>
			<output>
				<port id="2" precision="FP32">
					<dim>1</dim>
					<dim>4</dim>
					<dim>1</dim>
					<dim>1</dim>
				</port>
			</output>
		</layer>
		<layer id="89" name="651/Dims12870/copy_const" type="Const" version="opset1">
			<data element_type="f32" offset="74536" shape="1,4,1,1" size="16"/>
			<output>
				<port id="1" precision="FP32">
					<dim>1</dim>
					<dim>4</dim>
					<dim>1</dim>
					<dim>1</dim>
				</port>
			</output>
		</layer>
		<layer id="90" name="651" type="Add" version="opset1">
			<input>
				<port id="0">
					<dim>1</dim>
					<dim>4</dim>
					<dim>1</dim>
					<dim>1</dim>
				</port>
				<port id="1">
					<dim>1</dim>
					<dim>4</dim>
					<dim>1</dim>
					<dim>1</dim>
				</port>
			</input>
			<output>
				<port id="2" precision="FP32">
					<dim>1</dim>
					<dim>4</dim>
					<dim>1</dim>
					<dim>1</dim>
				</port>
			</output>
		</layer>
		<layer id="91" name="652" type="ReLU" version="opset1">
			<input>
				<port id="0">
					<dim>1</dim>
					<dim>4</dim>
					<dim>1</dim>
					<dim>1</dim>
				</port>
			</input>
			<output>
				<port id="1" precision="FP32">
					<dim>1</dim>
					<dim>4</dim>
					<dim>1</dim>
					<dim>1</dim>
				</port>
			</output>
		</layer>
		<layer id="92" name="Copy_onnx_initializer_node_conv2.0.gate.fc2.weight/Output_0/Data_3814_const" type="Const" version="opset1">
			<data element_type="f32" offset="74552" shape="64,4,1,1" size="1024"/>
			<output>
				<port id="1" precision="FP32">
					<dim>64</dim>
					<dim>4</dim>
					<dim>1</dim>
					<dim>1</dim>
				</port>
			</output>
		</layer>
		<layer id="93" name="653/WithoutBiases" type="Convolution" version="opset1">
			<data dilations="1,1" output_padding="0,0" pads_begin="0,0" pads_end="0,0" strides="1,1"/>
			<input>
				<port id="0">
					<dim>1</dim>
					<dim>4</dim>
					<dim>1</dim>
					<dim>1</dim>
				</port>
				<port id="1">
					<dim>64</dim>
					<dim>4</dim>
					<dim>1</dim>
					<dim>1</dim>
				</port>
			</input>
			<output>
				<port id="2" precision="FP32">
					<dim>1</dim>
					<dim>64</dim>
					<dim>1</dim>
					<dim>1</dim>
				</port>
			</output>
		</layer>
		<layer id="94" name="653/Dims12840/copy_const" type="Const" version="opset1">
			<data element_type="f32" offset="75576" shape="1,64,1,1" size="256"/>
			<output>
				<port id="1" precision="FP32">
					<dim>1</dim>
					<dim>64</dim>
					<dim>1</dim>
					<dim>1</dim>
				</port>
			</output>
		</layer>
		<layer id="95" name="653" type="Add" version="opset1">
			<input>
				<port id="0">
					<dim>1</dim>
					<dim>64</dim>
					<dim>1</dim>
					<dim>1</dim>
				</port>
				<port id="1">
					<dim>1</dim>
					<dim>64</dim>
					<dim>1</dim>
					<dim>1</dim>
				</port>
			</input>
			<output>
				<port id="2" precision="FP32">
					<dim>1</dim>
					<dim>64</dim>
					<dim>1</dim>
					<dim>1</dim>
				</port>
			</output>
		</layer>
		<layer id="96" name="654" type="Sigmoid" version="opset1">
			<input>
				<port id="0">
					<dim>1</dim>
					<dim>64</dim>
					<dim>1</dim>
					<dim>1</dim>
				</port>
			</input>
			<output>
				<port id="1" precision="FP32">
					<dim>1</dim>
					<dim>64</dim>
					<dim>1</dim>
					<dim>1</dim>
				</port>
			</output>
		</layer>
		<layer id="97" name="655" type="Multiply" version="opset1">
			<input>
				<port id="0">
					<dim>1</dim>
					<dim>64</dim>
					<dim>64</dim>
					<dim>32</dim>
				</port>
				<port id="1">
					<dim>1</dim>
					<dim>64</dim>
					<dim>1</dim>
					<dim>1</dim>
				</port>
			</input>
			<output>
				<port id="2" precision="FP32">
					<dim>1</dim>
					<dim>64</dim>
					<dim>64</dim>
					<dim>32</dim>
				</port>
			</output>
		</layer>
		<layer id="98" name="656" type="Add" version="opset1">
			<input>
				<port id="0">
					<dim>1</dim>
					<dim>64</dim>
					<dim>64</dim>
					<dim>32</dim>
				</port>
				<port id="1">
					<dim>1</dim>
					<dim>64</dim>
					<dim>64</dim>
					<dim>32</dim>
				</port>
			</input>
			<output>
				<port id="2" precision="FP32">
					<dim>1</dim>
					<dim>64</dim>
					<dim>64</dim>
					<dim>32</dim>
				</port>
			</output>
		</layer>
		<layer id="99" name="onnx_initializer_node_conv2.0.conv2d.0.conv1.weight/Output_0/Data__const" type="Const" version="opset1">
			<data element_type="f32" offset="170552" shape="64,64,1,1" size="16384"/>
			<output>
				<port id="1" precision="FP32">
					<dim>64</dim>
					<dim>64</dim>
					<dim>1</dim>
					<dim>1</dim>
				</port>
			</output>
		</layer>
		<layer id="100" name="621" type="Convolution" version="opset1">
			<data dilations="1,1" output_padding="0,0" pads_begin="0,0" pads_end="0,0" strides="1,1"/>
			<input>
				<port id="0">
					<dim>1</dim>
					<dim>64</dim>
					<dim>64</dim>
					<dim>32</dim>
				</port>
				<port id="1">
					<dim>64</dim>
					<dim>64</dim>
					<dim>1</dim>
					<dim>1</dim>
				</port>
			</input>
			<output>
				<port id="2" precision="FP32">
					<dim>1</dim>
					<dim>64</dim>
					<dim>64</dim>
					<dim>32</dim>
				</port>
			</output>
		</layer>
		<layer id="101" name="3591435917_const" type="Const" version="opset1">
			<data element_type="f32" offset="186936" shape="64,1,1,3,3" size="2304"/>
			<output>
				<port id="1" precision="FP32">
					<dim>64</dim>
					<dim>1</dim>
					<dim>1</dim>
					<dim>3</dim>
					<dim>3</dim>
				</port>
			</output>
		</layer>
		<layer id="102" name="622" type="GroupConvolution" version="opset1">
			<data dilations="1,1" output_padding="0,0" pads_begin="1,1" pads_end="1,1" strides="1,1"/>
			<input>
				<port id="0">
					<dim>1</dim>
					<dim>64</dim>
					<dim>64</dim>
					<dim>32</dim>
				</port>
				<port id="1">
					<dim>64</dim>
					<dim>1</dim>
					<dim>1</dim>
					<dim>3</dim>
					<dim>3</dim>
				</port>
			</input>
			<output>
				<port id="2" precision="FP32">
					<dim>1</dim>
					<dim>64</dim>
					<dim>64</dim>
					<dim>32</dim>
				</port>
			</output>
		</layer>
		<layer id="103" name="data_add_2059220597/copy_const" type="Const" version="opset1">
			<data element_type="f32" offset="189240" shape="1,64,1,1" size="256"/>
			<output>
				<port id="1" precision="FP32">
					<dim>1</dim>
					<dim>64</dim>
					<dim>1</dim>
					<dim>1</dim>
				</port>
			</output>
		</layer>
		<layer id="104" name="623/variance/Fused_Add_" type="Add" version="opset1">
			<input>
				<port id="0">
					<dim>1</dim>
					<dim>64</dim>
					<dim>64</dim>
					<dim>32</dim>
				</port>
				<port id="1">
					<dim>1</dim>
					<dim>64</dim>
					<dim>1</dim>
					<dim>1</dim>
				</port>
			</input>
			<output>
				<port id="2" precision="FP32">
					<dim>1</dim>
					<dim>64</dim>
					<dim>64</dim>
					<dim>32</dim>
				</port>
			</output>
		</layer>
		<layer id="105" name="624" type="ReLU" version="opset1">
			<input>
				<port id="0">
					<dim>1</dim>
					<dim>64</dim>
					<dim>64</dim>
					<dim>32</dim>
				</port>
			</input>
			<output>
				<port id="1" precision="FP32">
					<dim>1</dim>
					<dim>64</dim>
					<dim>64</dim>
					<dim>32</dim>
				</port>
			</output>
		</layer>
		<layer id="106" name="onnx_initializer_node_conv2.0.conv2d.1.conv1.weight/Output_0/Data__const" type="Const" version="opset1">
			<data element_type="f32" offset="189496" shape="64,64,1,1" size="16384"/>
			<output>
				<port id="1" precision="FP32">
					<dim>64</dim>
					<dim>64</dim>
					<dim>1</dim>
					<dim>1</dim>
				</port>
			</output>
		</layer>
		<layer id="107" name="625" type="Convolution" version="opset1">
			<data dilations="1,1" output_padding="0,0" pads_begin="0,0" pads_end="0,0" strides="1,1"/>
			<input>
				<port id="0">
					<dim>1</dim>
					<dim>64</dim>
					<dim>64</dim>
					<dim>32</dim>
				</port>
				<port id="1">
					<dim>64</dim>
					<dim>64</dim>
					<dim>1</dim>
					<dim>1</dim>
				</port>
			</input>
			<output>
				<port id="2" precision="FP32">
					<dim>1</dim>
					<dim>64</dim>
					<dim>64</dim>
					<dim>32</dim>
				</port>
			</output>
		</layer>
		<layer id="108" name="3586635869_const" type="Const" version="opset1">
			<data element_type="f32" offset="205880" shape="64,1,1,3,3" size="2304"/>
			<output>
				<port id="1" precision="FP32">
					<dim>64</dim>
					<dim>1</dim>
					<dim>1</dim>
					<dim>3</dim>
					<dim>3</dim>
				</port>
			</output>
		</layer>
		<layer id="109" name="626" type="GroupConvolution" version="opset1">
			<data dilations="1,1" output_padding="0,0" pads_begin="1,1" pads_end="1,1" strides="1,1"/>
			<input>
				<port id="0">
					<dim>1</dim>
					<dim>64</dim>
					<dim>64</dim>
					<dim>32</dim>
				</port>
				<port id="1">
					<dim>64</dim>
					<dim>1</dim>
					<dim>1</dim>
					<dim>3</dim>
					<dim>3</dim>
				</port>
			</input>
			<output>
				<port id="2" precision="FP32">
					<dim>1</dim>
					<dim>64</dim>
					<dim>64</dim>
					<dim>32</dim>
				</port>
			</output>
		</layer>
		<layer id="110" name="data_add_2060020605/copy_const" type="Const" version="opset1">
			<data element_type="f32" offset="208184" shape="1,64,1,1" size="256"/>
			<output>
				<port id="1" precision="FP32">
					<dim>1</dim>
					<dim>64</dim>
					<dim>1</dim>
					<dim>1</dim>
				</port>
			</output>
		</layer>
		<layer id="111" name="627/variance/Fused_Add_" type="Add" version="opset1">
			<input>
				<port id="0">
					<dim>1</dim>
					<dim>64</dim>
					<dim>64</dim>
					<dim>32</dim>
				</port>
				<port id="1">
					<dim>1</dim>
					<dim>64</dim>
					<dim>1</dim>
					<dim>1</dim>
				</port>
			</input>
			<output>
				<port id="2" precision="FP32">
					<dim>1</dim>
					<dim>64</dim>
					<dim>64</dim>
					<dim>32</dim>
				</port>
			</output>
		</layer>
		<layer id="112" name="628" type="ReLU" version="opset1">
			<input>
				<port id="0">
					<dim>1</dim>
					<dim>64</dim>
					<dim>64</dim>
					<dim>32</dim>
				</port>
			</input>
			<output>
				<port id="1" precision="FP32">
					<dim>1</dim>
					<dim>64</dim>
					<dim>64</dim>
					<dim>32</dim>
				</port>
			</output>
		</layer>
		<layer id="113" name="onnx_initializer_node_conv2.0.conv2d.2.conv1.weight/Output_0/Data__const" type="Const" version="opset1">
			<data element_type="f32" offset="208440" shape="64,64,1,1" size="16384"/>
			<output>
				<port id="1" precision="FP32">
					<dim>64</dim>
					<dim>64</dim>
					<dim>1</dim>
					<dim>1</dim>
				</port>
			</output>
		</layer>
		<layer id="114" name="629" type="Convolution" version="opset1">
			<data dilations="1,1" output_padding="0,0" pads_begin="0,0" pads_end="0,0" strides="1,1"/>
			<input>
				<port id="0">
					<dim>1</dim>
					<dim>64</dim>
					<dim>64</dim>
					<dim>32</dim>
				</port>
				<port id="1">
					<dim>64</dim>
					<dim>64</dim>
					<dim>1</dim>
					<dim>1</dim>
				</port>
			</input>
			<output>
				<port id="2" precision="FP32">
					<dim>1</dim>
					<dim>64</dim>
					<dim>64</dim>
					<dim>32</dim>
				</port>
			</output>
		</layer>
		<layer id="115" name="3579835801_const" type="Const" version="opset1">
			<data element_type="f32" offset="224824" shape="64,1,1,3,3" size="2304"/>
			<output>
				<port id="1" precision="FP32">
					<dim>64</dim>
					<dim>1</dim>
					<dim>1</dim>
					<dim>3</dim>
					<dim>3</dim>
				</port>
			</output>
		</layer>
		<layer id="116" name="630" type="GroupConvolution" version="opset1">
			<data dilations="1,1" output_padding="0,0" pads_begin="1,1" pads_end="1,1" strides="1,1"/>
			<input>
				<port id="0">
					<dim>1</dim>
					<dim>64</dim>
					<dim>64</dim>
					<dim>32</dim>
				</port>
				<port id="1">
					<dim>64</dim>
					<dim>1</dim>
					<dim>1</dim>
					<dim>3</dim>
					<dim>3</dim>
				</port>
			</input>
			<output>
				<port id="2" precision="FP32">
					<dim>1</dim>
					<dim>64</dim>
					<dim>64</dim>
					<dim>32</dim>
				</port>
			</output>
		</layer>
		<layer id="117" name="data_add_2060820613/copy_const" type="Const" version="opset1">
			<data element_type="f32" offset="227128" shape="1,64,1,1" size="256"/>
			<output>
				<port id="1" precision="FP32">
					<dim>1</dim>
					<dim>64</dim>
					<dim>1</dim>
					<dim>1</dim>
				</port>
			</output>
		</layer>
		<layer id="118" name="631/variance/Fused_Add_" type="Add" version="opset1">
			<input>
				<port id="0">
					<dim>1</dim>
					<dim>64</dim>
					<dim>64</dim>
					<dim>32</dim>
				</port>
				<port id="1">
					<dim>1</dim>
					<dim>64</dim>
					<dim>1</dim>
					<dim>1</dim>
				</port>
			</input>
			<output>
				<port id="2" precision="FP32">
					<dim>1</dim>
					<dim>64</dim>
					<dim>64</dim>
					<dim>32</dim>
				</port>
			</output>
		</layer>
		<layer id="119" name="632" type="ReLU" version="opset1">
			<input>
				<port id="0">
					<dim>1</dim>
					<dim>64</dim>
					<dim>64</dim>
					<dim>32</dim>
				</port>
			</input>
			<output>
				<port id="1" precision="FP32">
					<dim>1</dim>
					<dim>64</dim>
					<dim>64</dim>
					<dim>32</dim>
				</port>
			</output>
		</layer>
		<layer id="120" name="onnx_initializer_node_conv2.0.conv2d.3.conv1.weight/Output_0/Data__const" type="Const" version="opset1">
			<data element_type="f32" offset="227384" shape="64,64,1,1" size="16384"/>
			<output>
				<port id="1" precision="FP32">
					<dim>64</dim>
					<dim>64</dim>
					<dim>1</dim>
					<dim>1</dim>
				</port>
			</output>
		</layer>
		<layer id="121" name="633" type="Convolution" version="opset1">
			<data dilations="1,1" output_padding="0,0" pads_begin="0,0" pads_end="0,0" strides="1,1"/>
			<input>
				<port id="0">
					<dim>1</dim>
					<dim>64</dim>
					<dim>64</dim>
					<dim>32</dim>
				</port>
				<port id="1">
					<dim>64</dim>
					<dim>64</dim>
					<dim>1</dim>
					<dim>1</dim>
				</port>
			</input>
			<output>
				<port id="2" precision="FP32">
					<dim>1</dim>
					<dim>64</dim>
					<dim>64</dim>
					<dim>32</dim>
				</port>
			</output>
		</layer>
		<layer id="122" name="3581835821_const" type="Const" version="opset1">
			<data element_type="f32" offset="243768" shape="64,1,1,3,3" size="2304"/>
			<output>
				<port id="1" precision="FP32">
					<dim>64</dim>
					<dim>1</dim>
					<dim>1</dim>
					<dim>3</dim>
					<dim>3</dim>
				</port>
			</output>
		</layer>
		<layer id="123" name="634" type="GroupConvolution" version="opset1">
			<data dilations="1,1" output_padding="0,0" pads_begin="1,1" pads_end="1,1" strides="1,1"/>
			<input>
				<port id="0">
					<dim>1</dim>
					<dim>64</dim>
					<dim>64</dim>
					<dim>32</dim>
				</port>
				<port id="1">
					<dim>64</dim>
					<dim>1</dim>
					<dim>1</dim>
					<dim>3</dim>
					<dim>3</dim>
				</port>
			</input>
			<output>
				<port id="2" precision="FP32">
					<dim>1</dim>
					<dim>64</dim>
					<dim>64</dim>
					<dim>32</dim>
				</port>
			</output>
		</layer>
		<layer id="124" name="data_add_2061620621/copy_const" type="Const" version="opset1">
			<data element_type="f32" offset="246072" shape="1,64,1,1" size="256"/>
			<output>
				<port id="1" precision="FP32">
					<dim>1</dim>
					<dim>64</dim>
					<dim>1</dim>
					<dim>1</dim>
				</port>
			</output>
		</layer>
		<layer id="125" name="635/variance/Fused_Add_" type="Add" version="opset1">
			<input>
				<port id="0">
					<dim>1</dim>
					<dim>64</dim>
					<dim>64</dim>
					<dim>32</dim>
				</port>
				<port id="1">
					<dim>1</dim>
					<dim>64</dim>
					<dim>1</dim>
					<dim>1</dim>
				</port>
			</input>
			<output>
				<port id="2" precision="FP32">
					<dim>1</dim>
					<dim>64</dim>
					<dim>64</dim>
					<dim>32</dim>
				</port>
			</output>
		</layer>
		<layer id="126" name="636" type="ReLU" version="opset1">
			<input>
				<port id="0">
					<dim>1</dim>
					<dim>64</dim>
					<dim>64</dim>
					<dim>32</dim>
				</port>
			</input>
			<output>
				<port id="1" precision="FP32">
					<dim>1</dim>
					<dim>64</dim>
					<dim>64</dim>
					<dim>32</dim>
				</port>
			</output>
		</layer>
		<layer id="127" name="657/reduce/Cast_136659_const" type="Const" version="opset1">
			<data element_type="i64" offset="73496" shape="2" size="16"/>
			<output>
				<port id="1" precision="I64">
					<dim>2</dim>
				</port>
			</output>
		</layer>
		<layer id="128" name="657/reduce" type="ReduceMean" version="opset1">
			<data keep_dims="True"/>
			<input>
				<port id="0">
					<dim>1</dim>
					<dim>64</dim>
					<dim>64</dim>
					<dim>32</dim>
				</port>
				<port id="1">
					<dim>2</dim>
				</port>
			</input>
			<output>
				<port id="2" precision="FP32">
					<dim>1</dim>
					<dim>64</dim>
					<dim>1</dim>
					<dim>1</dim>
				</port>
			</output>
		</layer>
		<layer id="129" name="Copy_onnx_initializer_node_conv2.0.gate.fc1.weight/Output_0/Data_3807_const" type="Const" version="opset1">
			<data element_type="f32" offset="73512" shape="4,64,1,1" size="1024"/>
			<output>
				<port id="1" precision="FP32">
					<dim>4</dim>
					<dim>64</dim>
					<dim>1</dim>
					<dim>1</dim>
				</port>
			</output>
		</layer>
		<layer id="130" name="658/WithoutBiases" type="Convolution" version="opset1">
			<data dilations="1,1" output_padding="0,0" pads_begin="0,0" pads_end="0,0" strides="1,1"/>
			<input>
				<port id="0">
					<dim>1</dim>
					<dim>64</dim>
					<dim>1</dim>
					<dim>1</dim>
				</port>
				<port id="1">
					<dim>4</dim>
					<dim>64</dim>
					<dim>1</dim>
					<dim>1</dim>
				</port>
			</input>
			<output>
				<port id="2" precision="FP32">
					<dim>1</dim>
					<dim>4</dim>
					<dim>1</dim>
					<dim>1</dim>
				</port>
			</output>
		</layer>
		<layer id="131" name="658/Dims12678/copy_const" type="Const" version="opset1">
			<data element_type="f32" offset="74536" shape="1,4,1,1" size="16"/>
			<output>
				<port id="1" precision="FP32">
					<dim>1</dim>
					<dim>4</dim>
					<dim>1</dim>
					<dim>1</dim>
				</port>
			</output>
		</layer>
		<layer id="132" name="658" type="Add" version="opset1">
			<input>
				<port id="0">
					<dim>1</dim>
					<dim>4</dim>
					<dim>1</dim>
					<dim>1</dim>
				</port>
				<port id="1">
					<dim>1</dim>
					<dim>4</dim>
					<dim>1</dim>
					<dim>1</dim>
				</port>
			</input>
			<output>
				<port id="2" precision="FP32">
					<dim>1</dim>
					<dim>4</dim>
					<dim>1</dim>
					<dim>1</dim>
				</port>
			</output>
		</layer>
		<layer id="133" name="659" type="ReLU" version="opset1">
			<input>
				<port id="0">
					<dim>1</dim>
					<dim>4</dim>
					<dim>1</dim>
					<dim>1</dim>
				</port>
			</input>
			<output>
				<port id="1" precision="FP32">
					<dim>1</dim>
					<dim>4</dim>
					<dim>1</dim>
					<dim>1</dim>
				</port>
			</output>
		</layer>
		<layer id="134" name="Copy_onnx_initializer_node_conv2.0.gate.fc2.weight/Output_0/Data_3815_const" type="Const" version="opset1">
			<data element_type="f32" offset="74552" shape="64,4,1,1" size="1024"/>
			<output>
				<port id="1" precision="FP32">
					<dim>64</dim>
					<dim>4</dim>
					<dim>1</dim>
					<dim>1</dim>
				</port>
			</output>
		</layer>
		<layer id="135" name="660/WithoutBiases" type="Convolution" version="opset1">
			<data dilations="1,1" output_padding="0,0" pads_begin="0,0" pads_end="0,0" strides="1,1"/>
			<input>
				<port id="0">
					<dim>1</dim>
					<dim>4</dim>
					<dim>1</dim>
					<dim>1</dim>
				</port>
				<port id="1">
					<dim>64</dim>
					<dim>4</dim>
					<dim>1</dim>
					<dim>1</dim>
				</port>
			</input>
			<output>
				<port id="2" precision="FP32">
					<dim>1</dim>
					<dim>64</dim>
					<dim>1</dim>
					<dim>1</dim>
				</port>
			</output>
		</layer>
		<layer id="136" name="660/Dims12738/copy_const" type="Const" version="opset1">
			<data element_type="f32" offset="75576" shape="1,64,1,1" size="256"/>
			<output>
				<port id="1" precision="FP32">
					<dim>1</dim>
					<dim>64</dim>
					<dim>1</dim>
					<dim>1</dim>
				</port>
			</output>
		</layer>
		<layer id="137" name="660" type="Add" version="opset1">
			<input>
				<port id="0">
					<dim>1</dim>
					<dim>64</dim>
					<dim>1</dim>
					<dim>1</dim>
				</port>
				<port id="1">
					<dim>1</dim>
					<dim>64</dim>
					<dim>1</dim>
					<dim>1</dim>
				</port>
			</input>
			<output>
				<port id="2" precision="FP32">
					<dim>1</dim>
					<dim>64</dim>
					<dim>1</dim>
					<dim>1</dim>
				</port>
			</output>
		</layer>
		<layer id="138" name="661" type="Sigmoid" version="opset1">
			<input>
				<port id="0">
					<dim>1</dim>
					<dim>64</dim>
					<dim>1</dim>
					<dim>1</dim>
				</port>
			</input>
			<output>
				<port id="1" precision="FP32">
					<dim>1</dim>
					<dim>64</dim>
					<dim>1</dim>
					<dim>1</dim>
				</port>
			</output>
		</layer>
		<layer id="139" name="662" type="Multiply" version="opset1">
			<input>
				<port id="0">
					<dim>1</dim>
					<dim>64</dim>
					<dim>64</dim>
					<dim>32</dim>
				</port>
				<port id="1">
					<dim>1</dim>
					<dim>64</dim>
					<dim>1</dim>
					<dim>1</dim>
				</port>
			</input>
			<output>
				<port id="2" precision="FP32">
					<dim>1</dim>
					<dim>64</dim>
					<dim>64</dim>
					<dim>32</dim>
				</port>
			</output>
		</layer>
		<layer id="140" name="663" type="Add" version="opset1">
			<input>
				<port id="0">
					<dim>1</dim>
					<dim>64</dim>
					<dim>64</dim>
					<dim>32</dim>
				</port>
				<port id="1">
					<dim>1</dim>
					<dim>64</dim>
					<dim>64</dim>
					<dim>32</dim>
				</port>
			</input>
			<output>
				<port id="2" precision="FP32">
					<dim>1</dim>
					<dim>64</dim>
					<dim>64</dim>
					<dim>32</dim>
				</port>
			</output>
		</layer>
		<layer id="141" name="665/mean/Fused_Mul_2238522387_const" type="Const" version="opset1">
			<data element_type="f32" offset="246328" shape="256,64,1,1" size="65536"/>
			<output>
				<port id="1" precision="FP32">
					<dim>256</dim>
					<dim>64</dim>
					<dim>1</dim>
					<dim>1</dim>
				</port>
			</output>
		</layer>
		<layer id="142" name="664" type="Convolution" version="opset1">
			<data dilations="1,1" output_padding="0,0" pads_begin="0,0" pads_end="0,0" strides="1,1"/>
			<input>
				<port id="0">
					<dim>1</dim>
					<dim>64</dim>
					<dim>64</dim>
					<dim>32</dim>
				</port>
				<port id="1">
					<dim>256</dim>
					<dim>64</dim>
					<dim>1</dim>
					<dim>1</dim>
				</port>
			</input>
			<output>
				<port id="2" precision="FP32">
					<dim>1</dim>
					<dim>256</dim>
					<dim>64</dim>
					<dim>32</dim>
				</port>
			</output>
		</layer>
		<layer id="143" name="data_add_2067220677/copy_const" type="Const" version="opset1">
			<data element_type="f32" offset="311864" shape="1,256,1,1" size="1024"/>
			<output>
				<port id="1" precision="FP32">
					<dim>1</dim>
					<dim>256</dim>
					<dim>1</dim>
					<dim>1</dim>
				</port>
			</output>
		</layer>
		<layer id="144" name="665/variance/Fused_Add_" type="Add" version="opset1">
			<input>
				<port id="0">
					<dim>1</dim>
					<dim>256</dim>
					<dim>64</dim>
					<dim>32</dim>
				</port>
				<port id="1">
					<dim>1</dim>
					<dim>256</dim>
					<dim>1</dim>
					<dim>1</dim>
				</port>
			</input>
			<output>
				<port id="2" precision="FP32">
					<dim>1</dim>
					<dim>256</dim>
					<dim>64</dim>
					<dim>32</dim>
				</port>
			</output>
		</layer>
		<layer id="145" name="667/mean/Fused_Mul_2233722339_const" type="Const" version="opset1">
			<data element_type="f32" offset="312888" shape="256,64,1,1" size="65536"/>
			<output>
				<port id="1" precision="FP32">
					<dim>256</dim>
					<dim>64</dim>
					<dim>1</dim>
					<dim>1</dim>
				</port>
			</output>
		</layer>
		<layer id="146" name="666" type="Convolution" version="opset1">
			<data dilations="1,1" output_padding="0,0" pads_begin="0,0" pads_end="0,0" strides="1,1"/>
			<input>
				<port id="0">
					<dim>1</dim>
					<dim>64</dim>
					<dim>64</dim>
					<dim>32</dim>
				</port>
				<port id="1">
					<dim>256</dim>
					<dim>64</dim>
					<dim>1</dim>
					<dim>1</dim>
				</port>
			</input>
			<output>
				<port id="2" precision="FP32">
					<dim>1</dim>
					<dim>256</dim>
					<dim>64</dim>
					<dim>32</dim>
				</port>
			</output>
		</layer>
		<layer id="147" name="data_add_2057620581/copy_const" type="Const" version="opset1">
			<data element_type="f32" offset="378424" shape="1,256,1,1" size="1024"/>
			<output>
				<port id="1" precision="FP32">
					<dim>1</dim>
					<dim>256</dim>
					<dim>1</dim>
					<dim>1</dim>
				</port>
			</output>
		</layer>
		<layer id="148" name="667/variance/Fused_Add_" type="Add" version="opset1">
			<input>
				<port id="0">
					<dim>1</dim>
					<dim>256</dim>
					<dim>64</dim>
					<dim>32</dim>
				</port>
				<port id="1">
					<dim>1</dim>
					<dim>256</dim>
					<dim>1</dim>
					<dim>1</dim>
				</port>
			</input>
			<output>
				<port id="2" precision="FP32">
					<dim>1</dim>
					<dim>256</dim>
					<dim>64</dim>
					<dim>32</dim>
				</port>
			</output>
		</layer>
		<layer id="149" name="668" type="Add" version="opset1">
			<input>
				<port id="0">
					<dim>1</dim>
					<dim>256</dim>
					<dim>64</dim>
					<dim>32</dim>
				</port>
				<port id="1">
					<dim>1</dim>
					<dim>256</dim>
					<dim>64</dim>
					<dim>32</dim>
				</port>
			</input>
			<output>
				<port id="2" precision="FP32">
					<dim>1</dim>
					<dim>256</dim>
					<dim>64</dim>
					<dim>32</dim>
				</port>
			</output>
		</layer>
		<layer id="150" name="669" type="ReLU" version="opset1">
			<input>
				<port id="0">
					<dim>1</dim>
					<dim>256</dim>
					<dim>64</dim>
					<dim>32</dim>
				</port>
			</input>
			<output>
				<port id="1" precision="FP32">
					<dim>1</dim>
					<dim>256</dim>
					<dim>64</dim>
					<dim>32</dim>
				</port>
			</output>
		</layer>
		<layer id="151" name="671/mean/Fused_Mul_2238922391_const" type="Const" version="opset1">
			<data element_type="f32" offset="379448" shape="64,256,1,1" size="65536"/>
			<output>
				<port id="1" precision="FP32">
					<dim>64</dim>
					<dim>256</dim>
					<dim>1</dim>
					<dim>1</dim>
				</port>
			</output>
		</layer>
		<layer id="152" name="670" type="Convolution" version="opset1">
			<data dilations="1,1" output_padding="0,0" pads_begin="0,0" pads_end="0,0" strides="1,1"/>
			<input>
				<port id="0">
					<dim>1</dim>
					<dim>256</dim>
					<dim>64</dim>
					<dim>32</dim>
				</port>
				<port id="1">
					<dim>64</dim>
					<dim>256</dim>
					<dim>1</dim>
					<dim>1</dim>
				</port>
			</input>
			<output>
				<port id="2" precision="FP32">
					<dim>1</dim>
					<dim>64</dim>
					<dim>64</dim>
					<dim>32</dim>
				</port>
			</output>
		</layer>
		<layer id="153" name="data_add_2068020685/copy_const" type="Const" version="opset1">
			<data element_type="f32" offset="444984" shape="1,64,1,1" size="256"/>
			<output>
				<port id="1" precision="FP32">
					<dim>1</dim>
					<dim>64</dim>
					<dim>1</dim>
					<dim>1</dim>
				</port>
			</output>
		</layer>
		<layer id="154" name="671/variance/Fused_Add_" type="Add" version="opset1">
			<input>
				<port id="0">
					<dim>1</dim>
					<dim>64</dim>
					<dim>64</dim>
					<dim>32</dim>
				</port>
				<port id="1">
					<dim>1</dim>
					<dim>64</dim>
					<dim>1</dim>
					<dim>1</dim>
				</port>
			</input>
			<output>
				<port id="2" precision="FP32">
					<dim>1</dim>
					<dim>64</dim>
					<dim>64</dim>
					<dim>32</dim>
				</port>
			</output>
		</layer>
		<layer id="155" name="672" type="ReLU" version="opset1">
			<input>
				<port id="0">
					<dim>1</dim>
					<dim>64</dim>
					<dim>64</dim>
					<dim>32</dim>
				</port>
			</input>
			<output>
				<port id="1" precision="FP32">
					<dim>1</dim>
					<dim>64</dim>
					<dim>64</dim>
					<dim>32</dim>
				</port>
			</output>
		</layer>
		<layer id="156" name="onnx_initializer_node_conv2.1.conv2a.conv1.weight/Output_0/Data__const" type="Const" version="opset1">
			<data element_type="f32" offset="445240" shape="64,64,1,1" size="16384"/>
			<output>
				<port id="1" precision="FP32">
					<dim>64</dim>
					<dim>64</dim>
					<dim>1</dim>
					<dim>1</dim>
				</port>
			</output>
		</layer>
		<layer id="157" name="673" type="Convolution" version="opset1">
			<data dilations="1,1" output_padding="0,0" pads_begin="0,0" pads_end="0,0" strides="1,1"/>
			<input>
				<port id="0">
					<dim>1</dim>
					<dim>64</dim>
					<dim>64</dim>
					<dim>32</dim>
				</port>
				<port id="1">
					<dim>64</dim>
					<dim>64</dim>
					<dim>1</dim>
					<dim>1</dim>
				</port>
			</input>
			<output>
				<port id="2" precision="FP32">
					<dim>1</dim>
					<dim>64</dim>
					<dim>64</dim>
					<dim>32</dim>
				</port>
			</output>
		</layer>
		<layer id="158" name="3570235705_const" type="Const" version="opset1">
			<data element_type="f32" offset="461624" shape="64,1,1,3,3" size="2304"/>
			<output>
				<port id="1" precision="FP32">
					<dim>64</dim>
					<dim>1</dim>
					<dim>1</dim>
					<dim>3</dim>
					<dim>3</dim>
				</port>
			</output>
		</layer>
		<layer id="159" name="674" type="GroupConvolution" version="opset1">
			<data dilations="1,1" output_padding="0,0" pads_begin="1,1" pads_end="1,1" strides="1,1"/>
			<input>
				<port id="0">
					<dim>1</dim>
					<dim>64</dim>
					<dim>64</dim>
					<dim>32</dim>
				</port>
				<port id="1">
					<dim>64</dim>
					<dim>1</dim>
					<dim>1</dim>
					<dim>3</dim>
					<dim>3</dim>
				</port>
			</input>
			<output>
				<port id="2" precision="FP32">
					<dim>1</dim>
					<dim>64</dim>
					<dim>64</dim>
					<dim>32</dim>
				</port>
			</output>
		</layer>
		<layer id="160" name="data_add_2076020765/copy_const" type="Const" version="opset1">
			<data element_type="f32" offset="463928" shape="1,64,1,1" size="256"/>
			<output>
				<port id="1" precision="FP32">
					<dim>1</dim>
					<dim>64</dim>
					<dim>1</dim>
					<dim>1</dim>
				</port>
			</output>
		</layer>
		<layer id="161" name="675/variance/Fused_Add_" type="Add" version="opset1">
			<input>
				<port id="0">
					<dim>1</dim>
					<dim>64</dim>
					<dim>64</dim>
					<dim>32</dim>
				</port>
				<port id="1">
					<dim>1</dim>
					<dim>64</dim>
					<dim>1</dim>
					<dim>1</dim>
				</port>
			</input>
			<output>
				<port id="2" precision="FP32">
					<dim>1</dim>
					<dim>64</dim>
					<dim>64</dim>
					<dim>32</dim>
				</port>
			</output>
		</layer>
		<layer id="162" name="676" type="ReLU" version="opset1">
			<input>
				<port id="0">
					<dim>1</dim>
					<dim>64</dim>
					<dim>64</dim>
					<dim>32</dim>
				</port>
			</input>
			<output>
				<port id="1" precision="FP32">
					<dim>1</dim>
					<dim>64</dim>
					<dim>64</dim>
					<dim>32</dim>
				</port>
			</output>
		</layer>
		<layer id="163" name="713/reduce/Cast_136665_const" type="Const" version="opset1">
			<data element_type="i64" offset="73496" shape="2" size="16"/>
			<output>
				<port id="1" precision="I64">
					<dim>2</dim>
				</port>
			</output>
		</layer>
		<layer id="164" name="713/reduce" type="ReduceMean" version="opset1">
			<data keep_dims="True"/>
			<input>
				<port id="0">
					<dim>1</dim>
					<dim>64</dim>
					<dim>64</dim>
					<dim>32</dim>
				</port>
				<port id="1">
					<dim>2</dim>
				</port>
			</input>
			<output>
				<port id="2" precision="FP32">
					<dim>1</dim>
					<dim>64</dim>
					<dim>1</dim>
					<dim>1</dim>
				</port>
			</output>
		</layer>
		<layer id="165" name="Copy_onnx_initializer_node_conv2.1.gate.fc1.weight/Output_0/Data__const" type="Const" version="opset1">
			<data element_type="f32" offset="464184" shape="4,64,1,1" size="1024"/>
			<output>
				<port id="1" precision="FP32">
					<dim>4</dim>
					<dim>64</dim>
					<dim>1</dim>
					<dim>1</dim>
				</port>
			</output>
		</layer>
		<layer id="166" name="714/WithoutBiases" type="Convolution" version="opset1">
			<data dilations="1,1" output_padding="0,0" pads_begin="0,0" pads_end="0,0" strides="1,1"/>
			<input>
				<port id="0">
					<dim>1</dim>
					<dim>64</dim>
					<dim>1</dim>
					<dim>1</dim>
				</port>
				<port id="1">
					<dim>4</dim>
					<dim>64</dim>
					<dim>1</dim>
					<dim>1</dim>
				</port>
			</input>
			<output>
				<port id="2" precision="FP32">
					<dim>1</dim>
					<dim>4</dim>
					<dim>1</dim>
					<dim>1</dim>
				</port>
			</output>
		</layer>
		<layer id="167" name="714/Dims12660/copy_const" type="Const" version="opset1">
			<data element_type="f32" offset="465208" shape="1,4,1,1" size="16"/>
			<output>
				<port id="1" precision="FP32">
					<dim>1</dim>
					<dim>4</dim>
					<dim>1</dim>
					<dim>1</dim>
				</port>
			</output>
		</layer>
		<layer id="168" name="714" type="Add" version="opset1">
			<input>
				<port id="0">
					<dim>1</dim>
					<dim>4</dim>
					<dim>1</dim>
					<dim>1</dim>
				</port>
				<port id="1">
					<dim>1</dim>
					<dim>4</dim>
					<dim>1</dim>
					<dim>1</dim>
				</port>
			</input>
			<output>
				<port id="2" precision="FP32">
					<dim>1</dim>
					<dim>4</dim>
					<dim>1</dim>
					<dim>1</dim>
				</port>
			</output>
		</layer>
		<layer id="169" name="715" type="ReLU" version="opset1">
			<input>
				<port id="0">
					<dim>1</dim>
					<dim>4</dim>
					<dim>1</dim>
					<dim>1</dim>
				</port>
			</input>
			<output>
				<port id="1" precision="FP32">
					<dim>1</dim>
					<dim>4</dim>
					<dim>1</dim>
					<dim>1</dim>
				</port>
			</output>
		</layer>
		<layer id="170" name="Copy_onnx_initializer_node_conv2.1.gate.fc2.weight/Output_0/Data__const" type="Const" version="opset1">
			<data element_type="f32" offset="465224" shape="64,4,1,1" size="1024"/>
			<output>
				<port id="1" precision="FP32">
					<dim>64</dim>
					<dim>4</dim>
					<dim>1</dim>
					<dim>1</dim>
				</port>
			</output>
		</layer>
		<layer id="171" name="716/WithoutBiases" type="Convolution" version="opset1">
			<data dilations="1,1" output_padding="0,0" pads_begin="0,0" pads_end="0,0" strides="1,1"/>
			<input>
				<port id="0">
					<dim>1</dim>
					<dim>4</dim>
					<dim>1</dim>
					<dim>1</dim>
				</port>
				<port id="1">
					<dim>64</dim>
					<dim>4</dim>
					<dim>1</dim>
					<dim>1</dim>
				</port>
			</input>
			<output>
				<port id="2" precision="FP32">
					<dim>1</dim>
					<dim>64</dim>
					<dim>1</dim>
					<dim>1</dim>
				</port>
			</output>
		</layer>
		<layer id="172" name="716/Dims12552/copy_const" type="Const" version="opset1">
			<data element_type="f32" offset="466248" shape="1,64,1,1" size="256"/>
			<output>
				<port id="1" precision="FP32">
					<dim>1</dim>
					<dim>64</dim>
					<dim>1</dim>
					<dim>1</dim>
				</port>
			</output>
		</layer>
		<layer id="173" name="716" type="Add" version="opset1">
			<input>
				<port id="0">
					<dim>1</dim>
					<dim>64</dim>
					<dim>1</dim>
					<dim>1</dim>
				</port>
				<port id="1">
					<dim>1</dim>
					<dim>64</dim>
					<dim>1</dim>
					<dim>1</dim>
				</port>
			</input>
			<output>
				<port id="2" precision="FP32">
					<dim>1</dim>
					<dim>64</dim>
					<dim>1</dim>
					<dim>1</dim>
				</port>
			</output>
		</layer>
		<layer id="174" name="717" type="Sigmoid" version="opset1">
			<input>
				<port id="0">
					<dim>1</dim>
					<dim>64</dim>
					<dim>1</dim>
					<dim>1</dim>
				</port>
			</input>
			<output>
				<port id="1" precision="FP32">
					<dim>1</dim>
					<dim>64</dim>
					<dim>1</dim>
					<dim>1</dim>
				</port>
			</output>
		</layer>
		<layer id="175" name="718" type="Multiply" version="opset1">
			<input>
				<port id="0">
					<dim>1</dim>
					<dim>64</dim>
					<dim>64</dim>
					<dim>32</dim>
				</port>
				<port id="1">
					<dim>1</dim>
					<dim>64</dim>
					<dim>1</dim>
					<dim>1</dim>
				</port>
			</input>
			<output>
				<port id="2" precision="FP32">
					<dim>1</dim>
					<dim>64</dim>
					<dim>64</dim>
					<dim>32</dim>
				</port>
			</output>
		</layer>
		<layer id="176" name="onnx_initializer_node_conv2.1.conv2b.0.conv1.weight/Output_0/Data__const" type="Const" version="opset1">
			<data element_type="f32" offset="466504" shape="64,64,1,1" size="16384"/>
			<output>
				<port id="1" precision="FP32">
					<dim>64</dim>
					<dim>64</dim>
					<dim>1</dim>
					<dim>1</dim>
				</port>
			</output>
		</layer>
		<layer id="177" name="677" type="Convolution" version="opset1">
			<data dilations="1,1" output_padding="0,0" pads_begin="0,0" pads_end="0,0" strides="1,1"/>
			<input>
				<port id="0">
					<dim>1</dim>
					<dim>64</dim>
					<dim>64</dim>
					<dim>32</dim>
				</port>
				<port id="1">
					<dim>64</dim>
					<dim>64</dim>
					<dim>1</dim>
					<dim>1</dim>
				</port>
			</input>
			<output>
				<port id="2" precision="FP32">
					<dim>1</dim>
					<dim>64</dim>
					<dim>64</dim>
					<dim>32</dim>
				</port>
			</output>
		</layer>
		<layer id="178" name="3584235845_const" type="Const" version="opset1">
			<data element_type="f32" offset="482888" shape="64,1,1,3,3" size="2304"/>
			<output>
				<port id="1" precision="FP32">
					<dim>64</dim>
					<dim>1</dim>
					<dim>1</dim>
					<dim>3</dim>
					<dim>3</dim>
				</port>
			</output>
		</layer>
		<layer id="179" name="678" type="GroupConvolution" version="opset1">
			<data dilations="1,1" output_padding="0,0" pads_begin="1,1" pads_end="1,1" strides="1,1"/>
			<input>
				<port id="0">
					<dim>1</dim>
					<dim>64</dim>
					<dim>64</dim>
					<dim>32</dim>
				</port>
				<port id="1">
					<dim>64</dim>
					<dim>1</dim>
					<dim>1</dim>
					<dim>3</dim>
					<dim>3</dim>
				</port>
			</input>
			<output>
				<port id="2" precision="FP32">
					<dim>1</dim>
					<dim>64</dim>
					<dim>64</dim>
					<dim>32</dim>
				</port>
			</output>
		</layer>
		<layer id="180" name="data_add_2074420749/copy_const" type="Const" version="opset1">
			<data element_type="f32" offset="485192" shape="1,64,1,1" size="256"/>
			<output>
				<port id="1" precision="FP32">
					<dim>1</dim>
					<dim>64</dim>
					<dim>1</dim>
					<dim>1</dim>
				</port>
			</output>
		</layer>
		<layer id="181" name="679/variance/Fused_Add_" type="Add" version="opset1">
			<input>
				<port id="0">
					<dim>1</dim>
					<dim>64</dim>
					<dim>64</dim>
					<dim>32</dim>
				</port>
				<port id="1">
					<dim>1</dim>
					<dim>64</dim>
					<dim>1</dim>
					<dim>1</dim>
				</port>
			</input>
			<output>
				<port id="2" precision="FP32">
					<dim>1</dim>
					<dim>64</dim>
					<dim>64</dim>
					<dim>32</dim>
				</port>
			</output>
		</layer>
		<layer id="182" name="680" type="ReLU" version="opset1">
			<input>
				<port id="0">
					<dim>1</dim>
					<dim>64</dim>
					<dim>64</dim>
					<dim>32</dim>
				</port>
			</input>
			<output>
				<port id="1" precision="FP32">
					<dim>1</dim>
					<dim>64</dim>
					<dim>64</dim>
					<dim>32</dim>
				</port>
			</output>
		</layer>
		<layer id="183" name="onnx_initializer_node_conv2.1.conv2b.1.conv1.weight/Output_0/Data__const" type="Const" version="opset1">
			<data element_type="f32" offset="485448" shape="64,64,1,1" size="16384"/>
			<output>
				<port id="1" precision="FP32">
					<dim>64</dim>
					<dim>64</dim>
					<dim>1</dim>
					<dim>1</dim>
				</port>
			</output>
		</layer>
		<layer id="184" name="681" type="Convolution" version="opset1">
			<data dilations="1,1" output_padding="0,0" pads_begin="0,0" pads_end="0,0" strides="1,1"/>
			<input>
				<port id="0">
					<dim>1</dim>
					<dim>64</dim>
					<dim>64</dim>
					<dim>32</dim>
				</port>
				<port id="1">
					<dim>64</dim>
					<dim>64</dim>
					<dim>1</dim>
					<dim>1</dim>
				</port>
			</input>
			<output>
				<port id="2" precision="FP32">
					<dim>1</dim>
					<dim>64</dim>
					<dim>64</dim>
					<dim>32</dim>
				</port>
			</output>
		</layer>
		<layer id="185" name="3583835841_const" type="Const" version="opset1">
			<data element_type="f32" offset="501832" shape="64,1,1,3,3" size="2304"/>
			<output>
				<port id="1" precision="FP32">
					<dim>64</dim>
					<dim>1</dim>
					<dim>1</dim>
					<dim>3</dim>
					<dim>3</dim>
				</port>
			</output>
		</layer>
		<layer id="186" name="682" type="GroupConvolution" version="opset1">
			<data dilations="1,1" output_padding="0,0" pads_begin="1,1" pads_end="1,1" strides="1,1"/>
			<input>
				<port id="0">
					<dim>1</dim>
					<dim>64</dim>
					<dim>64</dim>
					<dim>32</dim>
				</port>
				<port id="1">
					<dim>64</dim>
					<dim>1</dim>
					<dim>1</dim>
					<dim>3</dim>
					<dim>3</dim>
				</port>
			</input>
			<output>
				<port id="2" precision="FP32">
					<dim>1</dim>
					<dim>64</dim>
					<dim>64</dim>
					<dim>32</dim>
				</port>
			</output>
		</layer>
		<layer id="187" name="data_add_2075220757/copy_const" type="Const" version="opset1">
			<data element_type="f32" offset="504136" shape="1,64,1,1" size="256"/>
			<output>
				<port id="1" precision="FP32">
					<dim>1</dim>
					<dim>64</dim>
					<dim>1</dim>
					<dim>1</dim>
				</port>
			</output>
		</layer>
		<layer id="188" name="683/variance/Fused_Add_" type="Add" version="opset1">
			<input>
				<port id="0">
					<dim>1</dim>
					<dim>64</dim>
					<dim>64</dim>
					<dim>32</dim>
				</port>
				<port id="1">
					<dim>1</dim>
					<dim>64</dim>
					<dim>1</dim>
					<dim>1</dim>
				</port>
			</input>
			<output>
				<port id="2" precision="FP32">
					<dim>1</dim>
					<dim>64</dim>
					<dim>64</dim>
					<dim>32</dim>
				</port>
			</output>
		</layer>
		<layer id="189" name="684" type="ReLU" version="opset1">
			<input>
				<port id="0">
					<dim>1</dim>
					<dim>64</dim>
					<dim>64</dim>
					<dim>32</dim>
				</port>
			</input>
			<output>
				<port id="1" precision="FP32">
					<dim>1</dim>
					<dim>64</dim>
					<dim>64</dim>
					<dim>32</dim>
				</port>
			</output>
		</layer>
		<layer id="190" name="719/reduce/Cast_136717_const" type="Const" version="opset1">
			<data element_type="i64" offset="73496" shape="2" size="16"/>
			<output>
				<port id="1" precision="I64">
					<dim>2</dim>
				</port>
			</output>
		</layer>
		<layer id="191" name="719/reduce" type="ReduceMean" version="opset1">
			<data keep_dims="True"/>
			<input>
				<port id="0">
					<dim>1</dim>
					<dim>64</dim>
					<dim>64</dim>
					<dim>32</dim>
				</port>
				<port id="1">
					<dim>2</dim>
				</port>
			</input>
			<output>
				<port id="2" precision="FP32">
					<dim>1</dim>
					<dim>64</dim>
					<dim>1</dim>
					<dim>1</dim>
				</port>
			</output>
		</layer>
		<layer id="192" name="Copy_onnx_initializer_node_conv2.1.gate.fc1.weight/Output_0/Data_3821_const" type="Const" version="opset1">
			<data element_type="f32" offset="464184" shape="4,64,1,1" size="1024"/>
			<output>
				<port id="1" precision="FP32">
					<dim>4</dim>
					<dim>64</dim>
					<dim>1</dim>
					<dim>1</dim>
				</port>
			</output>
		</layer>
		<layer id="193" name="720/WithoutBiases" type="Convolution" version="opset1">
			<data dilations="1,1" output_padding="0,0" pads_begin="0,0" pads_end="0,0" strides="1,1"/>
			<input>
				<port id="0">
					<dim>1</dim>
					<dim>64</dim>
					<dim>1</dim>
					<dim>1</dim>
				</port>
				<port id="1">
					<dim>4</dim>
					<dim>64</dim>
					<dim>1</dim>
					<dim>1</dim>
				</port>
			</input>
			<output>
				<port id="2" precision="FP32">
					<dim>1</dim>
					<dim>4</dim>
					<dim>1</dim>
					<dim>1</dim>
				</port>
			</output>
		</layer>
		<layer id="194" name="720/Dims12750/copy_const" type="Const" version="opset1">
			<data element_type="f32" offset="465208" shape="1,4,1,1" size="16"/>
			<output>
				<port id="1" precision="FP32">
					<dim>1</dim>
					<dim>4</dim>
					<dim>1</dim>
					<dim>1</dim>
				</port>
			</output>
		</layer>
		<layer id="195" name="720" type="Add" version="opset1">
			<input>
				<port id="0">
					<dim>1</dim>
					<dim>4</dim>
					<dim>1</dim>
					<dim>1</dim>
				</port>
				<port id="1">
					<dim>1</dim>
					<dim>4</dim>
					<dim>1</dim>
					<dim>1</dim>
				</port>
			</input>
			<output>
				<port id="2" precision="FP32">
					<dim>1</dim>
					<dim>4</dim>
					<dim>1</dim>
					<dim>1</dim>
				</port>
			</output>
		</layer>
		<layer id="196" name="721" type="ReLU" version="opset1">
			<input>
				<port id="0">
					<dim>1</dim>
					<dim>4</dim>
					<dim>1</dim>
					<dim>1</dim>
				</port>
			</input>
			<output>
				<port id="1" precision="FP32">
					<dim>1</dim>
					<dim>4</dim>
					<dim>1</dim>
					<dim>1</dim>
				</port>
			</output>
		</layer>
		<layer id="197" name="Copy_onnx_initializer_node_conv2.1.gate.fc2.weight/Output_0/Data_3829_const" type="Const" version="opset1">
			<data element_type="f32" offset="465224" shape="64,4,1,1" size="1024"/>
			<output>
				<port id="1" precision="FP32">
					<dim>64</dim>
					<dim>4</dim>
					<dim>1</dim>
					<dim>1</dim>
				</port>
			</output>
		</layer>
		<layer id="198" name="722/WithoutBiases" type="Convolution" version="opset1">
			<data dilations="1,1" output_padding="0,0" pads_begin="0,0" pads_end="0,0" strides="1,1"/>
			<input>
				<port id="0">
					<dim>1</dim>
					<dim>4</dim>
					<dim>1</dim>
					<dim>1</dim>
				</port>
				<port id="1">
					<dim>64</dim>
					<dim>4</dim>
					<dim>1</dim>
					<dim>1</dim>
				</port>
			</input>
			<output>
				<port id="2" precision="FP32">
					<dim>1</dim>
					<dim>64</dim>
					<dim>1</dim>
					<dim>1</dim>
				</port>
			</output>
		</layer>
		<layer id="199" name="722/Dims12546/copy_const" type="Const" version="opset1">
			<data element_type="f32" offset="466248" shape="1,64,1,1" size="256"/>
			<output>
				<port id="1" precision="FP32">
					<dim>1</dim>
					<dim>64</dim>
					<dim>1</dim>
					<dim>1</dim>
				</port>
			</output>
		</layer>
		<layer id="200" name="722" type="Add" version="opset1">
			<input>
				<port id="0">
					<dim>1</dim>
					<dim>64</dim>
					<dim>1</dim>
					<dim>1</dim>
				</port>
				<port id="1">
					<dim>1</dim>
					<dim>64</dim>
					<dim>1</dim>
					<dim>1</dim>
				</port>
			</input>
			<output>
				<port id="2" precision="FP32">
					<dim>1</dim>
					<dim>64</dim>
					<dim>1</dim>
					<dim>1</dim>
				</port>
			</output>
		</layer>
		<layer id="201" name="723" type="Sigmoid" version="opset1">
			<input>
				<port id="0">
					<dim>1</dim>
					<dim>64</dim>
					<dim>1</dim>
					<dim>1</dim>
				</port>
			</input>
			<output>
				<port id="1" precision="FP32">
					<dim>1</dim>
					<dim>64</dim>
					<dim>1</dim>
					<dim>1</dim>
				</port>
			</output>
		</layer>
		<layer id="202" name="724" type="Multiply" version="opset1">
			<input>
				<port id="0">
					<dim>1</dim>
					<dim>64</dim>
					<dim>64</dim>
					<dim>32</dim>
				</port>
				<port id="1">
					<dim>1</dim>
					<dim>64</dim>
					<dim>1</dim>
					<dim>1</dim>
				</port>
			</input>
			<output>
				<port id="2" precision="FP32">
					<dim>1</dim>
					<dim>64</dim>
					<dim>64</dim>
					<dim>32</dim>
				</port>
			</output>
		</layer>
		<layer id="203" name="725" type="Add" version="opset1">
			<input>
				<port id="0">
					<dim>1</dim>
					<dim>64</dim>
					<dim>64</dim>
					<dim>32</dim>
				</port>
				<port id="1">
					<dim>1</dim>
					<dim>64</dim>
					<dim>64</dim>
					<dim>32</dim>
				</port>
			</input>
			<output>
				<port id="2" precision="FP32">
					<dim>1</dim>
					<dim>64</dim>
					<dim>64</dim>
					<dim>32</dim>
				</port>
			</output>
		</layer>
		<layer id="204" name="onnx_initializer_node_conv2.1.conv2c.0.conv1.weight/Output_0/Data__const" type="Const" version="opset1">
			<data element_type="f32" offset="504392" shape="64,64,1,1" size="16384"/>
			<output>
				<port id="1" precision="FP32">
					<dim>64</dim>
					<dim>64</dim>
					<dim>1</dim>
					<dim>1</dim>
				</port>
			</output>
		</layer>
		<layer id="205" name="685" type="Convolution" version="opset1">
			<data dilations="1,1" output_padding="0,0" pads_begin="0,0" pads_end="0,0" strides="1,1"/>
			<input>
				<port id="0">
					<dim>1</dim>
					<dim>64</dim>
					<dim>64</dim>
					<dim>32</dim>
				</port>
				<port id="1">
					<dim>64</dim>
					<dim>64</dim>
					<dim>1</dim>
					<dim>1</dim>
				</port>
			</input>
			<output>
				<port id="2" precision="FP32">
					<dim>1</dim>
					<dim>64</dim>
					<dim>64</dim>
					<dim>32</dim>
				</port>
			</output>
		</layer>
		<layer id="206" name="3573435737_const" type="Const" version="opset1">
			<data element_type="f32" offset="520776" shape="64,1,1,3,3" size="2304"/>
			<output>
				<port id="1" precision="FP32">
					<dim>64</dim>
					<dim>1</dim>
					<dim>1</dim>
					<dim>3</dim>
					<dim>3</dim>
				</port>
			</output>
		</layer>
		<layer id="207" name="686" type="GroupConvolution" version="opset1">
			<data dilations="1,1" output_padding="0,0" pads_begin="1,1" pads_end="1,1" strides="1,1"/>
			<input>
				<port id="0">
					<dim>1</dim>
					<dim>64</dim>
					<dim>64</dim>
					<dim>32</dim>
				</port>
				<port id="1">
					<dim>64</dim>
					<dim>1</dim>
					<dim>1</dim>
					<dim>3</dim>
					<dim>3</dim>
				</port>
			</input>
			<output>
				<port id="2" precision="FP32">
					<dim>1</dim>
					<dim>64</dim>
					<dim>64</dim>
					<dim>32</dim>
				</port>
			</output>
		</layer>
		<layer id="208" name="data_add_2072020725/copy_const" type="Const" version="opset1">
			<data element_type="f32" offset="523080" shape="1,64,1,1" size="256"/>
			<output>
				<port id="1" precision="FP32">
					<dim>1</dim>
					<dim>64</dim>
					<dim>1</dim>
					<dim>1</dim>
				</port>
			</output>
		</layer>
		<layer id="209" name="687/variance/Fused_Add_" type="Add" version="opset1">
			<input>
				<port id="0">
					<dim>1</dim>
					<dim>64</dim>
					<dim>64</dim>
					<dim>32</dim>
				</port>
				<port id="1">
					<dim>1</dim>
					<dim>64</dim>
					<dim>1</dim>
					<dim>1</dim>
				</port>
			</input>
			<output>
				<port id="2" precision="FP32">
					<dim>1</dim>
					<dim>64</dim>
					<dim>64</dim>
					<dim>32</dim>
				</port>
			</output>
		</layer>
		<layer id="210" name="688" type="ReLU" version="opset1">
			<input>
				<port id="0">
					<dim>1</dim>
					<dim>64</dim>
					<dim>64</dim>
					<dim>32</dim>
				</port>
			</input>
			<output>
				<port id="1" precision="FP32">
					<dim>1</dim>
					<dim>64</dim>
					<dim>64</dim>
					<dim>32</dim>
				</port>
			</output>
		</layer>
		<layer id="211" name="onnx_initializer_node_conv2.1.conv2c.1.conv1.weight/Output_0/Data__const" type="Const" version="opset1">
			<data element_type="f32" offset="523336" shape="64,64,1,1" size="16384"/>
			<output>
				<port id="1" precision="FP32">
					<dim>64</dim>
					<dim>64</dim>
					<dim>1</dim>
					<dim>1</dim>
				</port>
			</output>
		</layer>
		<layer id="212" name="689" type="Convolution" version="opset1">
			<data dilations="1,1" output_padding="0,0" pads_begin="0,0" pads_end="0,0" strides="1,1"/>
			<input>
				<port id="0">
					<dim>1</dim>
					<dim>64</dim>
					<dim>64</dim>
					<dim>32</dim>
				</port>
				<port id="1">
					<dim>64</dim>
					<dim>64</dim>
					<dim>1</dim>
					<dim>1</dim>
				</port>
			</input>
			<output>
				<port id="2" precision="FP32">
					<dim>1</dim>
					<dim>64</dim>
					<dim>64</dim>
					<dim>32</dim>
				</port>
			</output>
		</layer>
		<layer id="213" name="3576235765_const" type="Const" version="opset1">
			<data element_type="f32" offset="539720" shape="64,1,1,3,3" size="2304"/>
			<output>
				<port id="1" precision="FP32">
					<dim>64</dim>
					<dim>1</dim>
					<dim>1</dim>
					<dim>3</dim>
					<dim>3</dim>
				</port>
			</output>
		</layer>
		<layer id="214" name="690" type="GroupConvolution" version="opset1">
			<data dilations="1,1" output_padding="0,0" pads_begin="1,1" pads_end="1,1" strides="1,1"/>
			<input>
				<port id="0">
					<dim>1</dim>
					<dim>64</dim>
					<dim>64</dim>
					<dim>32</dim>
				</port>
				<port id="1">
					<dim>64</dim>
					<dim>1</dim>
					<dim>1</dim>
					<dim>3</dim>
					<dim>3</dim>
				</port>
			</input>
			<output>
				<port id="2" precision="FP32">
					<dim>1</dim>
					<dim>64</dim>
					<dim>64</dim>
					<dim>32</dim>
				</port>
			</output>
		</layer>
		<layer id="215" name="data_add_2072820733/copy_const" type="Const" version="opset1">
			<data element_type="f32" offset="542024" shape="1,64,1,1" size="256"/>
			<output>
				<port id="1" precision="FP32">
					<dim>1</dim>
					<dim>64</dim>
					<dim>1</dim>
					<dim>1</dim>
				</port>
			</output>
		</layer>
		<layer id="216" name="691/variance/Fused_Add_" type="Add" version="opset1">
			<input>
				<port id="0">
					<dim>1</dim>
					<dim>64</dim>
					<dim>64</dim>
					<dim>32</dim>
				</port>
				<port id="1">
					<dim>1</dim>
					<dim>64</dim>
					<dim>1</dim>
					<dim>1</dim>
				</port>
			</input>
			<output>
				<port id="2" precision="FP32">
					<dim>1</dim>
					<dim>64</dim>
					<dim>64</dim>
					<dim>32</dim>
				</port>
			</output>
		</layer>
		<layer id="217" name="692" type="ReLU" version="opset1">
			<input>
				<port id="0">
					<dim>1</dim>
					<dim>64</dim>
					<dim>64</dim>
					<dim>32</dim>
				</port>
			</input>
			<output>
				<port id="1" precision="FP32">
					<dim>1</dim>
					<dim>64</dim>
					<dim>64</dim>
					<dim>32</dim>
				</port>
			</output>
		</layer>
		<layer id="218" name="onnx_initializer_node_conv2.1.conv2c.2.conv1.weight/Output_0/Data__const" type="Const" version="opset1">
			<data element_type="f32" offset="542280" shape="64,64,1,1" size="16384"/>
			<output>
				<port id="1" precision="FP32">
					<dim>64</dim>
					<dim>64</dim>
					<dim>1</dim>
					<dim>1</dim>
				</port>
			</output>
		</layer>
		<layer id="219" name="693" type="Convolution" version="opset1">
			<data dilations="1,1" output_padding="0,0" pads_begin="0,0" pads_end="0,0" strides="1,1"/>
			<input>
				<port id="0">
					<dim>1</dim>
					<dim>64</dim>
					<dim>64</dim>
					<dim>32</dim>
				</port>
				<port id="1">
					<dim>64</dim>
					<dim>64</dim>
					<dim>1</dim>
					<dim>1</dim>
				</port>
			</input>
			<output>
				<port id="2" precision="FP32">
					<dim>1</dim>
					<dim>64</dim>
					<dim>64</dim>
					<dim>32</dim>
				</port>
			</output>
		</layer>
		<layer id="220" name="3585435857_const" type="Const" version="opset1">
			<data element_type="f32" offset="558664" shape="64,1,1,3,3" size="2304"/>
			<output>
				<port id="1" precision="FP32">
					<dim>64</dim>
					<dim>1</dim>
					<dim>1</dim>
					<dim>3</dim>
					<dim>3</dim>
				</port>
			</output>
		</layer>
		<layer id="221" name="694" type="GroupConvolution" version="opset1">
			<data dilations="1,1" output_padding="0,0" pads_begin="1,1" pads_end="1,1" strides="1,1"/>
			<input>
				<port id="0">
					<dim>1</dim>
					<dim>64</dim>
					<dim>64</dim>
					<dim>32</dim>
				</port>
				<port id="1">
					<dim>64</dim>
					<dim>1</dim>
					<dim>1</dim>
					<dim>3</dim>
					<dim>3</dim>
				</port>
			</input>
			<output>
				<port id="2" precision="FP32">
					<dim>1</dim>
					<dim>64</dim>
					<dim>64</dim>
					<dim>32</dim>
				</port>
			</output>
		</layer>
		<layer id="222" name="data_add_2073620741/copy_const" type="Const" version="opset1">
			<data element_type="f32" offset="560968" shape="1,64,1,1" size="256"/>
			<output>
				<port id="1" precision="FP32">
					<dim>1</dim>
					<dim>64</dim>
					<dim>1</dim>
					<dim>1</dim>
				</port>
			</output>
		</layer>
		<layer id="223" name="695/variance/Fused_Add_" type="Add" version="opset1">
			<input>
				<port id="0">
					<dim>1</dim>
					<dim>64</dim>
					<dim>64</dim>
					<dim>32</dim>
				</port>
				<port id="1">
					<dim>1</dim>
					<dim>64</dim>
					<dim>1</dim>
					<dim>1</dim>
				</port>
			</input>
			<output>
				<port id="2" precision="FP32">
					<dim>1</dim>
					<dim>64</dim>
					<dim>64</dim>
					<dim>32</dim>
				</port>
			</output>
		</layer>
		<layer id="224" name="696" type="ReLU" version="opset1">
			<input>
				<port id="0">
					<dim>1</dim>
					<dim>64</dim>
					<dim>64</dim>
					<dim>32</dim>
				</port>
			</input>
			<output>
				<port id="1" precision="FP32">
					<dim>1</dim>
					<dim>64</dim>
					<dim>64</dim>
					<dim>32</dim>
				</port>
			</output>
		</layer>
		<layer id="225" name="726/reduce/Cast_136671_const" type="Const" version="opset1">
			<data element_type="i64" offset="73496" shape="2" size="16"/>
			<output>
				<port id="1" precision="I64">
					<dim>2</dim>
				</port>
			</output>
		</layer>
		<layer id="226" name="726/reduce" type="ReduceMean" version="opset1">
			<data keep_dims="True"/>
			<input>
				<port id="0">
					<dim>1</dim>
					<dim>64</dim>
					<dim>64</dim>
					<dim>32</dim>
				</port>
				<port id="1">
					<dim>2</dim>
				</port>
			</input>
			<output>
				<port id="2" precision="FP32">
					<dim>1</dim>
					<dim>64</dim>
					<dim>1</dim>
					<dim>1</dim>
				</port>
			</output>
		</layer>
		<layer id="227" name="Copy_onnx_initializer_node_conv2.1.gate.fc1.weight/Output_0/Data_3822_const" type="Const" version="opset1">
			<data element_type="f32" offset="464184" shape="4,64,1,1" size="1024"/>
			<output>
				<port id="1" precision="FP32">
					<dim>4</dim>
					<dim>64</dim>
					<dim>1</dim>
					<dim>1</dim>
				</port>
			</output>
		</layer>
		<layer id="228" name="727/WithoutBiases" type="Convolution" version="opset1">
			<data dilations="1,1" output_padding="0,0" pads_begin="0,0" pads_end="0,0" strides="1,1"/>
			<input>
				<port id="0">
					<dim>1</dim>
					<dim>64</dim>
					<dim>1</dim>
					<dim>1</dim>
				</port>
				<port id="1">
					<dim>4</dim>
					<dim>64</dim>
					<dim>1</dim>
					<dim>1</dim>
				</port>
			</input>
			<output>
				<port id="2" precision="FP32">
					<dim>1</dim>
					<dim>4</dim>
					<dim>1</dim>
					<dim>1</dim>
				</port>
			</output>
		</layer>
		<layer id="229" name="727/Dims12582/copy_const" type="Const" version="opset1">
			<data element_type="f32" offset="465208" shape="1,4,1,1" size="16"/>
			<output>
				<port id="1" precision="FP32">
					<dim>1</dim>
					<dim>4</dim>
					<dim>1</dim>
					<dim>1</dim>
				</port>
			</output>
		</layer>
		<layer id="230" name="727" type="Add" version="opset1">
			<input>
				<port id="0">
					<dim>1</dim>
					<dim>4</dim>
					<dim>1</dim>
					<dim>1</dim>
				</port>
				<port id="1">
					<dim>1</dim>
					<dim>4</dim>
					<dim>1</dim>
					<dim>1</dim>
				</port>
			</input>
			<output>
				<port id="2" precision="FP32">
					<dim>1</dim>
					<dim>4</dim>
					<dim>1</dim>
					<dim>1</dim>
				</port>
			</output>
		</layer>
		<layer id="231" name="728" type="ReLU" version="opset1">
			<input>
				<port id="0">
					<dim>1</dim>
					<dim>4</dim>
					<dim>1</dim>
					<dim>1</dim>
				</port>
			</input>
			<output>
				<port id="1" precision="FP32">
					<dim>1</dim>
					<dim>4</dim>
					<dim>1</dim>
					<dim>1</dim>
				</port>
			</output>
		</layer>
		<layer id="232" name="Copy_onnx_initializer_node_conv2.1.gate.fc2.weight/Output_0/Data_3830_const" type="Const" version="opset1">
			<data element_type="f32" offset="465224" shape="64,4,1,1" size="1024"/>
			<output>
				<port id="1" precision="FP32">
					<dim>64</dim>
					<dim>4</dim>
					<dim>1</dim>
					<dim>1</dim>
				</port>
			</output>
		</layer>
		<layer id="233" name="729/WithoutBiases" type="Convolution" version="opset1">
			<data dilations="1,1" output_padding="0,0" pads_begin="0,0" pads_end="0,0" strides="1,1"/>
			<input>
				<port id="0">
					<dim>1</dim>
					<dim>4</dim>
					<dim>1</dim>
					<dim>1</dim>
				</port>
				<port id="1">
					<dim>64</dim>
					<dim>4</dim>
					<dim>1</dim>
					<dim>1</dim>
				</port>
			</input>
			<output>
				<port id="2" precision="FP32">
					<dim>1</dim>
					<dim>64</dim>
					<dim>1</dim>
					<dim>1</dim>
				</port>
			</output>
		</layer>
		<layer id="234" name="729/Dims12858/copy_const" type="Const" version="opset1">
			<data element_type="f32" offset="466248" shape="1,64,1,1" size="256"/>
			<output>
				<port id="1" precision="FP32">
					<dim>1</dim>
					<dim>64</dim>
					<dim>1</dim>
					<dim>1</dim>
				</port>
			</output>
		</layer>
		<layer id="235" name="729" type="Add" version="opset1">
			<input>
				<port id="0">
					<dim>1</dim>
					<dim>64</dim>
					<dim>1</dim>
					<dim>1</dim>
				</port>
				<port id="1">
					<dim>1</dim>
					<dim>64</dim>
					<dim>1</dim>
					<dim>1</dim>
				</port>
			</input>
			<output>
				<port id="2" precision="FP32">
					<dim>1</dim>
					<dim>64</dim>
					<dim>1</dim>
					<dim>1</dim>
				</port>
			</output>
		</layer>
		<layer id="236" name="730" type="Sigmoid" version="opset1">
			<input>
				<port id="0">
					<dim>1</dim>
					<dim>64</dim>
					<dim>1</dim>
					<dim>1</dim>
				</port>
			</input>
			<output>
				<port id="1" precision="FP32">
					<dim>1</dim>
					<dim>64</dim>
					<dim>1</dim>
					<dim>1</dim>
				</port>
			</output>
		</layer>
		<layer id="237" name="731" type="Multiply" version="opset1">
			<input>
				<port id="0">
					<dim>1</dim>
					<dim>64</dim>
					<dim>64</dim>
					<dim>32</dim>
				</port>
				<port id="1">
					<dim>1</dim>
					<dim>64</dim>
					<dim>1</dim>
					<dim>1</dim>
				</port>
			</input>
			<output>
				<port id="2" precision="FP32">
					<dim>1</dim>
					<dim>64</dim>
					<dim>64</dim>
					<dim>32</dim>
				</port>
			</output>
		</layer>
		<layer id="238" name="732" type="Add" version="opset1">
			<input>
				<port id="0">
					<dim>1</dim>
					<dim>64</dim>
					<dim>64</dim>
					<dim>32</dim>
				</port>
				<port id="1">
					<dim>1</dim>
					<dim>64</dim>
					<dim>64</dim>
					<dim>32</dim>
				</port>
			</input>
			<output>
				<port id="2" precision="FP32">
					<dim>1</dim>
					<dim>64</dim>
					<dim>64</dim>
					<dim>32</dim>
				</port>
			</output>
		</layer>
		<layer id="239" name="onnx_initializer_node_conv2.1.conv2d.0.conv1.weight/Output_0/Data__const" type="Const" version="opset1">
			<data element_type="f32" offset="561224" shape="64,64,1,1" size="16384"/>
			<output>
				<port id="1" precision="FP32">
					<dim>64</dim>
					<dim>64</dim>
					<dim>1</dim>
					<dim>1</dim>
				</port>
			</output>
		</layer>
		<layer id="240" name="697" type="Convolution" version="opset1">
			<data dilations="1,1" output_padding="0,0" pads_begin="0,0" pads_end="0,0" strides="1,1"/>
			<input>
				<port id="0">
					<dim>1</dim>
					<dim>64</dim>
					<dim>64</dim>
					<dim>32</dim>
				</port>
				<port id="1">
					<dim>64</dim>
					<dim>64</dim>
					<dim>1</dim>
					<dim>1</dim>
				</port>
			</input>
			<output>
				<port id="2" precision="FP32">
					<dim>1</dim>
					<dim>64</dim>
					<dim>64</dim>
					<dim>32</dim>
				</port>
			</output>
		</layer>
		<layer id="241" name="3586235865_const" type="Const" version="opset1">
			<data element_type="f32" offset="577608" shape="64,1,1,3,3" size="2304"/>
			<output>
				<port id="1" precision="FP32">
					<dim>64</dim>
					<dim>1</dim>
					<dim>1</dim>
					<dim>3</dim>
					<dim>3</dim>
				</port>
			</output>
		</layer>
		<layer id="242" name="698" type="GroupConvolution" version="opset1">
			<data dilations="1,1" output_padding="0,0" pads_begin="1,1" pads_end="1,1" strides="1,1"/>
			<input>
				<port id="0">
					<dim>1</dim>
					<dim>64</dim>
					<dim>64</dim>
					<dim>32</dim>
				</port>
				<port id="1">
					<dim>64</dim>
					<dim>1</dim>
					<dim>1</dim>
					<dim>3</dim>
					<dim>3</dim>
				</port>
			</input>
			<output>
				<port id="2" precision="FP32">
					<dim>1</dim>
					<dim>64</dim>
					<dim>64</dim>
					<dim>32</dim>
				</port>
			</output>
		</layer>
		<layer id="243" name="data_add_2068820693/copy_const" type="Const" version="opset1">
			<data element_type="f32" offset="579912" shape="1,64,1,1" size="256"/>
			<output>
				<port id="1" precision="FP32">
					<dim>1</dim>
					<dim>64</dim>
					<dim>1</dim>
					<dim>1</dim>
				</port>
			</output>
		</layer>
		<layer id="244" name="699/variance/Fused_Add_" type="Add" version="opset1">
			<input>
				<port id="0">
					<dim>1</dim>
					<dim>64</dim>
					<dim>64</dim>
					<dim>32</dim>
				</port>
				<port id="1">
					<dim>1</dim>
					<dim>64</dim>
					<dim>1</dim>
					<dim>1</dim>
				</port>
			</input>
			<output>
				<port id="2" precision="FP32">
					<dim>1</dim>
					<dim>64</dim>
					<dim>64</dim>
					<dim>32</dim>
				</port>
			</output>
		</layer>
		<layer id="245" name="700" type="ReLU" version="opset1">
			<input>
				<port id="0">
					<dim>1</dim>
					<dim>64</dim>
					<dim>64</dim>
					<dim>32</dim>
				</port>
			</input>
			<output>
				<port id="1" precision="FP32">
					<dim>1</dim>
					<dim>64</dim>
					<dim>64</dim>
					<dim>32</dim>
				</port>
			</output>
		</layer>
		<layer id="246" name="onnx_initializer_node_conv2.1.conv2d.1.conv1.weight/Output_0/Data__const" type="Const" version="opset1">
			<data element_type="f32" offset="580168" shape="64,64,1,1" size="16384"/>
			<output>
				<port id="1" precision="FP32">
					<dim>64</dim>
					<dim>64</dim>
					<dim>1</dim>
					<dim>1</dim>
				</port>
			</output>
		</layer>
		<layer id="247" name="701" type="Convolution" version="opset1">
			<data dilations="1,1" output_padding="0,0" pads_begin="0,0" pads_end="0,0" strides="1,1"/>
			<input>
				<port id="0">
					<dim>1</dim>
					<dim>64</dim>
					<dim>64</dim>
					<dim>32</dim>
				</port>
				<port id="1">
					<dim>64</dim>
					<dim>64</dim>
					<dim>1</dim>
					<dim>1</dim>
				</port>
			</input>
			<output>
				<port id="2" precision="FP32">
					<dim>1</dim>
					<dim>64</dim>
					<dim>64</dim>
					<dim>32</dim>
				</port>
			</output>
		</layer>
		<layer id="248" name="3582635829_const" type="Const" version="opset1">
			<data element_type="f32" offset="596552" shape="64,1,1,3,3" size="2304"/>
			<output>
				<port id="1" precision="FP32">
					<dim>64</dim>
					<dim>1</dim>
					<dim>1</dim>
					<dim>3</dim>
					<dim>3</dim>
				</port>
			</output>
		</layer>
		<layer id="249" name="702" type="GroupConvolution" version="opset1">
			<data dilations="1,1" output_padding="0,0" pads_begin="1,1" pads_end="1,1" strides="1,1"/>
			<input>
				<port id="0">
					<dim>1</dim>
					<dim>64</dim>
					<dim>64</dim>
					<dim>32</dim>
				</port>
				<port id="1">
					<dim>64</dim>
					<dim>1</dim>
					<dim>1</dim>
					<dim>3</dim>
					<dim>3</dim>
				</port>
			</input>
			<output>
				<port id="2" precision="FP32">
					<dim>1</dim>
					<dim>64</dim>
					<dim>64</dim>
					<dim>32</dim>
				</port>
			</output>
		</layer>
		<layer id="250" name="data_add_2069620701/copy_const" type="Const" version="opset1">
			<data element_type="f32" offset="598856" shape="1,64,1,1" size="256"/>
			<output>
				<port id="1" precision="FP32">
					<dim>1</dim>
					<dim>64</dim>
					<dim>1</dim>
					<dim>1</dim>
				</port>
			</output>
		</layer>
		<layer id="251" name="703/variance/Fused_Add_" type="Add" version="opset1">
			<input>
				<port id="0">
					<dim>1</dim>
					<dim>64</dim>
					<dim>64</dim>
					<dim>32</dim>
				</port>
				<port id="1">
					<dim>1</dim>
					<dim>64</dim>
					<dim>1</dim>
					<dim>1</dim>
				</port>
			</input>
			<output>
				<port id="2" precision="FP32">
					<dim>1</dim>
					<dim>64</dim>
					<dim>64</dim>
					<dim>32</dim>
				</port>
			</output>
		</layer>
		<layer id="252" name="704" type="ReLU" version="opset1">
			<input>
				<port id="0">
					<dim>1</dim>
					<dim>64</dim>
					<dim>64</dim>
					<dim>32</dim>
				</port>
			</input>
			<output>
				<port id="1" precision="FP32">
					<dim>1</dim>
					<dim>64</dim>
					<dim>64</dim>
					<dim>32</dim>
				</port>
			</output>
		</layer>
		<layer id="253" name="onnx_initializer_node_conv2.1.conv2d.2.conv1.weight/Output_0/Data__const" type="Const" version="opset1">
			<data element_type="f32" offset="599112" shape="64,64,1,1" size="16384"/>
			<output>
				<port id="1" precision="FP32">
					<dim>64</dim>
					<dim>64</dim>
					<dim>1</dim>
					<dim>1</dim>
				</port>
			</output>
		</layer>
		<layer id="254" name="705" type="Convolution" version="opset1">
			<data dilations="1,1" output_padding="0,0" pads_begin="0,0" pads_end="0,0" strides="1,1"/>
			<input>
				<port id="0">
					<dim>1</dim>
					<dim>64</dim>
					<dim>64</dim>
					<dim>32</dim>
				</port>
				<port id="1">
					<dim>64</dim>
					<dim>64</dim>
					<dim>1</dim>
					<dim>1</dim>
				</port>
			</input>
			<output>
				<port id="2" precision="FP32">
					<dim>1</dim>
					<dim>64</dim>
					<dim>64</dim>
					<dim>32</dim>
				</port>
			</output>
		</layer>
		<layer id="255" name="3582235825_const" type="Const" version="opset1">
			<data element_type="f32" offset="615496" shape="64,1,1,3,3" size="2304"/>
			<output>
				<port id="1" precision="FP32">
					<dim>64</dim>
					<dim>1</dim>
					<dim>1</dim>
					<dim>3</dim>
					<dim>3</dim>
				</port>
			</output>
		</layer>
		<layer id="256" name="706" type="GroupConvolution" version="opset1">
			<data dilations="1,1" output_padding="0,0" pads_begin="1,1" pads_end="1,1" strides="1,1"/>
			<input>
				<port id="0">
					<dim>1</dim>
					<dim>64</dim>
					<dim>64</dim>
					<dim>32</dim>
				</port>
				<port id="1">
					<dim>64</dim>
					<dim>1</dim>
					<dim>1</dim>
					<dim>3</dim>
					<dim>3</dim>
				</port>
			</input>
			<output>
				<port id="2" precision="FP32">
					<dim>1</dim>
					<dim>64</dim>
					<dim>64</dim>
					<dim>32</dim>
				</port>
			</output>
		</layer>
		<layer id="257" name="data_add_2070420709/copy_const" type="Const" version="opset1">
			<data element_type="f32" offset="617800" shape="1,64,1,1" size="256"/>
			<output>
				<port id="1" precision="FP32">
					<dim>1</dim>
					<dim>64</dim>
					<dim>1</dim>
					<dim>1</dim>
				</port>
			</output>
		</layer>
		<layer id="258" name="707/variance/Fused_Add_" type="Add" version="opset1">
			<input>
				<port id="0">
					<dim>1</dim>
					<dim>64</dim>
					<dim>64</dim>
					<dim>32</dim>
				</port>
				<port id="1">
					<dim>1</dim>
					<dim>64</dim>
					<dim>1</dim>
					<dim>1</dim>
				</port>
			</input>
			<output>
				<port id="2" precision="FP32">
					<dim>1</dim>
					<dim>64</dim>
					<dim>64</dim>
					<dim>32</dim>
				</port>
			</output>
		</layer>
		<layer id="259" name="708" type="ReLU" version="opset1">
			<input>
				<port id="0">
					<dim>1</dim>
					<dim>64</dim>
					<dim>64</dim>
					<dim>32</dim>
				</port>
			</input>
			<output>
				<port id="1" precision="FP32">
					<dim>1</dim>
					<dim>64</dim>
					<dim>64</dim>
					<dim>32</dim>
				</port>
			</output>
		</layer>
		<layer id="260" name="onnx_initializer_node_conv2.1.conv2d.3.conv1.weight/Output_0/Data__const" type="Const" version="opset1">
			<data element_type="f32" offset="618056" shape="64,64,1,1" size="16384"/>
			<output>
				<port id="1" precision="FP32">
					<dim>64</dim>
					<dim>64</dim>
					<dim>1</dim>
					<dim>1</dim>
				</port>
			</output>
		</layer>
		<layer id="261" name="709" type="Convolution" version="opset1">
			<data dilations="1,1" output_padding="0,0" pads_begin="0,0" pads_end="0,0" strides="1,1"/>
			<input>
				<port id="0">
					<dim>1</dim>
					<dim>64</dim>
					<dim>64</dim>
					<dim>32</dim>
				</port>
				<port id="1">
					<dim>64</dim>
					<dim>64</dim>
					<dim>1</dim>
					<dim>1</dim>
				</port>
			</input>
			<output>
				<port id="2" precision="FP32">
					<dim>1</dim>
					<dim>64</dim>
					<dim>64</dim>
					<dim>32</dim>
				</port>
			</output>
		</layer>
		<layer id="262" name="3584635849_const" type="Const" version="opset1">
			<data element_type="f32" offset="634440" shape="64,1,1,3,3" size="2304"/>
			<output>
				<port id="1" precision="FP32">
					<dim>64</dim>
					<dim>1</dim>
					<dim>1</dim>
					<dim>3</dim>
					<dim>3</dim>
				</port>
			</output>
		</layer>
		<layer id="263" name="710" type="GroupConvolution" version="opset1">
			<data dilations="1,1" output_padding="0,0" pads_begin="1,1" pads_end="1,1" strides="1,1"/>
			<input>
				<port id="0">
					<dim>1</dim>
					<dim>64</dim>
					<dim>64</dim>
					<dim>32</dim>
				</port>
				<port id="1">
					<dim>64</dim>
					<dim>1</dim>
					<dim>1</dim>
					<dim>3</dim>
					<dim>3</dim>
				</port>
			</input>
			<output>
				<port id="2" precision="FP32">
					<dim>1</dim>
					<dim>64</dim>
					<dim>64</dim>
					<dim>32</dim>
				</port>
			</output>
		</layer>
		<layer id="264" name="data_add_2071220717/copy_const" type="Const" version="opset1">
			<data element_type="f32" offset="636744" shape="1,64,1,1" size="256"/>
			<output>
				<port id="1" precision="FP32">
					<dim>1</dim>
					<dim>64</dim>
					<dim>1</dim>
					<dim>1</dim>
				</port>
			</output>
		</layer>
		<layer id="265" name="711/variance/Fused_Add_" type="Add" version="opset1">
			<input>
				<port id="0">
					<dim>1</dim>
					<dim>64</dim>
					<dim>64</dim>
					<dim>32</dim>
				</port>
				<port id="1">
					<dim>1</dim>
					<dim>64</dim>
					<dim>1</dim>
					<dim>1</dim>
				</port>
			</input>
			<output>
				<port id="2" precision="FP32">
					<dim>1</dim>
					<dim>64</dim>
					<dim>64</dim>
					<dim>32</dim>
				</port>
			</output>
		</layer>
		<layer id="266" name="712" type="ReLU" version="opset1">
			<input>
				<port id="0">
					<dim>1</dim>
					<dim>64</dim>
					<dim>64</dim>
					<dim>32</dim>
				</port>
			</input>
			<output>
				<port id="1" precision="FP32">
					<dim>1</dim>
					<dim>64</dim>
					<dim>64</dim>
					<dim>32</dim>
				</port>
			</output>
		</layer>
		<layer id="267" name="733/reduce/Cast_136675_const" type="Const" version="opset1">
			<data element_type="i64" offset="73496" shape="2" size="16"/>
			<output>
				<port id="1" precision="I64">
					<dim>2</dim>
				</port>
			</output>
		</layer>
		<layer id="268" name="733/reduce" type="ReduceMean" version="opset1">
			<data keep_dims="True"/>
			<input>
				<port id="0">
					<dim>1</dim>
					<dim>64</dim>
					<dim>64</dim>
					<dim>32</dim>
				</port>
				<port id="1">
					<dim>2</dim>
				</port>
			</input>
			<output>
				<port id="2" precision="FP32">
					<dim>1</dim>
					<dim>64</dim>
					<dim>1</dim>
					<dim>1</dim>
				</port>
			</output>
		</layer>
		<layer id="269" name="Copy_onnx_initializer_node_conv2.1.gate.fc1.weight/Output_0/Data_3823_const" type="Const" version="opset1">
			<data element_type="f32" offset="464184" shape="4,64,1,1" size="1024"/>
			<output>
				<port id="1" precision="FP32">
					<dim>4</dim>
					<dim>64</dim>
					<dim>1</dim>
					<dim>1</dim>
				</port>
			</output>
		</layer>
		<layer id="270" name="734/WithoutBiases" type="Convolution" version="opset1">
			<data dilations="1,1" output_padding="0,0" pads_begin="0,0" pads_end="0,0" strides="1,1"/>
			<input>
				<port id="0">
					<dim>1</dim>
					<dim>64</dim>
					<dim>1</dim>
					<dim>1</dim>
				</port>
				<port id="1">
					<dim>4</dim>
					<dim>64</dim>
					<dim>1</dim>
					<dim>1</dim>
				</port>
			</input>
			<output>
				<port id="2" precision="FP32">
					<dim>1</dim>
					<dim>4</dim>
					<dim>1</dim>
					<dim>1</dim>
				</port>
			</output>
		</layer>
		<layer id="271" name="734/Dims12744/copy_const" type="Const" version="opset1">
			<data element_type="f32" offset="465208" shape="1,4,1,1" size="16"/>
			<output>
				<port id="1" precision="FP32">
					<dim>1</dim>
					<dim>4</dim>
					<dim>1</dim>
					<dim>1</dim>
				</port>
			</output>
		</layer>
		<layer id="272" name="734" type="Add" version="opset1">
			<input>
				<port id="0">
					<dim>1</dim>
					<dim>4</dim>
					<dim>1</dim>
					<dim>1</dim>
				</port>
				<port id="1">
					<dim>1</dim>
					<dim>4</dim>
					<dim>1</dim>
					<dim>1</dim>
				</port>
			</input>
			<output>
				<port id="2" precision="FP32">
					<dim>1</dim>
					<dim>4</dim>
					<dim>1</dim>
					<dim>1</dim>
				</port>
			</output>
		</layer>
		<layer id="273" name="735" type="ReLU" version="opset1">
			<input>
				<port id="0">
					<dim>1</dim>
					<dim>4</dim>
					<dim>1</dim>
					<dim>1</dim>
				</port>
			</input>
			<output>
				<port id="1" precision="FP32">
					<dim>1</dim>
					<dim>4</dim>
					<dim>1</dim>
					<dim>1</dim>
				</port>
			</output>
		</layer>
		<layer id="274" name="Copy_onnx_initializer_node_conv2.1.gate.fc2.weight/Output_0/Data_3831_const" type="Const" version="opset1">
			<data element_type="f32" offset="465224" shape="64,4,1,1" size="1024"/>
			<output>
				<port id="1" precision="FP32">
					<dim>64</dim>
					<dim>4</dim>
					<dim>1</dim>
					<dim>1</dim>
				</port>
			</output>
		</layer>
		<layer id="275" name="736/WithoutBiases" type="Convolution" version="opset1">
			<data dilations="1,1" output_padding="0,0" pads_begin="0,0" pads_end="0,0" strides="1,1"/>
			<input>
				<port id="0">
					<dim>1</dim>
					<dim>4</dim>
					<dim>1</dim>
					<dim>1</dim>
				</port>
				<port id="1">
					<dim>64</dim>
					<dim>4</dim>
					<dim>1</dim>
					<dim>1</dim>
				</port>
			</input>
			<output>
				<port id="2" precision="FP32">
					<dim>1</dim>
					<dim>64</dim>
					<dim>1</dim>
					<dim>1</dim>
				</port>
			</output>
		</layer>
		<layer id="276" name="736/Dims12720/copy_const" type="Const" version="opset1">
			<data element_type="f32" offset="466248" shape="1,64,1,1" size="256"/>
			<output>
				<port id="1" precision="FP32">
					<dim>1</dim>
					<dim>64</dim>
					<dim>1</dim>
					<dim>1</dim>
				</port>
			</output>
		</layer>
		<layer id="277" name="736" type="Add" version="opset1">
			<input>
				<port id="0">
					<dim>1</dim>
					<dim>64</dim>
					<dim>1</dim>
					<dim>1</dim>
				</port>
				<port id="1">
					<dim>1</dim>
					<dim>64</dim>
					<dim>1</dim>
					<dim>1</dim>
				</port>
			</input>
			<output>
				<port id="2" precision="FP32">
					<dim>1</dim>
					<dim>64</dim>
					<dim>1</dim>
					<dim>1</dim>
				</port>
			</output>
		</layer>
		<layer id="278" name="737" type="Sigmoid" version="opset1">
			<input>
				<port id="0">
					<dim>1</dim>
					<dim>64</dim>
					<dim>1</dim>
					<dim>1</dim>
				</port>
			</input>
			<output>
				<port id="1" precision="FP32">
					<dim>1</dim>
					<dim>64</dim>
					<dim>1</dim>
					<dim>1</dim>
				</port>
			</output>
		</layer>
		<layer id="279" name="738" type="Multiply" version="opset1">
			<input>
				<port id="0">
					<dim>1</dim>
					<dim>64</dim>
					<dim>64</dim>
					<dim>32</dim>
				</port>
				<port id="1">
					<dim>1</dim>
					<dim>64</dim>
					<dim>1</dim>
					<dim>1</dim>
				</port>
			</input>
			<output>
				<port id="2" precision="FP32">
					<dim>1</dim>
					<dim>64</dim>
					<dim>64</dim>
					<dim>32</dim>
				</port>
			</output>
		</layer>
		<layer id="280" name="739" type="Add" version="opset1">
			<input>
				<port id="0">
					<dim>1</dim>
					<dim>64</dim>
					<dim>64</dim>
					<dim>32</dim>
				</port>
				<port id="1">
					<dim>1</dim>
					<dim>64</dim>
					<dim>64</dim>
					<dim>32</dim>
				</port>
			</input>
			<output>
				<port id="2" precision="FP32">
					<dim>1</dim>
					<dim>64</dim>
					<dim>64</dim>
					<dim>32</dim>
				</port>
			</output>
		</layer>
		<layer id="281" name="741/mean/Fused_Mul_2243322435_const" type="Const" version="opset1">
			<data element_type="f32" offset="637000" shape="256,64,1,1" size="65536"/>
			<output>
				<port id="1" precision="FP32">
					<dim>256</dim>
					<dim>64</dim>
					<dim>1</dim>
					<dim>1</dim>
				</port>
			</output>
		</layer>
		<layer id="282" name="740" type="Convolution" version="opset1">
			<data dilations="1,1" output_padding="0,0" pads_begin="0,0" pads_end="0,0" strides="1,1"/>
			<input>
				<port id="0">
					<dim>1</dim>
					<dim>64</dim>
					<dim>64</dim>
					<dim>32</dim>
				</port>
				<port id="1">
					<dim>256</dim>
					<dim>64</dim>
					<dim>1</dim>
					<dim>1</dim>
				</port>
			</input>
			<output>
				<port id="2" precision="FP32">
					<dim>1</dim>
					<dim>256</dim>
					<dim>64</dim>
					<dim>32</dim>
				</port>
			</output>
		</layer>
		<layer id="283" name="data_add_2076820773/copy_const" type="Const" version="opset1">
			<data element_type="f32" offset="702536" shape="1,256,1,1" size="1024"/>
			<output>
				<port id="1" precision="FP32">
					<dim>1</dim>
					<dim>256</dim>
					<dim>1</dim>
					<dim>1</dim>
				</port>
			</output>
		</layer>
		<layer id="284" name="741/variance/Fused_Add_" type="Add" version="opset1">
			<input>
				<port id="0">
					<dim>1</dim>
					<dim>256</dim>
					<dim>64</dim>
					<dim>32</dim>
				</port>
				<port id="1">
					<dim>1</dim>
					<dim>256</dim>
					<dim>1</dim>
					<dim>1</dim>
				</port>
			</input>
			<output>
				<port id="2" precision="FP32">
					<dim>1</dim>
					<dim>256</dim>
					<dim>64</dim>
					<dim>32</dim>
				</port>
			</output>
		</layer>
		<layer id="285" name="742" type="Add" version="opset1">
			<input>
				<port id="0">
					<dim>1</dim>
					<dim>256</dim>
					<dim>64</dim>
					<dim>32</dim>
				</port>
				<port id="1">
					<dim>1</dim>
					<dim>256</dim>
					<dim>64</dim>
					<dim>32</dim>
				</port>
			</input>
			<output>
				<port id="2" precision="FP32">
					<dim>1</dim>
					<dim>256</dim>
					<dim>64</dim>
					<dim>32</dim>
				</port>
			</output>
		</layer>
		<layer id="286" name="743" type="ReLU" version="opset1">
			<input>
				<port id="0">
					<dim>1</dim>
					<dim>256</dim>
					<dim>64</dim>
					<dim>32</dim>
				</port>
			</input>
			<output>
				<port id="1" precision="FP32">
					<dim>1</dim>
					<dim>256</dim>
					<dim>64</dim>
					<dim>32</dim>
				</port>
			</output>
		</layer>
		<layer id="287" name="745/mean/Fused_Mul_2243722439_const" type="Const" version="opset1">
			<data element_type="f32" offset="703560" shape="256,256,1,1" size="262144"/>
			<output>
				<port id="1" precision="FP32">
					<dim>256</dim>
					<dim>256</dim>
					<dim>1</dim>
					<dim>1</dim>
				</port>
			</output>
		</layer>
		<layer id="288" name="744" type="Convolution" version="opset1">
			<data dilations="1,1" output_padding="0,0" pads_begin="0,0" pads_end="0,0" strides="1,1"/>
			<input>
				<port id="0">
					<dim>1</dim>
					<dim>256</dim>
					<dim>64</dim>
					<dim>32</dim>
				</port>
				<port id="1">
					<dim>256</dim>
					<dim>256</dim>
					<dim>1</dim>
					<dim>1</dim>
				</port>
			</input>
			<output>
				<port id="2" precision="FP32">
					<dim>1</dim>
					<dim>256</dim>
					<dim>64</dim>
					<dim>32</dim>
				</port>
			</output>
		</layer>
		<layer id="289" name="data_add_2077620781/copy_const" type="Const" version="opset1">
			<data element_type="f32" offset="965704" shape="1,256,1,1" size="1024"/>
			<output>
				<port id="1" precision="FP32">
					<dim>1</dim>
					<dim>256</dim>
					<dim>1</dim>
					<dim>1</dim>
				</port>
			</output>
		</layer>
		<layer id="290" name="745/variance/Fused_Add_" type="Add" version="opset1">
			<input>
				<port id="0">
					<dim>1</dim>
					<dim>256</dim>
					<dim>64</dim>
					<dim>32</dim>
				</port>
				<port id="1">
					<dim>1</dim>
					<dim>256</dim>
					<dim>1</dim>
					<dim>1</dim>
				</port>
			</input>
			<output>
				<port id="2" precision="FP32">
					<dim>1</dim>
					<dim>256</dim>
					<dim>64</dim>
					<dim>32</dim>
				</port>
			</output>
		</layer>
		<layer id="291" name="746" type="ReLU" version="opset1">
			<input>
				<port id="0">
					<dim>1</dim>
					<dim>256</dim>
					<dim>64</dim>
					<dim>32</dim>
				</port>
			</input>
			<output>
				<port id="1" precision="FP32">
					<dim>1</dim>
					<dim>256</dim>
					<dim>64</dim>
					<dim>32</dim>
				</port>
			</output>
		</layer>
		<layer id="292" name="748" type="AvgPool" version="opset1">
			<data exclude-pad="true" kernel="2,2" pads_begin="0,0" pads_end="0,0" rounding_type="floor" strides="2,2"/>
			<input>
				<port id="0">
					<dim>1</dim>
					<dim>256</dim>
					<dim>64</dim>
					<dim>32</dim>
				</port>
			</input>
			<output>
				<port id="1" precision="FP32">
					<dim>1</dim>
					<dim>256</dim>
					<dim>32</dim>
					<dim>16</dim>
				</port>
			</output>
		</layer>
		<layer id="293" name="750/mean/Fused_Mul_2244522447_const" type="Const" version="opset1">
			<data element_type="f32" offset="966728" shape="96,256,1,1" size="98304"/>
			<output>
				<port id="1" precision="FP32">
					<dim>96</dim>
					<dim>256</dim>
					<dim>1</dim>
					<dim>1</dim>
				</port>
			</output>
		</layer>
		<layer id="294" name="749" type="Convolution" version="opset1">
			<data dilations="1,1" output_padding="0,0" pads_begin="0,0" pads_end="0,0" strides="1,1"/>
			<input>
				<port id="0">
					<dim>1</dim>
					<dim>256</dim>
					<dim>32</dim>
					<dim>16</dim>
				</port>
				<port id="1">
					<dim>96</dim>
					<dim>256</dim>
					<dim>1</dim>
					<dim>1</dim>
				</port>
			</input>
			<output>
				<port id="2" precision="FP32">
					<dim>1</dim>
					<dim>96</dim>
					<dim>32</dim>
					<dim>16</dim>
				</port>
			</output>
		</layer>
		<layer id="295" name="data_add_2079220797/copy_const" type="Const" version="opset1">
			<data element_type="f32" offset="1065032" shape="1,96,1,1" size="384"/>
			<output>
				<port id="1" precision="FP32">
					<dim>1</dim>
					<dim>96</dim>
					<dim>1</dim>
					<dim>1</dim>
				</port>
			</output>
		</layer>
		<layer id="296" name="750/variance/Fused_Add_" type="Add" version="opset1">
			<input>
				<port id="0">
					<dim>1</dim>
					<dim>96</dim>
					<dim>32</dim>
					<dim>16</dim>
				</port>
				<port id="1">
					<dim>1</dim>
					<dim>96</dim>
					<dim>1</dim>
					<dim>1</dim>
				</port>
			</input>
			<output>
				<port id="2" precision="FP32">
					<dim>1</dim>
					<dim>96</dim>
					<dim>32</dim>
					<dim>16</dim>
				</port>
			</output>
		</layer>
		<layer id="297" name="751" type="ReLU" version="opset1">
			<input>
				<port id="0">
					<dim>1</dim>
					<dim>96</dim>
					<dim>32</dim>
					<dim>16</dim>
				</port>
			</input>
			<output>
				<port id="1" precision="FP32">
					<dim>1</dim>
					<dim>96</dim>
					<dim>32</dim>
					<dim>16</dim>
				</port>
			</output>
		</layer>
		<layer id="298" name="onnx_initializer_node_conv3.0.conv2a.conv1.weight/Output_0/Data__const" type="Const" version="opset1">
			<data element_type="f32" offset="1065416" shape="96,96,1,1" size="36864"/>
			<output>
				<port id="1" precision="FP32">
					<dim>96</dim>
					<dim>96</dim>
					<dim>1</dim>
					<dim>1</dim>
				</port>
			</output>
		</layer>
		<layer id="299" name="752" type="Convolution" version="opset1">
			<data dilations="1,1" output_padding="0,0" pads_begin="0,0" pads_end="0,0" strides="1,1"/>
			<input>
				<port id="0">
					<dim>1</dim>
					<dim>96</dim>
					<dim>32</dim>
					<dim>16</dim>
				</port>
				<port id="1">
					<dim>96</dim>
					<dim>96</dim>
					<dim>1</dim>
					<dim>1</dim>
				</port>
			</input>
			<output>
				<port id="2" precision="FP32">
					<dim>1</dim>
					<dim>96</dim>
					<dim>32</dim>
					<dim>16</dim>
				</port>
			</output>
		</layer>
		<layer id="300" name="3579035793_const" type="Const" version="opset1">
			<data element_type="f32" offset="1102280" shape="96,1,1,3,3" size="3456"/>
			<output>
				<port id="1" precision="FP32">
					<dim>96</dim>
					<dim>1</dim>
					<dim>1</dim>
					<dim>3</dim>
					<dim>3</dim>
				</port>
			</output>
		</layer>
		<layer id="301" name="753" type="GroupConvolution" version="opset1">
			<data dilations="1,1" output_padding="0,0" pads_begin="1,1" pads_end="1,1" strides="1,1"/>
			<input>
				<port id="0">
					<dim>1</dim>
					<dim>96</dim>
					<dim>32</dim>
					<dim>16</dim>
				</port>
				<port id="1">
					<dim>96</dim>
					<dim>1</dim>
					<dim>1</dim>
					<dim>3</dim>
					<dim>3</dim>
				</port>
			</input>
			<output>
				<port id="2" precision="FP32">
					<dim>1</dim>
					<dim>96</dim>
					<dim>32</dim>
					<dim>16</dim>
				</port>
			</output>
		</layer>
		<layer id="302" name="data_add_2087220877/copy_const" type="Const" version="opset1">
			<data element_type="f32" offset="1105736" shape="1,96,1,1" size="384"/>
			<output>
				<port id="1" precision="FP32">
					<dim>1</dim>
					<dim>96</dim>
					<dim>1</dim>
					<dim>1</dim>
				</port>
			</output>
		</layer>
		<layer id="303" name="754/variance/Fused_Add_" type="Add" version="opset1">
			<input>
				<port id="0">
					<dim>1</dim>
					<dim>96</dim>
					<dim>32</dim>
					<dim>16</dim>
				</port>
				<port id="1">
					<dim>1</dim>
					<dim>96</dim>
					<dim>1</dim>
					<dim>1</dim>
				</port>
			</input>
			<output>
				<port id="2" precision="FP32">
					<dim>1</dim>
					<dim>96</dim>
					<dim>32</dim>
					<dim>16</dim>
				</port>
			</output>
		</layer>
		<layer id="304" name="755" type="ReLU" version="opset1">
			<input>
				<port id="0">
					<dim>1</dim>
					<dim>96</dim>
					<dim>32</dim>
					<dim>16</dim>
				</port>
			</input>
			<output>
				<port id="1" precision="FP32">
					<dim>1</dim>
					<dim>96</dim>
					<dim>32</dim>
					<dim>16</dim>
				</port>
			</output>
		</layer>
		<layer id="305" name="792/reduce/Cast_136709_const" type="Const" version="opset1">
			<data element_type="i64" offset="73496" shape="2" size="16"/>
			<output>
				<port id="1" precision="I64">
					<dim>2</dim>
				</port>
			</output>
		</layer>
		<layer id="306" name="792/reduce" type="ReduceMean" version="opset1">
			<data keep_dims="True"/>
			<input>
				<port id="0">
					<dim>1</dim>
					<dim>96</dim>
					<dim>32</dim>
					<dim>16</dim>
				</port>
				<port id="1">
					<dim>2</dim>
				</port>
			</input>
			<output>
				<port id="2" precision="FP32">
					<dim>1</dim>
					<dim>96</dim>
					<dim>1</dim>
					<dim>1</dim>
				</port>
			</output>
		</layer>
		<layer id="307" name="Copy_onnx_initializer_node_conv3.0.gate.fc1.weight/Output_0/Data__const" type="Const" version="opset1">
			<data element_type="f32" offset="1106120" shape="6,96,1,1" size="2304"/>
			<output>
				<port id="1" precision="FP32">
					<dim>6</dim>
					<dim>96</dim>
					<dim>1</dim>
					<dim>1</dim>
				</port>
			</output>
		</layer>
		<layer id="308" name="793/WithoutBiases" type="Convolution" version="opset1">
			<data dilations="1,1" output_padding="0,0" pads_begin="0,0" pads_end="0,0" strides="1,1"/>
			<input>
				<port id="0">
					<dim>1</dim>
					<dim>96</dim>
					<dim>1</dim>
					<dim>1</dim>
				</port>
				<port id="1">
					<dim>6</dim>
					<dim>96</dim>
					<dim>1</dim>
					<dim>1</dim>
				</port>
			</input>
			<output>
				<port id="2" precision="FP32">
					<dim>1</dim>
					<dim>6</dim>
					<dim>1</dim>
					<dim>1</dim>
				</port>
			</output>
		</layer>
		<layer id="309" name="793/Dims12756/copy_const" type="Const" version="opset1">
			<data element_type="f32" offset="1108424" shape="1,6,1,1" size="24"/>
			<output>
				<port id="1" precision="FP32">
					<dim>1</dim>
					<dim>6</dim>
					<dim>1</dim>
					<dim>1</dim>
				</port>
			</output>
		</layer>
		<layer id="310" name="793" type="Add" version="opset1">
			<input>
				<port id="0">
					<dim>1</dim>
					<dim>6</dim>
					<dim>1</dim>
					<dim>1</dim>
				</port>
				<port id="1">
					<dim>1</dim>
					<dim>6</dim>
					<dim>1</dim>
					<dim>1</dim>
				</port>
			</input>
			<output>
				<port id="2" precision="FP32">
					<dim>1</dim>
					<dim>6</dim>
					<dim>1</dim>
					<dim>1</dim>
				</port>
			</output>
		</layer>
		<layer id="311" name="794" type="ReLU" version="opset1">
			<input>
				<port id="0">
					<dim>1</dim>
					<dim>6</dim>
					<dim>1</dim>
					<dim>1</dim>
				</port>
			</input>
			<output>
				<port id="1" precision="FP32">
					<dim>1</dim>
					<dim>6</dim>
					<dim>1</dim>
					<dim>1</dim>
				</port>
			</output>
		</layer>
		<layer id="312" name="Copy_onnx_initializer_node_conv3.0.gate.fc2.weight/Output_0/Data__const" type="Const" version="opset1">
			<data element_type="f32" offset="1108448" shape="96,6,1,1" size="2304"/>
			<output>
				<port id="1" precision="FP32">
					<dim>96</dim>
					<dim>6</dim>
					<dim>1</dim>
					<dim>1</dim>
				</port>
			</output>
		</layer>
		<layer id="313" name="795/WithoutBiases" type="Convolution" version="opset1">
			<data dilations="1,1" output_padding="0,0" pads_begin="0,0" pads_end="0,0" strides="1,1"/>
			<input>
				<port id="0">
					<dim>1</dim>
					<dim>6</dim>
					<dim>1</dim>
					<dim>1</dim>
				</port>
				<port id="1">
					<dim>96</dim>
					<dim>6</dim>
					<dim>1</dim>
					<dim>1</dim>
				</port>
			</input>
			<output>
				<port id="2" precision="FP32">
					<dim>1</dim>
					<dim>96</dim>
					<dim>1</dim>
					<dim>1</dim>
				</port>
			</output>
		</layer>
		<layer id="314" name="795/Dims12804/copy_const" type="Const" version="opset1">
			<data element_type="f32" offset="1110752" shape="1,96,1,1" size="384"/>
			<output>
				<port id="1" precision="FP32">
					<dim>1</dim>
					<dim>96</dim>
					<dim>1</dim>
					<dim>1</dim>
				</port>
			</output>
		</layer>
		<layer id="315" name="795" type="Add" version="opset1">
			<input>
				<port id="0">
					<dim>1</dim>
					<dim>96</dim>
					<dim>1</dim>
					<dim>1</dim>
				</port>
				<port id="1">
					<dim>1</dim>
					<dim>96</dim>
					<dim>1</dim>
					<dim>1</dim>
				</port>
			</input>
			<output>
				<port id="2" precision="FP32">
					<dim>1</dim>
					<dim>96</dim>
					<dim>1</dim>
					<dim>1</dim>
				</port>
			</output>
		</layer>
		<layer id="316" name="796" type="Sigmoid" version="opset1">
			<input>
				<port id="0">
					<dim>1</dim>
					<dim>96</dim>
					<dim>1</dim>
					<dim>1</dim>
				</port>
			</input>
			<output>
				<port id="1" precision="FP32">
					<dim>1</dim>
					<dim>96</dim>
					<dim>1</dim>
					<dim>1</dim>
				</port>
			</output>
		</layer>
		<layer id="317" name="797" type="Multiply" version="opset1">
			<input>
				<port id="0">
					<dim>1</dim>
					<dim>96</dim>
					<dim>32</dim>
					<dim>16</dim>
				</port>
				<port id="1">
					<dim>1</dim>
					<dim>96</dim>
					<dim>1</dim>
					<dim>1</dim>
				</port>
			</input>
			<output>
				<port id="2" precision="FP32">
					<dim>1</dim>
					<dim>96</dim>
					<dim>32</dim>
					<dim>16</dim>
				</port>
			</output>
		</layer>
		<layer id="318" name="onnx_initializer_node_conv3.0.conv2b.0.conv1.weight/Output_0/Data__const" type="Const" version="opset1">
			<data element_type="f32" offset="1111136" shape="96,96,1,1" size="36864"/>
			<output>
				<port id="1" precision="FP32">
					<dim>96</dim>
					<dim>96</dim>
					<dim>1</dim>
					<dim>1</dim>
				</port>
			</output>
		</layer>
		<layer id="319" name="756" type="Convolution" version="opset1">
			<data dilations="1,1" output_padding="0,0" pads_begin="0,0" pads_end="0,0" strides="1,1"/>
			<input>
				<port id="0">
					<dim>1</dim>
					<dim>96</dim>
					<dim>32</dim>
					<dim>16</dim>
				</port>
				<port id="1">
					<dim>96</dim>
					<dim>96</dim>
					<dim>1</dim>
					<dim>1</dim>
				</port>
			</input>
			<output>
				<port id="2" precision="FP32">
					<dim>1</dim>
					<dim>96</dim>
					<dim>32</dim>
					<dim>16</dim>
				</port>
			</output>
		</layer>
		<layer id="320" name="3589835901_const" type="Const" version="opset1">
			<data element_type="f32" offset="1148000" shape="96,1,1,3,3" size="3456"/>
			<output>
				<port id="1" precision="FP32">
					<dim>96</dim>
					<dim>1</dim>
					<dim>1</dim>
					<dim>3</dim>
					<dim>3</dim>
				</port>
			</output>
		</layer>
		<layer id="321" name="757" type="GroupConvolution" version="opset1">
			<data dilations="1,1" output_padding="0,0" pads_begin="1,1" pads_end="1,1" strides="1,1"/>
			<input>
				<port id="0">
					<dim>1</dim>
					<dim>96</dim>
					<dim>32</dim>
					<dim>16</dim>
				</port>
				<port id="1">
					<dim>96</dim>
					<dim>1</dim>
					<dim>1</dim>
					<dim>3</dim>
					<dim>3</dim>
				</port>
			</input>
			<output>
				<port id="2" precision="FP32">
					<dim>1</dim>
					<dim>96</dim>
					<dim>32</dim>
					<dim>16</dim>
				</port>
			</output>
		</layer>
		<layer id="322" name="data_add_2085620861/copy_const" type="Const" version="opset1">
			<data element_type="f32" offset="1151456" shape="1,96,1,1" size="384"/>
			<output>
				<port id="1" precision="FP32">
					<dim>1</dim>
					<dim>96</dim>
					<dim>1</dim>
					<dim>1</dim>
				</port>
			</output>
		</layer>
		<layer id="323" name="758/variance/Fused_Add_" type="Add" version="opset1">
			<input>
				<port id="0">
					<dim>1</dim>
					<dim>96</dim>
					<dim>32</dim>
					<dim>16</dim>
				</port>
				<port id="1">
					<dim>1</dim>
					<dim>96</dim>
					<dim>1</dim>
					<dim>1</dim>
				</port>
			</input>
			<output>
				<port id="2" precision="FP32">
					<dim>1</dim>
					<dim>96</dim>
					<dim>32</dim>
					<dim>16</dim>
				</port>
			</output>
		</layer>
		<layer id="324" name="759" type="ReLU" version="opset1">
			<input>
				<port id="0">
					<dim>1</dim>
					<dim>96</dim>
					<dim>32</dim>
					<dim>16</dim>
				</port>
			</input>
			<output>
				<port id="1" precision="FP32">
					<dim>1</dim>
					<dim>96</dim>
					<dim>32</dim>
					<dim>16</dim>
				</port>
			</output>
		</layer>
		<layer id="325" name="onnx_initializer_node_conv3.0.conv2b.1.conv1.weight/Output_0/Data__const" type="Const" version="opset1">
			<data element_type="f32" offset="1151840" shape="96,96,1,1" size="36864"/>
			<output>
				<port id="1" precision="FP32">
					<dim>96</dim>
					<dim>96</dim>
					<dim>1</dim>
					<dim>1</dim>
				</port>
			</output>
		</layer>
		<layer id="326" name="760" type="Convolution" version="opset1">
			<data dilations="1,1" output_padding="0,0" pads_begin="0,0" pads_end="0,0" strides="1,1"/>
			<input>
				<port id="0">
					<dim>1</dim>
					<dim>96</dim>
					<dim>32</dim>
					<dim>16</dim>
				</port>
				<port id="1">
					<dim>96</dim>
					<dim>96</dim>
					<dim>1</dim>
					<dim>1</dim>
				</port>
			</input>
			<output>
				<port id="2" precision="FP32">
					<dim>1</dim>
					<dim>96</dim>
					<dim>32</dim>
					<dim>16</dim>
				</port>
			</output>
		</layer>
		<layer id="327" name="3569435697_const" type="Const" version="opset1">
			<data element_type="f32" offset="1188704" shape="96,1,1,3,3" size="3456"/>
			<output>
				<port id="1" precision="FP32">
					<dim>96</dim>
					<dim>1</dim>
					<dim>1</dim>
					<dim>3</dim>
					<dim>3</dim>
				</port>
			</output>
		</layer>
		<layer id="328" name="761" type="GroupConvolution" version="opset1">
			<data dilations="1,1" output_padding="0,0" pads_begin="1,1" pads_end="1,1" strides="1,1"/>
			<input>
				<port id="0">
					<dim>1</dim>
					<dim>96</dim>
					<dim>32</dim>
					<dim>16</dim>
				</port>
				<port id="1">
					<dim>96</dim>
					<dim>1</dim>
					<dim>1</dim>
					<dim>3</dim>
					<dim>3</dim>
				</port>
			</input>
			<output>
				<port id="2" precision="FP32">
					<dim>1</dim>
					<dim>96</dim>
					<dim>32</dim>
					<dim>16</dim>
				</port>
			</output>
		</layer>
		<layer id="329" name="data_add_2086420869/copy_const" type="Const" version="opset1">
			<data element_type="f32" offset="1192160" shape="1,96,1,1" size="384"/>
			<output>
				<port id="1" precision="FP32">
					<dim>1</dim>
					<dim>96</dim>
					<dim>1</dim>
					<dim>1</dim>
				</port>
			</output>
		</layer>
		<layer id="330" name="762/variance/Fused_Add_" type="Add" version="opset1">
			<input>
				<port id="0">
					<dim>1</dim>
					<dim>96</dim>
					<dim>32</dim>
					<dim>16</dim>
				</port>
				<port id="1">
					<dim>1</dim>
					<dim>96</dim>
					<dim>1</dim>
					<dim>1</dim>
				</port>
			</input>
			<output>
				<port id="2" precision="FP32">
					<dim>1</dim>
					<dim>96</dim>
					<dim>32</dim>
					<dim>16</dim>
				</port>
			</output>
		</layer>
		<layer id="331" name="763" type="ReLU" version="opset1">
			<input>
				<port id="0">
					<dim>1</dim>
					<dim>96</dim>
					<dim>32</dim>
					<dim>16</dim>
				</port>
			</input>
			<output>
				<port id="1" precision="FP32">
					<dim>1</dim>
					<dim>96</dim>
					<dim>32</dim>
					<dim>16</dim>
				</port>
			</output>
		</layer>
		<layer id="332" name="798/reduce/Cast_136689_const" type="Const" version="opset1">
			<data element_type="i64" offset="73496" shape="2" size="16"/>
			<output>
				<port id="1" precision="I64">
					<dim>2</dim>
				</port>
			</output>
		</layer>
		<layer id="333" name="798/reduce" type="ReduceMean" version="opset1">
			<data keep_dims="True"/>
			<input>
				<port id="0">
					<dim>1</dim>
					<dim>96</dim>
					<dim>32</dim>
					<dim>16</dim>
				</port>
				<port id="1">
					<dim>2</dim>
				</port>
			</input>
			<output>
				<port id="2" precision="FP32">
					<dim>1</dim>
					<dim>96</dim>
					<dim>1</dim>
					<dim>1</dim>
				</port>
			</output>
		</layer>
		<layer id="334" name="Copy_onnx_initializer_node_conv3.0.gate.fc1.weight/Output_0/Data_3837_const" type="Const" version="opset1">
			<data element_type="f32" offset="1106120" shape="6,96,1,1" size="2304"/>
			<output>
				<port id="1" precision="FP32">
					<dim>6</dim>
					<dim>96</dim>
					<dim>1</dim>
					<dim>1</dim>
				</port>
			</output>
		</layer>
		<layer id="335" name="799/WithoutBiases" type="Convolution" version="opset1">
			<data dilations="1,1" output_padding="0,0" pads_begin="0,0" pads_end="0,0" strides="1,1"/>
			<input>
				<port id="0">
					<dim>1</dim>
					<dim>96</dim>
					<dim>1</dim>
					<dim>1</dim>
				</port>
				<port id="1">
					<dim>6</dim>
					<dim>96</dim>
					<dim>1</dim>
					<dim>1</dim>
				</port>
			</input>
			<output>
				<port id="2" precision="FP32">
					<dim>1</dim>
					<dim>6</dim>
					<dim>1</dim>
					<dim>1</dim>
				</port>
			</output>
		</layer>
		<layer id="336" name="799/Dims12786/copy_const" type="Const" version="opset1">
			<data element_type="f32" offset="1108424" shape="1,6,1,1" size="24"/>
			<output>
				<port id="1" precision="FP32">
					<dim>1</dim>
					<dim>6</dim>
					<dim>1</dim>
					<dim>1</dim>
				</port>
			</output>
		</layer>
		<layer id="337" name="799" type="Add" version="opset1">
			<input>
				<port id="0">
					<dim>1</dim>
					<dim>6</dim>
					<dim>1</dim>
					<dim>1</dim>
				</port>
				<port id="1">
					<dim>1</dim>
					<dim>6</dim>
					<dim>1</dim>
					<dim>1</dim>
				</port>
			</input>
			<output>
				<port id="2" precision="FP32">
					<dim>1</dim>
					<dim>6</dim>
					<dim>1</dim>
					<dim>1</dim>
				</port>
			</output>
		</layer>
		<layer id="338" name="800" type="ReLU" version="opset1">
			<input>
				<port id="0">
					<dim>1</dim>
					<dim>6</dim>
					<dim>1</dim>
					<dim>1</dim>
				</port>
			</input>
			<output>
				<port id="1" precision="FP32">
					<dim>1</dim>
					<dim>6</dim>
					<dim>1</dim>
					<dim>1</dim>
				</port>
			</output>
		</layer>
		<layer id="339" name="Copy_onnx_initializer_node_conv3.0.gate.fc2.weight/Output_0/Data_3845_const" type="Const" version="opset1">
			<data element_type="f32" offset="1108448" shape="96,6,1,1" size="2304"/>
			<output>
				<port id="1" precision="FP32">
					<dim>96</dim>
					<dim>6</dim>
					<dim>1</dim>
					<dim>1</dim>
				</port>
			</output>
		</layer>
		<layer id="340" name="801/WithoutBiases" type="Convolution" version="opset1">
			<data dilations="1,1" output_padding="0,0" pads_begin="0,0" pads_end="0,0" strides="1,1"/>
			<input>
				<port id="0">
					<dim>1</dim>
					<dim>6</dim>
					<dim>1</dim>
					<dim>1</dim>
				</port>
				<port id="1">
					<dim>96</dim>
					<dim>6</dim>
					<dim>1</dim>
					<dim>1</dim>
				</port>
			</input>
			<output>
				<port id="2" precision="FP32">
					<dim>1</dim>
					<dim>96</dim>
					<dim>1</dim>
					<dim>1</dim>
				</port>
			</output>
		</layer>
		<layer id="341" name="801/Dims12624/copy_const" type="Const" version="opset1">
			<data element_type="f32" offset="1110752" shape="1,96,1,1" size="384"/>
			<output>
				<port id="1" precision="FP32">
					<dim>1</dim>
					<dim>96</dim>
					<dim>1</dim>
					<dim>1</dim>
				</port>
			</output>
		</layer>
		<layer id="342" name="801" type="Add" version="opset1">
			<input>
				<port id="0">
					<dim>1</dim>
					<dim>96</dim>
					<dim>1</dim>
					<dim>1</dim>
				</port>
				<port id="1">
					<dim>1</dim>
					<dim>96</dim>
					<dim>1</dim>
					<dim>1</dim>
				</port>
			</input>
			<output>
				<port id="2" precision="FP32">
					<dim>1</dim>
					<dim>96</dim>
					<dim>1</dim>
					<dim>1</dim>
				</port>
			</output>
		</layer>
		<layer id="343" name="802" type="Sigmoid" version="opset1">
			<input>
				<port id="0">
					<dim>1</dim>
					<dim>96</dim>
					<dim>1</dim>
					<dim>1</dim>
				</port>
			</input>
			<output>
				<port id="1" precision="FP32">
					<dim>1</dim>
					<dim>96</dim>
					<dim>1</dim>
					<dim>1</dim>
				</port>
			</output>
		</layer>
		<layer id="344" name="803" type="Multiply" version="opset1">
			<input>
				<port id="0">
					<dim>1</dim>
					<dim>96</dim>
					<dim>32</dim>
					<dim>16</dim>
				</port>
				<port id="1">
					<dim>1</dim>
					<dim>96</dim>
					<dim>1</dim>
					<dim>1</dim>
				</port>
			</input>
			<output>
				<port id="2" precision="FP32">
					<dim>1</dim>
					<dim>96</dim>
					<dim>32</dim>
					<dim>16</dim>
				</port>
			</output>
		</layer>
		<layer id="345" name="804" type="Add" version="opset1">
			<input>
				<port id="0">
					<dim>1</dim>
					<dim>96</dim>
					<dim>32</dim>
					<dim>16</dim>
				</port>
				<port id="1">
					<dim>1</dim>
					<dim>96</dim>
					<dim>32</dim>
					<dim>16</dim>
				</port>
			</input>
			<output>
				<port id="2" precision="FP32">
					<dim>1</dim>
					<dim>96</dim>
					<dim>32</dim>
					<dim>16</dim>
				</port>
			</output>
		</layer>
		<layer id="346" name="onnx_initializer_node_conv3.0.conv2c.0.conv1.weight/Output_0/Data__const" type="Const" version="opset1">
			<data element_type="f32" offset="1192544" shape="96,96,1,1" size="36864"/>
			<output>
				<port id="1" precision="FP32">
					<dim>96</dim>
					<dim>96</dim>
					<dim>1</dim>
					<dim>1</dim>
				</port>
			</output>
		</layer>
		<layer id="347" name="764" type="Convolution" version="opset1">
			<data dilations="1,1" output_padding="0,0" pads_begin="0,0" pads_end="0,0" strides="1,1"/>
			<input>
				<port id="0">
					<dim>1</dim>
					<dim>96</dim>
					<dim>32</dim>
					<dim>16</dim>
				</port>
				<port id="1">
					<dim>96</dim>
					<dim>96</dim>
					<dim>1</dim>
					<dim>1</dim>
				</port>
			</input>
			<output>
				<port id="2" precision="FP32">
					<dim>1</dim>
					<dim>96</dim>
					<dim>32</dim>
					<dim>16</dim>
				</port>
			</output>
		</layer>
		<layer id="348" name="3572235725_const" type="Const" version="opset1">
			<data element_type="f32" offset="1229408" shape="96,1,1,3,3" size="3456"/>
			<output>
				<port id="1" precision="FP32">
					<dim>96</dim>
					<dim>1</dim>
					<dim>1</dim>
					<dim>3</dim>
					<dim>3</dim>
				</port>
			</output>
		</layer>
		<layer id="349" name="765" type="GroupConvolution" version="opset1">
			<data dilations="1,1" output_padding="0,0" pads_begin="1,1" pads_end="1,1" strides="1,1"/>
			<input>
				<port id="0">
					<dim>1</dim>
					<dim>96</dim>
					<dim>32</dim>
					<dim>16</dim>
				</port>
				<port id="1">
					<dim>96</dim>
					<dim>1</dim>
					<dim>1</dim>
					<dim>3</dim>
					<dim>3</dim>
				</port>
			</input>
			<output>
				<port id="2" precision="FP32">
					<dim>1</dim>
					<dim>96</dim>
					<dim>32</dim>
					<dim>16</dim>
				</port>
			</output>
		</layer>
		<layer id="350" name="data_add_2083220837/copy_const" type="Const" version="opset1">
			<data element_type="f32" offset="1232864" shape="1,96,1,1" size="384"/>
			<output>
				<port id="1" precision="FP32">
					<dim>1</dim>
					<dim>96</dim>
					<dim>1</dim>
					<dim>1</dim>
				</port>
			</output>
		</layer>
		<layer id="351" name="766/variance/Fused_Add_" type="Add" version="opset1">
			<input>
				<port id="0">
					<dim>1</dim>
					<dim>96</dim>
					<dim>32</dim>
					<dim>16</dim>
				</port>
				<port id="1">
					<dim>1</dim>
					<dim>96</dim>
					<dim>1</dim>
					<dim>1</dim>
				</port>
			</input>
			<output>
				<port id="2" precision="FP32">
					<dim>1</dim>
					<dim>96</dim>
					<dim>32</dim>
					<dim>16</dim>
				</port>
			</output>
		</layer>
		<layer id="352" name="767" type="ReLU" version="opset1">
			<input>
				<port id="0">
					<dim>1</dim>
					<dim>96</dim>
					<dim>32</dim>
					<dim>16</dim>
				</port>
			</input>
			<output>
				<port id="1" precision="FP32">
					<dim>1</dim>
					<dim>96</dim>
					<dim>32</dim>
					<dim>16</dim>
				</port>
			</output>
		</layer>
		<layer id="353" name="onnx_initializer_node_conv3.0.conv2c.1.conv1.weight/Output_0/Data__const" type="Const" version="opset1">
			<data element_type="f32" offset="1233248" shape="96,96,1,1" size="36864"/>
			<output>
				<port id="1" precision="FP32">
					<dim>96</dim>
					<dim>96</dim>
					<dim>1</dim>
					<dim>1</dim>
				</port>
			</output>
		</layer>
		<layer id="354" name="768" type="Convolution" version="opset1">
			<data dilations="1,1" output_padding="0,0" pads_begin="0,0" pads_end="0,0" strides="1,1"/>
			<input>
				<port id="0">
					<dim>1</dim>
					<dim>96</dim>
					<dim>32</dim>
					<dim>16</dim>
				</port>
				<port id="1">
					<dim>96</dim>
					<dim>96</dim>
					<dim>1</dim>
					<dim>1</dim>
				</port>
			</input>
			<output>
				<port id="2" precision="FP32">
					<dim>1</dim>
					<dim>96</dim>
					<dim>32</dim>
					<dim>16</dim>
				</port>
			</output>
		</layer>
		<layer id="355" name="3579435797_const" type="Const" version="opset1">
			<data element_type="f32" offset="1270112" shape="96,1,1,3,3" size="3456"/>
			<output>
				<port id="1" precision="FP32">
					<dim>96</dim>
					<dim>1</dim>
					<dim>1</dim>
					<dim>3</dim>
					<dim>3</dim>
				</port>
			</output>
		</layer>
		<layer id="356" name="769" type="GroupConvolution" version="opset1">
			<data dilations="1,1" output_padding="0,0" pads_begin="1,1" pads_end="1,1" strides="1,1"/>
			<input>
				<port id="0">
					<dim>1</dim>
					<dim>96</dim>
					<dim>32</dim>
					<dim>16</dim>
				</port>
				<port id="1">
					<dim>96</dim>
					<dim>1</dim>
					<dim>1</dim>
					<dim>3</dim>
					<dim>3</dim>
				</port>
			</input>
			<output>
				<port id="2" precision="FP32">
					<dim>1</dim>
					<dim>96</dim>
					<dim>32</dim>
					<dim>16</dim>
				</port>
			</output>
		</layer>
		<layer id="357" name="data_add_2084020845/copy_const" type="Const" version="opset1">
			<data element_type="f32" offset="1273568" shape="1,96,1,1" size="384"/>
			<output>
				<port id="1" precision="FP32">
					<dim>1</dim>
					<dim>96</dim>
					<dim>1</dim>
					<dim>1</dim>
				</port>
			</output>
		</layer>
		<layer id="358" name="770/variance/Fused_Add_" type="Add" version="opset1">
			<input>
				<port id="0">
					<dim>1</dim>
					<dim>96</dim>
					<dim>32</dim>
					<dim>16</dim>
				</port>
				<port id="1">
					<dim>1</dim>
					<dim>96</dim>
					<dim>1</dim>
					<dim>1</dim>
				</port>
			</input>
			<output>
				<port id="2" precision="FP32">
					<dim>1</dim>
					<dim>96</dim>
					<dim>32</dim>
					<dim>16</dim>
				</port>
			</output>
		</layer>
		<layer id="359" name="771" type="ReLU" version="opset1">
			<input>
				<port id="0">
					<dim>1</dim>
					<dim>96</dim>
					<dim>32</dim>
					<dim>16</dim>
				</port>
			</input>
			<output>
				<port id="1" precision="FP32">
					<dim>1</dim>
					<dim>96</dim>
					<dim>32</dim>
					<dim>16</dim>
				</port>
			</output>
		</layer>
		<layer id="360" name="onnx_initializer_node_conv3.0.conv2c.2.conv1.weight/Output_0/Data__const" type="Const" version="opset1">
			<data element_type="f32" offset="1273952" shape="96,96,1,1" size="36864"/>
			<output>
				<port id="1" precision="FP32">
					<dim>96</dim>
					<dim>96</dim>
					<dim>1</dim>
					<dim>1</dim>
				</port>
			</output>
		</layer>
		<layer id="361" name="772" type="Convolution" version="opset1">
			<data dilations="1,1" output_padding="0,0" pads_begin="0,0" pads_end="0,0" strides="1,1"/>
			<input>
				<port id="0">
					<dim>1</dim>
					<dim>96</dim>
					<dim>32</dim>
					<dim>16</dim>
				</port>
				<port id="1">
					<dim>96</dim>
					<dim>96</dim>
					<dim>1</dim>
					<dim>1</dim>
				</port>
			</input>
			<output>
				<port id="2" precision="FP32">
					<dim>1</dim>
					<dim>96</dim>
					<dim>32</dim>
					<dim>16</dim>
				</port>
			</output>
		</layer>
		<layer id="362" name="3574635749_const" type="Const" version="opset1">
			<data element_type="f32" offset="1310816" shape="96,1,1,3,3" size="3456"/>
			<output>
				<port id="1" precision="FP32">
					<dim>96</dim>
					<dim>1</dim>
					<dim>1</dim>
					<dim>3</dim>
					<dim>3</dim>
				</port>
			</output>
		</layer>
		<layer id="363" name="773" type="GroupConvolution" version="opset1">
			<data dilations="1,1" output_padding="0,0" pads_begin="1,1" pads_end="1,1" strides="1,1"/>
			<input>
				<port id="0">
					<dim>1</dim>
					<dim>96</dim>
					<dim>32</dim>
					<dim>16</dim>
				</port>
				<port id="1">
					<dim>96</dim>
					<dim>1</dim>
					<dim>1</dim>
					<dim>3</dim>
					<dim>3</dim>
				</port>
			</input>
			<output>
				<port id="2" precision="FP32">
					<dim>1</dim>
					<dim>96</dim>
					<dim>32</dim>
					<dim>16</dim>
				</port>
			</output>
		</layer>
		<layer id="364" name="data_add_2084820853/copy_const" type="Const" version="opset1">
			<data element_type="f32" offset="1314272" shape="1,96,1,1" size="384"/>
			<output>
				<port id="1" precision="FP32">
					<dim>1</dim>
					<dim>96</dim>
					<dim>1</dim>
					<dim>1</dim>
				</port>
			</output>
		</layer>
		<layer id="365" name="774/variance/Fused_Add_" type="Add" version="opset1">
			<input>
				<port id="0">
					<dim>1</dim>
					<dim>96</dim>
					<dim>32</dim>
					<dim>16</dim>
				</port>
				<port id="1">
					<dim>1</dim>
					<dim>96</dim>
					<dim>1</dim>
					<dim>1</dim>
…
		<edge from-layer="264" from-port="1" to-layer="265" to-port="1"/>
		<edge from-layer="265" from-port="2" to-layer="266" to-port="0"/>
		<edge from-layer="266" from-port="1" to-layer="268" to-port="0"/>
		<edge from-layer="267" from-port="1" to-layer="268" to-port="1"/>
		<edge from-layer="268" from-port="2" to-layer="270" to-port="0"/>
		<edge from-layer="269" from-port="1" to-layer="270" to-port="1"/>
		<edge from-layer="270" from-port="2" to-layer="272" to-port="0"/>
		<edge from-layer="271" from-port="1" to-layer="272" to-port="1"/>
		<edge from-layer="272" from-port="2" to-layer="273" to-port="0"/>
		<edge from-layer="273" from-port="1" to-layer="275" to-port="0"/>
		<edge from-layer="274" from-port="1" to-layer="275" to-port="1"/>
		<edge from-layer="275" from-port="2" to-layer="277" to-port="0"/>
		<edge from-layer="276" from-port="1" to-layer="277" to-port="1"/>
		<edge from-layer="277" from-port="2" to-layer="278" to-port="0"/>
		<edge from-layer="266" from-port="1" to-layer="279" to-port="0"/>
		<edge from-layer="278" from-port="1" to-layer="279" to-port="1"/>
		<edge from-layer="238" from-port="2" to-layer="280" to-port="0"/>
		<edge from-layer="279" from-port="2" to-layer="280" to-port="1"/>
		<edge from-layer="280" from-port="2" to-layer="282" to-port="0"/>
		<edge from-layer="281" from-port="1" to-layer="282" to-port="1"/>
		<edge from-layer="282" from-port="2" to-layer="284" to-port="0"/>
		<edge from-layer="283" from-port="1" to-layer="284" to-port="1"/>
		<edge from-layer="284" from-port="2" to-layer="285" to-port="0"/>
		<edge from-layer="150" from-port="1" to-layer="285" to-port="1"/>
		<edge from-layer="285" from-port="2" to-layer="286" to-port="0"/>
		<edge from-layer="286" from-port="1" to-layer="288" to-port="0"/>
		<edge from-layer="287" from-port="1" to-layer="288" to-port="1"/>
		<edge from-layer="288" from-port="2" to-layer="290" to-port="0"/>
		<edge from-layer="289" from-port="1" to-layer="290" to-port="1"/>
		<edge from-layer="290" from-port="2" to-layer="291" to-port="0"/>
		<edge from-layer="291" from-port="1" to-layer="292" to-port="0"/>
		<edge from-layer="292" from-port="1" to-layer="294" to-port="0"/>
		<edge from-layer="293" from-port="1" to-layer="294" to-port="1"/>
		<edge from-layer="294" from-port="2" to-layer="296" to-port="0"/>
		<edge from-layer="295" from-port="1" to-layer="296" to-port="1"/>
		<edge from-layer="296" from-port="2" to-layer="297" to-port="0"/>
		<edge from-layer="297" from-port="1" to-layer="299" to-port="0"/>
		<edge from-layer="298" from-port="1" to-layer="299" to-port="1"/>
		<edge from-layer="299" from-port="2" to-layer="301" to-port="0"/>
		<edge from-layer="300" from-port="1" to-layer="301" to-port="1"/>
		<edge from-layer="301" from-port="2" to-layer="303" to-port="0"/>
		<edge from-layer="302" from-port="1" to-layer="303" to-port="1"/>
		<edge from-layer="303" from-port="2" to-layer="304" to-port="0"/>
		<edge from-layer="304" from-port="1" to-layer="306" to-port="0"/>
		<edge from-layer="305" from-port="1" to-layer="306" to-port="1"/>
		<edge from-layer="306" from-port="2" to-layer="308" to-port="0"/>
		<edge from-layer="307" from-port="1" to-layer="308" to-port="1"/>
		<edge from-layer="308" from-port="2" to-layer="310" to-port="0"/>
		<edge from-layer="309" from-port="1" to-layer="310" to-port="1"/>
		<edge from-layer="310" from-port="2" to-layer="311" to-port="0"/>
		<edge from-layer="311" from-port="1" to-layer="313" to-port="0"/>
		<edge from-layer="312" from-port="1" to-layer="313" to-port="1"/>
		<edge from-layer="313" from-port="2" to-layer="315" to-port="0"/>
		<edge from-layer="314" from-port="1" to-layer="315" to-port="1"/>
		<edge from-layer="315" from-port="2" to-layer="316" to-port="0"/>
		<edge from-layer="304" from-port="1" to-layer="317" to-port="0"/>
		<edge from-layer="316" from-port="1" to-layer="317" to-port="1"/>
		<edge from-layer="297" from-port="1" to-layer="319" to-port="0"/>
		<edge from-layer="318" from-port="1" to-layer="319" to-port="1"/>
		<edge from-layer="319" from-port="2" to-layer="321" to-port="0"/>
		<edge from-layer="320" from-port="1" to-layer="321" to-port="1"/>
		<edge from-layer="321" from-port="2" to-layer="323" to-port="0"/>
		<edge from-layer="322" from-port="1" to-layer="323" to-port="1"/>
		<edge from-layer="323" from-port="2" to-layer="324" to-port="0"/>
		<edge from-layer="324" from-port="1" to-layer="326" to-port="0"/>
		<edge from-layer="325" from-port="1" to-layer="326" to-port="1"/>
		<edge from-layer="326" from-port="2" to-layer="328" to-port="0"/>
		<edge from-layer="327" from-port="1" to-layer="328" to-port="1"/>
		<edge from-layer="328" from-port="2" to-layer="330" to-port="0"/>
		<edge from-layer="329" from-port="1" to-layer="330" to-port="1"/>
		<edge from-layer="330" from-port="2" to-layer="331" to-port="0"/>
		<edge from-layer="331" from-port="1" to-layer="333" to-port="0"/>
		<edge from-layer="332" from-port="1" to-layer="333" to-port="1"/>
		<edge from-layer="333" from-port="2" to-layer="335" to-port="0"/>
		<edge from-layer="334" from-port="1" to-layer="335" to-port="1"/>
		<edge from-layer="335" from-port="2" to-layer="337" to-port="0"/>
		<edge from-layer="336" from-port="1" to-layer="337" to-port="1"/>
		<edge from-layer="337" from-port="2" to-layer="338" to-port="0"/>
		<edge from-layer="338" from-port="1" to-layer="340" to-port="0"/>
		<edge from-layer="339" from-port="1" to-layer="340" to-port="1"/>
		<edge from-layer="340" from-port="2" to-layer="342" to-port="0"/>
		<edge from-layer="341" from-port="1" to-layer="342" to-port="1"/>
		<edge from-layer="342" from-port="2" to-layer="343" to-port="0"/>
		<edge from-layer="331" from-port="1" to-layer="344" to-port="0"/>
		<edge from-layer="343" from-port="1" to-layer="344" to-port="1"/>
		<edge from-layer="317" from-port="2" to-layer="345" to-port="0"/>
		<edge from-layer="344" from-port="2" to-layer="345" to-port="1"/>
		<edge from-layer="297" from-port="1" to-layer="347" to-port="0"/>
		<edge from-layer="346" from-port="1" to-layer="347" to-port="1"/>
		<edge from-layer="347" from-port="2" to-layer="349" to-port="0"/>
		<edge from-layer="348" from-port="1" to-layer="349" to-port="1"/>
		<edge from-layer="349" from-port="2" to-layer="351" to-port="0"/>
		<edge from-layer="350" from-port="1" to-layer="351" to-port="1"/>
		<edge from-layer="351" from-port="2" to-layer="352" to-port="0"/>
		<edge from-layer="352" from-port="1" to-layer="354" to-port="0"/>
		<edge from-layer="353" from-port="1" to-layer="354" to-port="1"/>
		<edge from-layer="354" from-port="2" to-layer="356" to-port="0"/>
		<edge from-layer="355" from-port="1" to-layer="356" to-port="1"/>
		<edge from-layer="356" from-port="2" to-layer="358" to-port="0"/>
		<edge from-layer="357" from-port="1" to-layer="358" to-port="1"/>
		<edge from-layer="358" from-port="2" to-layer="359" to-port="0"/>
		<edge from-layer="359" from-port="1" to-layer="361" to-port="0"/>
		<edge from-layer="360" from-port="1" to-layer="361" to-port="1"/>
		<edge from-layer="361" from-port="2" to-layer="363" to-port="0"/>
		<edge from-layer="362" from-port="1" to-layer="363" to-port="1"/>
		<edge from-layer="363" from-port="2" to-layer="365" to-port="0"/>
		<edge from-layer="364" from-port="1" to-layer="365" to-port="1"/>
		<edge from-layer="365" from-port="2" to-layer="366" to-port="0"/>
		<edge from-layer="366" from-port="1" to-layer="368" to-port="0"/>
		<edge from-layer="367" from-port="1" to-layer="368" to-port="1"/>
		<edge from-layer="368" from-port="2" to-layer="370" to-port="0"/>
		<edge from-layer="369" from-port="1" to-layer="370" to-port="1"/>
		<edge from-layer="370" from-port="2" to-layer="372" to-port="0"/>
		<edge from-layer="371" from-port="1" to-layer="372" to-port="1"/>
		<edge from-layer="372" from-port="2" to-layer="373" to-port="0"/>
		<edge from-layer="373" from-port="1" to-layer="375" to-port="0"/>
		<edge from-layer="374" from-port="1" to-layer="375" to-port="1"/>
		<edge from-layer="375" from-port="2" to-layer="377" to-port="0"/>
		<edge from-layer="376" from-port="1" to-layer="377" to-port="1"/>
		<edge from-layer="377" from-port="2" to-layer="378" to-port="0"/>
		<edge from-layer="366" from-port="1" to-layer="379" to-port="0"/>
		<edge from-layer="378" from-port="1" to-layer="379" to-port="1"/>
		<edge from-layer="345" from-port="2" to-layer="380" to-port="0"/>
		<edge from-layer="379" from-port="2" to-layer="380" to-port="1"/>
		<edge from-layer="297" from-port="1" to-layer="382" to-port="0"/>
		<edge from-layer="381" from-port="1" to-layer="382" to-port="1"/>
		<edge from-layer="382" from-port="2" to-layer="384" to-port="0"/>
		<edge from-layer="383" from-port="1" to-layer="384" to-port="1"/>
		<edge from-layer="384" from-port="2" to-layer="386" to-port="0"/>
		<edge from-layer="385" from-port="1" to-layer="386" to-port="1"/>
		<edge from-layer="386" from-port="2" to-layer="387" to-port="0"/>
		<edge from-layer="387" from-port="1" to-layer="389" to-port="0"/>
		<edge from-layer="388" from-port="1" to-layer="389" to-port="1"/>
		<edge from-layer="389" from-port="2" to-layer="391" to-port="0"/>
		<edge from-layer="390" from-port="1" to-layer="391" to-port="1"/>
		<edge from-layer="391" from-port="2" to-layer="393" to-port="0"/>
		<edge from-layer="392" from-port="1" to-layer="393" to-port="1"/>
		<edge from-layer="393" from-port="2" to-layer="394" to-port="0"/>
		<edge from-layer="394" from-port="1" to-layer="396" to-port="0"/>
		<edge from-layer="395" from-port="1" to-layer="396" to-port="1"/>
		<edge from-layer="396" from-port="2" to-layer="398" to-port="0"/>
		<edge from-layer="397" from-port="1" to-layer="398" to-port="1"/>
		<edge from-layer="398" from-port="2" to-layer="400" to-port="0"/>
		<edge from-layer="399" from-port="1" to-layer="400" to-port="1"/>
		<edge from-layer="400" from-port="2" to-layer="401" to-port="0"/>
		<edge from-layer="401" from-port="1" to-layer="403" to-port="0"/>
		<edge from-layer="402" from-port="1" to-layer="403" to-port="1"/>
		<edge from-layer="403" from-port="2" to-layer="405" to-port="0"/>
		<edge from-layer="404" from-port="1" to-layer="405" to-port="1"/>
		<edge from-layer="405" from-port="2" to-layer="407" to-port="0"/>
		<edge from-layer="406" from-port="1" to-layer="407" to-port="1"/>
		<edge from-layer="407" from-port="2" to-layer="408" to-port="0"/>
		<edge from-layer="408" from-port="1" to-layer="410" to-port="0"/>
		<edge from-layer="409" from-port="1" to-layer="410" to-port="1"/>
		<edge from-layer="410" from-port="2" to-layer="412" to-port="0"/>
		<edge from-layer="411" from-port="1" to-layer="412" to-port="1"/>
		<edge from-layer="412" from-port="2" to-layer="414" to-port="0"/>
		<edge from-layer="413" from-port="1" to-layer="414" to-port="1"/>
		<edge from-layer="414" from-port="2" to-layer="415" to-port="0"/>
		<edge from-layer="415" from-port="1" to-layer="417" to-port="0"/>
		<edge from-layer="416" from-port="1" to-layer="417" to-port="1"/>
		<edge from-layer="417" from-port="2" to-layer="419" to-port="0"/>
		<edge from-layer="418" from-port="1" to-layer="419" to-port="1"/>
		<edge from-layer="419" from-port="2" to-layer="420" to-port="0"/>
		<edge from-layer="408" from-port="1" to-layer="421" to-port="0"/>
		<edge from-layer="420" from-port="1" to-layer="421" to-port="1"/>
		<edge from-layer="380" from-port="2" to-layer="422" to-port="0"/>
		<edge from-layer="421" from-port="2" to-layer="422" to-port="1"/>
		<edge from-layer="422" from-port="2" to-layer="424" to-port="0"/>
		<edge from-layer="423" from-port="1" to-layer="424" to-port="1"/>
		<edge from-layer="424" from-port="2" to-layer="426" to-port="0"/>
		<edge from-layer="425" from-port="1" to-layer="426" to-port="1"/>
		<edge from-layer="292" from-port="1" to-layer="428" to-port="0"/>
		<edge from-layer="427" from-port="1" to-layer="428" to-port="1"/>
		<edge from-layer="428" from-port="2" to-layer="430" to-port="0"/>
		<edge from-layer="429" from-port="1" to-layer="430" to-port="1"/>
		<edge from-layer="426" from-port="2" to-layer="431" to-port="0"/>
		<edge from-layer="430" from-port="2" to-layer="431" to-port="1"/>
		<edge from-layer="431" from-port="2" to-layer="432" to-port="0"/>
		<edge from-layer="432" from-port="1" to-layer="434" to-port="0"/>
		<edge from-layer="433" from-port="1" to-layer="434" to-port="1"/>
		<edge from-layer="434" from-port="2" to-layer="436" to-port="0"/>
		<edge from-layer="435" from-port="1" to-layer="436" to-port="1"/>
		<edge from-layer="436" from-port="2" to-layer="437" to-port="0"/>
		<edge from-layer="437" from-port="1" to-layer="439" to-port="0"/>
		<edge from-layer="438" from-port="1" to-layer="439" to-port="1"/>
		<edge from-layer="439" from-port="2" to-layer="441" to-port="0"/>
		<edge from-layer="440" from-port="1" to-layer="441" to-port="1"/>
		<edge from-layer="441" from-port="2" to-layer="443" to-port="0"/>
		<edge from-layer="442" from-port="1" to-layer="443" to-port="1"/>
		<edge from-layer="443" from-port="2" to-layer="444" to-port="0"/>
		<edge from-layer="444" from-port="1" to-layer="446" to-port="0"/>
		<edge from-layer="445" from-port="1" to-layer="446" to-port="1"/>
		<edge from-layer="446" from-port="2" to-layer="448" to-port="0"/>
		<edge from-layer="447" from-port="1" to-layer="448" to-port="1"/>
		<edge from-layer="448" from-port="2" to-layer="450" to-port="0"/>
		<edge from-layer="449" from-port="1" to-layer="450" to-port="1"/>
		<edge from-layer="450" from-port="2" to-layer="451" to-port="0"/>
		<edge from-layer="451" from-port="1" to-layer="453" to-port="0"/>
		<edge from-layer="452" from-port="1" to-layer="453" to-port="1"/>
		<edge from-layer="453" from-port="2" to-layer="455" to-port="0"/>
		<edge from-layer="454" from-port="1" to-layer="455" to-port="1"/>
		<edge from-layer="455" from-port="2" to-layer="456" to-port="0"/>
		<edge from-layer="444" from-port="1" to-layer="457" to-port="0"/>
		<edge from-layer="456" from-port="1" to-layer="457" to-port="1"/>
		<edge from-layer="437" from-port="1" to-layer="459" to-port="0"/>
		<edge from-layer="458" from-port="1" to-layer="459" to-port="1"/>
		<edge from-layer="459" from-port="2" to-layer="461" to-port="0"/>
		<edge from-layer="460" from-port="1" to-layer="461" to-port="1"/>
		<edge from-layer="461" from-port="2" to-layer="463" to-port="0"/>
		<edge from-layer="462" from-port="1" to-layer="463" to-port="1"/>
		<edge from-layer="463" from-port="2" to-layer="464" to-port="0"/>
		<edge from-layer="464" from-port="1" to-layer="466" to-port="0"/>
		<edge from-layer="465" from-port="1" to-layer="466" to-port="1"/>
		<edge from-layer="466" from-port="2" to-layer="468" to-port="0"/>
		<edge from-layer="467" from-port="1" to-layer="468" to-port="1"/>
		<edge from-layer="468" from-port="2" to-layer="470" to-port="0"/>
		<edge from-layer="469" from-port="1" to-layer="470" to-port="1"/>
		<edge from-layer="470" from-port="2" to-layer="471" to-port="0"/>
		<edge from-layer="471" from-port="1" to-layer="473" to-port="0"/>
		<edge from-layer="472" from-port="1" to-layer="473" to-port="1"/>
		<edge from-layer="473" from-port="2" to-layer="475" to-port="0"/>
		<edge from-layer="474" from-port="1" to-layer="475" to-port="1"/>
		<edge from-layer="475" from-port="2" to-layer="477" to-port="0"/>
		<edge from-layer="476" from-port="1" to-layer="477" to-port="1"/>
		<edge from-layer="477" from-port="2" to-layer="478" to-port="0"/>
		<edge from-layer="478" from-port="1" to-layer="480" to-port="0"/>
		<edge from-layer="479" from-port="1" to-layer="480" to-port="1"/>
		<edge from-layer="480" from-port="2" to-layer="482" to-port="0"/>
		<edge from-layer="481" from-port="1" to-layer="482" to-port="1"/>
		<edge from-layer="482" from-port="2" to-layer="483" to-port="0"/>
		<edge from-layer="471" from-port="1" to-layer="484" to-port="0"/>
		<edge from-layer="483" from-port="1" to-layer="484" to-port="1"/>
		<edge from-layer="457" from-port="2" to-layer="485" to-port="0"/>
		<edge from-layer="484" from-port="2" to-layer="485" to-port="1"/>
		<edge from-layer="437" from-port="1" to-layer="487" to-port="0"/>
		<edge from-layer="486" from-port="1" to-layer="487" to-port="1"/>
		<edge from-layer="487" from-port="2" to-layer="489" to-port="0"/>
		<edge from-layer="488" from-port="1" to-layer="489" to-port="1"/>
		<edge from-layer="489" from-port="2" to-layer="491" to-port="0"/>
		<edge from-layer="490" from-port="1" to-layer="491" to-port="1"/>
		<edge from-layer="491" from-port="2" to-layer="492" to-port="0"/>
		<edge from-layer="492" from-port="1" to-layer="494" to-port="0"/>
		<edge from-layer="493" from-port="1" to-layer="494" to-port="1"/>
		<edge from-layer="494" from-port="2" to-layer="496" to-port="0"/>
		<edge from-layer="495" from-port="1" to-layer="496" to-port="1"/>
		<edge from-layer="496" from-port="2" to-layer="498" to-port="0"/>
		<edge from-layer="497" from-port="1" to-layer="498" to-port="1"/>
		<edge from-layer="498" from-port="2" to-layer="499" to-port="0"/>
		<edge from-layer="499" from-port="1" to-layer="501" to-port="0"/>
		<edge from-layer="500" from-port="1" to-layer="501" to-port="1"/>
		<edge from-layer="501" from-port="2" to-layer="503" to-port="0"/>
		<edge from-layer="502" from-port="1" to-layer="503" to-port="1"/>
		<edge from-layer="503" from-port="2" to-layer="505" to-port="0"/>
		<edge from-layer="504" from-port="1" to-layer="505" to-port="1"/>
		<edge from-layer="505" from-port="2" to-layer="506" to-port="0"/>
		<edge from-layer="506" from-port="1" to-layer="508" to-port="0"/>
		<edge from-layer="507" from-port="1" to-layer="508" to-port="1"/>
		<edge from-layer="508" from-port="2" to-layer="510" to-port="0"/>
		<edge from-layer="509" from-port="1" to-layer="510" to-port="1"/>
		<edge from-layer="510" from-port="2" to-layer="512" to-port="0"/>
		<edge from-layer="511" from-port="1" to-layer="512" to-port="1"/>
		<edge from-layer="512" from-port="2" to-layer="513" to-port="0"/>
		<edge from-layer="513" from-port="1" to-layer="515" to-port="0"/>
		<edge from-layer="514" from-port="1" to-layer="515" to-port="1"/>
		<edge from-layer="515" from-port="2" to-layer="517" to-port="0"/>
		<edge from-layer="516" from-port="1" to-layer="517" to-port="1"/>
		<edge from-layer="517" from-port="2" to-layer="518" to-port="0"/>
		<edge from-layer="506" from-port="1" to-layer="519" to-port="0"/>
		<edge from-layer="518" from-port="1" to-layer="519" to-port="1"/>
		<edge from-layer="485" from-port="2" to-layer="520" to-port="0"/>
		<edge from-layer="519" from-port="2" to-layer="520" to-port="1"/>
		<edge from-layer="437" from-port="1" to-layer="522" to-port="0"/>
		<edge from-layer="521" from-port="1" to-layer="522" to-port="1"/>
		<edge from-layer="522" from-port="2" to-layer="524" to-port="0"/>
		<edge from-layer="523" from-port="1" to-layer="524" to-port="1"/>
		<edge from-layer="524" from-port="2" to-layer="526" to-port="0"/>
		<edge from-layer="525" from-port="1" to-layer="526" to-port="1"/>
		<edge from-layer="526" from-port="2" to-layer="527" to-port="0"/>
		<edge from-layer="527" from-port="1" to-layer="529" to-port="0"/>
		<edge from-layer="528" from-port="1" to-layer="529" to-port="1"/>
		<edge from-layer="529" from-port="2" to-layer="531" to-port="0"/>
		<edge from-layer="530" from-port="1" to-layer="531" to-port="1"/>
		<edge from-layer="531" from-port="2" to-layer="533" to-port="0"/>
		<edge from-layer="532" from-port="1" to-layer="533" to-port="1"/>
		<edge from-layer="533" from-port="2" to-layer="534" to-port="0"/>
		<edge from-layer="534" from-port="1" to-layer="536" to-port="0"/>
		<edge from-layer="535" from-port="1" to-layer="536" to-port="1"/>
		<edge from-layer="536" from-port="2" to-layer="538" to-port="0"/>
		<edge from-layer="537" from-port="1" to-layer="538" to-port="1"/>
		<edge from-layer="538" from-port="2" to-layer="540" to-port="0"/>
		<edge from-layer="539" from-port="1" to-layer="540" to-port="1"/>
		<edge from-layer="540" from-port="2" to-layer="541" to-port="0"/>
		<edge from-layer="541" from-port="1" to-layer="543" to-port="0"/>
		<edge from-layer="542" from-port="1" to-layer="543" to-port="1"/>
		<edge from-layer="543" from-port="2" to-layer="545" to-port="0"/>
		<edge from-layer="544" from-port="1" to-layer="545" to-port="1"/>
		<edge from-layer="545" from-port="2" to-layer="547" to-port="0"/>
		<edge from-layer="546" from-port="1" to-layer="547" to-port="1"/>
		<edge from-layer="547" from-port="2" to-layer="548" to-port="0"/>
		<edge from-layer="548" from-port="1" to-layer="550" to-port="0"/>
		<edge from-layer="549" from-port="1" to-layer="550" to-port="1"/>
		<edge from-layer="550" from-port="2" to-layer="552" to-port="0"/>
		<edge from-layer="551" from-port="1" to-layer="552" to-port="1"/>
		<edge from-layer="552" from-port="2" to-layer="554" to-port="0"/>
		<edge from-layer="553" from-port="1" to-layer="554" to-port="1"/>
		<edge from-layer="554" from-port="2" to-layer="555" to-port="0"/>
		<edge from-layer="555" from-port="1" to-layer="557" to-port="0"/>
		<edge from-layer="556" from-port="1" to-layer="557" to-port="1"/>
		<edge from-layer="557" from-port="2" to-layer="559" to-port="0"/>
		<edge from-layer="558" from-port="1" to-layer="559" to-port="1"/>
		<edge from-layer="559" from-port="2" to-layer="560" to-port="0"/>
		<edge from-layer="548" from-port="1" to-layer="561" to-port="0"/>
		<edge from-layer="560" from-port="1" to-layer="561" to-port="1"/>
		<edge from-layer="520" from-port="2" to-layer="562" to-port="0"/>
		<edge from-layer="561" from-port="2" to-layer="562" to-port="1"/>
		<edge from-layer="562" from-port="2" to-layer="564" to-port="0"/>
		<edge from-layer="563" from-port="1" to-layer="564" to-port="1"/>
		<edge from-layer="564" from-port="2" to-layer="566" to-port="0"/>
		<edge from-layer="565" from-port="1" to-layer="566" to-port="1"/>
		<edge from-layer="566" from-port="2" to-layer="567" to-port="0"/>
		<edge from-layer="432" from-port="1" to-layer="567" to-port="1"/>
		<edge from-layer="567" from-port="2" to-layer="568" to-port="0"/>
		<edge from-layer="568" from-port="1" to-layer="570" to-port="0"/>
		<edge from-layer="569" from-port="1" to-layer="570" to-port="1"/>
		<edge from-layer="570" from-port="2" to-layer="572" to-port="0"/>
		<edge from-layer="571" from-port="1" to-layer="572" to-port="1"/>
		<edge from-layer="572" from-port="2" to-layer="573" to-port="0"/>
		<edge from-layer="573" from-port="1" to-layer="574" to-port="0"/>
		<edge from-layer="574" from-port="1" to-layer="576" to-port="0"/>
		<edge from-layer="575" from-port="1" to-layer="576" to-port="1"/>
		<edge from-layer="576" from-port="2" to-layer="578" to-port="0"/>
		<edge from-layer="577" from-port="1" to-layer="578" to-port="1"/>
		<edge from-layer="574" from-port="1" to-layer="580" to-port="0"/>
		<edge from-layer="579" from-port="1" to-layer="580" to-port="1"/>
		<edge from-layer="580" from-port="2" to-layer="582" to-port="0"/>
		<edge from-layer="581" from-port="1" to-layer="582" to-port="1"/>
		<edge from-layer="582" from-port="2" to-layer="583" to-port="0"/>
		<edge from-layer="583" from-port="1" to-layer="585" to-port="0"/>
		<edge from-layer="584" from-port="1" to-layer="585" to-port="1"/>
		<edge from-layer="585" from-port="2" to-layer="587" to-port="0"/>
		<edge from-layer="586" from-port="1" to-layer="587" to-port="1"/>
		<edge from-layer="587" from-port="2" to-layer="589" to-port="0"/>
		<edge from-layer="588" from-port="1" to-layer="589" to-port="1"/>
		<edge from-layer="589" from-port="2" to-layer="590" to-port="0"/>
		<edge from-layer="590" from-port="1" to-layer="592" to-port="0"/>
		<edge from-layer="591" from-port="1" to-layer="592" to-port="1"/>
		<edge from-layer="592" from-port="2" to-layer="594" to-port="0"/>
		<edge from-layer="593" from-port="1" to-layer="594" to-port="1"/>
		<edge from-layer="594" from-port="2" to-layer="596" to-port="0"/>
		<edge from-layer="595" from-port="1" to-layer="596" to-port="1"/>
		<edge from-layer="596" from-port="2" to-layer="597" to-port="0"/>
		<edge from-layer="597" from-port="1" to-layer="599" to-port="0"/>
		<edge from-layer="598" from-port="1" to-layer="599" to-port="1"/>
		<edge from-layer="599" from-port="2" to-layer="601" to-port="0"/>
		<edge from-layer="600" from-port="1" to-layer="601" to-port="1"/>
		<edge from-layer="601" from-port="2" to-layer="602" to-port="0"/>
		<edge from-layer="590" from-port="1" to-layer="603" to-port="0"/>
		<edge from-layer="602" from-port="1" to-layer="603" to-port="1"/>
		<edge from-layer="583" from-port="1" to-layer="605" to-port="0"/>
		<edge from-layer="604" from-port="1" to-layer="605" to-port="1"/>
		<edge from-layer="605" from-port="2" to-layer="607" to-port="0"/>
		<edge from-layer="606" from-port="1" to-layer="607" to-port="1"/>
		<edge from-layer="607" from-port="2" to-layer="609" to-port="0"/>
		<edge from-layer="608" from-port="1" to-layer="609" to-port="1"/>
		<edge from-layer="609" from-port="2" to-layer="610" to-port="0"/>
		<edge from-layer="610" from-port="1" to-layer="612" to-port="0"/>
		<edge from-layer="611" from-port="1" to-layer="612" to-port="1"/>
		<edge from-layer="612" from-port="2" to-layer="614" to-port="0"/>
		<edge from-layer="613" from-port="1" to-layer="614" to-port="1"/>
		<edge from-layer="614" from-port="2" to-layer="616" to-port="0"/>
		<edge from-layer="615" from-port="1" to-layer="616" to-port="1"/>
		<edge from-layer="616" from-port="2" to-layer="617" to-port="0"/>
		<edge from-layer="617" from-port="1" to-layer="619" to-port="0"/>
		<edge from-layer="618" from-port="1" to-layer="619" to-port="1"/>
		<edge from-layer="619" from-port="2" to-layer="621" to-port="0"/>
		<edge from-layer="620" from-port="1" to-layer="621" to-port="1"/>
		<edge from-layer="621" from-port="2" to-layer="623" to-port="0"/>
		<edge from-layer="622" from-port="1" to-layer="623" to-port="1"/>
		<edge from-layer="623" from-port="2" to-layer="624" to-port="0"/>
		<edge from-layer="624" from-port="1" to-layer="626" to-port="0"/>
		<edge from-layer="625" from-port="1" to-layer="626" to-port="1"/>
		<edge from-layer="626" from-port="2" to-layer="628" to-port="0"/>
		<edge from-layer="627" from-port="1" to-layer="628" to-port="1"/>
		<edge from-layer="628" from-port="2" to-layer="629" to-port="0"/>
		<edge from-layer="617" from-port="1" to-layer="630" to-port="0"/>
		<edge from-layer="629" from-port="1" to-layer="630" to-port="1"/>
		<edge from-layer="603" from-port="2" to-layer="631" to-port="0"/>
		<edge from-layer="630" from-port="2" to-layer="631" to-port="1"/>
		<edge from-layer="583" from-port="1" to-layer="633" to-port="0"/>
		<edge from-layer="632" from-port="1" to-layer="633" to-port="1"/>
		<edge from-layer="633" from-port="2" to-layer="635" to-port="0"/>
		<edge from-layer="634" from-port="1" to-layer="635" to-port="1"/>
		<edge from-layer="635" from-port="2" to-layer="637" to-port="0"/>
		<edge from-layer="636" from-port="1" to-layer="637" to-port="1"/>
		<edge from-layer="637" from-port="2" to-layer="638" to-port="0"/>
		<edge from-layer="638" from-port="1" to-layer="640" to-port="0"/>
		<edge from-layer="639" from-port="1" to-layer="640" to-port="1"/>
		<edge from-layer="640" from-port="2" to-layer="642" to-port="0"/>
		<edge from-layer="641" from-port="1" to-layer="642" to-port="1"/>
		<edge from-layer="642" from-port="2" to-layer="644" to-port="0"/>
		<edge from-layer="643" from-port="1" to-layer="644" to-port="1"/>
		<edge from-layer="644" from-port="2" to-layer="645" to-port="0"/>
		<edge from-layer="645" from-port="1" to-layer="647" to-port="0"/>
		<edge from-layer="646" from-port="1" to-layer="647" to-port="1"/>
		<edge from-layer="647" from-port="2" to-layer="649" to-port="0"/>
		<edge from-layer="648" from-port="1" to-layer="649" to-port="1"/>
		<edge from-layer="649" from-port="2" to-layer="651" to-port="0"/>
		<edge from-layer="650" from-port="1" to-layer="651" to-port="1"/>
		<edge from-layer="651" from-port="2" to-layer="652" to-port="0"/>
		<edge from-layer="652" from-port="1" to-layer="654" to-port="0"/>
		<edge from-layer="653" from-port="1" to-layer="654" to-port="1"/>
		<edge from-layer="654" from-port="2" to-layer="656" to-port="0"/>
		<edge from-layer="655" from-port="1" to-layer="656" to-port="1"/>
		<edge from-layer="656" from-port="2" to-layer="658" to-port="0"/>
		<edge from-layer="657" from-port="1" to-layer="658" to-port="1"/>
		<edge from-layer="658" from-port="2" to-layer="659" to-port="0"/>
		<edge from-layer="659" from-port="1" to-layer="661" to-port="0"/>
		<edge from-layer="660" from-port="1" to-layer="661" to-port="1"/>
		<edge from-layer="661" from-port="2" to-layer="663" to-port="0"/>
		<edge from-layer="662" from-port="1" to-layer="663" to-port="1"/>
		<edge from-layer="663" from-port="2" to-layer="664" to-port="0"/>
		<edge from-layer="652" from-port="1" to-layer="665" to-port="0"/>
		<edge from-layer="664" from-port="1" to-layer="665" to-port="1"/>
		<edge from-layer="631" from-port="2" to-layer="666" to-port="0"/>
		<edge from-layer="665" from-port="2" to-layer="666" to-port="1"/>
		<edge from-layer="583" from-port="1" to-layer="668" to-port="0"/>
		<edge from-layer="667" from-port="1" to-layer="668" to-port="1"/>
		<edge from-layer="668" from-port="2" to-layer="670" to-port="0"/>
		<edge from-layer="669" from-port="1" to-layer="670" to-port="1"/>
		<edge from-layer="670" from-port="2" to-layer="672" to-port="0"/>
		<edge from-layer="671" from-port="1" to-layer="672" to-port="1"/>
		<edge from-layer="672" from-port="2" to-layer="673" to-port="0"/>
		<edge from-layer="673" from-port="1" to-layer="675" to-port="0"/>
		<edge from-layer="674" from-port="1" to-layer="675" to-port="1"/>
		<edge from-layer="675" from-port="2" to-layer="677" to-port="0"/>
		<edge from-layer="676" from-port="1" to-layer="677" to-port="1"/>
		<edge from-layer="677" from-port="2" to-layer="679" to-port="0"/>
		<edge from-layer="678" from-port="1" to-layer="679" to-port="1"/>
		<edge from-layer="679" from-port="2" to-layer="680" to-port="0"/>
		<edge from-layer="680" from-port="1" to-layer="682" to-port="0"/>
		<edge from-layer="681" from-port="1" to-layer="682" to-port="1"/>
		<edge from-layer="682" from-port="2" to-layer="684" to-port="0"/>
		<edge from-layer="683" from-port="1" to-layer="684" to-port="1"/>
		<edge from-layer="684" from-port="2" to-layer="686" to-port="0"/>
		<edge from-layer="685" from-port="1" to-layer="686" to-port="1"/>
		<edge from-layer="686" from-port="2" to-layer="687" to-port="0"/>
		<edge from-layer="687" from-port="1" to-layer="689" to-port="0"/>
		<edge from-layer="688" from-port="1" to-layer="689" to-port="1"/>
		<edge from-layer="689" from-port="2" to-layer="691" to-port="0"/>
		<edge from-layer="690" from-port="1" to-layer="691" to-port="1"/>
		<edge from-layer="691" from-port="2" to-layer="693" to-port="0"/>
		<edge from-layer="692" from-port="1" to-layer="693" to-port="1"/>
		<edge from-layer="693" from-port="2" to-layer="694" to-port="0"/>
		<edge from-layer="694" from-port="1" to-layer="696" to-port="0"/>
		<edge from-layer="695" from-port="1" to-layer="696" to-port="1"/>
		<edge from-layer="696" from-port="2" to-layer="698" to-port="0"/>
		<edge from-layer="697" from-port="1" to-layer="698" to-port="1"/>
		<edge from-layer="698" from-port="2" to-layer="700" to-port="0"/>
		<edge from-layer="699" from-port="1" to-layer="700" to-port="1"/>
		<edge from-layer="700" from-port="2" to-layer="701" to-port="0"/>
		<edge from-layer="701" from-port="1" to-layer="703" to-port="0"/>
		<edge from-layer="702" from-port="1" to-layer="703" to-port="1"/>
		<edge from-layer="703" from-port="2" to-layer="705" to-port="0"/>
		<edge from-layer="704" from-port="1" to-layer="705" to-port="1"/>
		<edge from-layer="705" from-port="2" to-layer="706" to-port="0"/>
		<edge from-layer="694" from-port="1" to-layer="707" to-port="0"/>
		<edge from-layer="706" from-port="1" to-layer="707" to-port="1"/>
		<edge from-layer="666" from-port="2" to-layer="708" to-port="0"/>
		<edge from-layer="707" from-port="2" to-layer="708" to-port="1"/>
		<edge from-layer="708" from-port="2" to-layer="710" to-port="0"/>
		<edge from-layer="709" from-port="1" to-layer="710" to-port="1"/>
		<edge from-layer="710" from-port="2" to-layer="712" to-port="0"/>
		<edge from-layer="711" from-port="1" to-layer="712" to-port="1"/>
		<edge from-layer="574" from-port="1" to-layer="714" to-port="0"/>
		<edge from-layer="713" from-port="1" to-layer="714" to-port="1"/>
		<edge from-layer="714" from-port="2" to-layer="716" to-port="0"/>
		<edge from-layer="715" from-port="1" to-layer="716" to-port="1"/>
		<edge from-layer="712" from-port="2" to-layer="717" to-port="0"/>
		<edge from-layer="716" from-port="2" to-layer="717" to-port="1"/>
		<edge from-layer="717" from-port="2" to-layer="718" to-port="0"/>
		<edge from-layer="718" from-port="1" to-layer="720" to-port="0"/>
		<edge from-layer="719" from-port="1" to-layer="720" to-port="1"/>
		<edge from-layer="720" from-port="2" to-layer="722" to-port="0"/>
		<edge from-layer="721" from-port="1" to-layer="722" to-port="1"/>
		<edge from-layer="722" from-port="2" to-layer="723" to-port="0"/>
		<edge from-layer="723" from-port="1" to-layer="725" to-port="0"/>
		<edge from-layer="724" from-port="1" to-layer="725" to-port="1"/>
		<edge from-layer="725" from-port="2" to-layer="727" to-port="0"/>
		<edge from-layer="726" from-port="1" to-layer="727" to-port="1"/>
		<edge from-layer="727" from-port="2" to-layer="729" to-port="0"/>
		<edge from-layer="728" from-port="1" to-layer="729" to-port="1"/>
		<edge from-layer="729" from-port="2" to-layer="730" to-port="0"/>
		<edge from-layer="730" from-port="1" to-layer="732" to-port="0"/>
		<edge from-layer="731" from-port="1" to-layer="732" to-port="1"/>
		<edge from-layer="732" from-port="2" to-layer="734" to-port="0"/>
		<edge from-layer="733" from-port="1" to-layer="734" to-port="1"/>
		<edge from-layer="734" from-port="2" to-layer="736" to-port="0"/>
		<edge from-layer="735" from-port="1" to-layer="736" to-port="1"/>
		<edge from-layer="736" from-port="2" to-layer="737" to-port="0"/>
		<edge from-layer="737" from-port="1" to-layer="739" to-port="0"/>
		<edge from-layer="738" from-port="1" to-layer="739" to-port="1"/>
		<edge from-layer="739" from-port="2" to-layer="741" to-port="0"/>
		<edge from-layer="740" from-port="1" to-layer="741" to-port="1"/>
		<edge from-layer="741" from-port="2" to-layer="742" to-port="0"/>
		<edge from-layer="730" from-port="1" to-layer="743" to-port="0"/>
		<edge from-layer="742" from-port="1" to-layer="743" to-port="1"/>
		<edge from-layer="723" from-port="1" to-layer="745" to-port="0"/>
		<edge from-layer="744" from-port="1" to-layer="745" to-port="1"/>
		<edge from-layer="745" from-port="2" to-layer="747" to-port="0"/>
		<edge from-layer="746" from-port="1" to-layer="747" to-port="1"/>
		<edge from-layer="747" from-port="2" to-layer="749" to-port="0"/>
		<edge from-layer="748" from-port="1" to-layer="749" to-port="1"/>
		<edge from-layer="749" from-port="2" to-layer="750" to-port="0"/>
		<edge from-layer="750" from-port="1" to-layer="752" to-port="0"/>
		<edge from-layer="751" from-port="1" to-layer="752" to-port="1"/>
		<edge from-layer="752" from-port="2" to-layer="754" to-port="0"/>
		<edge from-layer="753" from-port="1" to-layer="754" to-port="1"/>
		<edge from-layer="754" from-port="2" to-layer="756" to-port="0"/>
		<edge from-layer="755" from-port="1" to-layer="756" to-port="1"/>
		<edge from-layer="756" from-port="2" to-layer="757" to-port="0"/>
		<edge from-layer="757" from-port="1" to-layer="759" to-port="0"/>
		<edge from-layer="758" from-port="1" to-layer="759" to-port="1"/>
		<edge from-layer="759" from-port="2" to-layer="761" to-port="0"/>
		<edge from-layer="760" from-port="1" to-layer="761" to-port="1"/>
		<edge from-layer="761" from-port="2" to-layer="763" to-port="0"/>
		<edge from-layer="762" from-port="1" to-layer="763" to-port="1"/>
		<edge from-layer="763" from-port="2" to-layer="764" to-port="0"/>
		<edge from-layer="764" from-port="1" to-layer="766" to-port="0"/>
		<edge from-layer="765" from-port="1" to-layer="766" to-port="1"/>
		<edge from-layer="766" from-port="2" to-layer="768" to-port="0"/>
		<edge from-layer="767" from-port="1" to-layer="768" to-port="1"/>
		<edge from-layer="768" from-port="2" to-layer="769" to-port="0"/>
		<edge from-layer="757" from-port="1" to-layer="770" to-port="0"/>
		<edge from-layer="769" from-port="1" to-layer="770" to-port="1"/>
		<edge from-layer="743" from-port="2" to-layer="771" to-port="0"/>
		<edge from-layer="770" from-port="2" to-layer="771" to-port="1"/>
		<edge from-layer="723" from-port="1" to-layer="773" to-port="0"/>
		<edge from-layer="772" from-port="1" to-layer="773" to-port="1"/>
		<edge from-layer="773" from-port="2" to-layer="775" to-port="0"/>
		<edge from-layer="774" from-port="1" to-layer="775" to-port="1"/>
		<edge from-layer="775" from-port="2" to-layer="777" to-port="0"/>
		<edge from-layer="776" from-port="1" to-layer="777" to-port="1"/>
		<edge from-layer="777" from-port="2" to-layer="778" to-port="0"/>
		<edge from-layer="778" from-port="1" to-layer="780" to-port="0"/>
		<edge from-layer="779" from-port="1" to-layer="780" to-port="1"/>
		<edge from-layer="780" from-port="2" to-layer="782" to-port="0"/>
		<edge from-layer="781" from-port="1" to-layer="782" to-port="1"/>
		<edge from-layer="782" from-port="2" to-layer="784" to-port="0"/>
		<edge from-layer="783" from-port="1" to-layer="784" to-port="1"/>
		<edge from-layer="784" from-port="2" to-layer="785" to-port="0"/>
		<edge from-layer="785" from-port="1" to-layer="787" to-port="0"/>
		<edge from-layer="786" from-port="1" to-layer="787" to-port="1"/>
		<edge from-layer="787" from-port="2" to-layer="789" to-port="0"/>
		<edge from-layer="788" from-port="1" to-layer="789" to-port="1"/>
		<edge from-layer="789" from-port="2" to-layer="791" to-port="0"/>
		<edge from-layer="790" from-port="1" to-layer="791" to-port="1"/>
		<edge from-layer="791" from-port="2" to-layer="792" to-port="0"/>
		<edge from-layer="792" from-port="1" to-layer="794" to-port="0"/>
		<edge from-layer="793" from-port="1" to-layer="794" to-port="1"/>
		<edge from-layer="794" from-port="2" to-layer="796" to-port="0"/>
		<edge from-layer="795" from-port="1" to-layer="796" to-port="1"/>
		<edge from-layer="796" from-port="2" to-layer="798" to-port="0"/>
		<edge from-layer="797" from-port="1" to-layer="798" to-port="1"/>
		<edge from-layer="798" from-port="2" to-layer="799" to-port="0"/>
		<edge from-layer="799" from-port="1" to-layer="801" to-port="0"/>
		<edge from-layer="800" from-port="1" to-layer="801" to-port="1"/>
		<edge from-layer="801" from-port="2" to-layer="803" to-port="0"/>
		<edge from-layer="802" from-port="1" to-layer="803" to-port="1"/>
		<edge from-layer="803" from-port="2" to-layer="804" to-port="0"/>
		<edge from-layer="792" from-port="1" to-layer="805" to-port="0"/>
		<edge from-layer="804" from-port="1" to-layer="805" to-port="1"/>
		<edge from-layer="771" from-port="2" to-layer="806" to-port="0"/>
		<edge from-layer="805" from-port="2" to-layer="806" to-port="1"/>
		<edge from-layer="723" from-port="1" to-layer="808" to-port="0"/>
		<edge from-layer="807" from-port="1" to-layer="808" to-port="1"/>
		<edge from-layer="808" from-port="2" to-layer="810" to-port="0"/>
		<edge from-layer="809" from-port="1" to-layer="810" to-port="1"/>
		<edge from-layer="810" from-port="2" to-layer="812" to-port="0"/>
		<edge from-layer="811" from-port="1" to-layer="812" to-port="1"/>
		<edge from-layer="812" from-port="2" to-layer="813" to-port="0"/>
		<edge from-layer="813" from-port="1" to-layer="815" to-port="0"/>
		<edge from-layer="814" from-port="1" to-layer="815" to-port="1"/>
		<edge from-layer="815" from-port="2" to-layer="817" to-port="0"/>
		<edge from-layer="816" from-port="1" to-layer="817" to-port="1"/>
		<edge from-layer="817" from-port="2" to-layer="819" to-port="0"/>
		<edge from-layer="818" from-port="1" to-layer="819" to-port="1"/>
		<edge from-layer="819" from-port="2" to-layer="820" to-port="0"/>
		<edge from-layer="820" from-port="1" to-layer="822" to-port="0"/>
		<edge from-layer="821" from-port="1" to-layer="822" to-port="1"/>
		<edge from-layer="822" from-port="2" to-layer="824" to-port="0"/>
		<edge from-layer="823" from-port="1" to-layer="824" to-port="1"/>
		<edge from-layer="824" from-port="2" to-layer="826" to-port="0"/>
		<edge from-layer="825" from-port="1" to-layer="826" to-port="1"/>
		<edge from-layer="826" from-port="2" to-layer="827" to-port="0"/>
		<edge from-layer="827" from-port="1" to-layer="829" to-port="0"/>
		<edge from-layer="828" from-port="1" to-layer="829" to-port="1"/>
		<edge from-layer="829" from-port="2" to-layer="831" to-port="0"/>
		<edge from-layer="830" from-port="1" to-layer="831" to-port="1"/>
		<edge from-layer="831" from-port="2" to-layer="833" to-port="0"/>
		<edge from-layer="832" from-port="1" to-layer="833" to-port="1"/>
		<edge from-layer="833" from-port="2" to-layer="834" to-port="0"/>
		<edge from-layer="834" from-port="1" to-layer="836" to-port="0"/>
		<edge from-layer="835" from-port="1" to-layer="836" to-port="1"/>
		<edge from-layer="836" from-port="2" to-layer="838" to-port="0"/>
		<edge from-layer="837" from-port="1" to-layer="838" to-port="1"/>
		<edge from-layer="838" from-port="2" to-layer="840" to-port="0"/>
		<edge from-layer="839" from-port="1" to-layer="840" to-port="1"/>
		<edge from-layer="840" from-port="2" to-layer="841" to-port="0"/>
		<edge from-layer="841" from-port="1" to-layer="843" to-port="0"/>
		<edge from-layer="842" from-port="1" to-layer="843" to-port="1"/>
		<edge from-layer="843" from-port="2" to-layer="845" to-port="0"/>
		<edge from-layer="844" from-port="1" to-layer="845" to-port="1"/>
		<edge from-layer="845" from-port="2" to-layer="846" to-port="0"/>
		<edge from-layer="834" from-port="1" to-layer="847" to-port="0"/>
		<edge from-layer="846" from-port="1" to-layer="847" to-port="1"/>
		<edge from-layer="806" from-port="2" to-layer="848" to-port="0"/>
		<edge from-layer="847" from-port="2" to-layer="848" to-port="1"/>
		<edge from-layer="848" from-port="2" to-layer="850" to-port="0"/>
		<edge from-layer="849" from-port="1" to-layer="850" to-port="1"/>
		<edge from-layer="850" from-port="2" to-layer="852" to-port="0"/>
		<edge from-layer="851" from-port="1" to-layer="852" to-port="1"/>
		<edge from-layer="852" from-port="2" to-layer="853" to-port="0"/>
		<edge from-layer="718" from-port="1" to-layer="853" to-port="1"/>
		<edge from-layer="853" from-port="2" to-layer="854" to-port="0"/>
		<edge from-layer="854" from-port="1" to-layer="856" to-port="0"/>
		<edge from-layer="855" from-port="1" to-layer="856" to-port="1"/>
		<edge from-layer="856" from-port="2" to-layer="858" to-port="0"/>
		<edge from-layer="857" from-port="1" to-layer="858" to-port="1"/>
		<edge from-layer="858" from-port="2" to-layer="859" to-port="0"/>
		<edge from-layer="859" from-port="1" to-layer="861" to-port="0"/>
		<edge from-layer="860" from-port="1" to-layer="861" to-port="1"/>
		<edge from-layer="861" from-port="2" to-layer="863" to-port="0"/>
		<edge from-layer="862" from-port="1" to-layer="863" to-port="1"/>
		<edge from-layer="578" from-port="2" to-layer="864" to-port="0"/>
		<edge from-layer="863" from-port="2" to-layer="864" to-port="1"/>
		<edge from-layer="864" from-port="2" to-layer="866" to-port="0"/>
		<edge from-layer="865" from-port="1" to-layer="866" to-port="1"/>
		<edge from-layer="866" from-port="2" to-layer="868" to-port="0"/>
		<edge from-layer="867" from-port="1" to-layer="868" to-port="1"/>
		<edge from-layer="868" from-port="2" to-layer="869" to-port="0"/>
		<edge from-layer="292" from-port="1" to-layer="871" to-port="0"/>
		<edge from-layer="870" from-port="1" to-layer="871" to-port="1"/>
		<edge from-layer="871" from-port="2" to-layer="873" to-port="0"/>
		<edge from-layer="872" from-port="1" to-layer="873" to-port="1"/>
		<edge from-layer="864" from-port="2" to-layer="875" to-port="0"/>
		<edge from-layer="874" from-port="1" to-layer="875" to-port="1"/>
		<edge from-layer="873" from-port="2" to-layer="876" to-port="0"/>
		<edge from-layer="875" from-port="2" to-layer="876" to-port="1"/>
		<edge from-layer="876" from-port="2" to-layer="878" to-port="0"/>
		<edge from-layer="877" from-port="1" to-layer="878" to-port="1"/>
		<edge from-layer="878" from-port="2" to-layer="880" to-port="0"/>
		<edge from-layer="879" from-port="1" to-layer="880" to-port="1"/>
		<edge from-layer="880" from-port="2" to-layer="881" to-port="0"/>
		<edge from-layer="10" from-port="1" to-layer="883" to-port="0"/>
		<edge from-layer="882" from-port="1" to-layer="883" to-port="1"/>
		<edge from-layer="883" from-port="2" to-layer="885" to-port="0"/>
		<edge from-layer="884" from-port="1" to-layer="885" to-port="1"/>
		<edge from-layer="876" from-port="2" to-layer="887" to-port="0"/>
		<edge from-layer="886" from-port="1" to-layer="887" to-port="1"/>
		<edge from-layer="885" from-port="2" to-layer="888" to-port="0"/>
		<edge from-layer="887" from-port="2" to-layer="888" to-port="1"/>
		<edge from-layer="888" from-port="2" to-layer="890" to-port="0"/>
		<edge from-layer="889" from-port="1" to-layer="890" to-port="1"/>
		<edge from-layer="890" from-port="2" to-layer="892" to-port="0"/>
		<edge from-layer="891" from-port="1" to-layer="892" to-port="1"/>
		<edge from-layer="892" from-port="2" to-layer="893" to-port="0"/>
		<edge from-layer="863" from-port="2" to-layer="895" to-port="0"/>
		<edge from-layer="894" from-port="1" to-layer="895" to-port="1"/>
		<edge from-layer="895" from-port="2" to-layer="897" to-port="0"/>
		<edge from-layer="896" from-port="1" to-layer="897" to-port="1"/>
		<edge from-layer="893" from-port="1" to-layer="898" to-port="0"/>
		<edge from-layer="897" from-port="2" to-layer="898" to-port="1"/>
		<edge from-layer="881" from-port="1" to-layer="899" to-port="0"/>
		<edge from-layer="898" from-port="2" to-layer="899" to-port="1"/>
		<edge from-layer="869" from-port="1" to-layer="900" to-port="0"/>
		<edge from-layer="899" from-port="2" to-layer="900" to-port="1"/>
		<edge from-layer="900" from-port="2" to-layer="902" to-port="0"/>
		<edge from-layer="901" from-port="1" to-layer="902" to-port="1"/>
		<edge from-layer="902" from-port="2" to-layer="904" to-port="0"/>
		<edge from-layer="903" from-port="1" to-layer="904" to-port="1"/>
		<edge from-layer="904" from-port="2" to-layer="905" to-port="0"/>
		<edge from-layer="905" from-port="1" to-layer="906" to-port="0"/>
		<edge from-layer="906" from-port="1" to-layer="908" to-port="0"/>
		<edge from-layer="907" from-port="1" to-layer="908" to-port="1"/>
		<edge from-layer="908" from-port="2" to-layer="910" to-port="0"/>
		<edge from-layer="909" from-port="1" to-layer="910" to-port="1"/>
		<edge from-layer="910" from-port="2" to-layer="912" to-port="0"/>
		<edge from-layer="911" from-port="1" to-layer="912" to-port="1"/>
		<edge from-layer="912" from-port="2" to-layer="914" to-port="0"/>
		<edge from-layer="913" from-port="1" to-layer="914" to-port="1"/>
		<edge from-layer="914" from-port="2" to-layer="916" to-port="0"/>
		<edge from-layer="915" from-port="1" to-layer="916" to-port="1"/>
		<edge from-layer="916" from-port="2" to-layer="918" to-port="0"/>
		<edge from-layer="917" from-port="1" to-layer="918" to-port="1"/>
		<edge from-layer="918" from-port="2" to-layer="920" to-port="0"/>
		<edge from-layer="919" from-port="1" to-layer="920" to-port="1"/>
		<edge from-layer="920" from-port="2" to-layer="922" to-port="0"/>
		<edge from-layer="921" from-port="1" to-layer="922" to-port="1"/>
		<edge from-layer="922" from-port="2" to-layer="923" to-port="0"/>
	</edges>
	<meta_data>
		<MO_version value="2020.2.0-37-gd17ecf5ae7"/>
		<cli_parameters>
			<blobs_as_inputs value="True"/>
			<caffe_parser_path value="DIR"/>
			<data_type value="FP32"/>
			<disable_nhwc_to_nchw value="False"/>
			<disable_omitting_optional value="False"/>
			<disable_resnet_optimization value="False"/>
			<disable_weights_compression value="False"/>
			<enable_concat_optimization value="False"/>
			<enable_flattening_nested_params value="False"/>
			<enable_ssd_gluoncv value="False"/>
			<extensions value="DIR"/>
			<framework value="onnx"/>
			<freeze_placeholder_with_value value="{}"/>
			<generate_deprecated_IR_V2 value="False"/>
			<generate_deprecated_IR_V7 value="False"/>
			<generate_experimental_IR_V10 value="True"/>
			<input value="data"/>
			<input_model value="DIR/person-reidentification-retail-0300.onnx"/>
			<input_model_is_text value="False"/>
			<input_shape value="[1,3,256,128]"/>
			<k value="DIR/CustomLayersMapping.xml"/>
			<keep_quantize_ops_in_IR value="True"/>
			<keep_shape_ops value="False"/>
			<legacy_mxnet_model value="False"/>
			<log_level value="ERROR"/>
			<mean_scale_values value="{'data': {'mean': array([123.675, 116.28 , 103.53 ]), 'scale': array([58.395, 57.12 , 57.375])}}"/>
			<mean_values value="data[123.675,116.28,103.53]"/>
			<model_name value="person-reidentification-retail-0300"/>
			<move_to_preprocess value="False"/>
			<output value="['reid_embedding']"/>
			<output_dir value="DIR"/>
			<placeholder_data_types value="{}"/>
			<placeholder_shapes value="{'data': array([  1,   3, 256, 128])}"/>
			<progress value="False"/>
			<remove_memory value="False"/>
			<remove_output_softmax value="False"/>
			<reverse_input_channels value="True"/>
			<save_params_from_nd value="False"/>
			<scale_values value="data[58.395,57.12,57.375]"/>
			<silent value="False"/>
			<stream_output value="False"/>
			<unset unset_cli_parameters="batch, counts, disable_fusing, disable_gfusing, finegrain_fusing, input_checkpoint, input_meta_graph, input_proto, input_symbol, mean_file, mean_file_offsets, nd_prefix_name, pretrained_model_name, saved_model_dir, saved_model_tags, scale, tensorboard_logdir, tensorflow_custom_layer_libraries, tensorflow_custom_operations_config_update, tensorflow_object_detection_api_pipeline_config, tensorflow_use_custom_operations_config, transformations_config"/>
		</cli_parameters>
	</meta_data>
</net>
